10by10recording/src/onelayerMLPparameter/1layermlp_03.npz (npz, 16516 bytes, 6 tensors)

mean f8 [100]
0.0 0.0 0.0 0.0 0.0 0.0 0.0 0.0
0.0 0.0 0.0 0.0618371335504886 0.00349185667752443 0.026775244299674268 0.0 0.025407166123778503
0.02569381107491857 0.028977198697068406 0.05050162866449511 0.025094462540716612 0.0 0.011465798045602606 0.01454071661237785 0.007348534201954397
0.0007817589576547231 0.025980456026058633 0.003231270358306189 0.0036221498371335507 0.0015765472312703583 0.0 0.0 0.0064364820846905535
0.01696416938110749 0.015087947882736156 0.0016938110749185667 0.00145928338762215 0.004768729641693811 0.005680781758957655 0.005758957654723127 0.005094462540716612
0.0 0.03434527687296417 0.01460586319218241 0.04990228013029316 0.039726384364820844 0.015009771986970684 0.03695114006514658 0.03283387622149837
0.004612377850162866 0.0030879478827361565 0.0 0.057381107491856674 0.012208469055374593 0.0431400651465798 0.04644951140065147 0.05034527687296417
0.0390228013029316 0.03585667752442997 0.03348534201954397 0.0058371335504886 0.0 0.0008078175895765473 0.004716612377850163 0.0582671009771987
0.04067752442996743 0.047726384364820844 0.014840390879478827 0.0038436482084690552 0.02788273615635179 0.005863192182410423 0.0 0.0023192182410423454
0.00039087947882736156 0.007869706840390879 0.001745928338762215 0.003309446254071661 0.013263843648208469 0.007778501628664495 7.817589576547231e-05 0.0
0.0 0.030058631921824105 0.00028664495114006516 0.02749185667752443 0.02558957654723127 0.0 0.02634527687296417 0.03203908794788274
0.0 0.050814332247557006 0.0 0.0561042345276873 0.025407166123778503 0.02806514657980456 0.03022801302931596 0.025550488599348536
0.02571986970684039 0.025407166123778503 0.0 0.2049771986970684
00000000: 0000 0000 0000 0000 0000 0000 0000 0000
00000010: 0000 0000 0000 0000 0000 0000 0000 0000
00000020: 0000 0000 0000 0000 0000 0000 0000 0000
00000030: 0000 0000 0000 0000 0000 0000 0000 0000
00000040: 0000 0000 0000 0000 0000 0000 0000 0000
00000050: 0000 0000 0000 0000 0233 8ee4 1da9 af3f
00000060: 67e4 6e47 f49a 6c3f c223 703a f86a 9b3f
00000070: 0000 0000 0000 0000 4ab9 570e 5604 9a3f
00000080: cc02 1b79 7a4f 9a3f 8635 efe2 32ac 9d3f
00000090: eb79 0477 59db a93f 8d3a b1df 5cb2 993f
000000a0: 0000 0000 0000 0000 a1f8 065d 617b 873f
000000b0: 6f0a 7cf2 85c7 8d3f 2b89 2221 7f19 7e3f
000000c0: de9a 0794 de9d 493f 4e4c dee3 9e9a 9a3f
000000d0: 2a42 6e10 7778 6a3f 8635 efe2 32ac 6d3f
000000e0: b144 21b3 84d4 593f 0000 0000 0000 0000
000000f0: 0000 0000 0000 0000 406d e100 245d 7a3f
00000100: 6b5b c822 0e5f 913f 02c6 c215 6ee6 8e3f
00000110: 1b3d 08cb 5bc0 5b3f 474c 3a9b ade8 573f
00000120: e332 ac1d 6088 733f ce4e ed3d bb44 773f
00000130: 8acd 936c b496 773f 4998 0c60 eedd 743f
00000140: 0000 0000 0000 0000 3e05 e241 b495 a13f
00000150: 9314 ecc5 ade9 8d3f cc95 4faa ca8c a93f
00000160: 083d 4543 0457 a43f a486 6f7e 71bd 8e3f
00000170: a56a 4284 42eb a23f a2fd 2411 9acf a03f
00000180: 6a35 5fc0 6de4 723f 221c 6165 e54b 693f
00000190: 0000 0000 0000 0000 03ec 2b78 0e61 ad3f
000001a0: a0d2 9dfa c000 893f 775b e761 7416 a63f
000001b0: 720f c3f8 3ac8 a73f 3cda 5a2b dbc6 a93f
000001c0: 75ee c9ee cbfa a33f db0c 9f72 ce5b a23f
000001d0: fb16 bda1 fd24 a13f 474c 3a9b ade8 773f
000001e0: 0000 0000 0000 0000 2a42 6e10 7778 4a3f
000001f0: 1089 92fe b951 733f e474 427a 2fd5 ad3f
00000200: 72c8 373a afd3 a43f 87a7 01b8 976f a83f
00000210: add2 e58b a364 8e3f 0659 49eb b67c 6f3f
00000220: f279 a8bf 4a8d 9c3f 3021 c7aa 0004 783f
00000230: 0000 0000 0000 0000 540a eccf c0ff 623f
00000240: de9a 0794 de9d 393f b495 112c fe1d 803f
00000250: 67e4 6e47 f49a 5c3f a23f bb6d 691c 6b3f
00000260: 17aa 81f5 122a 8b3f 3742 b6a1 59dc 7f3f
00000270: 18af 9fa9 4b7e 143f 0000 0000 0000 0000
00000280: 0000 0000 0000 0000 7c56 44a4 b0c7 9e3f
00000290: 8160 d2b0 1ac9 323f 875b 5845 d326 9c3f
000002a0: e22d 8e69 2734 9a3f 0000 0000 0000 0000
000002b0: 7f35 4b9a 41fa 9a3f e811 dc65 6d67 a03f
000002c0: 0000 0000 0000 0000 4ab9 570e 5604 aa3f
000002d0: 0000 0000 0000 0000 ee53 edb8 b1b9 ac3f
000002e0: 4ab9 570e 5604 9a3f 8bee de1a 1cbd 9c3f
000002f0: 7730 899d 17f4 9e3f 0b5e b943 e829 9a3f
00000300: 0638 fe3c 4f56 9a3f 4ab9 570e 5604 9a3f
00000310: 0000 0000 0000 0000 6b30 6a5e b13c ca3f

std f8 [100]
1e-08 1e-08 1e-08 1e-08 1e-08 1e-08 1e-08 1e-08
1e-08 1e-08 1e-08 0.2408595177315678 0.05898868361169858 0.16142593912029435 1e-08 0.15735833368628882
0.15822023357272588 0.1677424335329449 0.21897766677522001 0.1564120635331377 1e-08 0.10646283694336317 0.11970499808642612 0.08540804970959935
0.02794903163917035 0.15907694714261436 0.056752360173161195 0.06007521176986416 0.0396744568152727 1e-08 1e-08 0.0799690901689358
0.1291370935132561 0.1219028471754941 0.04112107612140723 0.03817269499354904 0.06889114774136058 0.07515658308288573 0.07566897366049627 0.0711934717232274
1e-08 0.18211447628291424 0.11996888910035125 0.21774307548790103 0.19531564877508037 0.12159145185291455 0.18864187521825299 0.1782016171583064
0.06775769458801512 0.05548345312143547 1e-08 0.23256938888476958 0.10981541119083761 0.2031723504545275 0.2104565477727768 0.21865642991377265
0.19364923484065608 0.18593272955546436 0.17990018756910595 0.07617783762983901 1e-08 0.028410659769375284 0.06851545311704428 0.2342478401306814
0.1975420648546952 0.21318672769204106 0.12091383748887202 0.06187791055359573 0.1646368502901443 0.07634668746433924 1e-08 0.04810239526094485
0.019766817836887426 0.08836162244930205 0.04174782518832827 0.05743252535117476 0.11440243173956934 0.08785213883632842 0.00884137778415866 1e-08
1e-08 0.17074868662383946 0.016928175459141034 0.16351164412424762 0.15790741995696883 1e-08 0.16015994025538213 0.17610391339603773
1e-08 0.21961839694861618 1e-08 0.23012291063297136 0.15735833368625984 0.1651590065071433 0.1712141456828559 0.15778993721885629
0.15829832966597254 0.15735833368630375 1e-08 0.403684969728292
00000000: 3a8c 30e2 8e79 453e 3a8c 30e2 8e79 453e
00000010: 3a8c 30e2 8e79 453e 3a8c 30e2 8e79 453e
00000020: 3a8c 30e2 8e79 453e 3a8c 30e2 8e79 453e
00000030: 3a8c 30e2 8e79 453e 3a8c 30e2 8e79 453e
00000040: 3a8c 30e2 8e79 453e 3a8c 30e2 8e79 453e
00000050: 3a8c 30e2 8e79 453e 7130 cb13 7cd4 ce3f
00000060: 3a86 e4c5 c333 ae3f 50b6 9fec 9aa9 c43f
00000070: 3a8c 30e2 8e79 453e e4c3 7760 5124 c43f
00000080: c952 6184 8f40 c43f 3775 1685 9578 c53f
00000090: 6c4e adce 7507 cc3f ca8f c97c 4f05 c43f
000000a0: 3a8c 30e2 8e79 453e 843f e902 2641 bb3f
000000b0: eaed f29b fca4 be3f 0760 514c 4ddd b53f
000000c0: 7363 61c3 ab9e 9c3f d134 c326 a25c c43f
000000d0: 9e3e d435 a50e ad3f 7c24 b49b 2dc2 ae3f
000000e0: 9f2d 04dd 3550 a43f 3a8c 30e2 8e79 453e
000000f0: 3a8c 30e2 8e79 453e 8e69 f7b2 da78 b43f
00000100: c982 ab74 9087 c03f dc74 e865 0635 bf3f
00000110: 6d4c 3c5a d20d a53f 62e8 3119 5f8b a33f
00000120: d575 88aa d9a2 b13f be8b 6b3a 763d b33f
00000130: 6e97 31b7 0a5f b33f 2e6e bd40 bc39 b23f
00000140: 3a8c 30e2 8e79 453e 4db3 e1f3 864f c73f
00000150: a434 39f7 47b6 be3f c753 134e 01df cb3f
00000160: 3568 f169 1a00 c93f f971 2e0d 9e20 bf3f
00000170: 1ef8 5bbe 6a25 c83f c405 e582 4fcf c63f
00000180: 4cd1 4e7a 9158 b13f a55d 40c1 5368 ac3f
00000190: 3a8c 30e2 8e79 453e 02c8 a76f d5c4 cd3f
000001a0: 2154 a9df dc1c bc3f afaa 5334 8d01 ca3f
000001b0: b5e1 f47a 3df0 ca3f 2c17 c513 effc cb3f
000001c0: 039d 4485 7fc9 c83f 842e 59c8 a4cc c73f
000001d0: 5fa8 1327 f806 c73f 12d7 4c09 6480 b33f
000001e0: 3a8c 30e2 8e79 453e 1edd 441a af17 9d3f
000001f0: 1588 688e 3a8a b13f 828c 424e d5fb cd3f
00000200: 1d4f 11f2 0e49 c93f 1c75 b0e3 b349 cb3f
00000210: 4c08 a691 35f4 be3f d452 5824 76ae af3f
00000220: 1037 dbff d112 c53f 9f38 d1dd 748b b33f
00000230: 3a8c 30e2 8e79 453e 7192 028d e0a0 a83f
00000240: ac26 9fb0 c03d 943f 1329 a406 de9e b63f
00000250: 7ada b98f f85f a53f 2750 38c4 cb67 ad3f
00000260: b181 e74e 7a49 bd3f dc88 2f4f 7a7d b63f
00000270: 5df1 79a3 6d1b 823f 3a8c 30e2 8e79 453e
00000280: 3a8c 30e2 8e79 453e 2832 71cc 17db c53f
00000290: 7c6e e99f 9e55 913f d6b0 0316 f3ed c43f
000002a0: ca65 4172 4f36 c43f 3a8c 30e2 8e79 453e
000002b0: df59 c3f4 1e80 c43f 8de6 5db2 928a c63f
000002c0: 3a8c 30e2 8e79 453e ac43 3fa4 741c cc3f
000002d0: 3a8c 30e2 8e79 453e fe4d 9de3 aa74 cd3f
000002e0: d0bf 7760 5124 c43f 9f44 cb29 ee23 c53f
000002f0: 5d04 295a 58ea c53f b916 ffed 7532 c43f
00000300: afa0 76a2 1e43 c43f fec5 7760 5124 c43f
00000310: 3a8c 30e2 8e79 453e 37aa b77b f9d5 d93f

W1 f8 [16, 100]
-0.008538450922607512 -0.0066575087207049865 -0.017797741747043103 -0.011142658998024874 -0.005767077697716298 -0.0021336834530073802 -0.02134387626046761 0.01035218323761908
-0.002823577190960731 0.001525522807015945 0.010025310746293805 0.27883359485409875 0.13288934685569015 -0.11931029973055267 -0.00971042203319395 -0.04148452931556282
0.10068208366738038 -0.16009070292059335 -0.02019893538382788 -0.01754844152342297 0.008243102193212634 -0.3706358064304842 -0.028679706640683023 -0.11995301343170493
-0.015738075773179306 0.13793754293946497 -0.08596106398408661 -0.020091506419654827 -0.025819246999948586 -0.0046191792733771865 0.009859497214660777 -0.030471029649111483
0.14728214323087357 0.1388376290217397 -0.016887037033671483 -0.017149377872654782 -0.013373044861142509 -0.026735124243124554 -0.019004996794429886 -0.039602096957380935
0.00566581378196149 -0.19521140292515296 -0.1820242484260186 0.013564048343375606 -0.05511981857851319 0.008980060031011714 -0.03469488424660313 -0.06460995803601309
-0.028749121651901372 -0.031010299935460922 -0.009253003772160944 0.23931730891593236 -0.06446934123100084 -0.07839645278540552 0.021479652539053797 -0.02152714051479777
0.002815151239987845 -0.030567386398522967 -0.11068040233123752 -0.02878191933089834 -0.0028490566557623008 -0.013300560579005976 -0.048545038342145436 -0.08055871685771986
-0.11762201421397865 -0.050988586849879336 -0.02834329522721681 -0.026032010547505684 -0.022925601554665536 -0.05494072515586142 -0.013437654451552483 -0.03398797396794781
-0.005272172803226176 -0.03277797244169812 -0.015450413029663037 -0.028002258903014172 -0.07472080794667099 -0.06218583951308125 -0.00936482095947929 -0.007782265026084475
0.014924036987766022 -0.1393199326863578 -0.010179796179034292 -0.11947684928292851 -0.039013372462204765 0.00746379104182323 0.0068219768672357385 -0.061691843168017235
-0.004254155522332088 -0.11961605155323748 -0.015276908537520558 0.08333727018082253 -0.01737794625146301 -0.04669019556828143 -0.11157315131482493 -0.11146760822751277
0.031655419380938195 -0.029112527037475102 0.023986883707529813 0.26642175772878457 0.003877587040944825 -0.011431771078981565 0.00327054027763777 -0.01757264670968341
-0.0049691167584175215 -0.022027457661021512 0.009071766572193725 5.110735761071339e-05 0.00858900843488894 0.00860930180827187 0.009073097617719699 -0.4505680471707559
1.2907949687661135 -0.0006826064718112403 -0.0011699175108376963 -0.20563091795337263 -0.944043292081164 1.331822607545217 -1.4380735685952106 -0.19465684442295816
0.0010192098274344286 -0.6988047324559966 1.4829773433405558 2.469590902647356 -0.06561425548639029 -0.331368404530499 0.4264875919772931 0.2378457729186851
-0.10033974390549169 0.015909103196710295 0.016781174900509333 0.96397138887949 0.3326938686179508 0.019467342148234573 -0.47275744677683035 -0.22124196828660342
0.23680178893578296 0.8229474347225594 0.5297151189742436 0.6893657063620853 0.006099931671225985 -0.5212544850412468 0.03294146543977779 0.6629374750140571
-0.1196374273217104 0.47980031500976056 -0.08745204494426705 -0.8372683914115348 -0.11517028685176528 -0.3795708378081804 0.0033580806953115647 0.6093700050268903
2.390344155688368 -0.15226360406989914 0.3052953831479375 0.5729100907422834 -0.10417248539315384 0.44227001123622983 0.7736032827999948 1.004644015701263
0.0030100394343063205 1.684961176330307 0.38471531463956615 -1.343026120751255 0.32295542913201936 0.14572519739360282 1.002102137523817 0.8269489855503873
-0.3151666504986959 0.0015501958556114667 0.007361626064380177 0.4120412747647096 -0.07550551247964196 0.8051836599663439 0.15241406888141382 2.1611028352587756
2.4833618412624068 -0.052026927582114975 0.6052066149404333 0.009619802187556451 0.0030493317226297162 0.7221126069515598 -0.1357514059703434 1.599930396320692
-0.8086646787810642 -0.020900586870978368 0.9914659255373112 1.2011092081674621 -0.009042102645183452 -0.31888583110665025 -0.003131258042009027 -0.2965412141744444
-0.43711718874712646 -1.6055893848546372 1.870281694097691 -0.7848543773474724 -0.972212507837361 -1.0677744610133293 0.004537761584309348 -0.5089018628837256
0.00641597825036076 0.0063279071251455665 0.000466136804553406 0.005970423682914496 0.006820429703646331 -0.0037789490846503984 -0.006027760562179434 0.003982614889746236
-0.005568359375274108 0.020462107033068926 0.012790656329742389 0.28077522820767375 -0.15830369234512218 -0.43845448812415516 -0.011801531682140515 -0.24280484948741424
-0.06322262080699115 -0.4673727078731735 -0.23194371842954703 -0.1354553856048728 0.009915421872616535 -0.4139167943524139 -0.1213054731689809 -0.060378693603496146
-0.049649143390854106 -0.11020544129770345 0.20004607718030556 -0.1900288721202837 0.05118368208442875 -0.013200093575405383 -0.008913234429770905 -0.39426047976519707
-0.32635826459504624 -0.12749137810949301 -0.04430790272488376 0.008863644128242644 -0.09000431653444661 -0.041732464969496126 -0.06470158965212948 -0.17794295171391342
0.0031790847252348244 0.30549877006472537 -0.03436041788998459 -0.4673754953346873 -0.25684001369553977 -0.12962751782000162 -0.2604308881580116 -0.08461126251260438
-0.09022723570424478 -0.10145438112664909 -0.009165586065570403 0.859271925914427 -0.11631531969336928 -0.2749332542995646 -0.42856459950007075 -0.28796173320999074
00000000: 3bd0 c47b 9b7c 81bf cef6 a663 e744 7bbf
00000010: e91c fc3a 9239 92bf aa5e e55f f6d1 86bf
00000020: d1d3 ae21 389f 77bf 4365 d294 a87a 61bf
00000030: fac8 084a 2bdb 95bf 310a 9583 8633 853f
00000040: 294d 2c76 7821 67bf d018 30a4 81fe 583f
00000050: 1bf1 4c6e 2688 843f 7c2a bbdc 68d8 d13f
00000060: d6b1 5da3 8402 c13f b32e 6bab 1e8b bebf
00000070: 44df 80c8 0ee3 83bf 248d 66d1 753d a5bf
00000080: 3600 a510 4dc6 b93f 4803 b826 da7d c4bf
00000090: fedb 8c9b 07af 94bf 2867 c1f9 37f8 91bf
000000a0: ab10 b372 c2e1 803f f01c d63e 7fb8 d7bf
000000b0: cd8a 5288 365e 9dbf 27ee be9d 3db5 bebf
000000c0: bdb8 fd62 a41d 90bf 8265 e8f9 efa7 c13f
000000d0: fd7f 8a56 8b01 b6bf 5ac9 ff2b de92 94bf
000000e0: d074 e355 5c70 9abf 04c3 9d7e 8feb 72bf
000000f0: 5c5b bc50 3731 843f 7405 462f cc33 9fbf
00000100: d20e 3b2a 24da c23f 7120 0d72 6ec5 c13f
00000110: aad2 24df d54a 91bf fa6e 7044 9b8f 91bf
00000120: 2ac5 9cb2 5363 8bbf ea67 1dd1 7360 9bbf
00000130: fa48 c5be 0b76 93bf e1e7 91de b946 a4bf
00000140: 6348 614e 0935 773f f555 afef affc c8bf
00000150: 20cc 0811 924c c7bf e30e 4ac0 77c7 8b3f
00000160: 2bf5 4f34 aa38 acbf 85ca 3141 2364 823f
00000170: 0bf7 5a22 87c3 a1bf 3fb7 c238 478a b0bf
00000180: 0573 22e5 6870 9dbf 4871 3f00 2ac1 9fbf
00000190: e9c4 ba24 3df3 82bf 7790 9417 f3a1 ce3f
000001a0: 4c8b 2e10 1081 b0bf 10f2 d538 ca11 b4bf
000001b0: 9a1c bd14 c3fe 953f e326 f3f1 350b 96bf
000001c0: b211 4ad0 cc0f 673f 8097 9f93 0e4d 9fbf
000001d0: 1e1f 5204 8d55 bcbf 5c22 f8e8 0179 9dbf
000001e0: 0f81 26a5 e756 67bf 0373 a405 533d 8bbf
000001f0: 940a 2030 e5da a8bf 07c7 4ffe 7e9f b4bf
00000200: 17b4 56f0 791c bebf 189e fa11 2d1b aabf
00000210: 6540 3f58 0606 9dbf db7a cda7 22a8 9abf
00000220: 0b75 ac13 cf79 97bf 4aa1 86d3 3021 acbf
00000230: a024 3c73 3385 8bbf fc9c 4c29 df66 a1bf
00000240: 45aa 4c1c 4698 75bf 0123 553f 46c8 a0bf
00000250: 5b73 6055 77a4 8fbf b26e cfc8 9fac 9cbf
00000260: 9e2e 7622 e720 b3bf 464a f785 d2d6 afbf
00000270: 2ce7 07fe dc2d 83bf 7cd4 69dc 4be0 7fbf
00000280: 4743 4b56 7e90 8e3f 5dcf 484d 3cd5 c1bf
00000290: 38e7 591d 25d9 84bf dc9e 4ce8 0896 bebf
000002a0: 78e6 a98d 8ff9 a3bf 5866 dc26 5a92 7e3f
000002b0: 041d 9f78 5cf1 7b3f 3056 acc1 1296 afbf
000002c0: eebe 722d ce6c 71bf 2670 7f55 289f bebf
000002d0: 5ecb 6bf4 7f49 8fbf abec f661 9755 b53f
000002e0: 5466 493b 86cb 91bf fbeb 04fe c6e7 a7bf
000002f0: d842 02dc 0e90 bcbf af87 e623 2489 bcbf
00000300: 41ef f69d 2335 a03f 9796 1e9e accf 9dbf
00000310: ac28 3a84 0490 983f 6bd4 18d8 0d0d d13f
00000320: 8e6f e7b0 e3c3 6f3f 184f 5b57 8a69 87bf
00000330: 52eb 0bf1 d1ca 6a3f e562 b05b 90fe 91bf
00000340: a381 7a1f 7f5a 74bf f78b 12a9 5d8e 96bf
00000350: e4c5 f4e5 3794 823f f0bf a96f 83cb 0a3f
00000360: f0cf a932 1d97 813f aad2 a9ed c0a1 813f
00000370: 4909 558c ea94 823f 9124 ce5c 1bd6 dcbf
00000380: 9c11 0ba0 18a7 f43f 54ce 793c 1e5e 46bf
00000390: 781b ad5c fd2a 53bf 30fe d329 1d52 cabf
000003a0: 95e5 2f47 9a35 eebf b2ae f738 254f f53f
000003b0: 2ebc 256e 5902 f7bf f89c 5ef6 83ea c8bf
000003c0: 2918 1a38 e0b2 503f 7b08 06be 9b5c e6bf
000003d0: d7b4 6573 46ba f73f c4f4 0ae0 b8c1 0340
000003e0: bd26 7789 18cc b0bf 5cb7 18d3 2335 d5bf
000003f0: 154e ec9c 924b db3f 6fbb 16f4 ba71 ce3f
00000400: 7627 908e ddaf b9bf d015 c1d7 794a 903f
00000410: 3d69 8b95 152f 913f 258c b086 dad8 ee3f
00000420: f0cd 5239 db4a d53f cb82 7737 3fef 933f
00000430: 6134 3673 a841 debf b295 2525 a851 ccbf
00000440: 9886 8e61 854f ce3f 50bc cedb 9555 ea3f
00000450: b31d 061f 6df3 e03f 1ce4 79ab 480f e63f
00000460: d56e 92f0 3dfc 783f bea7 c4e2 1dae e0bf
00000470: aa08 7e29 b4dd a03f 5a4d cfa6 c836 e53f
00000480: 3c6d b9f5 8ea0 bebf 71f4 6461 0cb5 de3f
00000490: cf02 01d9 4163 b6bf 45c9 e214 e7ca eabf
000004a0: 34d0 7fc7 cc7b bdbf 71b1 b97b e34a d8bf
000004b0: 702a 70d8 6782 6b3f 891f 5886 f57f e33f
000004c0: 21ee b6c1 6c1f 0340 b4f7 ecaf 5f7d c3bf
000004d0: 215f 8fa5 f589 d33f 012b e98a 4755 e23f
000004e0: 2119 e849 0cab babf d7b6 90e0 264e dc3f
000004f0: f288 f6ab 5bc1 e83f cff1 789a 0513 f03f
00000500: e3b0 c29d 82a8 683f cbe4 b5d9 99f5 fa3f
00000510: 256d a9fb 2c9f d83f 63ce 24f5 087d f5bf
00000520: c402 8c3f 4dab d43f 0d1c 818e 1fa7 c23f
00000530: f0a9 3e40 9c08 f03f fcc6 0cb8 5d76 ea3f
00000540: f9a1 2bbe b02b d4bf 5bcc 2420 fe65 593f
00000550: 7fff 1173 3927 7e3f 69dc ed5d e25e da3f
00000560: 5e8d c44a 5454 b3bf 6d87 da85 10c4 e93f
00000570: 23e2 a5e0 4d82 c33f a4d5 8548 f049 0140
00000580: ded9 22d0 ecdd 0340 99fd f300 46a3 aabf
00000590: adbe 4f43 da5d e33f 8ffc 50fe 8bb3 833f
000005a0: 7248 bf80 e9fa 683f 2c5c dce5 8b1b e73f
000005b0: 9caa 8354 4d60 c1bf d62d 819d 5099 f93f
000005c0: c570 99bf 94e0 e9bf b7ee 4fa4 f666 95bf
000005d0: f5fe a8bf 16ba ef3f 2e0f 004a be37 f33f
000005e0: fc62 2f79 aa84 82bf a4b1 f01d a068 d4bf
000005f0: 7231 585c b9a6 69bf 59e7 3200 88fa d2bf
00000600: 360e 8c5f baf9 dbbf 3816 ac7e 7eb0 f9bf
00000610: 1d50 677f acec fd3f 078e 5aed 861d e9bf
00000620: 358e bd67 5d1c efbf 82e6 58ac 9a15 f1bf
00000630: bb5f a019 3096 723f c4b0 3e8f ec48 e0bf
00000640: ed45 1d0c a447 7a3f ae58 79a2 4aeb 793f
00000650: 4aa6 bd54 7a8c 3e3f b5d1 6167 7174 783f
00000660: 4768 5928 bdef 7b3f 3917 6bd7 07f5 6ebf
00000670: df0d b9a7 90b0 78bf 56ad 430b 1350 703f
00000680: 7bfd 8b16 d9ce 76bf 1ba0 0ec2 04f4 943f
00000690: f381 0bd5 fc31 8a3f 0673 aba9 38f8 d13f
000006a0: 0fab ba9e 4b43 c4bf 4bc5 d169 a30f dcbf
000006b0: 90a4 f0c4 662b 88bf 21e8 edb3 3a14 cfbf
000006c0: 78c2 bb90 5b2f b0bf 6fed d637 6fe9 ddbf
000006d0: da71 95ee 54b0 cdbf 40b8 9e21 9a56 c1bf
000006e0: 8cf8 5965 894e 843f c68f c0dd 9c7d dabf
000006f0: 012a 1620 e00d bfbf d3ef cdc4 f4e9 aebf
00000700: 5cb9 46ce 9c6b a9bf a502 377e 6c36 bcbf
00000710: 4d5c 971f 1c9b c93f 8ab4 86b7 dd52 c8bf
00000720: 6870 4861 bf34 aa3f ae1d af91 a608 8bbf
00000730: 1003 0513 1a41 82bf 3a98 ac4e 903b d9bf
00000740: 30c3 4dc6 0de3 d4bf 7e49 c031 a351 c0bf
00000750: 56c1 5082 86af a6bf 21c5 3b2d 1a27 823f
00000760: dfa7 03dc 850a b7bf 616e 7328 f55d a5bf
00000770: 911b 8e8b 4890 b0bf 951d 15ab d5c6 c6bf
00000780: 9595 a21d 060b 6a3f a85b 99b6 4a8d d33f
00000790: a48f 3a4e b097 a1bf 9b83 dae8 7ae9 ddbf
000007a0: 2819 c818 1170 d0bf 8d6a d96e a297 c0bf
000007b0: f170 e050 e6aa d0bf 856a 5d6d 15a9 b5bf
000007c0: 2be7 8ed2 2119 b7bf 9291 f910 eaf8 b9bf
000007d0: 8acf 3323 68c5 82bf 7c8c 85d6 277f eb3f
000007e0: a057 1b3e d7c6 bdbf b42a f3a5 8198 d1bf
000007f0: 82df c436 9a6d dbbf 92ba a80c f76d d2bf

b1 f8 [16]
0.17553012677400723 1.1539183979820806 0.886410836354615 0.5139302912953039 0.32013081510724406 0.3404769119828018 0.33197368933845905 0.1987057103341763
0.08336588468247928 0.3537665667796396 0.29924436370823754 0.6489045325565362 0.16884436917081203 0.7072630972736039 0.6422925435838658 0.2792558861129246
00000000: 1782 fa6c c577 c63f 3a5f 5923 7376 f23f
00000010: 8cd1 1e42 7a5d ec3f ca2f 31f0 1d72 e03f
00000020: b6f4 54f5 057d d43f cd96 80ac 5fca d53f
00000030: 54d5 b592 0e3f d53f 51f5 b44f 306f c93f
00000040: 1738 5074 7757 b53f f226 af86 1ca4 d63f
00000050: cfe8 e8d4 d126 d33f c5ce 3170 d3c3 e43f
00000060: dce7 d939 b19c c53f 43a6 0e38 e6a1 e63f
00000070: 1409 a517 a98d e43f 4483 8414 54df d13f

W2 f8 [4, 16]
0.6466263774703217 -3.6713563421633517 2.4378799278378187 -3.0973292135326247 -0.5758025415083798 -1.3060530129562504 -1.1260965947418988 -0.2888102061140089
-0.4902801820524561 1.3321745792250652 -0.7407110527147487 -3.2899562828031126 -0.6624084277991318 -2.624848308478864 1.7508424814886592 -0.4433235373084681
0.12770100725171757 -3.1354136719018655 -0.3882552707813824 0.6902300963928167 1.4379737344602026 1.1479597475901842 0.5918748755018923 1.4555237399708232
1.017819554487066 0.11962094292825605 1.6284020509440176 2.8226169613616516 1.1913473748650931 1.6883035111071216 -0.5771037748078491 -0.9014469062654871
0.13220843852263478 5.298880689534755 -1.132299688899042 1.11999018238041 -2.123997632099193 0.24282100057967362 0.07981698528354207 -1.6715049319291668
-0.36772640698845593 0.03300075935131655 -0.47336385131247233 2.500437382315599 -0.31457768141622955 0.7196363428558946 0.2708513800204566 -2.203629397923679
-0.9002749202828886 1.497053938732548 -0.9136729687788918 1.251430014725698 1.2756848747387834 -0.09252820128995139 0.43555230658984423 0.49280693010617255
-0.17831305136178155 -1.4878337601442269 -0.37215544970444164 -2.0061673697476583 -0.21039003037692977 0.2449125547401425 -1.416532214535241 3.5327662379251747
00000000: 55e9 fecc 29b1 e43f 256e ec12 f05e 0dc0
00000010: 2e1b 0d31 c780 0340 508b e889 54c7 08c0
00000020: f86d 9773 f96c e2bf 6bd4 17d8 97e5 f4bf
00000030: d0da e8dc 7d04 f2bf 1baf 80cd dd7b d2bf
00000040: d1b3 f220 c060 dfbf f358 a54a 9650 f53f
00000050: 2c42 66aa e7b3 e7bf d445 7f99 d451 0ac0
00000060: dcbe bf28 7332 e5bf 6805 4f78 b0ff 04c0
00000070: 780f e767 7303 fc3f ac5c 92af 695f dcbf
00000080: 42fc e7b0 8158 c03f 90ff 61c3 5315 09c0
00000090: c35c a0a2 2cd9 d8bf 3e1b 576d 5d16 e63f
000000a0: 8937 20bf f001 f73f 5a63 500a 0b5e f23f
000000b0: b259 3394 a3f0 e23f e69e db42 d349 f73f
000000c0: 1305 3c28 fd48 f03f 9525 cb65 7a9f be3f
000000d0: bdb3 184f ef0d fa3f 2c77 9133 b894 0640
000000e0: 5489 d343 c20f f33f 3dd5 de8a 4a03 fb3f
000000f0: e054 e655 a277 e2bf 5cb3 af2e a7d8 ecbf
00000100: 69df dac3 34ec c03f b0d4 8bc7 0d32 1540
00000110: 4e7a 5147 e61d f2bf 94a3 52d3 7aeb f13f
00000120: 072e 7578 f2fd 00c0 e9c6 2230 c214 cf3f
00000130: c747 75cd e26e b43f ced0 9bf4 7bbe fabf
00000140: 3606 f956 d488 d7bf 946b 50bc 79e5 a03f
00000150: 25b9 1fe5 974b debf 47ee 7550 e500 0440
00000160: 58fd 6e6d 0a22 d4bf 1388 b2cb 4207 e73f
00000170: c4ea d006 a155 d13f e4b0 2473 08a1 01c0
00000180: b8c4 8059 0dcf ecbf bd44 b3d4 eef3 f73f
00000190: 50a0 0418 cf3c edbf bcac a77a db05 f43f
000001a0: 3314 108b 3469 f43f f57f 7f9e edaf b7bf
000001b0: 3a0c 20c8 16e0 db3f 3315 0314 268a df3f
000001c0: bc3f 064a f6d2 c6bf 4044 dbc5 2ace f7bf
000001d0: 5b8f 6017 65d1 d7bf c1f2 5a7a a10c 00c0
000001e0: 42ca ef7d 0fee cabf 708e 7e6a 4b59 cf3f
000001f0: 8f8c f2ae 1daa f6bf a369 02f2 1a43 0c40

b2 f8 [4]
-3.0510497508593546 -1.8775734678649836 3.7448778788360997 1.1837453398925253
00000000: 6d47 93c5 8c68 08c0 1e14 057a 8a0a febf
00000010: 50eb 8888 82f5 0d40 c217 1af4 9ef0 f23f
