10by10recording/src/onelayerMLPparameter/1layermlp.npz (npz, 16516 bytes, 6 tensors)

mean f8 [100]
0.0 0.0 0.0 0.0 0.0 0.0 0.0 0.0
0.0 0.0 0.0 0.0618371335504886 0.00349185667752443 0.026775244299674268 0.0 0.025407166123778503
0.02569381107491857 0.028977198697068406 0.05050162866449511 0.025094462540716612 0.0 0.011465798045602606 0.01454071661237785 0.007348534201954397
0.0007817589576547231 0.025980456026058633 0.003231270358306189 0.0036221498371335507 0.0015765472312703583 0.0 0.0 0.0064364820846905535
0.01696416938110749 0.015087947882736156 0.0016938110749185667 0.00145928338762215 0.004768729641693811 0.005680781758957655 0.005758957654723127 0.005094462540716612
0.0 0.03434527687296417 0.01460586319218241 0.04990228013029316 0.039726384364820844 0.015009771986970684 0.03695114006514658 0.03283387622149837
0.004612377850162866 0.0030879478827361565 0.0 0.057381107491856674 0.012208469055374593 0.0431400651465798 0.04644951140065147 0.05034527687296417
0.0390228013029316 0.03585667752442997 0.03348534201954397 0.0058371335504886 0.0 0.0008078175895765473 0.004716612377850163 0.0582671009771987
0.04067752442996743 0.047726384364820844 0.014840390879478827 0.0038436482084690552 0.02788273615635179 0.005863192182410423 0.0 0.0023192182410423454
0.00039087947882736156 0.007869706840390879 0.001745928338762215 0.003309446254071661 0.013263843648208469 0.007778501628664495 7.817589576547231e-05 0.0
0.0 0.030058631921824105 0.00028664495114006516 0.02749185667752443 0.02558957654723127 0.0 0.02634527687296417 0.03203908794788274
0.0 0.050814332247557006 0.0 0.0561042345276873 0.025407166123778503 0.02806514657980456 0.03022801302931596 0.025550488599348536
0.02571986970684039 0.025407166123778503 0.0 0.2049771986970684
00000000: 0000 0000 0000 0000 0000 0000 0000 0000
00000010: 0000 0000 0000 0000 0000 0000 0000 0000
00000020: 0000 0000 0000 0000 0000 0000 0000 0000
00000030: 0000 0000 0000 0000 0000 0000 0000 0000
00000040: 0000 0000 0000 0000 0000 0000 0000 0000
00000050: 0000 0000 0000 0000 0233 8ee4 1da9 af3f
00000060: 67e4 6e47 f49a 6c3f c223 703a f86a 9b3f
00000070: 0000 0000 0000 0000 4ab9 570e 5604 9a3f
00000080: cc02 1b79 7a4f 9a3f 8635 efe2 32ac 9d3f
00000090: eb79 0477 59db a93f 8d3a b1df 5cb2 993f
000000a0: 0000 0000 0000 0000 a1f8 065d 617b 873f
000000b0: 6f0a 7cf2 85c7 8d3f 2b89 2221 7f19 7e3f
000000c0: de9a 0794 de9d 493f 4e4c dee3 9e9a 9a3f
000000d0: 2a42 6e10 7778 6a3f 8635 efe2 32ac 6d3f
000000e0: b144 21b3 84d4 593f 0000 0000 0000 0000
000000f0: 0000 0000 0000 0000 406d e100 245d 7a3f
00000100: 6b5b c822 0e5f 913f 02c6 c215 6ee6 8e3f
00000110: 1b3d 08cb 5bc0 5b3f 474c 3a9b ade8 573f
00000120: e332 ac1d 6088 733f ce4e ed3d bb44 773f
00000130: 8acd 936c b496 773f 4998 0c60 eedd 743f
00000140: 0000 0000 0000 0000 3e05 e241 b495 a13f
00000150: 9314 ecc5 ade9 8d3f cc95 4faa ca8c a93f
00000160: 083d 4543 0457 a43f a486 6f7e 71bd 8e3f
00000170: a56a 4284 42eb a23f a2fd 2411 9acf a03f
00000180: 6a35 5fc0 6de4 723f 221c 6165 e54b 693f
00000190: 0000 0000 0000 0000 03ec 2b78 0e61 ad3f
000001a0: a0d2 9dfa c000 893f 775b e761 7416 a63f
000001b0: 720f c3f8 3ac8 a73f 3cda 5a2b dbc6 a93f
000001c0: 75ee c9ee cbfa a33f db0c 9f72 ce5b a23f
000001d0: fb16 bda1 fd24 a13f 474c 3a9b ade8 773f
000001e0: 0000 0000 0000 0000 2a42 6e10 7778 4a3f
000001f0: 1089 92fe b951 733f e474 427a 2fd5 ad3f
00000200: 72c8 373a afd3 a43f 87a7 01b8 976f a83f
00000210: add2 e58b a364 8e3f 0659 49eb b67c 6f3f
00000220: f279 a8bf 4a8d 9c3f 3021 c7aa 0004 783f
00000230: 0000 0000 0000 0000 540a eccf c0ff 623f
00000240: de9a 0794 de9d 393f b495 112c fe1d 803f
00000250: 67e4 6e47 f49a 5c3f a23f bb6d 691c 6b3f
00000260: 17aa 81f5 122a 8b3f 3742 b6a1 59dc 7f3f
00000270: 18af 9fa9 4b7e 143f 0000 0000 0000 0000
00000280: 0000 0000 0000 0000 7c56 44a4 b0c7 9e3f
00000290: 8160 d2b0 1ac9 323f 875b 5845 d326 9c3f
000002a0: e22d 8e69 2734 9a3f 0000 0000 0000 0000
000002b0: 7f35 4b9a 41fa 9a3f e811 dc65 6d67 a03f
000002c0: 0000 0000 0000 0000 4ab9 570e 5604 aa3f
000002d0: 0000 0000 0000 0000 ee53 edb8 b1b9 ac3f
000002e0: 4ab9 570e 5604 9a3f 8bee de1a 1cbd 9c3f
000002f0: 7730 899d 17f4 9e3f 0b5e b943 e829 9a3f
00000300: 0638 fe3c 4f56 9a3f 4ab9 570e 5604 9a3f
00000310: 0000 0000 0000 0000 6b30 6a5e b13c ca3f

std f8 [100]
1e-08 1e-08 1e-08 1e-08 1e-08 1e-08 1e-08 1e-08
1e-08 1e-08 1e-08 0.2408595177315678 0.05898868361169858 0.16142593912029435 1e-08 0.15735833368628882
0.15822023357272588 0.1677424335329449 0.21897766677522001 0.1564120635331377 1e-08 0.10646283694336317 0.11970499808642612 0.08540804970959935
0.02794903163917035 0.15907694714261436 0.056752360173161195 0.06007521176986416 0.0396744568152727 1e-08 1e-08 0.0799690901689358
0.1291370935132561 0.1219028471754941 0.04112107612140723 0.03817269499354904 0.06889114774136058 0.07515658308288573 0.07566897366049627 0.0711934717232274
1e-08 0.18211447628291424 0.11996888910035125 0.21774307548790103 0.19531564877508037 0.12159145185291455 0.18864187521825299 0.1782016171583064
0.06775769458801512 0.05548345312143547 1e-08 0.23256938888476958 0.10981541119083761 0.2031723504545275 0.2104565477727768 0.21865642991377265
0.19364923484065608 0.18593272955546436 0.17990018756910595 0.07617783762983901 1e-08 0.028410659769375284 0.06851545311704428 0.2342478401306814
0.1975420648546952 0.21318672769204106 0.12091383748887202 0.06187791055359573 0.1646368502901443 0.07634668746433924 1e-08 0.04810239526094485
0.019766817836887426 0.08836162244930205 0.04174782518832827 0.05743252535117476 0.11440243173956934 0.08785213883632842 0.00884137778415866 1e-08
1e-08 0.17074868662383946 0.016928175459141034 0.16351164412424762 0.15790741995696883 1e-08 0.16015994025538213 0.17610391339603773
1e-08 0.21961839694861618 1e-08 0.23012291063297136 0.15735833368625984 0.1651590065071433 0.1712141456828559 0.15778993721885629
0.15829832966597254 0.15735833368630375 1e-08 0.403684969728292
00000000: 3a8c 30e2 8e79 453e 3a8c 30e2 8e79 453e
00000010: 3a8c 30e2 8e79 453e 3a8c 30e2 8e79 453e
00000020: 3a8c 30e2 8e79 453e 3a8c 30e2 8e79 453e
00000030: 3a8c 30e2 8e79 453e 3a8c 30e2 8e79 453e
00000040: 3a8c 30e2 8e79 453e 3a8c 30e2 8e79 453e
00000050: 3a8c 30e2 8e79 453e 7130 cb13 7cd4 ce3f
00000060: 3a86 e4c5 c333 ae3f 50b6 9fec 9aa9 c43f
00000070: 3a8c 30e2 8e79 453e e4c3 7760 5124 c43f
00000080: c952 6184 8f40 c43f 3775 1685 9578 c53f
00000090: 6c4e adce 7507 cc3f ca8f c97c 4f05 c43f
000000a0: 3a8c 30e2 8e79 453e 843f e902 2641 bb3f
000000b0: eaed f29b fca4 be3f 0760 514c 4ddd b53f
000000c0: 7363 61c3 ab9e 9c3f d134 c326 a25c c43f
000000d0: 9e3e d435 a50e ad3f 7c24 b49b 2dc2 ae3f
000000e0: 9f2d 04dd 3550 a43f 3a8c 30e2 8e79 453e
000000f0: 3a8c 30e2 8e79 453e 8e69 f7b2 da78 b43f
00000100: c982 ab74 9087 c03f dc74 e865 0635 bf3f
00000110: 6d4c 3c5a d20d a53f 62e8 3119 5f8b a33f
00000120: d575 88aa d9a2 b13f be8b 6b3a 763d b33f
00000130: 6e97 31b7 0a5f b33f 2e6e bd40 bc39 b23f
00000140: 3a8c 30e2 8e79 453e 4db3 e1f3 864f c73f
00000150: a434 39f7 47b6 be3f c753 134e 01df cb3f
00000160: 3568 f169 1a00 c93f f971 2e0d 9e20 bf3f
00000170: 1ef8 5bbe 6a25 c83f c405 e582 4fcf c63f
00000180: 4cd1 4e7a 9158 b13f a55d 40c1 5368 ac3f
00000190: 3a8c 30e2 8e79 453e 02c8 a76f d5c4 cd3f
000001a0: 2154 a9df dc1c bc3f afaa 5334 8d01 ca3f
000001b0: b5e1 f47a 3df0 ca3f 2c17 c513 effc cb3f
000001c0: 039d 4485 7fc9 c83f 842e 59c8 a4cc c73f
000001d0: 5fa8 1327 f806 c73f 12d7 4c09 6480 b33f
000001e0: 3a8c 30e2 8e79 453e 1edd 441a af17 9d3f
000001f0: 1588 688e 3a8a b13f 828c 424e d5fb cd3f
00000200: 1d4f 11f2 0e49 c93f 1c75 b0e3 b349 cb3f
00000210: 4c08 a691 35f4 be3f d452 5824 76ae af3f
00000220: 1037 dbff d112 c53f 9f38 d1dd 748b b33f
00000230: 3a8c 30e2 8e79 453e 7192 028d e0a0 a83f
00000240: ac26 9fb0 c03d 943f 1329 a406 de9e b63f
00000250: 7ada b98f f85f a53f 2750 38c4 cb67 ad3f
00000260: b181 e74e 7a49 bd3f dc88 2f4f 7a7d b63f
00000270: 5df1 79a3 6d1b 823f 3a8c 30e2 8e79 453e
00000280: 3a8c 30e2 8e79 453e 2832 71cc 17db c53f
00000290: 7c6e e99f 9e55 913f d6b0 0316 f3ed c43f
000002a0: ca65 4172 4f36 c43f 3a8c 30e2 8e79 453e
000002b0: df59 c3f4 1e80 c43f 8de6 5db2 928a c63f
000002c0: 3a8c 30e2 8e79 453e ac43 3fa4 741c cc3f
000002d0: 3a8c 30e2 8e79 453e fe4d 9de3 aa74 cd3f
000002e0: d0bf 7760 5124 c43f 9f44 cb29 ee23 c53f
000002f0: 5d04 295a 58ea c53f b916 ffed 7532 c43f
00000300: afa0 76a2 1e43 c43f fec5 7760 5124 c43f
00000310: 3a8c 30e2 8e79 453e 37aa b77b f9d5 d93f

W1 f8 [16, 100]
0.012118319136504225 -0.013682442611281544 0.014092001907815769 -0.010701717879040515 -0.0011409928770028282 0.001900195076654194 0.00857702820331088 0.02007635217468075
0.00885935967791254 -0.00859945021671888 0.018014931863016958 0.23679343787802123 -0.012960357767140239 0.25047180520315176 -0.0010557131796995205 -0.011509813716766746
0.1035099776724579 0.07931520882107529 0.205995863551099 0.09444469825115422 -0.003296736721186136 -0.06379381596406185 -0.042019403896993955 -0.02438884636201891
-0.004491385391269826 0.0862309287495524 -0.0037999055684121265 -0.018762135669583242 -0.010298745974552265 -0.0008147575588956653 0.01877591663156759 -0.01917036988018554
-0.010986708183957016 -0.013159623780727743 -0.004994948037304732 -0.00017828664296335123 -0.021217244160497046 -0.022044889181073 -0.01843069670042448 0.001498778265725439
0.0032265189346215796 0.059155642081402074 -0.05723046769649077 -0.015873522427272673 -0.014787456188873742 -0.038364530896801786 0.1607061292874763 0.08029445966640333
-0.03817031049360706 -0.008204030690045366 -0.00024774775112590495 0.24269578918266374 -0.07257897839291139 -0.003385473156433873 -0.004640462008433991 -0.06664567556193765
0.1653585571939547 0.04842794088789709 0.07400841821181459 -0.027446082649683016 -0.0005512592068171998 -0.01459262718238989 -0.030980337641991956 -0.011320489457968323
-0.0075815352844823495 -0.03626523667064174 -0.06218557410286933 -0.017974072298695708 0.12432175067384696 -0.01615713971575568 0.004203113256798826 -0.007664605597535315
-0.01585608559047721 -0.0286785886744918 -0.0005867590742654229 -0.0009112889371537462 -0.028579393821466872 -0.025402634010158798 -0.012556701375247024 0.00539182350076899
0.0015371452799700057 0.04514609886115271 0.00776444743398829 0.128513315514635 0.12301188220999269 -0.0002783266359461941 -0.009491777313594043 0.13333238048546858
-0.00047218394923600804 -0.004932295240173747 0.0060779963265410655 0.2457169023976606 0.05811786269110152 0.1351618752678782 0.058529490058182816 0.12768386073378202
-0.002511662396939568 0.14439727868312294 0.004163564390633748 -0.007261212114585628 -0.003978192138973951 0.002601456159993138 0.009199655768431335 -0.003239584009036057
0.007786696883650278 0.0005548725314017045 0.0033008273802281303 -0.00466784792815863 0.004583043659405784 0.0031736572937682518 0.00747085585084328 0.15009148972769962
-0.00014316041021392962 -0.013629606109757116 0.013984367773162072 0.12299293925251112 -0.0004674051372145974 -0.005119397420372809 0.004155102941744449 -0.009255027927617919
0.006964616900759851 -0.03118882376564135 -0.006126641509533518 -0.01106422899843419 -0.007008917328724474 -0.006241929307226924 0.00904110063822486 0.00220713025815049
0.00929106440659219 -0.001140458652198481 0.0023341558646783264 -0.008414514740178807 -0.00558860523593942 -0.0015823952364662662 0.005255857310558637 0.005953039215726711
-0.006978687483954241 0.00018795877001547882 -0.0009233739027336426 -0.018270435020744734 -0.022995950676395645 0.048167946280413945 -0.03224383038385875 -0.006176340465326677
-0.00639793446597838 -0.02169332197219362 0.10201743111800472 -0.02445889136699038 -0.009175381267085496 0.003063799238665016 -0.008876292536053 0.13651011361749976
-0.017782391901017228 -0.0037691948304652894 0.0007558465629718016 -0.017708678522253312 0.09480514238497476 -0.03130780711709745 -0.0038790455042654196 -0.001459110718511331
-0.019859654617776636 0.007273734559960951 -0.013725079407467122 -0.0033422870951185287 -0.01948102776961262 -0.018955983719892152 -0.027280231411281358 -0.0028551245460342978
-0.007150313903890669 -0.009435323698109396 0.008075363075333462 -0.014662257999466943 0.012730737492257609 -0.0005090083555431304 0.013512396482453424 -0.0014020871569094208
-0.0004001586750453024 -0.004935967484383727 -0.004086705770972773 -0.009556186817801262 0.019279076407729318 0.03304453409290145 -0.0086486122714983 -0.010839547257301322
-5.2145923119457613e-05 -0.0029490726217272873 -0.010181523179960014 0.08322225969967358 0.0014912741140484548 -0.003601230664428862 0.02151166700331938 0.1341270665702678
0.04265029516001571 0.0034574703496582024 -0.019694529715945375 -0.013932294950112768 -0.0010810058170742523 0.07911126728579457 0.010423108895502653 -9.556375213589459e-05
-0.0011912213975417733 -0.008395085232075949 -0.0014839425113223074 -0.0060774030345606325 -0.011209142900497467 -0.0074169300817114835 -0.006872980433898457 -0.006116327709825255
-0.001236661931229718 -0.004458571134847943 -0.013862267564957216 -0.013128311736957006 0.006849108792689763 0.16910386965459206 -0.007052135672547253 0.08354398739900783
-0.01873148538713439 0.003642315704112837 -0.013428739841511312 -0.0007675315918285375 0.005271011976779794 0.0008731549371617371 -0.016830096517485682 -0.008147676844789302
-0.00781362343764067 0.016747842852582243 0.0019604894679712335 -0.004841210494807407 1.0477654256787147e-05 0.000130667372232067 -0.0009672367147307406 0.004912052762151029
-0.015772411898115027 -0.01078843694076888 -0.01141981228307528 -0.015328341304266737 -0.0017504408286529093 -0.0025778476507177525 -0.0027334012616296362 -0.0081456021816976
-0.008333508538859183 0.010914291026496398 -0.00976863598048455 0.05970632969484591 0.06962612471946918 -0.031659711373267264 0.12580619174347746 -0.027024246857448714
-0.001418501349252397 0.004250177895645139 -0.002320647023748027 -0.024129759396822093 -0.01414146127886028 0.05824248577160191 0.07123335324266693 0.058318783293508286
00000000: 977e fd42 7dd1 883f e1da 5b5c 8a05 8cbf
00000010: b547 a27a 44dc 8c3f 8577 6942 c8ea 85bf
00000020: 4f59 dec5 abb1 52bf 51bc 74ed fe21 5f3f
00000030: 8f6c 0a3d d590 813f c58c 0d30 e58e 943f
00000040: 0e1e a420 db24 823f 241b 8eab 969c 81bf
00000050: 03eb c39c 8172 923f 19f8 cb53 3f4f ce3f
00000060: 8cdc 08c6 f58a 8abf 47ba fae4 ba07 d03f
00000070: 8743 2b65 fb4b 51bf 45f7 f80b 7592 87bf
00000080: 9cb3 e940 a17f ba3f fc40 f663 004e b43f
00000090: 8818 888c 125e ca3f 91f0 441a 872d b83f
000000a0: 0721 d50c c201 6bbf 2fb0 40a1 ca54 b0bf
000000b0: 0bec 113b 9183 a5bf 2954 0cc6 63f9 98bf
000000c0: 1464 e815 8f65 72bf 800e e2ea 3a13 b63f
000000d0: da6f 9dc4 fa20 6fbf 7278 6a9c 6136 93bf
000000e0: 7d40 3449 8217 85bf 817e e988 aeb2 4abf
000000f0: d33e 8a6f fe39 933f 8b1f c0be 65a1 93bf
00000100: 99f0 b902 3380 86bf b18a 20ce 6ef3 8abf
00000110: 9574 7227 9575 74bf 54dc 079a 4e5e 27bf
00000120: d550 1f27 f9b9 95bf 0f7e 4e78 ef92 96bf
00000130: 9484 481e 7fdf 92bf 57e0 a7e8 548e 583f
00000140: 3163 bb29 806e 6a3f 1a1d 3af8 a549 ae3f
00000150: 61b3 2ed6 4f4d adbf 9b32 ca0e 2641 90bf
00000160: a928 c7c5 e248 8ebf 0d69 0e0b 84a4 a3bf
00000170: 083a c7b8 0492 c43f 9633 517e 2d8e b43f
00000180: 1c15 7f16 0f8b a3bf 36b0 125c 46cd 80bf
00000190: 1048 1e7d 843c 30bf 474e b5d6 a710 cf3f
000001a0: f01b 9332 8994 b2bf d1b8 a00f dabb 6bbf
000001b0: 446a 0889 e001 73bf 5656 f5e4 b00f b1bf
000001c0: 0a82 a11d 782a c53f b8fb a60c 8ccb a83f
000001d0: 0033 d937 37f2 b23f 11e9 886d d31a 9cbf
000001e0: f833 e821 4c10 42bf d7b3 1644 bde2 8dbf
000001f0: c82f f743 4fb9 9fbf e236 f95f 322f 87bf
00000200: faea 9ae1 d00d 7fbf a0d6 f66a 5b91 a2bf
00000210: d60f 1c9e c9d6 afbf 169c cb92 cb67 92bf
00000220: 0e5d 53dd 8cd3 bf3f 954c b44a 7f8b 90bf
00000230: 2f5b ab9f 4837 713f dde9 0ce6 eb64 7fbf
00000240: f7f6 36e4 933c 90bf 403c cf81 eb5d 9dbf
00000250: 20d0 6d84 173a 43bf bc03 5517 72dc 4dbf
00000260: 37f8 35a7 ea43 9dbf 103b 39e9 2503 9abf
00000270: 8cc2 04ee 53b7 89bf b52e a099 bc15 763f
00000280: f01c 3a2d 412f 593f dd1f 4db4 631d a73f
00000290: 77cf cefc 9ccd 7f3f 8931 9ed3 1f73 c03f
000002a0: a77f 1ceb b47d bf3f 04e9 8acc 8b3d 32bf
000002b0: ee74 24c9 6c70 83bf cc69 d712 0911 c13f
000002c0: d759 a29e eef1 3ebf c21f 03ec e233 74bf
000002d0: 96c9 29b7 3de5 783f 07aa efc5 a673 cf3f
000002e0: cfb5 24df 9fc1 ad3f 4e85 f8fc fb4c c13f
000002f0: 298b 4dcb 93f7 ad3f f80f 0adb f157 c03f
00000300: 0d73 4f7b 5693 64bf 11a7 c92a 9c7b c23f
00000310: 37ef 474e d00d 713f f7c1 fbc8 eebd 7dbf
00000320: 5243 25d2 6f4b 70bf 8efb 2124 a64f 653f
00000330: 196a 47e5 44d7 823f 68f4 e26b e689 6abf
00000340: 65a6 5887 f1e4 7f3f b9d6 1ab0 9b2e 423f
00000350: 7af3 ba34 560a 6b3f 5935 1be3 971e 73bf
00000360: 9af2 216a abc5 723f b660 2249 a4ff 693f
00000370: 7c0c d798 c299 7e3f f5e9 e4ab 3236 c33f
00000380: 25b5 558f aac3 22bf 647a fdc3 d6e9 8bbf
00000390: 5780 ed11 d6a3 8c3f b27b ba1b 777c bf3f
000003a0: 76eb 3fc7 c1a1 3ebf 7680 eec7 13f8 74bf
000003b0: 5ade f0f3 f004 713f cc75 2ed2 4cf4 82bf
000003c0: 5340 161d ee86 7c3f 9dea 4b88 f6ef 9fbf
000003d0: c427 afce 3f18 79bf 073d a1ad d7a8 86bf
000003e0: 27da 50eb 61b5 7cbf 27d4 d023 2391 79bf
000003f0: 51f8 7cfc 2384 823f 6349 db08 b014 623f
00000400: efb5 2b8e 3107 833f 26c2 4527 6eaf 52bf
00000410: f02b 4863 141f 633f 695a f70c a13b 81bf
00000420: 9371 7fcb 13e4 76bf 4cd9 8ef2 0bed 59bf
00000430: 6040 2e74 2a87 753f c4c4 e4cb 3662 783f
00000440: 778f 3328 af95 7cbf 4557 598a d9a2 283f
00000450: fd96 6b5b d241 4ebf b656 9723 7cb5 92bf
00000460: 6fd7 6120 408c 97bf 4acf fa13 78a9 a83f
00000470: f82d fe69 4382 a0bf 8aae ebc4 5c4c 79bf
00000480: 1679 b174 b834 7abf d80f a631 c636 96bf
00000490: 5515 467a d01d ba3f 5410 126a c00b 99bf
000004a0: 3c82 c3d3 8aca 82bf 8dab 02b1 4019 693f
000004b0: e773 37d1 bb2d 82bf 60bb c7d4 2979 c13f
000004c0: 545a a31e 8c35 92bf 8e64 ee10 93e0 6ebf
000004d0: 9ba8 6622 80c4 483f fb0e 6f4c 3922 92bf
000004e0: 323d 095a 2645 b83f 6ed5 5aaf 9307 a0bf
000004f0: e295 93b2 f2c6 6fbf b5cf 4d34 f4e7 57bf
00000500: 6771 5fdc 1656 94bf 0a88 e040 10cb 7d3f
00000510: b345 85f9 e41b 8cbf 0c5a 8eb8 4861 6bbf
00000520: 6cdd a6a4 d5f2 93bf dfd0 8f88 3269 93bf
00000530: e87e f456 59ef 9bbf d7a0 a351 a163 67bf
00000540: 1838 f9c5 a549 7dbf be36 afb5 d352 83bf
00000550: 9fbc 7ee2 d089 803f b3ec bef4 3e07 8ebf
00000560: 7c35 77a9 9212 8a3f 1704 c71e dfad 40bf
00000570: d29d dc27 63ac 8b3f e758 0b9f c7f8 56bf
00000580: 86f1 2a6c 8c39 3abf 7077 b6ae bc37 74bf
00000590: d6bd 27ba 38bd 70bf 4efa daae 3192 83bf
000005a0: 4552 acea e4bd 933f d42b 7b92 36eb a03f
000005b0: d21b e516 5db6 81bf 8fd7 c967 0b33 86bf
000005c0: 05d7 7c46 e856 0bbf 16d7 d74e a728 68bf
000005d0: feb1 a6e8 0cda 84bf c995 b5d3 0d4e b53f
000005e0: 8d3f 2663 db6e 583f 0efa bafd 5380 6dbf
000005f0: d7fa 0b89 2707 963f 5ebf 3662 132b c13f
00000600: 0d08 c16d 42d6 a53f 707a 8442 d752 6c3f
00000610: 300c 2984 cd2a 94bf da07 5af9 8888 8cbf
00000620: c443 6428 11b6 51bf 82d3 bcd1 a240 b43f
00000630: ed71 a1fe b558 853f d855 abc2 2c0d 19bf
00000640: 9193 763c 5884 53bf 66b4 2644 7131 81bf
00000650: 8799 8923 1b50 58bf 96e3 7274 9ee4 78bf
00000660: 84ff 63b1 d1f4 86bf dce4 3302 3761 7ebf
00000670: cdc5 08a3 d726 7cbf dcdc c337 6f0d 79bf
00000680: bef5 40a3 ef42 54bf 0c82 6093 2643 72bf
00000690: b719 b80e d263 8cbf a4d1 7e2c 04e3 8abf
000006a0: 9b71 57a4 cf0d 7c3f 0e92 e512 32a5 c53f
000006b0: fee9 4941 b3e2 7cbf 11fb a785 2363 b53f
000006c0: 95ae 92b4 582e 93bf 8f80 965a 7dd6 6d3f
000006d0: d7f6 90f3 8680 8bbf ae50 f38a 8526 49bf
000006e0: e7da e980 0e97 753f 7732 21f3 8d9c 4c3f
000006f0: 8045 86a8 e83b 91bf 29a8 b1ac baaf 80bf
00000700: f3fd 05c9 9600 80bf 4151 52b5 5826 913f
00000710: 0f56 c5c4 710f 603f c6d4 f88b 60d4 73bf
00000720: bf2a fdd5 25f9 e53e 34ba 472e 7820 213f
00000730: 6943 5407 c5b1 4fbf 97bf 831f a91e 743f
00000740: 3433 20a5 a426 90bf 693a af7e 3f18 86bf
00000750: 6c15 4242 4563 87bf bb7b d424 7764 8fbf
00000760: 619d 3587 e1ad 5cbf c22c 536b 231e 65bf
00000770: 8c42 d1a0 5b64 66bf ce1c d037 a4ae 80bf
00000780: 882b 1595 2811 81bf 2a83 2458 3b5a 863f
00000790: 1f6e 8020 9401 84bf 019f cefa d391 ae3f
000007a0: d109 9e88 04d3 b13f fde0 e5a1 b335 a0bf
000007b0: d215 96d3 6a1a c03f 959d ce81 3eac 9bbf
000007c0: 9036 e139 a03d 57bf c40d 0671 a268 713f
000007d0: 2164 52e2 bf02 63bf edf8 e0bd 78b5 98bf
000007e0: bace aecd 32f6 8cbf b9e8 4087 f5d1 ad3f
000007f0: 9bc9 8f5a 593c b23f 14ec f9a5 f5db ad3f

b1 f8 [16]
0.0004633795796700668 -0.00026875477579994464 -6.255427904170872e-05 0.06358531016391163 0.0008545126327464505 -0.003422388967651623 -0.00042533881135578517 -0.0007955230837108027
-6.846915652065528e-05 -0.005010405450513235 -0.00159785049710543 0.0031834971304304975 -0.0003436349784630866 -0.00020353456635569737 -0.007428475278092183 -0.00039469421034821764
00000000: 5cd3 eb23 385e 3e3f c02a 03f9 f49c 31bf
00000010: d8aa b154 f265 10bf ddf6 a87b 2047 b03f
00000020: 5ea2 e4e7 2b00 4c3f 7e91 1616 4509 6cbf
00000030: fb81 d448 00e0 3bbf cb24 5ad0 5411 4abf
00000040: e632 f426 e3f2 11bf 8262 cb78 ca85 74bf
00000050: 1bf7 40e8 de2d 5abf aacb fc01 4714 6a3f
00000060: 34dd 87fe 3c85 36bf 1891 b99c 7cad 2abf
00000070: e68a 0e26 526d 7ebf 6798 b1b9 dedd 39bf

W2 f8 [4, 16]
-0.3415291421337082 -0.1620745410654573 -0.2240138826897305 -0.13923648982926182 -0.19656640382246965 -0.4643134495912585 -0.31682554423523296 -0.773316775920787
-0.8759150961773929 -2.7940145554799654 2.1229073406666203 -0.35251725765806424 -1.5173201790241313 -0.356453994256692 -3.362352822587549 -0.20584061031561177
0.617094955944298 0.291302291011366 0.37603215621318226 -0.6135569773008723 0.33823249939957334 -0.45994277640813386 0.635003398439116 0.6810856445385859
1.7059994794240165 -1.318905938824736 0.22724888654572345 0.6499964045034229 0.5872410285526712 0.32202056045091004 5.051727243289333 0.39192099617100234
-0.13448035162914784 -0.037503913410837454 0.024995327342431088 0.5836143012237762 -0.03179795430331776 0.6825218620358645 -0.16994287715163228 0.993977023400138
-0.2306711434498126 4.188026374654102 -0.839095010135076 -0.192097302487446 1.7554829484077656 0.39266207409021775 0.012867868877333032 -0.12866254754573614
-0.1523288704996118 -0.06080440997424556 -0.20730538416504793 0.13889810357538676 -0.13487519626418443 0.25475948284756944 -0.11973322538688831 -0.8932617265144649
-0.6258217357621179 -0.08593035467516923 -1.4933465098799044 -0.14163977301680128 -0.8166532628865335 -0.3522732335622493 -1.6791262377092995 -0.05385576869005086
00000000: f617 060c 9ddb d5bf edf6 b1ca dbbe c4bf
00000010: c24d 00a6 7cac ccbf 7bfe 1c55 80d2 c1bf
00000020: 8675 f481 1629 c9bf f597 45c2 4fb7 ddbf
00000030: 47c6 c1a5 de46 d4bf e3e4 c0d2 02bf e8bf
00000040: 76f2 8418 7f07 ecbf e9ac a24d 245a 06c0
00000050: cdcf 04d8 b6fb 0040 fdaf 3a8b a48f d6bf
00000060: 1c83 2786 f146 f8bf ac1b f769 24d0 d6bf
00000070: b703 953c 19e6 0ac0 0543 bf30 fc58 cabf
00000080: 92d5 c9eb 3dbf e33f 3f32 495d b2a4 d23f
00000090: cf84 4b2d e910 d83f f1ac f73d 42a2 e3bf
000000a0: 7864 d7ec 99a5 d53f 7c14 add3 b36f ddbf
000000b0: b3a2 a4a5 f251 e43f 932f 221f 74cb e53f
000000c0: 25e8 311c c64b fb3f e709 1c1d 3d1a f5bf
000000d0: 0216 e2d3 7d16 cd3f 6383 7b42 c5cc e43f
000000e0: 9a19 90b2 adca e23f 13ae f11f fc9b d43f
000000f0: aef5 88fc f734 1440 7fe4 4acd 3b15 d93f
00000100: 9cd3 19f4 a636 c1bf dda3 2483 b633 a3bf
00000110: 0e48 f405 6098 993f 067d 27e6 f7ac e23f
00000120: bef9 9f4b d247 a0bf 51f8 8716 38d7 e53f
00000130: c9f6 c62d b0c0 c5bf 2154 0fe7 a8ce ef3f
00000140: 32ba 9fcc a186 cdbf 02b3 67fc 89c0 1040
00000150: c68a 58c7 ddd9 eabf daac eaf7 a496 c8bf
00000160: 598d c149 7516 fc3f 7b35 a61b 6021 d93f
00000170: b998 fa1f 785a 8a3f e0e8 f6ac 0378 c0bf
00000180: 6227 842e 837f c3bf e67b 9570 c121 afbf
00000190: 3b05 a39a fb88 cabf 2396 2abe 69c7 c13f
000001a0: 3c85 7f26 9743 c1bf 9846 cbb7 fa4d d03f
000001b0: 1d02 482f d6a6 bebf 6cbd c49d 9995 ecbf
000001c0: 0e2d 074e bb06 e4bf ab43 101f 88ff b5bf
000001d0: 987a 584f bfe4 f7bf 5fc3 7588 4021 c2bf
000001e0: 889e 0806 0622 eabf 67fc 5908 a58b d6bf
000001f0: 4812 4d79 b3dd fabf 160d 73ba fb92 abbf

b2 f8 [4]
2.025293297127041 -3.03836122113279 -1.8210140975829847 2.8340820215887064
00000000: cdbf dff8 cc33 0040 8399 f153 904e 08c0
00000010: 2ec8 aaad df22 fdbf 903d e731 33ac 0640
