10by10recording/src/onelayerMLPparameter/1layermlp(1).npz (npz, 16516 bytes, 6 tensors)

mean f8 [100]
0	0x0000000000000000	0.0
1	0x0000000000000000	0.0
2	0x0000000000000000	0.0
3	0x0000000000000000	0.0
4	0x0000000000000000	0.0
5	0x0000000000000000	0.0
6	0x0000000000000000	0.0
7	0x0000000000000000	0.0
8	0x0000000000000000	0.0
9	0x0000000000000000	0.0
10	0x0000000000000000	0.0
11	0x3fafa91de48e3302	0.0618371335504886
12	0x3f6c9af4476ee467	0.00349185667752443
13	0x3f9b6af83a7023c2	0.026775244299674268
14	0x0000000000000000	0.0
15	0x3f9a04560e57b94a	0.025407166123778503
16	0x3f9a4f7a791b02cc	0.02569381107491857
17	0x3f9dac32e2ef3586	0.028977198697068406
18	0x3fa9db59770479eb	0.05050162866449511
19	0x3f99b25cdfb13a8d	0.025094462540716612
20	0x0000000000000000	0.0
21	0x3f877b615d06f8a1	0.011465798045602606
22	0x3f8dc785f27c0a6f	0.01454071661237785
23	0x3f7e197f2122892b	0.007348534201954397
24	0x3f499dde94079ade	0.0007817589576547231
25	0x3f9a9a9ee3de4c4e	0.025980456026058633
26	0x3f6a7877106e422a	0.003231270358306189
27	0x3f6dac32e2ef3586	0.0036221498371335507
28	0x3f59d484b32144b1	0.0015765472312703583
29	0x0000000000000000	0.0
30	0x0000000000000000	0.0
31	0x3f7a5d2400e16d40	0.0064364820846905535
32	0x3f915f0e22c85b6b	0.01696416938110749
33	0x3f8ee66e15c2c602	0.015087947882736156
34	0x3f5bc05bcb083d1b	0.0016938110749185667
35	0x3f57e8ad9b3a4c47	0.00145928338762215
36	0x3f7388601dac32e3	0.004768729641693811
37	0x3f7744bb3ded4ece	0.005680781758957655
38	0x3f7796b46c93cd8a	0.005758957654723127
39	0x3f74ddee600c9849	0.005094462540716612
40	0x0000000000000000	0.0
41	0x3fa195b441e2053e	0.03434527687296417
42	0x3f8de9adc5ec1493	0.01460586319218241
43	0x3fa98ccaaa4f95cc	0.04990228013029316
44	0x3fa4570443453d08	0.039726384364820844
45	0x3f8ebd717e6f86a4	0.015009771986970684
46	0x3fa2eb4284426aa5	0.03695114006514658
47	0x3fa0cf9a1124fda2	0.03283387622149837
48	0x3f72e46dc05f356a	0.004612377850162866
49	0x3f694be565611c22	0.0030879478827361565
50	0x0000000000000000	0.0
51	0x3fad610e782bec03	0.057381107491856674
52	0x3f8900c0fa9dd2a0	0.012208469055374593
53	0x3fa6167461e75b77	0.0431400651465798
54	0x3fa7c83af8c30f72	0.04644951140065147
55	0x3fa9c6db2b5ada3c	0.05034527687296417
56	0x3fa3facbeec9ee75	0.0390228013029316
57	0x3fa25bce729f0cdb	0.03585667752442997
58	0x3fa124fda1bd16fb	0.03348534201954397
59	0x3f77e8ad9b3a4c47	0.0058371335504886
60	0x0000000000000000	0.0
61	0x3f4a7877106e422a	0.0008078175895765473
62	0x3f7351b9fe928910	0.004716612377850163
63	0x3fadd52f7a4274e4	0.0582671009771987
64	0x3fa4d3af3a37c872	0.04067752442996743
65	0x3fa86f97b801a787	0.047726384364820844
66	0x3f8e64a38be5d2ad	0.014840390879478827
67	0x3f6f7cb6eb495906	0.0038436482084690552
68	0x3f9c8d4abfa879f2	0.02788273615635179
69	0x3f780400aac72130	0.005863192182410423
70	0x0000000000000000	0.0
71	0x3f62ffc0cfec0a54	0.0023192182410423454
72	0x3f399dde94079ade	0.00039087947882736156
73	0x3f801dfe2c1195b4	0.007869706840390879
74	0x3f5c9af4476ee467	0.001745928338762215
75	0x3f6b1c696dbb3fa2	0.003309446254071661
76	0x3f8b2a12f581aa17	0.013263843648208469
77	0x3f7fdc59a1b64237	0.007778501628664495
78	0x3f147e4ba99faf18	7.817589576547231e-05
79	0x0000000000000000	0.0
80	0x0000000000000000	0.0
81	0x3f9ec7b0a444567c	0.030058631921824105
82	0x3f32c91ab0d26081	0.00028664495114006516
83	0x3f9c26d345585b87	0.02749185667752443
84	0x3f9a3427698e2de2	0.02558957654723127
85	0x0000000000000000	0.0
86	0x3f9afa419a4b357f	0.02634527687296417
87	0x3fa0676d65dc11e8	0.03203908794788274
88	0x0000000000000000	0.0
89	0x3faa04560e57b94a	0.050814332247557006
90	0x0000000000000000	0.0
91	0x3facb9b1b8ed53ee	0.0561042345276873
92	0x3f9a04560e57b94a	0.025407166123778503
93	0x3f9cbd1c1adeee8b	0.02806514657980456
94	0x3f9ef4179d893077	0.03022801302931596
95	0x3f9a29e843b95e0b	0.025550488599348536
96	0x3f9a564f3cfe3806	0.02571986970684039
97	0x3f9a04560e57b94a	0.025407166123778503
98	0x0000000000000000	0.0
99	0x3fca3cb15e6a306b	0.2049771986970684

std f8 [100]
0	0x3e45798ee2308c3a	1e-08
1	0x3e45798ee2308c3a	1e-08
2	0x3e45798ee2308c3a	1e-08
3	0x3e45798ee2308c3a	1e-08
4	0x3e45798ee2308c3a	1e-08
5	0x3e45798ee2308c3a	1e-08
6	0x3e45798ee2308c3a	1e-08
7	0x3e45798ee2308c3a	1e-08
8	0x3e45798ee2308c3a	1e-08
9	0x3e45798ee2308c3a	1e-08
10	0x3e45798ee2308c3a	1e-08
11	0x3fced47c13cb3071	0.2408595177315678
12	0x3fae33c3c5e4863a	0.05898868361169858
13	0x3fc4a99aec9fb650	0.16142593912029435
14	0x3e45798ee2308c3a	1e-08
15	0x3fc424516077c3e4	0.15735833368628882
16	0x3fc4408f846152c9	0.15822023357272588
17	0x3fc5789585167537	0.1677424335329449
18	0x3fcc0775cead4e6c	0.21897766677522001
19	0x3fc4054f7cc98fca	0.1564120635331377
20	0x3e45798ee2308c3a	1e-08
21	0x3fbb412602e93f84	0.10646283694336317
22	0x3fbea4fc9bf2edea	0.11970499808642612
23	0x3fb5dd4d4c516007	0.08540804970959935
24	0x3f9c9eabc3616373	0.02794903163917035
25	0x3fc45ca226c334d1	0.15907694714261436
26	0x3fad0ea535d43e9e	0.056752360173161195
27	0x3faec22d9bb4247c	0.06007521176986416
28	0x3fa45035dd042d9f	0.0396744568152727
29	0x3e45798ee2308c3a	1e-08
30	0x3e45798ee2308c3a	1e-08
31	0x3fb478dab2f7698e	0.0799690901689358
32	0x3fc0879074ab82c9	0.1291370935132561
33	0x3fbf350665e874dc	0.1219028471754941
34	0x3fa50dd25a3c4c6d	0.04112107612140723
35	0x3fa38b5f1931e862	0.03817269499354904
36	0x3fb1a2d9aa8875d5	0.06889114774136058
37	0x3fb33d763a6b8bbe	0.07515658308288573
38	0x3fb35f0ab731976e	0.07566897366049627
39	0x3fb239bc40bd6e2e	0.0711934717232274
40	0x3e45798ee2308c3a	1e-08
41	0x3fc74f86f3e1b34d	0.18211447628291424
42	0x3fbeb647f73934a4	0.11996888910035125
43	0x3fcbdf014e1353c7	0.21774307548790103
44	0x3fc9001a69f16835	0.19531564877508037
45	0x3fbf209e0d2e71f9	0.12159145185291455
46	0x3fc8256abe5bf81e	0.18864187521825299
47	0x3fc6cf4f82e505c4	0.1782016171583064
48	0x3fb158917a4ed14c	0.06775769458801512
49	0x3fac6853c1405da5	0.05548345312143547
50	0x3e45798ee2308c3a	1e-08
51	0x3fcdc4d56fa7c802	0.23256938888476958
52	0x3fbc1cdcdfa95421	0.10981541119083761
53	0x3fca018d3453aaaf	0.2031723504545275
54	0x3fcaf03d7af4e1b5	0.2104565477727768
55	0x3fcbfcef13c5172c	0.21865642991377265
56	0x3fc8c97f85449d03	0.19364923484065608
57	0x3fc7cca4c8592e84	0.18593272955546436
58	0x3fc706f82713a85f	0.17990018756910595
59	0x3fb38064094cd712	0.07617783762983901
60	0x3e45798ee2308c3a	1e-08
61	0x3f9d17af1a44dd1e	0.028410659769375284
62	0x3fb18a3a8e688815	0.06851545311704428
63	0x3fcdfbd54e428c82	0.2342478401306814
64	0x3fc9490ef2114f1d	0.1975420648546952
65	0x3fcb49b3e3b0751c	0.21318672769204106
66	0x3fbef43591a6084c	0.12091383748887202
67	0x3fafae76245852d4	0.06187791055359573
68	0x3fc512d1ffdb3710	0.1646368502901443
69	0x3fb38b74ddd1389f	0.07634668746433924
70	0x3e45798ee2308c3a	1e-08
71	0x3fa8a0e08d029271	0.04810239526094485
72	0x3f943dc0b09f26ac	0.019766817836887426
73	0x3fb69ede06a42913	0.08836162244930205
74	0x3fa55ff88fb9da7a	0.04174782518832827
75	0x3fad67cbc4385027	0.05743252535117476
76	0x3fbd497a4ee781b1	0.11440243173956934
77	0x3fb67d7a4f2f88dc	0.08785213883632842
78	0x3f821b6da379f15d	0.00884137778415866
79	0x3e45798ee2308c3a	1e-08
80	0x3e45798ee2308c3a	1e-08
81	0x3fc5db17cc713228	0.17074868662383946
82	0x3f91559e9fe96e7c	0.016928175459141034
83	0x3fc4edf31603b0d6	0.16351164412424762
84	0x3fc4364f724165ca	0.15790741995696883
85	0x3e45798ee2308c3a	1e-08
86	0x3fc4801ef4c359df	0.16015994025538213
87	0x3fc68a92b25de68d	0.17610391339603773
88	0x3e45798ee2308c3a	1e-08
89	0x3fcc1c74a43f43ac	0.21961839694861618
90	0x3e45798ee2308c3a	1e-08
91	0x3fcd74aae39d4dfe	0.23012291063297136
92	0x3fc424516077bfd0	0.15735833368625984
93	0x3fc523ee29cb449f	0.1651590065071433
94	0x3fc5ea585a29045d	0.1712141456828559
95	0x3fc43275edff16b9	0.15778993721885629
96	0x3fc4431ea276a0af	0.15829832966597254
97	0x3fc424516077c5fe	0.15735833368630375
98	0x3e45798ee2308c3a	1e-08
99	0x3fd9d5f97bb7aa37	0.403684969728292

W1 f8 [16, 100]
0	0xbf5a6966ec0d2e73	-0.0016120438669585929
1	0xbf8dba9f1ec09789	-0.014516108633028118
2	0x3f791a0cb58ec85b	0.006128358502723054
3	0x3f8550124fa09ba7	0.010406630568537368
4	0x3f82609bf062c66c	0.00897332980489126
5	0x3f8f5770f537dfc8	0.01530349968287216
6	0xbf88c0c90fcb688a	-0.012086458963882291
7	0xbf7f97719ecd020a	-0.00771278746543703
8	0xbf9089724c23078b	-0.01614931668951373
9	0x3f6311e5f7d321b5	0.0023278705180908806
10	0x3f76d63e86a5aede	0.005575412981084075
11	0x3fe8c6e652350a17	0.7742797475442015
12	0xbf9bf9af9766219f	-0.027319663634928323
13	0x3feacc9d993116ec	0.8374774925257191
14	0x3f86c1a5ed7dc8c0	0.011111542043839129
15	0x3fe77f59031d34cb	0.7342953739950188
16	0xbf90c3690077d101	-0.01637043061596533
17	0x3fd16b74571bcb0c	0.27218349940010067
18	0x3fe36d16945efe1f	0.6070664308426251
19	0x3fd1e857c8dba98e	0.27980608573002363
20	0x3f847cfe24033100	0.010004029726041086
21	0xbfd15c294d672aee	-0.2712500816239033
22	0xbfc067c2ca11d3d4	-0.12816653124505584
23	0xbfbd13bf034aed2c	-0.11358255224597674
24	0x3f7ece7ed38b800a	0.0075211481241410725
25	0x3f8d658f5b67a2bc	0.014353866555170007
26	0xbf9369ed50ed24a7	-0.018958766998626555
27	0xbf951e90d32606d0	-0.020624411475643367
28	0xbf78f620008b2eae	-0.0060940980990370885
29	0x3f7b1011538b40ed	0.0066071202097221894
30	0x3f89933f2531fcd6	0.012487881968125707
31	0xbfb1a2ca00a5c512	-0.06889021411713639
32	0xbfa33fa150624ee0	-0.037594834387304266
33	0xbfb12c4f01650d46	-0.06708234581042402
34	0xbf71b7a266229748	-0.004325518008192315
35	0xbf9ca67e306d5bb3	-0.027978870111237075
36	0xbfaf01fd9b847844	-0.060562062486710505
37	0xbfa5a4423bbb9d64	-0.04226881961022391
38	0xbf9437e8f6a6641a	-0.01974452977592387
39	0xbf9bb36542067d29	-0.02705152717100848
40	0xbf8347553a98c28f	-0.009413400507669393
41	0x3fc0876e47ce3e7f	0.12913301950583286
42	0xbfc7a238245a99f0	-0.18463804030507402
43	0xbfa308d4649ddb8c	-0.0371767399619137
44	0xbf980a9f9e275e17	-0.023478025463047638
45	0xbfc2a768bd321117	-0.14573392141404248
46	0x3fddd9d2cfd45c22	0.46641989036419507
47	0xbfc2171b718bf9ce	-0.14133017582203283
48	0xbf813a7f3df7b004	-0.008412355497931408
49	0x3f750bb33d4f704b	0.0051381112616262865
50	0x3f8c45c22aef0836	0.013804928717835546
51	0x3fe70117e03155ba	0.7188834551586105
52	0xbfca0ad655d8db2e	-0.20345572654488236
53	0xbf984c729bc43ba5	-0.023729124791369256
54	0xbf929a4cb8360054	-0.01816673158964506
55	0xbfc8c324cbb39635	-0.19345531412470654
56	0x3fd91c136431cf2b	0.3923386076414654
57	0xbfc9233d90c3baec	-0.19638795441229406
58	0xbf99f03dd33a7ee3	-0.02533051110969965
59	0xbf9c487b35d4f42b	-0.027620244179377956
60	0x3f9027bac51fbaf5	0.015776556283465266
61	0xbf9cce9e2071bd37	-0.02813193390869381
62	0xbfb7fd8da69d6a5a	-0.09371266668078118
63	0xbf922986f8d69492	-0.01773653882778043
64	0xbf9dd8f52d8a00d7	-0.029147940544590547
65	0xbfbb87f52f3bfdc4	-0.10754330065900947
66	0xbfced338ce56c04b	-0.24082098078861444
67	0xbfa6cb9ba526aeef	-0.04452215567593309
68	0xbf969bf8b70a3d95	-0.02207935921847833
69	0xbf80b06e2073434a	-0.008149013867667105
70	0xbf91503c035d8233	-0.016907632546806006
71	0xbfa333c5dd70dbe5	-0.037504370957712564
72	0xbf8e303a47ba0ea8	-0.014740424455573845
73	0xbfb751397e6af2f6	-0.0910831388127454
74	0xbf755025ab3612dc	-0.005203387397504779
75	0xbf1eba4cd89aeedb	-0.00011721700698335716
76	0xbfb8bbe7a3e34936	-0.09661720038574093
77	0xbfb14f7136acb089	-0.06761844239071214
78	0xbf6aab8021292f72	-0.0032556059389089948
79	0x3f9f780dba4a5e72	0.030731405730504986
80	0xbf8670f77d4ac90a	-0.010957654486763353
81	0x3fb34a98e624fdf6	0.07535701388132296
82	0xbf8a350713e88384	-0.01279645471100977
83	0x3fdb896b8b4e3111	0.43026245693251136
84	0x3fd840d772c66220	0.3789576168869946
85	0xbf3a0900143b10ca	-0.00039726497582771565
86	0xbf85181479f6f4f2	-0.010299835178438663
87	0x3fd878540d7aeed7	0.38234425846506553
88	0xbf8ac08309dde29b	-0.013062499750718095
89	0x3fe84ee9716c7c7f	0.759632798701105
90	0x3f7551f0c7b91425	0.005205097720652173
91	0x3fe70d1a4c87d7e0	0.7203494543780344
92	0x3fc9aac7070ecdd4	0.20052421421642797
93	0x3fd9507a4bd7ceb7	0.3955369702009465
94	0x3fc52cfed18cf0c1	0.16543565017662412
95	0x3fd90b6fe110fb9e	0.3913230607903929
96	0xbf83e1246996b0ef	-0.0097067684863181
97	0x3fe07aa2514de1db	0.5149699771855539
98	0xbf8eefbbf839f368	-0.01510569430615201
99	0x3fc6f845d0509293	0.1794516818200874
100	0x3f8681c7e065015b	0.010989724669912595
101	0x3f5c859e0be8bcbe	0.0017408412383124595
102	0x3f6bfc773d716c56	0.0034162835031970413
103	0xbf897b120a3f332d	-0.012441769540509984
104	0x3f64ac43269ca305	0.002523547319374211
105	0x3f8d268b5f0336d1	0.014233673893979145
106	0xbf7b2b44d85113ed	-0.006633061338168195
107	0x3f96f9b158956f0c	0.022436877280923403
108	0x3f68272245399c85	0.0029483479827834857
109	0x3f8a75fb7e935f00	0.012920346069605682
110	0xbf81a14a1a044a56	-0.008608416480034336
111	0x3fe368e1bf7c9a8e	0.6065529575324307
112	0xbf98ee675d524b65	-0.024346938200845786
113	0x3fe269df5f7a482e	0.5754238953397868
114	0x3f857ee62105ca00	0.010495946772356213
115	0x3fddd2d6835ca506	0.4659935267287242
116	0xbf8ffab5463568e5	-0.015614906506631285
117	0x3fcf144bccca8bd9	0.24280688762254846
118	0x3fdd29306259e02b	0.4556389770946249
119	0x3fc8ef7fac32735c	0.19480892093715851
120	0x3f1590ffcbba3a8a	8.22692990658324e-05
121	0xbfc5634971c36efa	-0.16709249548772914
122	0xbfb1ddaa847994c1	-0.06978860601664662
123	0xbfa2d136dcecf46b	-0.036752428501565536
124	0xbf797b6f97760079	-0.006221233277187926
125	0x3f7fb948fa8db910	0.007745060990471467
126	0x3f8227967c2eff47	0.008864570297987163
127	0xbf7c38a931f0fb91	-0.006889973562521316
128	0xbf805e555610b68e	-0.007992426575664593
129	0x3f81371f5f9bb0b1	0.008405919175367012
130	0x3f80cb6ca13e3ec6	0.00820050112795857
131	0xbf957ae441d2be9c	-0.020976606862574174
132	0xbfa868236eb9a8a4	-0.047669513002646796
133	0xbfbb14618729ec4a	-0.10577973890205886
134	0xbfa1c50ee49c514a	-0.03470655956894804
135	0xbf8b61c9efd27832	-0.013370111113825887
136	0xbf84b259094f2a89	-0.010105796429248375
137	0xbfa9d7bf1370652f	-0.050474139330797356
138	0xbfa7f569fb570a9a	-0.04679423516383459
139	0xbf84490d6abebf44	-0.009904961414434539
140	0xbf97bc76f055abb3	-0.023179872912276255
141	0x3fc2bc5028630cb2	0.1463718602372857
142	0xbfc41f5e5160968e	-0.15720728848934978
143	0x3fcdbac377f9f4d9	0.2322620712110737
144	0x3fcdca7877641269	0.23274141149171904
145	0xbfc1700c2362320c	-0.13623191573823623
146	0x3fdb3fd3b48b9342	0.4257706893097756
147	0x3fce10ece923060e	0.23489152320512158
148	0xbfb497158298f6fa	-0.08043035925308209
149	0xbf88d97018557d0a	-0.012133479826558009
150	0x3f9e7f718ee8438d	0.02978303370224782
151	0x3fe34e9e08195924	0.6033468397315898
152	0xbfc3627f9dd4c39f	-0.15144343573186078
153	0x3fd087b5b61c37e6	0.25828306945993373
154	0x3fc8ca6c744112aa	0.19367747951959774
155	0x3fcb80cf5d82426d	0.21486846986637734
156	0x3fd5d7df67ee6d27	0.34130082273050494
157	0x3fc481253e56b031	0.1601912073505232
158	0x3fce9c81fc84d93b	0.23915123777414657
159	0xbfa5da61e8abcd26	-0.042681750919564984
160	0xbf8823feadb67627	-0.0117874047053262
161	0xbf9e3af2a5c17e5e	-0.029521743170674568
162	0xbfb75fb7e0c8701d	-0.09130429494729282
163	0x3fe9b127b823a8f7	0.8028753849478382
164	0x3fd21251fb15ebf2	0.282368178559124
165	0x3fd35620e81d1a2f	0.30213186900474204
166	0xbfc33b122b2e553b	-0.15024020298430138
167	0xbfb209960dc12dcc	-0.07045877300077236
168	0x3fd2e44cd7b5c879	0.2951843363326883
169	0xbfaa442e969ab518	-0.05130143726760589
170	0xbf8d3ca05319a78c	-0.014275791679398762
171	0xbfa403e1db387909	-0.039092119226767315
172	0xbf74bb020d874be0	-0.005061157244614173
173	0xbfb2014f2189dc1d	-0.07033247536479377
174	0xbf988a36081c74fd	-0.023964733357492374
175	0xbf7dc06ffb2b8dc2	-0.007263600755979595
176	0xbfa72d670c5dc5ec	-0.04526826883273913
177	0xbf8022260074b6c6	-0.007877632988847149
178	0x3f8c463ea9b2b3d7	0.013805856279157354
179	0x3f7bd82668c03e9a	0.006797933612702112
180	0xbf93ec8e8b437015	-0.01945708012577548
181	0xbf677d2091a1aeb3	-0.002867282496529311
182	0xbf504f5d0b0b12a1	-0.000995484220923583
183	0x3fd0ce10dfa0b37d	0.26257726515432706
184	0xbf8d21282082737c	-0.014223397724259838
185	0xbf76b4daa4df5415	-0.0055435696394470395
186	0x3fd5e191dd33ecf8	0.34189268686141316
187	0xbf99db8433d41965	-0.025251451171265944
188	0x3f6e6939e6f378ea	0.003712285127774985
189	0x3fe3c37dd7b0f4ff	0.6176137173385142
190	0xbf72bff4bd0bde5e	-0.00457759476625305
191	0x3fdf1dee7eab0b65	0.4862018811219769
192	0x3fbf6bf38b12dfc6	0.1227409567389933
193	0x3fce6d507aa76cc6	0.23771100987401023
194	0xbfaade7124095224	-0.05247834744355753
195	0xbf870192dbb4b63d	-0.011233470277683394
196	0x3fd874e061def21e	0.3821335750360805
197	0x3f8a0b6a499edf1b	0.012717085239145434
198	0x3f91b8d8c45abf77	0.017306696877028096
199	0x3fbb701fd67df08b	0.1071796320592872
200	0xbf7d14863a3ec56d	-0.0070996516478073314
201	0x3f836b77310421cc	0.00948231809935942
202	0xbf5375133d916070	-0.001187580861616435
203	0xbf92ef27d4454b5e	-0.018490431147550772
204	0x3f84baa87be8ff31	0.010121647149503228
205	0x3f66b8bce096077b	0.002773636723476023
206	0xbf6b26b4658aa6b5	-0.0033143542644510035
207	0x3f864320fbb85952	0.010870225602997028
208	0xbf65ce2dc59e8855	-0.002661790273990975
209	0x3f64ab1b0d810297	0.0025229957937259006
210	0x3f8a117141ab8b4a	0.01272858125361655
211	0xbfc24673f1faab49	-0.142775052217383
212	0x3faec291b939cea4	0.06007819543893092
213	0xbfca8ab7c0f3ca8f	-0.20735833093165865
214	0x3f74505b9de6955c	0.004959447744487502
215	0xbfc85c8ee93606f5	-0.19032465350397101
216	0xbfbabe5613b2e05d	-0.10446680050779507
217	0xbfa266376879668c	-0.03593609953231888
218	0xbfbd1d5c909e0796	-0.11372927218147164
219	0xbfa721d0964a9ed2	-0.04517986139881959
220	0xbf8ef145aefbaa01	-0.015108627703246393
221	0x3fc14982c2ade89e	0.13505587106539435
222	0x3fc63aada3e6fd38	0.1736657190612989
223	0x3fb9300d18057e10	0.09838945232831287
224	0x3f976872710ab97e	0.02285937132790527
225	0xbfc0a22178e635a8	-0.12994783786090847
226	0x3f8e27f99b6fb36b	0.014724683815040959
227	0x3f72c4d101e99236	0.004582230029516901
228	0x3f8b021c0964a422	0.013187617336898386
229	0x3f91d6645fc60c1a	0.017419403405721658
230	0xbf73eae9b44729ce	-0.0048627022810685105
231	0x3fb1008c20acef69	0.0664146022581328
232	0x3fc81729d1464605	0.1882068893287824
233	0x3fc81fd99b900053	0.18847198577714383
234	0x3f9500c5088ee6c7	0.02051074852690851
235	0x3f98816bbd00efe2	0.023931201372974338
236	0x3fa2ab7859bb18b1	0.03646446318957553
237	0x3f92630cf5b13905	0.01795597314440391
238	0x3faf85b2c7981410	0.06156691252184754
239	0x3fa55f59c3b76b67	0.04174309267155856
240	0x3f860da6d0e06fc4	0.010768225907717872
241	0x3f96607ff8999383	0.021852492855390714
242	0x3fc3f07719c284b7	0.15577591665081567
243	0x3fb42561635fa01a	0.07869537998306023
244	0xbfb19b76649cd10c	-0.06877841907845922
245	0x3fc612a6ef581051	0.1724442166015501
246	0xbfbdd5cbbae292f1	-0.11654351532576947
247	0xbfb0548706c645b2	-0.0637897864856061
248	0x3fab3ee975098ec0	0.05321435502699279
249	0x3f9c92073b34fe8c	0.027900803555211115
250	0xbf7ff77b6fd62c3a	-0.007804376769295957
251	0xbfc3617e91390c24	-0.15141279307326372
252	0x3fc1be6ab8b3e562	0.1386235620373482
253	0x3f73c7e64f792f2a	0.004829311037223319
254	0x3f94854f20d3c24e	0.02003978383885601
255	0x3fa1712b31e6a25c	0.03406653389112499

b1 f8 [16]
0	0xbf14a4d345369af9	-7.875003330202667e-05
1	0xbf57f5b3d3afe024	-0.0014623886224836092
2	0x3ff80f1d07ff0bc2	1.5036897957186146
3	0xbf8c07103db190e1	-0.013685347445239806
4	0xbf11a1abf5fc5638	-6.725894990852125e-05
5	0xbf00632b4b73ebca	-3.1256445646797216e-05
6	0xbf1988b4238624db	-9.740447501917512e-05
7	0xbf307804bcf449dc	-0.00025129428554851257
8	0xbf2c2ae374057cf6	-0.0002149012234537795
9	0xbf4e962d18540262	-0.0009334297361932138
10	0xbf0f02fdd38a83aa	-5.915009609692237e-05
11	0x3f9abf82617b8184	0.02612117500291468
12	0xbf4e7c7a3a4939e3	-0.0009303662123530367
13	0xbf288d364eb7f16d	-0.0001873139184310856
14	0xbf72325fa1f9067d	-0.00444257122541247
15	0xbf35daf0d5033eaa	-0.00033348445596191134

W2 f8 [4, 16]
0	0xbfedb3f1b4f6b57a	-0.9282158407637973
1	0xbfeeb986e49ec3ae	-0.9601473298299561
2	0x3fec19400cf685a7	0.878082299536051
3	0x3fc2f1da39b3be95	0.14800575082289372
4	0xbfe37b0f6f343dbf	-0.6087720081285893
5	0xbfb27a0f196a097e	-0.07217497225250288
6	0xbfc76978d15dd5fe	-0.18290624831176666
7	0xbfd70b98eda6b6a4	-0.3600828476727236
8	0x3fee9f2c46ac67ef	0.9569302921620401
9	0xbff0dda054891604	-1.054107980934874
10	0xbfd1ec807dab8d3d	-0.2800599314925483
11	0xc0070091ef6c95ca	-2.875278349400763
12	0xc0087f0be95933c0	-3.0620344381663642
13	0xbf92cab67785ea51	-0.018351412816153993
14	0x4001629b6f3508a1	2.173148030096016
15	0xbfd04011a45935f3	-0.25391045617729374
16	0x4000a6e3a7b590e1	2.0814889051708723
17	0x3ffbdb76aa249fb5	1.741079964276634
18	0xbff6581adda5fa1b	-1.3965099962366654
19	0x3fe11796f6d689ec	0.5341296025329121
20	0x3fdac95c689da6d5	0.4185400983466086
21	0x3fc6ea908e4cdca8	0.17903334568265916
22	0x3fdb17942b4a9a3c	0.42331413486173
23	0x3fe4fc1c6652263f	0.6557752607779505
24	0x3fc2b8dcd2b8c850	0.14626655854368886
25	0x3fe98c860543efdc	0.7984037497367313
26	0x3fb71356ccc59b86	0.09013884066881248
27	0x4013b008a56f6b02	4.921907982755103
28	0x3f8958b8ebb545bb	0.012376255696525775
29	0x3f1890c7ed20b9ec	9.371013882806368e-05
30	0xbfcb52e22055d9e5	-0.213466897763012
31	0x3fdf7b55a888f51d	0.49190274675841456
32	0xbfe1ccca94fa4236	-0.5562489423483103
33	0xbfbed73aa97e2660	-0.12047163618094592
34	0xbfd466804b99e979	-0.3187561739247467
35	0xbfd3a97a871e312d	-0.30721915431128616
36	0x3fe951b299d01d51	0.7912228588256004
37	0xbf9495eec7f1a09b	-0.020103198007206485
38	0xbfbfc3f3e469b5c8	-0.12408375097739743
39	0xbfc331ae882700f9	-0.1499536671453894
40	0xbfdeb834921bc87b	-0.4799930025902836
41	0x3fe616bafff66e1b	0.6902747153539538
42	0x3fdccd1439bf1091	0.45001702918330816
43	0xbfdf4fe9bce81c21	-0.4892525048057355
44	0x4011abd09731cae6	4.417787897504899
45	0xbf4d7dabc2566aca	-0.0008999909083969523
46	0xbfe9b0eb8d3dd215	-0.8028466948149481
47	0xbfc00551bb4dd468	-0.12516233106331076
48	0xbfe39c056b492d80	-0.6127955527712601
49	0xbfe44cf69ecf5288	-0.6343949414973205
50	0x3feacfe2c8f0bc9c	0.8378766941658742
51	0xbfdbce2eebc352c3	-0.4344594290135257
52	0xbfe3490dc4073651	-0.6026676968264814
53	0xbfb7abb9819bf90f	-0.09246405996598049
54	0xbfbc6387c05b7b94	-0.11089371153091881
55	0xbfc2b23970c906bb	-0.14606397635548327
56	0xbfe43857b3ecc1d4	-0.6318777574688803
57	0xbfdb96d37d8da2d1	-0.43108069668828103
58	0xbfd1a6a1901ad000	-0.2757953555367294
59	0xbff89760bfb12a1d	-1.5369575012179049
60	0xbff5d01537333d52	-1.3633014827972443
61	0x3fa7a9beaa51b457	0.046216924944794506
62	0xbff264c8c5da4a72	-1.1496055344220193
63	0xbfbcd1caf65a5dba	-0.11257618441083297

b2 f8 [4]
0	0x3ff2516d23c160cd	1.1448794743246709
1	0xc002e8defee5a7cc	-2.3637065805278095
2	0xbfefd797a9882d60	-0.9950674353762388
3	0x4001b60e576702ab	2.213894541579369
