10by10recording/src/oldMLPparameters/tactile_mlp_model_trial_04.npz (npz, 16380 bytes, 6 tensors)

mean f8 [100]
0	0x0000000000000000	0.0
1	0x0000000000000000	0.0
2	0x0000000000000000	0.0
3	0x0000000000000000	0.0
4	0x0000000000000000	0.0
5	0x0000000000000000	0.0
6	0x0000000000000000	0.0
7	0x0000000000000000	0.0
8	0x0000000000000000	0.0
9	0x0000000000000000	0.0
10	0x0000000000000000	0.0
11	0x3f74008bcf64e5ec	0.004883333333333333
12	0x3f78fc504816f007	0.0061
13	0x3f7d5acb6f46508e	0.007166666666666667
14	0x3f8156f8c384071a	0.008466666666666667
15	0x3f88e219652bd3c3	0.01215
16	0x0000000000000000	0.0
17	0x3f8cf1efe399df81	0.014133333333333333
18	0x3fa2617c1bda511a	0.0359
19	0x3f9aa41cf1efe39a	0.026016666666666667
20	0x0000000000000000	0.0
21	0x3f7712fa66f235cb	0.005633333333333333
22	0x3f92abc249747683	0.018233333333333334
23	0x3f9043b874df5e58	0.015883333333333333
24	0x3f85acb6f46508e0	0.010583333333333333
25	0x3f8205bc01a36e2f	0.0088
26	0x3f75e9e1b089a027	0.00535
27	0x3f89c54a6921735f	0.012583333333333334
28	0x3fa18d95c6edd750	0.03428333333333333
29	0x3f9bd5f29ea6d7ff	0.027183333333333334
30	0x0000000000000000	0.0
31	0x3f730be0ded288ce	0.00465
32	0x3f8363427de23c59	0.009466666666666667
33	0x3f8999999999999a	0.0125
34	0x3f8c2038cc40fd68	0.013733333333333334
35	0x3f80dca34b3ad88b	0.008233333333333334
36	0x3f82c5f92c5f92c6	0.009166666666666667
37	0x3f8265da9701807a	0.008983333333333333
38	0x3f8a485cd7b900af	0.012833333333333334
39	0x3f4e098ead65b7a3	0.0009166666666666666
40	0x0000000000000000	0.0
41	0x3f9cf1efe399df81	0.028266666666666666
42	0x3f98fc504816f007	0.0244
43	0x3f956f8c38407199	0.020933333333333335
44	0x3fa1ae5a6293baa4	0.03453333333333333
45	0x3f9acb6f46508dff	0.026166666666666668
46	0x3f878d4fdf3b645a	0.0115
47	0x3f8aa87b6d1712fa	0.013016666666666666
48	0x3f896de8ca11bfd4	0.012416666666666666
49	0x3f917e4b17e4b17e	0.017083333333333332
50	0x0000000000000000	0.0
51	0x3fa235cb4c527755	0.03556666666666667
52	0x3fa7e28240b78034	0.04665
53	0x3f920a1a7cca9d8f	0.017616666666666666
54	0x3fa2bd3c36113405	0.0366
55	0x3fa36571bb75d409	0.03788333333333333
56	0x3f789374bc6a7efa	0.006
57	0x3f8460aa64c2f838	0.00995
58	0x3f821735ee402bb1	0.008833333333333334
59	0x3f8cf1efe399df81	0.014133333333333333
60	0x0000000000000000	0.0
61	0x3f90a3d70a3d70a4	0.01625
62	0x3fab066ac4e18d96	0.052783333333333335
63	0x3f90d844d013a92a	0.01645
64	0x3f965fd8adab9f56	0.02185
65	0x3f9cb4c52775483a	0.028033333333333334
66	0x3f649dd520e78f7f	0.0025166666666666666
67	0x3f7ff2e48e8a71de	0.0078
68	0x3f67c1bda5119ce0	0.0029
69	0x3f8c9a8e448a2bf7	0.013966666666666667
70	0x0000000000000000	0.0
71	0x3f833791ae5a6294	0.009383333333333334
72	0x3fa12b47f3fc2d54	0.03353333333333333
73	0x3f85b573eab367a1	0.0106
74	0x3f547ae147ae147b	0.00125
75	0x3f66aa1edb45c4bf	0.002766666666666667
76	0x3f6f671529a485cd	0.003833333333333333
77	0x3f829a485cd7b901	0.009083333333333334
78	0x3f65d867c3ece2a5	0.0026666666666666666
79	0x3f477bd5f29ea6d8	0.0007166666666666667
80	0x0000000000000000	0.0
81	0x3f99698a4eea9074	0.024816666666666667
82	0x3f9f513cc1e098eb	0.030583333333333334
83	0x3f5cac083126e979	0.00175
84	0x3ef179ec9cbd821e	1.6666666666666667e-05
85	0x3f7facfcdc177bd6	0.007733333333333333
86	0x3f524ba3b4166437	0.0011166666666666666
87	0x3f89a2568fe7f85b	0.012516666666666667
88	0x3f64e3bcd35a8588	0.00255
89	0x3f42918b66895a40	0.0005666666666666667
90	0x0000000000000000	0.0
91	0x3f97a32846ff513d	0.023083333333333334
92	0x3f96571bb75d4095	0.021816666666666668
93	0x3f53a92a30553261	0.0012
94	0x3f6bda5119ce075f	0.0034
95	0x3f8ab9f559b3d07d	0.01305
96	0x3f4ac2b250022f3e	0.0008166666666666667
97	0x3f8a7cca9d8f3935	0.012933333333333333
98	0x3f8c432ca57a786c	0.0138
99	0x3fe72b250022f3d9	0.7240166666666666

std f8 [100]
0	0x3e45798ee2308c3a	1e-08
1	0x3e45798ee2308c3a	1e-08
2	0x3e45798ee2308c3a	1e-08
3	0x3e45798ee2308c3a	1e-08
4	0x3e45798ee2308c3a	1e-08
5	0x3e45798ee2308c3a	1e-08
6	0x3e45798ee2308c3a	1e-08
7	0x3e45798ee2308c3a	1e-08
8	0x3e45798ee2308c3a	1e-08
9	0x3e45798ee2308c3a	1e-08
10	0x3e45798ee2308c3a	1e-08
11	0x3fb1d8842baa4ca8	0.06971002641721447
12	0x3fb3eee3f7d8c4d9	0.0778639297575582
13	0x3fb5981c6e86441f	0.08435228060103882
14	0x3fb774ae14d2d906	0.0916241455878187
15	0x3fbc0bd226eb549f	0.10955537271668668
16	0x3e45798ee2308c3a	1e-08
17	0x3fbe37e8bce1c45b	0.1180406056535203
18	0x3fc7d02fab4b959e	0.18604083885217632
19	0x3fc4602af2e4e3da	0.15918480739654123
20	0x3e45798ee2308c3a	1e-08
21	0x3fb328f7451a16aa	0.07484383999880131
22	0x3fc1202ae56ca874	0.1337941761242437
23	0x3fc000cb2bca9ad8	0.12502421987775025
24	0x3fba3244470f0be4	0.10232950911363009
25	0x3fb7e8b65368177b	0.09339465652746341
26	0x3fb2acb4b3c76b7c	0.07294778241286609
27	0x3fbc8921b3b6ec1b	0.11146746289789215
28	0x3fc74a55a6cd7a17	0.18195601124439584
29	0x3fc4d0a537002a20	0.162617351394446
30	0x3e45798ee2308c3a	1e-08
31	0x3fb16a8ebea2647b	0.06803218988570052
32	0x3fb8ca309f4247b9	0.09683517349392802
33	0x3fbc7135a33c38be	0.11110244021640178
34	0x3fbdcb33299c8bb8	0.11638183370500499
35	0x3fb7220e9641ddd1	0.09036341827765361
36	0x3fb865c52ab2377c	0.09530288975130746
37	0x3fb82791abd58e1f	0.09435377545519728
38	0x3fbcd068863a5ea0	0.11255505826044976
39	0x3f9efd2af6e746b9	0.030262633628643985
40	0x3e45798ee2308c3a	1e-08
41	0x3fc536c332fa5296	0.16573371876861093
42	0x3fc3bfb1a3ec6df5	0.1542875337989781
43	0x3fc2531b43475519	0.14316120896425202
44	0x3fc75f427982db51	0.18259459431802808
45	0x3fc46ec7c3152856	0.159630747084807
46	0x3fbb4b6d15856109	0.10661966109671907
47	0x3fbd04385ff8d84f	0.11334564536159174
48	0x3fbc59345596ec63	0.11073615159595955
49	0x3fc09624a1b9951c	0.1295820035622136
50	0x3e45798ee2308c3a	1e-08
51	0x3fc7b4de0c632b89	0.185207134293105
52	0x3fcafe616c77026e	0.21088807865273246
53	0x3fc0d6beb5da09e3	0.1315534961650676
54	0x3fc809190ceb0c49	0.18777764445084902
55	0x3fc86fdf78f5b945	0.19091409116976812
56	0x3fb3c52531574410	0.07722694830523857
57	0x3fb968979f1e5b5c	0.09925220141154284
58	0x3fb7f430bddbc251	0.09356979975906056
59	0x3fbe37e8bce1c5a7	0.11804060565352491
60	0x3e45798ee2308c3a	1e-08
61	0x3fc02f09fde02764	0.12643551727552016
62	0x3fcc9ef254701b9c	0.2236006653112924
63	0x3fc048086e2b905f	0.12719827060130037
64	0x3fc2b67923b08f41	0.14619364016209072
65	0x3fc520f35c707186	0.16506807340273272
66	0x3fa9a7218ef04b5b	0.050103234003606466
67	0x3fb6855dbaefb675	0.08797250570179378
68	0x3fab8833cd698383	0.05377351648781483
69	0x3fbe0acfaad63393	0.11735246582811802
70	0x3e45798ee2308c3a	1e-08
71	0x3fb8ae76378b40c6	0.09641207557729378
72	0x3fc70b0bb430952f	0.18002458856896328
73	0x3fba377d16c02c03	0.10240918927608793
74	0x3fa21732f80323e0	0.03533324506276592
75	0x3faae4ba81c16ff8	0.05252631029063076
76	0x3fafa39d0a1c105c	0.06179514645012382
77	0x3fb84993b2fb90d0	0.0948726951569967
78	0x3faa677fe2ec09cb	0.05157088894886249
79	0x3f9b673f67ffa5fb	0.02676104614503137
80	0x3e45798ee2308c3a	1e-08
81	0x3fc3e996cc5404f0	0.15556607224429042
82	0x3fc60a30519ed794	0.1721859358346448
83	0x3fa566562c7fd42f	0.04179639142231683
84	0x3f70b8c4b64a9b78	0.004082458883806754
85	0x3fb66cde286d86ab	0.08759869086272924
86	0x3fa11987e620cefe	0.033397909967247216
87	0x3fbc760024969d80	0.11117554562826193
88	0x3fa9d25e55bb6e31	0.05043310925040279
89	0x3f985e8279ea3259	0.02379802579030108
90	0x3e45798ee2308c3a	1e-08
91	0x3fc338b6617da19e	0.15016822586336515
92	0x3fc2b2e63907ef94	0.1460845735999753
93	0x3fa1b9be54cf0312	0.0346202353025601
94	0x3fadcdbe2b569af4	0.058210318365402275
95	0x3fbd0d9985ebfead	0.11348876494957479
96	0x3f9d4054f1069ae0	0.028565718852088362
97	0x3fbcecb779d589b0	0.11298701023546331
98	0x3fbddd6e80b241c6	0.11666002885818391
99	0x3fdc9bc945953d3f	0.44700843615733626

W1 f8 [16, 100]
0	0xbf91278736a924ba	-0.016752350531793005
1	0xbf95b844808b3dde	-0.02121073755807667
2	0xbf7debf9668955b5	-0.007305120678741718
3	0x3f46b4d008f4ccdb	0.000692941264708226
4	0x3f77fb631dac778c	0.005854975863966671
5	0x3f6701b12dd11bff	0.002808424046210955
6	0xbf8708ac311df049	-0.01124701046841649
7	0xbf938bb965952201	-0.019087693047625368
8	0xbf9b415d2ad26fe0	-0.026616531122826248
9	0x3f83649ebabfa294	0.009469261240114414
10	0x3f6976154d33ad7a	0.003108064274433606
11	0xbfa204a32077f92b	-0.03519162913652204
12	0x3faac3debfa79678	0.05227562036070038
13	0x3fb2308fcfd0e31b	0.07105349372512786
14	0xbfa7282a9afc23d5	-0.04522832052140983
15	0x3fccd0dc1c559046	0.22512389548785644
16	0xbf81c5f644982fd3	-0.008678363769853014
17	0x3fafc6d57165f396	0.062063856213149624
18	0x3fbca658a326da59	0.11191324217984668
19	0x3f98d1d1acf5c1cf	0.024237896138801503
20	0xbf700dfc11ca4055	-0.003919586798147708
21	0xbf9dbca00751ebf3	-0.029039860197808975
22	0x3fc46f14eefd6f08	0.15963994664604564
23	0x3fc8edc78fbda005	0.1947564555987357
24	0xbf81e8c301e81fdd	-0.008744739051522227
25	0xbfa614f424a0b57b	-0.043128613921321134
26	0xbfa109e408ca7db4	-0.03327858550369048
27	0x3fb1771b7e0b172d	0.06822368457059431
28	0x3fc0bbb8d4423d59	0.13072882045933445
29	0x3fa31206f2b9e75d	0.03724691117254395
30	0x3f82f573ab9398ec	0.009257224725342593
31	0xbf9803909a1a0824	-0.023451098828907516
32	0xbfa8d445eb373a82	-0.048494515383585415
33	0x3fb9e13c844340d1	0.1010930846125604
34	0x3fa7619828f906cb	0.04566646099239121
35	0xbfb108b23a9099b0	-0.0665389435749606
36	0x3fc232dfceb61b5f	0.14217755883529556
37	0xbfa6a80637591b98	-0.04425067353854856
38	0x3fa588dea1ad9d96	0.0420598575936381
39	0xbf8b6d3f10b37df0	-0.013391964623621327
40	0xbf81a8a221db1742	-0.008622423799703353
41	0x3faf3b7ad33e0783	0.061000669752515634
42	0x3f8589d9d934a637	0.010516836110201584
43	0x3fc335c5bedec097	0.15007850475149517
44	0x3fc4fadbb4b430db	0.16390558551245857
45	0x3fcb4963f36a4bfe	0.21317719827183618
46	0x3f90b0c8c553d511	0.016299378436959226
47	0xbfb670d8d8c1ed1b	-0.08765940944606536
48	0xbf9b7ff197c8e08a	-0.026855254067613056
49	0xbfaa903d9e635e98	-0.05188171919297452
50	0xbf5e8d1d2b2b764a	-0.001864698872558706
51	0x3fc120be8f10e11b	0.13381177888528203
52	0x3fbf86057a0ec292	0.12313875417636158
53	0x3fc103ef7b1c59f4	0.13293260108248683
54	0x3fc720aacc532271	0.18068442322534708
55	0x3fc1f1dad659ef3b	0.14019332376835245
56	0x3fbc69f975ed122c	0.11099204186491168
57	0xbfacc489db80fd12	-0.0561869697999048
58	0xbfa2413ceeb471bd	-0.03565397657277767
59	0xbf99615c1da12e43	-0.024785460766265876
60	0xbf7f2c081fb6ebb9	-0.007610351308751478
61	0x3f99334c91be1930	0.02460975303213181
62	0x3fc63183076177eb	0.1733859811819792
63	0x3f98df45362bb1e5	0.02428920882350551
64	0x3fab72804b01b060	0.053607949405745314
65	0x3fc0a707f5b02872	0.13009738441934676
66	0xbf99d21682586f1e	-0.02521548433843101
67	0xbf93c692f251a2be	-0.019312187232943805
68	0xbf977a851c424f4e	-0.022928314065736637
69	0xbfab52a8ba6fc89e	-0.053365013845806816
70	0xbf85ca69e6fa6635	-0.010639979707138906
71	0x3fa69bd9023efaaa	0.04415777351777213
72	0x3fc284e53c9c72ab	0.14468064746406148
73	0x3f7cd74adf23bafe	0.007041256396617566
74	0xbf883a68661c49b3	-0.011830154052891872
75	0xbf9ca87024aec08c	-0.02798629020588854
76	0xbf8702a474f0e089	-0.011235508745912408
77	0xbfab338668cb0703	-0.05312747983181334
78	0xbf8ac4e6a0e353ee	-0.0130708711480256
79	0xbf7a64c55a32970b	-0.006443758876377502
80	0xbf7b1b7f6409ccf1	-0.006618020649159493
81	0x3f9dec51fb7e3462	0.0292218026875627
82	0x3fbe6ebb33296f4c	0.11887712477749551
83	0xbf903c199a79a17d	-0.015854263356602772
84	0xbf871906c1672df8	-0.01127820279807333
85	0x3fa65f53c017791a	0.04369603843564303
86	0xbf8ef011ec3b49ef	-0.015106334706989492
87	0x3fb329065a60c331	0.07484473902219403
88	0xbfa08ff7e5f813e5	-0.03234839136351989
89	0xbf6daaabcc3e18e3	-0.003621421377775312
90	0x3f64328995b20675	0.0024655043794730666
91	0x3fa626e0dab99443	0.04326536817533413
92	0x3fb902b27826849a	0.09769740517960415
93	0xbf630c200dc4bf87	-0.0023251176882225807
94	0x3fa84d033dfe52b1	0.04746256000286076
95	0x3fb4cc213b7c2695	0.08123977377194998
96	0x3fb0f690995ce465	0.06626228088579607
97	0x3fb0ae7a0f0250ad	0.06516230455810286
98	0x3f9135817278eede	0.016805670368042473
99	0xbfb9a5b666835b86	-0.10018482210885624
100	0x3f66f52640adb9df	0.0028024432298743153
101	0xbf731845eded16ba	-0.00466182056590519
102	0x3f750f0bcb786d47	0.005141302178823643
103	0xbf53d8fa72350430	-0.0012113996279625831
104	0x3f74beb9be36adec	0.005064702566794459
105	0xbf90d4ad29b9a2a1	-0.016436296149921707
106	0xbf4c0dc57c4fc1ee	-0.0008561338696591572
107	0x3f685e4bb653e27b	0.002974651217865718
108	0x3f7175757ce4322c	0.0042624081963933795
109	0x3f9bed603574dbd0	0.027272704375004342
110	0xbf71defea4f66939	-0.0043630549474989394
111	0xbf8ba6e59e3ce88a	-0.013501924411333261
112	0x3f911b389db80b99	0.01670540297164855
113	0x3f890bcafc354ee7	0.012229524442467233
114	0xbf8aecf9d8bed1ef	-0.013147308280033491
115	0xbf98c3bfb879fc1d	-0.024184222826530644
116	0xbf4e8570ff8ed035	-0.0009314347981814799
117	0x3f81f7f62f20ac3d	0.00877373057672603
118	0x3fa6829abe8d3b6b	0.043965183029846276
119	0x3f8f76016824173e	0.015361796370153887
120	0x3f72695a9031d198	0.004495004427657177
121	0xbf60e04ce7d906d2	-0.0020600797713833186
122	0xbf7543aa385d1370	-0.005191483423747964
123	0x3f9176d722e75343	0.01705490255865817
124	0x3f8b713faf455fea	0.013399598633142735
125	0xbf8331f7d44c6cbd	-0.009372650305115799
126	0x3f863b494bed1ea0	0.010855267171464178
127	0x3f8c50e7d42106e1	0.013826190148509667
128	0x3f8cfb315dfd8064	0.014150987320761206
129	0x3f8168fbfcfc574d	0.008501022966395455
130	0x3f9078deac925f33	0.016086081774658822
131	0xbf650744eb2fc2f5	-0.002566942793685074
132	0x3f64f5ad12bc3b91	0.002558553727687714
133	0xbf94887fd15a8ea5	-0.020051953461588074
134	0xbf6bd242045f35b0	-0.003396157207112359
135	0x3f545ff8bb7ca6d0	0.001243584540086596
136	0x3f950d38e22bbd2e	0.02055825119435644
137	0x3f9e22e65334d58b	0.029430006817354786
138	0xbf74e303ae1151b1	-0.005099310278712841
139	0xbf694d90cae93a6f	-0.0030887439709553137
140	0xbf7aa31102f51c3c	-0.00650316853654603
141	0x3f9514dd86ab3189	0.020587407440687797
142	0x3f95040da35b4540	0.02052327451275926
143	0x3fa269f20b47e7ad	0.03596454990106621
144	0x3fa3867d79f30604	0.038135453354254195
145	0x3faccfc9e951b12f	0.05627280209668794
146	0x3fa4ae7a80ecc092	0.04039366554059244
147	0x3f9f5a27433666b3	0.030617345311475485
148	0xbf7f82fb3cfee474	-0.007693272971601595
149	0xbf936c46596d12d9	-0.01896772309125336
150	0xbf9711896581f153	-0.022527834721118477
151	0x3f9afeeca350c7da	0.026363084285726625
152	0x3fa323c06b480ef8	0.03738213834370002
153	0x3f94bf09d0cb2ee6	0.0202600034415771
154	0x3f9c53d3de2223ae	0.027663526947921895
155	0x3f93022bc9d1adf2	0.01856296939187802
156	0x3f9d64b87efce054	0.028704531431884853
157	0x3fa5de0d3b1db1f3	0.0427097448981363
158	0xbf9d54c7f4e0fc77	-0.028643726655215276
159	0xbf49f8ee01639f0d	-0.0007926141868468142
160	0x3f80c3e441f0dc18	0.008186133634906098
161	0x3f6e215994b459ae	0.0036780118586065757
162	0x3f8b6e6b2e762040	0.013394200663938816
163	0x3f712f677adb02bd	0.00419559881055481
164	0xbf882c7a5a03200b	-0.011803584930376606
165	0x3f9ac7fc86ab7644	0.026153512687292726
166	0x3f742fe0e4147970	0.004928472976898454
167	0x3f9088156cd67f66	0.01614411808770857
168	0x3f81872ffd48ada1	0.008558630864249408
169	0xbf5e39187081154c	-0.0018446673075385887
170	0xbf6f22458d499ba4	-0.003800521701396291
171	0xbf920114d1420604	-0.01758224990090264
172	0x3f70ba7a304c1176	0.004084088611083883
173	0xbf8519e586cdd70f	-0.010303300072091596
174	0xbf992fef28202295	-0.024596916984622814
175	0xbf5cc00aa89442f6	-0.0017547706687006093
176	0xbf7579b4c640f612	-0.005243021154510712
177	0x3f90a150109f0899	0.016240359320143758
178	0x3f788c578948a046	0.0059932155022935415
179	0xbf4937fd937dd87e	-0.0007696140446416114
180	0x3f7ddafb52fe8e3e	0.007288915381568338
181	0x3f863f094ecf2519	0.010862419812740986
182	0x3f8938994e87465a	0.01231498499774657
183	0x3f7adf7de5d2472d	0.006560794628187411
184	0xbf4567c2e77aa93c	-0.0006532384567965797
185	0xbf946c29f1d30809	-0.01994386232832571
186	0x3f820b6b6dc3322a	0.008810843741593539
187	0x3f70f9ef7f1e66f0	0.004144607098987882
188	0xbf6583c1a3ecd507	-0.0026263029134506763
189	0xbf76621d7928fcbc	-0.005464663629538066
190	0x3f8b9dc08aba8c71	0.013484482034362895
191	0xbf439d6f2d03f63d	-0.0005986016131200377
192	0x3f98ca2623479ed4	0.024208637145334347
193	0xbf89d297a77dfc04	-0.012608704375223219
194	0x3f43cec8604e4255	0.0006044844054589696
195	0x3f8542bc59087502	0.010381194560120214
196	0x3f9403b71868e802	0.019545422425132138
197	0x3f956b550cbc3edc	0.020917252447417364
198	0x3f76bcc32b3b50ea	0.005551111582196658
199	0xbf7561467375a718	-0.005219721984170332
200	0x3f77e7a5c19942e3	0.005836150632220624
201	0x3f9084026086b980	0.016128575459953165
202	0xbf6124fecd9e6624	-0.002092836058136498
203	0x3f96170394a2acad	0.021572166392314674
204	0x3f8057192c5029bc	0.007978626885251631
205	0x3f7696bd5313bd71	0.0055148501862584
206	0xbf88d87855dfe5da	-0.012131633873638959
207	0xbf77ac84bf5edc6a	-0.005779760880549304
208	0x3f66869405ae5b00	0.0027497187670165735
209	0xbf74ad03191df040	-0.005047809698108863
210	0xbf7ab9b09041bb25	-0.006524743748839855
211	0x3fd1b5eefa429ac8	0.276729339976026
212	0x3fac75030f86a2ef	0.055580230374578814
213	0xbfa10bb3b5475d62	-0.03329240405917734
214	0xbfa184ae3d0b8e96	-0.034215397788810595
215	0xbf9f56db4307ba97	-0.030604768720815825
216	0x3f8ddfb0a99ed26d	0.014586811233905561
217	0x3fb0733da5eab445	0.06425843525603721
218	0xbfadbacdc678beaf	-0.058065824964044103
219	0x3fb882455aff8f40	0.0957377764858025
220	0x3f7704f5d3cc2081	0.005619964850446136
221	0x3fc5c45fbbd95990	0.17005535766902513
222	0xbf806e9a7213f0ce	-0.008023459059124962
223	0xbfa92051f3daa360	-0.04907470800146174
224	0xbfa1ef96e99e3d0a	-0.0350310478380554
225	0x3fb7564510991317	0.09116012244437531
226	0x3fd2e5486edcbb50	0.29524432016744573
227	0x3fc20e7752618740	0.14106647036083508
228	0xbfa6f45e96aade51	-0.04483314122392968
229	0x3fc3e3ea56b4ae7e	0.15539292558365853
230	0xbf7ba7baf0d586ed	-0.00675175689443262
231	0x3fc7033c1a3f00aa	0.17978621751354257
232	0x3fc1d9ab60547627	0.1394552440987564
233	0x3fa9f1c744b9ae7b	0.050672747744866485
234	0xbf7226a458682678	-0.004431383108121183
235	0x3fd63eb4767a27ce	0.34757720537220116
236	0x3fc2db042dc27016	0.1473088477549715
237	0x3fbb278d125146d1	0.10607225129322308
238	0xbfa7372354bca6bc	-0.045342544645178035
239	0x3fc7d761c75bf1ce	0.18626043543180376
240	0xbf90740755a14292	-0.016067614175258323
241	0x3fbd35ea3ab2afe1	0.11410392697388218
242	0x3faf7dfa4043654f	0.061508007378231803
243	0x3fabc20a6b263f5d	0.05421478803611877
244	0xbf438e84d988909b	-0.0005968235664721879
245	0x3fc016c5d21a62f1	0.12569496878565858
246	0xbf03222ac8c6e3b9	-3.649418895030434e-05
247	0xbf8bcede1936dca2	-0.013578162331084723
248	0x3fc0c8e27e5f9a88	0.13113051577166268
249	0x3fb6bb535ba27ffa	0.08879586207558524
250	0x3f731f4cb880f0ca	0.004668521585753102
251	0xbfa48c6cf20cc85c	-0.04013386206351363
252	0xbfb1aad2c3ea47e4	-0.06901280673108051
253	0xbf8f8b82a4cc1ca1	-0.015402813581671561
254	0xbfa9112195ca31ff	-0.04895882562150077
255	0x3f92bc2a3bafe8aa	0.018295917408956676

b1 f8 [16]
0	0x3fcd8f1a8e6736a2	0.23092967942505022
1	0x3fa7a08ec18268c6	0.046146832582239436
2	0x3fcac0f2d18f3a3d	0.20901332123180963
3	0x3f818bd1d8c433a8	0.008567466190038633
4	0x3fc4b78becd54404	0.1618513971721144
5	0x3fc74c9ea4880e70	0.18202574762118529
6	0x3fc12954958ac75d	0.13407380391941617
7	0x3fb6fbf80f7e9da2	0.08978224161420781
8	0x3fdcecbe263f4d29	0.4519496320255763
9	0x3faa2e5e54c85bf7	0.05113501343674181
10	0x3fc405f5ca1eb1ac	0.1564318882859771
11	0x3fd61f36d9d40260	0.34565516731530543
12	0x3fc02acc40270733	0.1263060868496325
13	0x3fc6cf7f6e902110	0.17820732973655895
14	0x3fdf156fcc720d78	0.4856833931482565
15	0x3fb0df0eb62aa02c	0.06590358683990932

W2 f8 [3, 16]
0	0xbfe0aa17c6cef1e7	-0.5207632906891008
1	0xbfbe4957b9c36477	-0.11830662045703542
2	0xbfd8c84b9978cd3e	-0.38722505557526066
3	0xbfae6968b90ccefa	-0.05939795740996874
4	0xbfdb2cf9617d275f	-0.4246200038947929
5	0xbfdfa454c48e924c	-0.49440497584354115
6	0xbfd2d452f5ae36fa	-0.2942092322563067
7	0xbfcb24ae2a0b3eab	-0.21205689480711007
8	0xbfec8a763297ba92	-0.8919020641458977
9	0xbfc24c6861c1e602	-0.1429567792254574
10	0xbfd8c4520534e9fe	-0.38698244579759933
11	0xbfe716f171edc6a0	-0.721550676839076
12	0xbfd6a426ff82632d	-0.353769063492609
13	0xbfdf2b7717811027	-0.4870279054196111
14	0xbfe40ec56b9cfd37	-0.6268031217404432
15	0xbfc261c9bbe320dd	-0.14360925363712954
16	0x3fe2ec3dc1fb68cb	0.591338042136408
17	0x3fb932c980d37c5f	0.09843119998139248
18	0xbfdd84ddc15c7075	-0.4612345112125305
19	0x3fb9e490845085a1	0.10114386778197694
20	0x3fe529073c5ec485	0.6612583331208418
21	0x3fe5647141f48664	0.6685110366999649
22	0x3fa501f6aa55c394	0.041030605595444275
23	0x3fcc9083b34562d0	0.22316023114651395
24	0x3ff26923119d78a5	1.1506682098475178
25	0xbf987755b6a69c93	-0.023892726204988234
26	0x3fe364bb596ad5bc	0.6060463663513285
27	0x3fef881007dd728f	0.9853592065442899
28	0x3fdfeecf10961f7b	0.4989507352806794
29	0x3fe089e32e21a15f	0.516831960773782
30	0xbff56c49e5458c9e	-1.3389376598286513
31	0x3fb13dd1a4e13371	0.06734953189261518
32	0xbfb74f05b0df53ce	-0.09104953354046971
33	0x3f9d0abbb115fa7a	0.028361256297552796
34	0x3fec3b621582285b	0.8822489185415735
35	0xbfa5b94866958fc0	-0.0424292206978687
36	0xbfceb690a425fd9a	-0.239946441794001
37	0xbfc3a743826d688d	-0.15354198330425498
38	0x3fd097504515e555	0.25923544642099233
39	0x3f81bd1ef1f6526c	0.008661500701046175
40	0xbfd104be21245662	-0.26591447102086907
41	0x3fc26e522dc0c497	0.1439917300608939
42	0xbfca96c4be25f638	-0.20772609028419864
43	0xbfceac3080f95962	-0.23962980554160668
44	0xbfc24d4352e66b06	-0.14298287914137847
45	0xbfa364c252feccdb	-0.037878105765594326
46	0x3ffea06ee38c96af	1.914168251861536
47	0x3fb78049a73afba9	0.09180126507543086

b2 f8 [3]
0	0x3ff79224e54de538	1.473179717750396
1	0xbff02103f2a71406	-1.0080604055995095
2	0xbfddc483ca9b463e	-0.4651193121509073
