10by10recording/src/oldMLPparameters/tactile_mlp_model_trial_02.npz (npz, 16380 bytes, 6 tensors)

mean f8 [100]
00000000: 0000 0000 0000 0000 0000 0000 0000 0000
00000010: 0000 0000 0000 0000 0000 0000 0000 0000
00000020: 0000 0000 0000 0000 0000 0000 0000 0000
00000030: 0000 0000 0000 0000 0000 0000 0000 0000
00000040: 0000 0000 0000 0000 0000 0000 0000 0000
00000050: 0000 0000 0000 0000 e587 8614 65ab 7a3f
00000060: 04a0 6485 35a8 803f 098b d9f4 dc91 833f
00000070: 7709 b004 a11e 873f 7aa4 72b1 2db4 813f
00000080: 0000 0000 0000 0000 b8ae 4955 9ef1 7b3f
00000090: 653d 5373 6a05 813f 304e 1a2e 2393 773f
000000a0: 0000 0000 0000 0000 64f2 4289 f8c3 7e3f
000000b0: ae48 9b0c 03e5 983f cb7d d49b a0af 953f
000000c0: d50b dc45 49e6 8c3f e992 8457 a507 883f
000000d0: 8ad5 0c96 d737 7d3f bbb9 4798 de4d 893f
000000e0: 5f07 ce19 51da 8b3f afb8 d6a2 b6ab 7b3f
000000f0: 0000 0000 0000 0000 1361 c3d3 2b65 793f
00000100: cca5 2dfd add9 893f 1111 1111 1111 913f
00000110: f0a8 80dd 25c0 923f 0e76 4e64 847b 863f
00000120: b3c3 d4e5 f607 893f 4eab ac1e ce87 883f
00000130: ca55 7b3a 9385 913f c2cf 431e 5f06 543f
00000140: 0000 0000 0000 0000 3c4f 8b23 4b35 753f
00000150: 04a0 6485 35a8 a03f 2142 abf5 ba94 9c3f
00000160: 304e 1a2e 2393 a73f 5409 8bd9 f4dc a13f
00000170: cd85 a429 1567 8f3f fc61 0f9e a7c5 913f
00000180: e37f b686 f0f3 903f 593c e27d 4263 733f
00000190: 0000 0000 0000 0000 a167 b3ea 73b5 853f
000001a0: 9b55 9fab add8 af3f bf7c 63a6 780d 983f
000001b0: 07f0 1648 50fc a83f b71a 9da4 97dc a93f
000001c0: fca9 f1d2 4d62 803f 4aa0 aedb 8d2b 8b3f
000001d0: 413a 0093 f21e 883f a0f7 7754 c0ee 323f
000001e0: 0000 0000 0000 0000 158c 4aea 0434 713f
000001f0: b9b3 eb2d 4704 b23f 388c 6f15 b175 963f
00000200: 1d7f 8fe7 20d5 9d3f 2730 4e1a 2e23 a33f
00000210: ff69 df2b 1c7d 6b3f 94f6 065f 984c 853f
00000220: d67b 17dc fcac 6f3f 0000 0000 0000 0000
00000230: 0000 0000 0000 0000 7083 78e8 6c9f 893f
00000240: 1be7 faef 5fe4 a63f 81df 99e3 eff1 8c3f
00000250: 4f1b e8b4 814e 5b3f 5306 5d24 2938 6e3f
00000260: 3459 1871 63ef 743f 56a1 1fd1 b5cd 883f
00000270: 322e 915a 8a20 6d3f 75de 28ee c74f 4f3f
00000280: 0000 0000 0000 0000 9749 e7d6 7e45 913f
00000290: 9a51 b764 f3fc 9a3f 5146 6fcb 5a1d 633f
000002a0: 2858 a77b 3b4d f73e 75de 28ee c74f 6f3f
000002b0: 4a30 7345 da64 583f 2858 a77b 3b4d 673f
000002c0: 5f07 ce19 51da 6b3f aacd 6133 0fc2 483f
000002d0: 0000 0000 0000 0000 756e ed57 1489 8c3f
000002e0: c82a f423 bab6 893f 2d43 1ceb e236 5a3f
000002f0: 5d47 e0c0 82bf 403f 1e82 bd9c ec79 713f
00000300: 0000 0000 0000 0000 88f5 9569 70aa 573f
00000310: b1e3 5db9 8f7a 733f 51d9 61ea 72fb eb3f
0.0 0.0 0.0 0.0 0.0 0.0 0.0 0.0
0.0 0.0 0.0 0.006511111111111111 0.008133333333333333 0.009555555555555555 0.011288888888888888 0.008644444444444444
0.0 0.006822222222222223 0.008311111111111111 0.005755555555555555 0.0 0.007511111111111111 0.02431111111111111 0.021177777777777778
0.01411111111111111 0.011733333333333333 0.0071333333333333335 0.012355555555555555 0.0136 0.0067555555555555554 0.0 0.0062
0.012622222222222222 0.016666666666666666 0.01831111111111111 0.010977777777777777 0.012222222222222223 0.011977777777777778 0.01711111111111111 0.0012222222222222222
0.0 0.005177777777777778 0.03253333333333333 0.027911111111111112 0.04604444444444444 0.034888888888888886 0.015333333333333332 0.017355555555555555
0.016555555555555556 0.004733333333333333 0.0 0.0106 0.0622 0.02348888888888889 0.0488 0.05051111111111111
0.008 0.013266666666666666 0.011777777777777778 0.0002888888888888889 0.0 0.0042 0.07037777777777778 0.021933333333333332
0.029133333333333334 0.03737777777777778 0.0033555555555555556 0.0104 0.0038666666666666667 0.0 0.0 0.012511111111111112
0.04471111111111111 0.014133333333333333 0.0016666666666666668 0.0036888888888888887 0.005111111111111111 0.01211111111111111 0.0035555555555555557 0.0009555555555555555
0.0 0.016866666666666665 0.026355555555555556 0.0023333333333333335 2.2222222222222223e-05 0.003822222222222222 0.001488888888888889 0.0028444444444444446
0.0034 0.0007555555555555555 0.0 0.013933333333333334 0.012555555555555556 0.0016 0.0005111111111111112 0.004266666666666667
0.0 0.0014444444444444444 0.004755555555555555 0.8744444444444445

std f8 [100]
00000000: 3a8c 30e2 8e79 453e 3a8c 30e2 8e79 453e
00000010: 3a8c 30e2 8e79 453e 3a8c 30e2 8e79 453e
00000020: 3a8c 30e2 8e79 453e 3a8c 30e2 8e79 453e
00000030: 3a8c 30e2 8e79 453e 3a8c 30e2 8e79 453e
00000040: 3a8c 30e2 8e79 453e 3a8c 30e2 8e79 453e
00000050: 3a8c 30e2 8e79 453e b287 5ba9 f396 b43f
00000060: 91d4 23aa 47fe b63f bb57 43e8 a0e7 b83f
00000070: c691 f082 bb0b bb3f 58cd 138d d9b2 b73f
00000080: 3a8c 30e2 8e79 453e b427 2994 9012 b53f
00000090: e79f fcd6 ba3d b73f 0619 6ad9 955d b33f
000000a0: 3a8c 30e2 8e79 453e 36f5 b496 6a1a b63f
000000b0: ed78 1ddc b4b6 c33f 0379 17df d36d c23f
000000c0: ea6f dc83 e931 be3f cdab 03bf 1f91 bb3f
000000d0: 7183 a424 558b b53f a5e9 6128 8c47 bc3f
000000e0: 47a2 78eb 98a6 bd3f 7368 8b89 52f8 b43f
000000f0: 3a8c 30e2 8e79 453e 09b6 2fe3 4918 b43f
00000100: 5613 9163 4494 bc3f b81d 5518 ee62 c03f
00000110: 5277 a896 5529 c13f 1b76 d4fa bbac ba3f
00000120: 4f8f be80 dd20 bc3f e3a1 39f9 5fd9 bb3f
00000130: 6606 83a6 8899 c03f cd5d e713 84e3 a13f
00000140: 3a8c 30e2 8e79 453e cc20 db1b 895f b23f
00000150: 1ea0 f663 6db5 c63f eec4 aa61 7c15 c53f
00000160: 4581 7b19 90d3 ca3f 0879 4709 e07c c73f
00000170: 2c5c e59e b974 bf3f b306 cc6b 3fb7 c03f
00000180: 19a7 5ae7 2855 c03f f132 a2a2 2492 b13f
00000190: 3a8c 30e2 8e79 453e 892b c016 7d37 ba3f
000001a0: 6362 06a8 13ea ce3f ac67 a062 b862 c33f
000001b0: 3092 41e7 da93 cb3f e5b3 9914 1908 cc3f
000001c0: f389 8d88 39ce b63f dd9c 0fce 434a bd3f
000001d0: f8ad 4c72 519e bb3f 7f43 1b42 f366 913f
000001e0: 3a8c 30e2 8e79 453e 45f2 7b53 4a8e b03f
000001f0: 0f56 6416 be5e d03f 9ef2 022c 65bf c23f
00000200: 1e7b 2ceb ed86 c53f 5b7b d163 9f47 c83f
00000210: f67a 9d56 e19b ad3f 1800 8506 8bf8 b93f
00000220: 4088 7de7 9dc6 af3f 3a8c 30e2 8e79 453e
00000230: 3a8c 30e2 8e79 453e a649 f166 6774 bc3f
00000240: 3246 a056 2074 ca3f afaa e1bc e837 be3f
00000250: 7cff c243 88e2 a43f 3c45 3e6f 1f0a af3f
00000260: 4b29 b154 5041 b23f c60b 7b63 7600 bc3f
00000270: 1e73 b6f2 b779 ae3f 275e 66a3 8aa3 9f3f
00000280: 3a8c 30e2 8e79 453e c6f4 376c 987b c03f
00000290: 14e0 22ed 1d81 c43f c38c b44f fdb3 a83f
000002a0: 93aa c37f fd4e 733f 94d3 0c55 e997 af3f
000002b0: 21d6 fd8e cbbd a33f c0d5 5d10 8f44 ab3f
000002c0: 91b3 562b becd ad3f 675b 80e7 ed22 9c3f
000002d0: 3a8c 30e2 8e79 453e 19f1 ee0a c201 be3f
000002e0: 6398 b6b1 2a81 bc3f 9818 a271 af76 a43f
000002f0: b66b a26e fa24 973f 4d68 daf1 a6af b03f
00000300: 3a8c 30e2 8e79 453e 05fc 999a e771 a33f
00000310: 6543 7fb1 a39c b13f 3b73 4a67 cd34 d53f
1e-08 1e-08 1e-08 1e-08 1e-08 1e-08 1e-08 1e-08
1e-08 1e-08 1e-08 0.0804283417196803 0.08981750396545098 0.09728437109455872 0.10564777323504079 0.09257278150817194
1e-08 0.08231452576833825 0.09078567265225922 0.07564674909562905 1e-08 0.08634058169714795 0.15401325938996227 0.14397667306088388
0.11794909924759592 0.10768316663204232 0.08415729660602068 0.11046672807598286 0.11582332371529801 0.0819140992929606 1e-08 0.07849561497251768
0.11163737707927388 0.12801910579785925 0.13407392364836795 0.10419821618821638 0.10987648385213088 0.10878562769506277 0.12968547945461067 0.0349389337822533
1e-08 0.07177025728299496 0.17741172200226257 0.16471819657230163 0.2095813869882567 0.1834983868893192 0.12287483338637689 0.13059227717899588
0.12759887024486075 0.06863621683642031 1e-08 0.10240918927608623 0.24151845650046075 0.15145020309210844 0.21544967929652747 0.21899713045004812
0.08908423980532358 0.11441444187913725 0.10788449326053484 0.016994286451168513 1e-08 0.06467117822826036 0.2557826250716468 0.14646591805457815
0.1681802175816864 0.1896857488054263 0.057829896758212415 0.10144871625107077 0.06206220103082716 1e-08 1e-08 0.11115118277783739
0.2066688940981734 0.1180406056534291 0.040790804168408606 0.06062410576772456 0.07130910937954586 0.1093820565102269 0.05952238881875459 0.030897299025666094
1e-08 0.12877183231458939 0.16019033507268488 0.04824821088757283 0.004714002829340774 0.061705867416470245 0.0385573970842581 0.05325743746554279
0.058210318365446 0.027476994757388875 1e-08 0.11721432463577165 0.11134592856123642 0.03996799718974947 0.022601998331633864 0.06518023876779573
1e-08 0.03797839891648639 0.06879637797761758 0.33134780013078896

W1 f8 [16, 100]
00000000: 1c3e 0bc8 5be1 62bf e3e8 141d 7c41 4f3f
00000010: 4de4 2c9f 3c4e 75bf b2ce ccbd 02da 7cbf
00000020: bbbf 0286 eb6f 82bf 7556 a0e4 81b1 873f
00000030: 6741 e983 c4f4 8f3f 6593 c5b4 4918 923f
00000040: d2f8 ad33 f7d9 6c3f 85ab d133 d657 633f
00000050: 80ce e6c3 1904 8e3f de4a bf0d c562 aabf
00000060: bb3c eb00 7a7f 913f 6178 c488 99a9 c23f
00000070: 290f 628b d337 cd3f cb22 11f3 97c7 ab3f
00000080: b1d5 fad6 1ae9 68bf a61d ee4e d4d0 a0bf
00000090: b9fb e658 7748 9bbf 881d 95b9 8a62 9bbf
000000a0: 8cfb 4925 51d2 813f 46c8 3f54 30c0 9ebf
000000b0: 521e ca5a 5738 d13f 7206 8474 16a8 d63f
000000c0: 1eb7 34c9 f04f c83f 346d 3c7f aec9 b13f
000000d0: b1c4 5e0d 7fc1 b1bf 6de0 1d09 f69b 9dbf
000000e0: b31c 038c 6d32 99bf f071 2737 b81e a1bf
000000f0: 64a1 7eed 1875 63bf 64e0 51e1 4c73 a0bf
00000100: be02 a19f ac95 bbbf 5493 e51d b54c b53f
00000110: 420b 9bec 04fe be3f 201f bbad 2cd8 c4bf
00000120: 4069 c90d dd4c ca3f 148b 72f1 fcc4 a1bf
00000130: e971 01f5 e2c7 a0bf 1da7 8948 6603 45bf
00000140: b6e7 0190 b97b 773f 5fbb 9f32 3c8a b1bf
00000150: 91bc eb0a b6a2 b83f b1bd d972 cd9a c83f
00000160: 9cee b232 f9c5 c83f 087e 062e 1d2e d33f
00000170: 1f35 0a19 7f37 b43f 72d2 6aae 860a bbbf
00000180: 8877 4fdd fed7 9dbf 6083 0cb1 d001 8cbf
00000190: 6430 fdd8 b77c 913f f093 b41d 0649 aa3f
000001a0: 55b5 b86f 83b4 d83f 7566 0b7f a994 cb3f
000001b0: 0b31 d100 4802 ce3f 25b8 18c8 68ea c23f
000001c0: bffb 7be8 c286 ce3f 9852 270a 00fb afbf
000001d0: 5621 c8b4 de65 94bf a470 c83f 55d8 5abf
000001e0: db54 cc91 17de 75bf 79d4 9d68 f09b af3f
000001f0: 98e0 7b86 a68a d93f 5296 6948 6a62 a23f
00000200: 54fd ae82 ab04 b13f 99ce c19a 118f c83f
00000210: a2b5 d018 232e adbf bb73 176d 3371 a3bf
00000220: 56a8 558f 3bef 9abf 855e 96a9 feba 55bf
00000230: 854c ef9f fe9a 523f aae0 95eb 463a b33f
00000240: 532f d0f2 0fac cf3f f6ba 43b3 1548 73bf
00000250: 1d76 69a7 f8b7 95bf f876 aa99 1b6f adbf
00000260: 0c20 50d0 126a 81bf 6d49 694c eee0 9bbf
00000270: 104b b3c5 6302 77bf 3f90 6847 6c3b 3ebf
00000280: 4119 ff4a 9cd9 33bf 4a69 1b71 e25f 90bf
00000290: a5f8 f4bb 169e cc3f 082f 4177 0ea3 a3bf
000002a0: bdd5 543b f0eb 6abf c39c 9e62 8ccf 96bf
000002b0: 9038 f14a 977b 81bf 687d 46f2 1e34 79bf
000002c0: 06a2 888c 4c5b 94bf 3acf 0053 66e7 74bf
000002d0: 2536 7662 176d 8abf bcb3 bce7 5da3 af3f
000002e0: 1cab be58 74cd c93f 600e 7429 7c0b 7dbf
000002f0: 5bb0 9873 49b6 61bf 5c7e 49e9 857f 96bf
00000300: 5b32 7fea aa75 89bf 809f 2b10 6f30 78bf
00000310: 1522 58d9 028b 90bf 7bd9 20a9 5028 c03f
00000320: 7f74 759b 068b 933f 6a62 e38a 1e84 61bf
00000330: 579b a4aa 0ea4 853f 050f 7c2e 1ca9 7d3f
00000340: 3895 e2d1 1034 603f 2aa2 4c40 1ddc 5ebf
00000350: 1040 a807 b314 8d3f 3ced 9d71 c33a 91bf
00000360: 7c3f 0bac bc44 75bf c171 32f2 a9fb 783f
00000370: b177 3eaa 17bc 693f 079e d106 4469 d83f
00000380: 4ef0 5b67 586c a53f d0f2 f7e5 8236 a7bf
00000390: 2537 bbfa 0c42 b4bf 19c1 945e 104e aa3f
000003a0: fb5f 5296 856f 7cbf d291 566d 39b4 d83f
000003b0: 9953 8f64 c070 ca3f 26bc 4c3f 401f d43f
000003c0: cde9 c82f 9ad1 7cbf bc50 fbe8 5eab d33f
000003d0: 01d6 5b2a e74b 90bf 29cc e9e1 ade5 b2bf
000003e0: ef93 e283 8b87 b0bf 8314 d821 e5e0 b63f
000003f0: fb6d 7361 d0ce d73f cf59 f196 965f cb3f
00000400: 8c24 4780 a227 90bf 9614 2361 1982 d53f
00000410: de95 f73d 06fb 8a3f c644 a8d6 402d d43f
00000420: 67fb 3839 4a96 cb3f cfde e5d1 9e08 b43f
00000430: b9b7 eeb2 d1dd b23f 9bde c15a f841 d63f
00000440: 1a29 7ace dc09 cd3f 4bfb 2bef 0f94 c43f
00000450: 49d6 388e 5a8e bdbf 2749 455a bc1b c83f
00000460: 43d4 9fd1 3940 7bbf 7819 e027 1f58 e23f
00000470: 0b60 123f fcfe b73f 9c1c 8f0c 176c c03f
00000480: 4a52 9bcd e637 82bf cd7e 4928 1652 a83f
00000490: f79c 9c35 4f74 a8bf aa37 784f e6c3 b1bf
000004a0: 5e16 c415 7edc 7e3f 0a64 a53a 52d1 cf3f
000004b0: 8a19 2215 0fa3 433f 1887 42cf 7327 a23f
000004c0: 31f7 527f 7fa2 bbbf c1cb ce8c f3a2 993f
000004d0: 0b10 6729 a322 c2bf b9ee 9cc6 3e2a b0bf
000004e0: b92b 515f bb1e c6bf f187 4576 81dc bbbf
000004f0: d9cf eb1d 1ffa b3bf 430e 1b7d 5a7d b33f
00000500: 3b8f 7ae4 2887 70bf 668a 8483 a71a a03f
00000510: 894f ed94 b0d5 c2bf aaae c3ab 23fa ae3f
00000520: a7d1 8d88 d509 a9bf aed2 1d69 1cb1 b4bf
00000530: b0cc 6d41 d1a6 98bf f8d1 fb74 094a a8bf
00000540: 800d ec2a baa7 7abf 4a23 a439 06ad 83bf
00000550: 726d 1f9f 6420 86bf 9497 0f19 c8be cc3f
00000560: 314c 73ff 325d b1bf 1b87 90fa e213 c53f
00000570: 3c6d 85b0 ce63 c33f d0b8 41fe 054d c33f
00000580: acb8 031a d22d 9abf bed3 7eff 1831 7fbf
00000590: a013 30fc 1322 973f bd85 67a9 a0df c13f
000005a0: 930f 50c7 df47 1b3f d862 2f0f 066d d33f
000005b0: 5dbc 077c 1d9b bcbf 49d5 9628 1728 d23f
000005c0: 86dc 883c e21f 7fbf ee05 d002 7df5 cd3f
000005d0: ef93 e59e 2d2a 81bf 0ebc 8ea9 723b c43f
000005e0: 8102 1f0d c9d3 c93f a394 ca42 ee85 bb3f
000005f0: b229 7de6 afdf 583f e9ab 7e06 ad06 a53f
00000600: 6848 c861 efbf b2bf 6bc5 ea50 bb35 a0bf
00000610: c234 c35e df01 92bf 40af c6c9 fec8 d03f
00000620: df18 7a98 263d 89bf d02d b0e1 6dae c03f
00000630: ee16 a020 4b5b ca3f e0e8 b040 f439 a43f
00000640: cc12 4c35 59ce 983f 3b44 52c8 5519 66bf
00000650: e0ce e7cd 88e9 833f 9338 160b 585b 673f
00000660: a797 2848 b4b6 4d3f 2d1f a74d e96a 6dbf
00000670: 3cf6 d1b3 b484 773f a93e 82ba b034 5fbf
00000680: 25f8 1f96 043a 733f cd4f 58aa cf00 76bf
00000690: 1116 fc75 7b0d 73bf 8889 f4be 8e02 cf3f
000006a0: 4d4f 4e3a 8de2 a53f 2af6 0828 bebe a4bf
000006b0: 7988 0c5a c919 b3bf 82cd 020f 7faa 943f
000006c0: d82b 488d 3cf3 68bf ac43 1601 ba6f c93f
000006d0: 8338 58c5 f65c a13f 4fe9 3df3 ead3 c83f
000006e0: 370a 904b 2899 843f 625a ef71 1107 c83f
000006f0: c521 e02e fa8c 9bbf 8b32 1454 659d b2bf
00000700: 88eb 2a32 a4f3 adbf 0048 6b25 cd81 a83f
00000710: 0fba 4821 bf9b cf3f 6e7c a992 46a5 ba3f
00000720: 3cef 33ce b026 a5bf 180b 4e7e ec70 c93f
00000730: e455 308a 0aa1 893f a4e3 9468 9115 c93f
00000740: 439f cddc 1d74 c03f da89 def3 b3f0 a23f
00000750: f008 0435 5943 943f 00b6 3d59 7793 ce3f
00000760: eaa9 06c1 3fd9 c03f 5cd3 08af f473 ba3f
00000770: 036a 9991 f465 babf e0fd 04f0 87b6 bf3f
00000780: 256c e95a 926b 8dbf 531f 1425 3da3 db3f
00000790: e0e8 b786 134c a83f d33f 2251 887f b23f
000007a0: 05b5 9c91 4500 a4bf 91a5 07c6 fd57 ab3f
000007b0: 686d a974 cd7c aebf c209 c62c ce51 b0bf
000007c0: 9d3a dd36 3215 9cbf 6b32 4dd5 6fb9 c53f
000007d0: 3203 79c5 9f73 77bf cb15 db60 8454 7b3f
000007e0: 1816 cb3d b593 c1bf 4ede 67c2 32eb 633f
000007f0: fcac 8f1a f9b8 c1bf 06d1 d3fe 5bb6 b3bf
-0.0023047249418153403 0.0009538513205946921 -0.00520156555540392 -0.007043848713511091 -0.009002532984908265 0.011569037236806448 0.015603575969323115 0.017670776041444642
0.003521902862700357 0.0023612197533586254 0.01465625886053279 -0.051534803321961795 0.017087847047886778 0.1458007734117386 0.22826618486225783 0.054257152959115006
-0.0030408405508192894 -0.03284324134352383 -0.026643624116100748 -0.026743094994598177 0.008701929045171551 -0.03003001703468324 0.26906379572071615 0.3540092599724637
0.1899395925951745 0.06948366743420281 -0.06935876919193863 -0.028915256792487676 -0.02460642973963152 -0.03343749688403708 -0.002375172316494355 -0.03212967157827576
-0.1077525987357246 0.08320171337034071 0.12106352592949768 -0.1628471229835151 0.20547068761045217 -0.03470602462154751 -0.03277501335898931 -0.0006412743978902767
0.005733227590207271 -0.06851555095611904 0.09623277441618173 0.1922241984170632 0.19354166961226305 0.29968957419075126 0.07897180901837374 -0.10562936552271099
-0.02914427018901436 -0.013675337222197548 0.01707732450385925 0.05133837807287722 0.38601766500763307 0.21547430709215445 0.2344446186056149 0.14777860422458491
0.23848759032986597 -0.06246185420937883 -0.019919853004496467 -0.0016384918700458684 -0.005338756626561659 0.06173659588868303 0.3990875542945189 0.03590709814015426
0.06647750797764235 0.19186611229416853 -0.05699262311859889 -0.03797302920040787 -0.026303225158166597 -0.0013263213098521365 0.0011355864114548652 0.07510798694227341
0.24743842464556084 -0.004707417265520366 -0.021209607332243963 -0.05748831034473584 -0.008503100378234783 -0.027225230611585816 -0.005617513404291299 -0.00046130555657187053
-0.00030288758989307016 -0.015990770486362473 0.22357448747238098 -0.0383533974241726 -0.0032863323237062023 -0.022276109236966556 -0.008536512350613173 -0.006153221973732449
-0.01987952811956186 -0.005103492454555264 -0.012903387729944768 0.06179326490232692 0.20158247311822997 -0.007091031081703031 -0.0021621164894636675 -0.021970836986268658
-0.012431464463497457 -0.005905565109720956 -0.016155285373345835 0.12623031862467457 0.01908502887578267 -0.0021381947072820944 0.01056682070027441 0.007241354069041033
0.0019779518616639645 -0.0018835340171766781 0.01419963709943775 -0.016825727281213107 -0.005192505836660529 0.0060993803519093235 0.0031414472777688486 0.38142491022014763
0.04184223424633214 -0.045337763378460516 -0.07913285371179464 0.05137683062128157 -0.006942293000200546 0.38600001981310783 0.20656590376043196 0.31440740758529484
-0.007035829822195483 0.30733464004630284 -0.01591454692876049 -0.07381712689839105 -0.06456825227594697 0.08936912609358853 0.37199792401017334 0.2138546216035153
-0.015776194648229366 0.3360656212428891 0.01317410351380038 0.31526204073550124 0.21552398485251986 0.0782565367170449 0.07369719141453758 0.3477764974881922
0.2268634803952601 0.16076850107489302 -0.11545339557854918 0.18834642799135645 -0.00665304742323253 0.5732570437256035 0.09373451747740107 0.12829864609941388
-0.008895686292285227 0.0475012706926897 -0.0477623703903251 -0.06939544143844381 0.007534496802923478 0.2485754762990669 0.0005992721219321578 0.03545724778201825
-0.10794827326295998 0.02503567263529383 -0.14168204805002946 -0.0631446108717978 -0.1728128638663671 -0.10883340013018007 -0.07803530197617138 0.07613149217927977
-0.004035148369130155 0.0314533565563309 -0.14714629432512208 0.0605021617101021 -0.04890315334242539 -0.08082749906845763 -0.024073857897246753 -0.047439857034905886
-0.006507613389433842 -0.009607361444538793 -0.01080397234539163 0.2245721933715542 -0.06782835709172798 0.16466939196202976 0.15148337954711077 0.1507880679595872
-0.02556541713504916 -0.0076151825414187396 0.02259093500835585 0.13963707229326686 0.00010406783424349161 0.3035292766849529 -0.11174186971742146 0.2836969276789501
-0.007598766075310631 0.23405420911153335 -0.00838122979321018 0.15806420592477405 0.2017756761615779 0.10751237040183752 0.0015181749131040032 0.04106655792505604
-0.07324119698776743 -0.03165994036443006 -0.017585268172116704 0.26226777748773955 -0.012323667076327314 0.13032315750056833 0.20591105549845373 0.03950465478597365
0.024224656942368125 -0.002697627586322441 0.009722775253045268 0.002851173362336709 0.0009067898066106209 -0.003591018362587925 0.005741792553747124 -0.0019046522011513611
0.004694002071117286 -0.005371867363937311 -0.004651529568723515 0.24226555179582143 0.04274407707921899 -0.04051775206287929 -0.07461222122631907 0.020181641856380057
-0.0030456717161135675 0.19872212460589134 0.033912383642118925 0.1939672172264388 0.010057749563206915 0.1877157026599035 -0.02690497313600006 -0.07271416952807834
-0.0584994612922492 0.0478653057267735 0.24694050908279094 0.10408440666786742 -0.04131081120610111 0.19875866095761618 0.012514192907512496 0.19597070318721166
0.12854359895140463 0.03699266769332939 0.01978816400606659 0.23887531144593765 0.1316299145231164 0.10333184502890219 -0.10311821512861034 0.12387895212031408
-0.014365332984359888 0.4318383085342152 0.047455415911785925 0.07225849133305866 -0.03906457331172856 0.053405695365493895 -0.059545917979188456 -0.06374825089554917
-0.027424606894153148 0.16972158351053976 -0.005725502116150237 0.006672398665334932 -0.13732018964053405 0.00243148721642309 -0.13845742985663623 -0.07700133296367903

b1 f8 [16]
00000000: 9efd 2c01 a2e1 c83f 4890 fbe0 ff08 da3f
00000010: 365e 371f c291 db3f 4c42 3047 bd3a a43f
00000020: 743f 86dc 454e b53f 6d9f 29a0 0858 ae3f
00000030: c17b 8e92 0122 cb3f 50e9 12a2 3321 bb3f
00000040: c7ba 48d8 665d cc3f de07 fd38 c490 b73f
00000050: 731e 7444 e660 be3f 3713 a88e ec67 c93f
00000060: 53a2 b140 6dd8 af3f 7a20 14d9 59c2 b53f
00000070: 7a19 7562 5c4c 983f d3c1 c85f 8aee d33f
0.1943857675305311 0.40679928751911065 0.43077137993302317 0.039510645809177264 0.08322559961220383 0.05926539378270843 0.21197528511126332 0.10597536761171011
0.2216003948282916 0.09205271140402213 0.11866606875639167 0.19848401036883853 0.06219808020324948 0.08499681043406496 0.02372879362999345 0.3114343581574108

W2 f8 [3, 16]
00000000: 6651 5625 9301 e2bf 7b1f 5fe7 a412 e3bf
00000010: 0d47 a979 7d10 a93f 18b0 ff7c a592 bebf
00000020: 711d 9a2c 5ebf c7bf 2835 ff31 bc6c c0bf
00000030: a1b3 06e4 de0a e0bf c6d3 c754 df93 c9bf
00000040: 5f08 cc09 c403 e1bf fdab 69c0 ce65 ccbf
00000050: 0115 92fe 0c0e d4bf 6855 3a58 5c77 dfbf
00000060: 0956 3beb 3504 c1bf 4812 0ad4 069b c6bf
00000070: 829e 29b1 d40c b2bf 555d 0c6f 1fb8 b4bf
00000080: 1eb5 e0b7 bcf9 ee3f 176c a42c 56b5 e6bf
00000090: f914 4b2d b5f1 e9bf 996e bc23 16c0 c43f
000000a0: da23 0bae 5506 d43f c7d9 a787 cdea c13f
000000b0: 1e09 e44f 7d63 eb3f ff79 c089 7ed3 cabf
000000c0: 6310 eecd 127a ec3f 8f02 f29d 4953 d43f
000000d0: 2c1d 417d 9973 e13f 7956 fde9 5a97 e93f
000000e0: 235c 5d1b 1a28 b63f 519d 2ed6 bf00 b63f
000000f0: c35e 4da8 4328 78bf 1b8f 8c5b 1454 e2bf
00000100: 747f 0ae7 3fa8 d7bf 724d 5b6c baf6 f43f
00000110: 2929 116e e75d e93f c49b 9875 822b a5bf
00000120: c456 d74c 9d3e bebf c30f faa5 8ee2 96bf
00000130: 093c 2818 a0e7 d4bf 5b84 bc01 efed da3f
00000140: 5233 1e84 de29 d6bf c17e 2b1d e600 c0bf
00000150: 92a7 bcda f731 cfbf d1a7 0c07 49cd d2bf
00000160: b0bb 8460 05db b13f b294 03f9 8009 ba3f
00000170: ab31 3131 0dd1 b53f da00 7312 7563 e43f
-0.5626922349206722 -0.5960258978820855 0.04895393476603092 -0.11942514707305951 -0.18552758386452298 -0.12831833306555862 -0.5013269857059762 -0.1998252071349766
-0.5317096892688474 -0.22185692210345556 -0.31335759029782656 -0.4916602002716304 -0.1329409979431804 -0.176606038603625 -0.07050828290231873 -0.080934490786935
0.9679854956972667 -0.7096358177108212 -0.8107553372034594 0.16211201424527102 0.31288663860737886 0.13997811435520033 0.8558947143904196 -0.20957929350056756
0.8899015447682469 0.31758346962309586 0.5453612753271151 0.799725968371333 0.08654940765460188 0.0859489343553055 -0.00589777401622599 -0.572763613516574
-0.36964414179418914 1.3102363808328303 0.7927128934618725 -0.0413475769567451 -0.11814292074208327 -0.022348622208042245 -0.32663729056452034 0.42077231568879875
-0.34630549337525907 -0.1250274317198912 -0.24371240787996534 -0.293779618152823 0.06974824530037327 0.10170751647418078 0.08522112322788782 0.6371407852493818

b2 f8 [3]
00000000: 2173 8f21 0755 e33f ce68 4796 026e e9bf
00000010: 4ed7 dfd2 ed63 c83f
0.6041293769336314 -0.7946789679656605 0.19054959103203334
