10by10recording/src/oldMLPparameters/tactile_mlp_model_trial_random_test3.npz (npz, 16516 bytes, 6 tensors)

mean f8 [100]
0.0 0.0 0.0 0.0 0.0 0.0 0.0 0.0
0.0 0.0 0.0 0.0618371335504886 0.00349185667752443 0.026775244299674268 0.0 0.025407166123778503
0.02569381107491857 0.028977198697068406 0.05050162866449511 0.025094462540716612 0.0 0.011465798045602606 0.01454071661237785 0.007348534201954397
0.0007817589576547231 0.025980456026058633 0.003231270358306189 0.0036221498371335507 0.0015765472312703583 0.0 0.0 0.0064364820846905535
0.01696416938110749 0.015087947882736156 0.0016938110749185667 0.00145928338762215 0.004768729641693811 0.005680781758957655 0.005758957654723127 0.005094462540716612
0.0 0.03434527687296417 0.01460586319218241 0.04990228013029316 0.039726384364820844 0.015009771986970684 0.03695114006514658 0.03283387622149837
0.004612377850162866 0.0030879478827361565 0.0 0.057381107491856674 0.012208469055374593 0.0431400651465798 0.04644951140065147 0.05034527687296417
0.0390228013029316 0.03585667752442997 0.03348534201954397 0.0058371335504886 0.0 0.0008078175895765473 0.004716612377850163 0.0582671009771987
0.04067752442996743 0.047726384364820844 0.014840390879478827 0.0038436482084690552 0.02788273615635179 0.005863192182410423 0.0 0.0023192182410423454
0.00039087947882736156 0.007869706840390879 0.001745928338762215 0.003309446254071661 0.013263843648208469 0.007778501628664495 7.817589576547231e-05 0.0
0.0 0.030058631921824105 0.00028664495114006516 0.02749185667752443 0.02558957654723127 0.0 0.02634527687296417 0.03203908794788274
0.0 0.050814332247557006 0.0 0.0561042345276873 0.025407166123778503 0.02806514657980456 0.03022801302931596 0.025550488599348536
0.02571986970684039 0.025407166123778503 0.0 0.2049771986970684
00000000: 0000 0000 0000 0000 0000 0000 0000 0000
00000010: 0000 0000 0000 0000 0000 0000 0000 0000
00000020: 0000 0000 0000 0000 0000 0000 0000 0000
00000030: 0000 0000 0000 0000 0000 0000 0000 0000
00000040: 0000 0000 0000 0000 0000 0000 0000 0000
00000050: 0000 0000 0000 0000 0233 8ee4 1da9 af3f
00000060: 67e4 6e47 f49a 6c3f c223 703a f86a 9b3f
00000070: 0000 0000 0000 0000 4ab9 570e 5604 9a3f
00000080: cc02 1b79 7a4f 9a3f 8635 efe2 32ac 9d3f
00000090: eb79 0477 59db a93f 8d3a b1df 5cb2 993f
000000a0: 0000 0000 0000 0000 a1f8 065d 617b 873f
000000b0: 6f0a 7cf2 85c7 8d3f 2b89 2221 7f19 7e3f
000000c0: de9a 0794 de9d 493f 4e4c dee3 9e9a 9a3f
000000d0: 2a42 6e10 7778 6a3f 8635 efe2 32ac 6d3f
000000e0: b144 21b3 84d4 593f 0000 0000 0000 0000
000000f0: 0000 0000 0000 0000 406d e100 245d 7a3f
00000100: 6b5b c822 0e5f 913f 02c6 c215 6ee6 8e3f
00000110: 1b3d 08cb 5bc0 5b3f 474c 3a9b ade8 573f
00000120: e332 ac1d 6088 733f ce4e ed3d bb44 773f
00000130: 8acd 936c b496 773f 4998 0c60 eedd 743f
00000140: 0000 0000 0000 0000 3e05 e241 b495 a13f
00000150: 9314 ecc5 ade9 8d3f cc95 4faa ca8c a93f
00000160: 083d 4543 0457 a43f a486 6f7e 71bd 8e3f
00000170: a56a 4284 42eb a23f a2fd 2411 9acf a03f
00000180: 6a35 5fc0 6de4 723f 221c 6165 e54b 693f
00000190: 0000 0000 0000 0000 03ec 2b78 0e61 ad3f
000001a0: a0d2 9dfa c000 893f 775b e761 7416 a63f
000001b0: 720f c3f8 3ac8 a73f 3cda 5a2b dbc6 a93f
000001c0: 75ee c9ee cbfa a33f db0c 9f72 ce5b a23f
000001d0: fb16 bda1 fd24 a13f 474c 3a9b ade8 773f
000001e0: 0000 0000 0000 0000 2a42 6e10 7778 4a3f
000001f0: 1089 92fe b951 733f e474 427a 2fd5 ad3f
00000200: 72c8 373a afd3 a43f 87a7 01b8 976f a83f
00000210: add2 e58b a364 8e3f 0659 49eb b67c 6f3f
00000220: f279 a8bf 4a8d 9c3f 3021 c7aa 0004 783f
00000230: 0000 0000 0000 0000 540a eccf c0ff 623f
00000240: de9a 0794 de9d 393f b495 112c fe1d 803f
00000250: 67e4 6e47 f49a 5c3f a23f bb6d 691c 6b3f
00000260: 17aa 81f5 122a 8b3f 3742 b6a1 59dc 7f3f
00000270: 18af 9fa9 4b7e 143f 0000 0000 0000 0000
00000280: 0000 0000 0000 0000 7c56 44a4 b0c7 9e3f
00000290: 8160 d2b0 1ac9 323f 875b 5845 d326 9c3f
000002a0: e22d 8e69 2734 9a3f 0000 0000 0000 0000
000002b0: 7f35 4b9a 41fa 9a3f e811 dc65 6d67 a03f
000002c0: 0000 0000 0000 0000 4ab9 570e 5604 aa3f
000002d0: 0000 0000 0000 0000 ee53 edb8 b1b9 ac3f
000002e0: 4ab9 570e 5604 9a3f 8bee de1a 1cbd 9c3f
000002f0: 7730 899d 17f4 9e3f 0b5e b943 e829 9a3f
00000300: 0638 fe3c 4f56 9a3f 4ab9 570e 5604 9a3f
00000310: 0000 0000 0000 0000 6b30 6a5e b13c ca3f

std f8 [100]
1e-08 1e-08 1e-08 1e-08 1e-08 1e-08 1e-08 1e-08
1e-08 1e-08 1e-08 0.2408595177315678 0.05898868361169858 0.16142593912029435 1e-08 0.15735833368628882
0.15822023357272588 0.1677424335329449 0.21897766677522001 0.1564120635331377 1e-08 0.10646283694336317 0.11970499808642612 0.08540804970959935
0.02794903163917035 0.15907694714261436 0.056752360173161195 0.06007521176986416 0.0396744568152727 1e-08 1e-08 0.0799690901689358
0.1291370935132561 0.1219028471754941 0.04112107612140723 0.03817269499354904 0.06889114774136058 0.07515658308288573 0.07566897366049627 0.0711934717232274
1e-08 0.18211447628291424 0.11996888910035125 0.21774307548790103 0.19531564877508037 0.12159145185291455 0.18864187521825299 0.1782016171583064
0.06775769458801512 0.05548345312143547 1e-08 0.23256938888476958 0.10981541119083761 0.2031723504545275 0.2104565477727768 0.21865642991377265
0.19364923484065608 0.18593272955546436 0.17990018756910595 0.07617783762983901 1e-08 0.028410659769375284 0.06851545311704428 0.2342478401306814
0.1975420648546952 0.21318672769204106 0.12091383748887202 0.06187791055359573 0.1646368502901443 0.07634668746433924 1e-08 0.04810239526094485
0.019766817836887426 0.08836162244930205 0.04174782518832827 0.05743252535117476 0.11440243173956934 0.08785213883632842 0.00884137778415866 1e-08
1e-08 0.17074868662383946 0.016928175459141034 0.16351164412424762 0.15790741995696883 1e-08 0.16015994025538213 0.17610391339603773
1e-08 0.21961839694861618 1e-08 0.23012291063297136 0.15735833368625984 0.1651590065071433 0.1712141456828559 0.15778993721885629
0.15829832966597254 0.15735833368630375 1e-08 0.403684969728292
00000000: 3a8c 30e2 8e79 453e 3a8c 30e2 8e79 453e
00000010: 3a8c 30e2 8e79 453e 3a8c 30e2 8e79 453e
00000020: 3a8c 30e2 8e79 453e 3a8c 30e2 8e79 453e
00000030: 3a8c 30e2 8e79 453e 3a8c 30e2 8e79 453e
00000040: 3a8c 30e2 8e79 453e 3a8c 30e2 8e79 453e
00000050: 3a8c 30e2 8e79 453e 7130 cb13 7cd4 ce3f
00000060: 3a86 e4c5 c333 ae3f 50b6 9fec 9aa9 c43f
00000070: 3a8c 30e2 8e79 453e e4c3 7760 5124 c43f
00000080: c952 6184 8f40 c43f 3775 1685 9578 c53f
00000090: 6c4e adce 7507 cc3f ca8f c97c 4f05 c43f
000000a0: 3a8c 30e2 8e79 453e 843f e902 2641 bb3f
000000b0: eaed f29b fca4 be3f 0760 514c 4ddd b53f
000000c0: 7363 61c3 ab9e 9c3f d134 c326 a25c c43f
000000d0: 9e3e d435 a50e ad3f 7c24 b49b 2dc2 ae3f
000000e0: 9f2d 04dd 3550 a43f 3a8c 30e2 8e79 453e
000000f0: 3a8c 30e2 8e79 453e 8e69 f7b2 da78 b43f
00000100: c982 ab74 9087 c03f dc74 e865 0635 bf3f
00000110: 6d4c 3c5a d20d a53f 62e8 3119 5f8b a33f
00000120: d575 88aa d9a2 b13f be8b 6b3a 763d b33f
00000130: 6e97 31b7 0a5f b33f 2e6e bd40 bc39 b23f
00000140: 3a8c 30e2 8e79 453e 4db3 e1f3 864f c73f
00000150: a434 39f7 47b6 be3f c753 134e 01df cb3f
00000160: 3568 f169 1a00 c93f f971 2e0d 9e20 bf3f
00000170: 1ef8 5bbe 6a25 c83f c405 e582 4fcf c63f
00000180: 4cd1 4e7a 9158 b13f a55d 40c1 5368 ac3f
00000190: 3a8c 30e2 8e79 453e 02c8 a76f d5c4 cd3f
000001a0: 2154 a9df dc1c bc3f afaa 5334 8d01 ca3f
000001b0: b5e1 f47a 3df0 ca3f 2c17 c513 effc cb3f
000001c0: 039d 4485 7fc9 c83f 842e 59c8 a4cc c73f
000001d0: 5fa8 1327 f806 c73f 12d7 4c09 6480 b33f
000001e0: 3a8c 30e2 8e79 453e 1edd 441a af17 9d3f
000001f0: 1588 688e 3a8a b13f 828c 424e d5fb cd3f
00000200: 1d4f 11f2 0e49 c93f 1c75 b0e3 b349 cb3f
00000210: 4c08 a691 35f4 be3f d452 5824 76ae af3f
00000220: 1037 dbff d112 c53f 9f38 d1dd 748b b33f
00000230: 3a8c 30e2 8e79 453e 7192 028d e0a0 a83f
00000240: ac26 9fb0 c03d 943f 1329 a406 de9e b63f
00000250: 7ada b98f f85f a53f 2750 38c4 cb67 ad3f
00000260: b181 e74e 7a49 bd3f dc88 2f4f 7a7d b63f
00000270: 5df1 79a3 6d1b 823f 3a8c 30e2 8e79 453e
00000280: 3a8c 30e2 8e79 453e 2832 71cc 17db c53f
00000290: 7c6e e99f 9e55 913f d6b0 0316 f3ed c43f
000002a0: ca65 4172 4f36 c43f 3a8c 30e2 8e79 453e
000002b0: df59 c3f4 1e80 c43f 8de6 5db2 928a c63f
000002c0: 3a8c 30e2 8e79 453e ac43 3fa4 741c cc3f
000002d0: 3a8c 30e2 8e79 453e fe4d 9de3 aa74 cd3f
000002e0: d0bf 7760 5124 c43f 9f44 cb29 ee23 c53f
000002f0: 5d04 295a 58ea c53f b916 ffed 7532 c43f
00000300: afa0 76a2 1e43 c43f fec5 7760 5124 c43f
00000310: 3a8c 30e2 8e79 453e 37aa b77b f9d5 d93f

W1 f8 [16, 100]
0.00915362958512087 0.009574890533808573 0.02323492772633609 0.017586133527712374 0.007649648235631424 -0.003074728745443963 0.005273334931603573 -0.006191008741356437
0.006518915834002923 -0.0011345627664960435 0.002561199132818609 1.3253107147810024 -0.17083728011669602 -0.07326319649729933 0.0035600930467854603 -0.06765837559789237
0.5050928742692262 0.2802765142908634 0.0994818101990313 0.07675405870872003 -0.004372003512275482 -0.35285154432489513 0.09567288113811494 -0.030707003019527463
-0.012243078768973069 0.6102698354913276 -0.24701322249104496 0.10047186949348676 -0.01928963328494962 -0.0008559119065030077 -0.0049247689683802115 0.5220089816699548
-0.023506751074533486 -0.058314608294575146 -0.03713016502170315 -0.10628824322563074 -0.0301745762829185 -0.036002126097642424 -0.035417426752645656 -0.03738654529266511
0.008400060465083237 -0.42622993099490525 -0.0957722704468712 -0.0852746107934161 -0.08376233491116143 -0.06524134631609689 -0.0886284404607163 -0.10078383432368371
-0.025605059371765965 -0.02107022237486077 -0.0011195545850274896 0.5238900814167211 -0.16779390083603937 -0.09079453502044797 -0.09514294914488079 -0.10110176986686815
-0.10750168106716103 -0.0830259724649653 -0.09326089053019927 -0.033488307868432446 0.012081702511541757 0.50718698848554 -0.030647343292841547 -0.12095707806363666
-0.09217983994335295 -0.10626135126280854 -0.06873940916700184 -0.03153645126750036 -0.06782662493502695 -0.03503759485879413 0.023555166816692685 -0.0367461891399149
-0.012483625964417733 0.09975502629686678 -0.035112949677833474 -0.029403056303532144 -0.059378251780421325 -0.04509168961769209 -0.035012897231393565 -0.004889206821942116
0.009653650013882745 -0.359685681971252 -0.08493888966798183 0.8692634999818301 -0.07908870859025237 -0.013783297990959061 -0.08903165871773613 -0.08337183387793203
0.005576372342217377 -0.10412174772062292 0.0026774363419227454 0.7793293546797335 -0.018755285237883747 0.507813986990489 -0.1678987579983641 -0.07356938561002369
-0.07559740339220784 -0.07665753156861346 -0.008276147386244895 -0.22705848305983387 0.00620516992558687 -0.01065964776742469 0.010615274452979658 -0.006702700832568393
-0.008024985396935276 0.0006936054524528978 -0.0020630233365928684 -0.0005265513847288919 -0.004107607608075334 0.0084555445013273 -0.006754169524809748 -0.625449861386263
0.7390832406660838 0.3822819409644462 0.011286618430451223 -0.23553284737730773 0.029897625732255753 0.7160074305334722 -0.5992648580630203 -0.23659086120620984
0.00045726312894857417 0.6126270029000388 -0.10536683267664915 0.05909060363872323 0.3274067312268153 -0.17403556810726584 0.39201681711884273 0.378977025600001
0.43139153576247996 -0.0018956100931026773 -0.0068696456418768925 0.254679988572891 -0.03201600267822353 0.057828072398675726 0.19311707418322116 0.08680789121719942
-0.2501160088008746 0.18327411624671816 -0.0668554932820725 0.5699767446445763 -0.009011825023053012 -0.13886851675009323 0.5210000653239387 0.3348553675603635
-0.08084645116030834 0.5676070274578985 -0.3628441828350895 -0.4476922285943626 0.21537466759232823 0.8287762712077499 -0.007508258745716009 0.3587573152969122
0.7127952002575562 0.35470457414052015 0.49763277310870624 0.28773501335744506 0.028534195719486403 -0.0534607659535217 0.4532982931192334 0.26917443846382233
-0.009372297950595467 0.6955398666156465 0.5782326719806181 -1.153063611317392 0.3201141546086121 -0.21092374560751165 0.8664281836863146 0.06953257759447384
-0.36314423040266586 0.6432405290176779 0.0014367436229595911 0.6637801077075415 -0.03911263685370682 0.524270476971801 0.1914378116994377 1.0855128519599841
1.1617021447675047 1.1680907710120525 0.047116174465178955 -0.008400162585123692 0.007306489011965307 0.7366313081427872 0.562175439295154 0.13606488943447018
-0.2746995499216409 -0.013227680692039952 0.33565611647168414 0.9421374350323285 0.005678772212698969 -0.3862410318946079 0.00211409499148181 0.0700244482815869
-0.8004788750296816 -0.2517380662213939 0.41006936516839937 -0.24046095688131966 -0.2757300524949277 -0.6803086865682855 0.027192723819942637 -0.6033931998069871
0.006511634049532135 0.014252255819269899 -0.007592547748608061 0.008469538657595236 0.009992786063298804 0.012615455336918076 -0.004059149504977085 -0.005567752498797664
0.006924331562419284 -0.010211902989090145 -0.00538646774984475 -0.04950969116115687 -0.03369168861400396 -0.032377669117769264 0.005420295432031621 -0.03396457026816232
-0.02040925612026885 -0.033542931326091666 -0.043673896906918086 -0.030045563107797317 0.024070528700052385 -0.028396039845371222 -0.03644677708811524 -0.016967874238307742
-0.022113293149997007 -0.04812169836907907 -0.011484434236112 -0.012494333473814402 -0.010228027209440126 -0.004893670773679174 -0.0030184729065297544 0.0009797115609468852
-0.009860122056100576 -0.04640370021739244 -0.00790056275220788 -0.019810705393914354 -0.015895434090982048 -0.016890355321300902 -0.03299149854757594 -0.017859616790092087
0.007613310510403321 0.6417659077850345 -0.07966205682102377 -0.044046924336915094 -0.036002700463526466 -0.03890969851088571 -0.027422443983443744 -0.03978885075188573
-0.009425753540679895 -0.00773976156975847 0.013921037291006631 0.5641243418084614 -0.28205362620387026 -0.045339850191161164 -0.05417403236711425 -0.031947046566216455
00000000: f38e a95d 23bf 823f cad6 a40d 009c 833f
00000010: e890 d69a e5ca 973f 4f5d 7571 1902 923f
00000020: 0e91 f7cf 3c55 7f3f 92ed fb6c 2c30 69bf
00000030: ac49 2711 7e99 753f 558c 2c41 be5b 79bf
00000040: 31ab ff24 94b3 7a3f 1510 8d7e b396 52bf
00000050: 0daf 7250 39fb 643f 585d 1002 7934 f53f
00000060: 6af7 84f9 fedd c5bf 8bd1 f478 60c1 b2bf
00000070: 96f6 9c66 0e2a 6d3f 9251 7e2e 0f52 b1bf
00000080: 18ba 0d88 b829 e03f 28d5 ade7 0cf0 d13f
00000090: 3c0a 5ad1 a377 b93f 4b3d fd6b 27a6 b33f
000000a0: 5cca a6c1 60e8 71bf 37fc cda4 1e95 d6bf
000000b0: 4330 9a97 047e b83f 257e e816 a871 9fbf
000000c0: 5f1b 5237 e612 89bf 2a75 259b 5487 e33f
000000d0: 7ca9 2318 219e cfbf 417b a441 86b8 b93f
000000e0: 2859 7160 a9c0 93bf 55a7 c6d2 e80b 4cbf
000000f0: e782 8d9a fe2b 74bf f9b3 0f2e 4cb4 e03f
00000100: 01be 665c 2712 98bf 222d 028f 69db adbf
00000110: 6b35 ed98 b902 a3bf f476 9ad0 b435 bbbf
00000120: 9721 3989 15e6 9ebf 0108 5ae4 de6e a2bf
00000130: 9ae0 38a3 3b22 a2bf 9851 af4a 5424 a3bf
00000140: 400b db07 0d34 813f dec3 8ce7 5947 dbbf
00000150: b8d7 6e11 8884 b8bf 0d6f 8990 8ed4 b5bf
00000160: 557d 14c9 7271 b5bf 374f c628 a8b3 b0bf
00000170: e235 467d 5ab0 b6bf 7cbd 6228 f8cc b9bf
00000180: 289b 7472 3638 9abf 1df1 13b0 6e93 95bf
00000190: eeba 0a95 c057 52bf 6846 cc21 b5c3 e03f
000001a0: 278f 4742 457a c5bf 6f7f 9186 4f3e b7bf
000001b0: 73b2 05cf 495b b8bf d15a 253b cee1 b9bf
000001c0: 85cf 72ec 3a85 bbbf ada3 74ac 3041 b5bf
000001d0: e1b2 d21a f2df b7bf 9ac4 2f26 6125 a1bf
000001e0: 522a 56a9 4abe 883f 6411 1035 e03a e03f
000001f0: 37b0 9b64 0462 9fbf 21c7 8006 0bf7 bebf
00000200: 453f e815 1999 b7bf dfa5 80a4 f133 bbbf
00000210: 1992 51ea e798 b1bf ced0 a6b5 8b25 a0bf
00000220: 1cdd e4ef 155d b1bf f518 1998 72f0 a1bf
00000230: c3a0 847c d81e 983f d095 3781 65d0 a2bf
00000240: 2d78 05ea 0391 89bf 7481 8e9f 8b89 b93f
00000250: 3a95 1015 53fa a1bf 458b e7b4 d51b 9ebf
00000260: 1f2b fb82 d366 aebf 0570 7508 4216 a7bf
00000270: 3116 18e1 35ed a1bf cd3b 7576 b406 74bf
00000280: c2f3 c5f8 4ac5 833f a5fb 3918 1705 d7bf
00000290: 2a54 4819 8ebe b5bf 1ee9 00b0 01d1 eb3f
000002a0: 25c5 e058 283f b4bf de49 d1f0 6a3a 8cbf
000002b0: da55 805e c7ca b6bf 99cb e943 db57 b5bf
000002c0: 5239 710d 40d7 763f 232f 430d b9a7 babf
000002d0: 005f d2b0 fdee 653f 1231 651d 44f0 e83f
000002e0: 273c e5e2 9534 93bf a86a 521e 0340 e03f
000002f0: cd2c 52dd b47d c5bf b08e 2e79 71d5 b2bf
00000300: c567 3bf7 595a b3bf da4b 14f7 d39f b3bf
00000310: e8e9 e2b2 15f3 80bf cfbb 829b 4010 cdbf
00000320: a323 589e 976a 793f 493d 62b4 b9d4 85bf
00000330: 5ead e804 76bd 853f ee9a ee8d 4a74 7bbf
00000340: b14d a54e 676f 80bf 1ec8 075e 62ba 463f
00000350: 8fa0 5e38 79e6 60bf a6c3 107d 0841 41bf
00000360: 4ab8 7685 23d3 70bf 2318 d3f8 2351 813f
00000370: 57fa 8793 42aa 7bbf ad22 7e6d af03 e4bf
00000380: 43d7 75e5 91a6 e73f f7cb 92ac 4e77 d83f
00000390: 8d6a 5448 701d 873f 1845 4fba f025 cebf
000003a0: 640a feb2 7b9d 9e3f 37b2 3a6a 88e9 e63f
000003b0: 67ba e07e 2d2d e3bf fbe1 b4fd 9b48 cebf
000003c0: 0d71 3b2f 9af7 3d3f ed44 c3f1 a39a e33f
000003d0: 68e7 6d1c 52f9 babf 7428 42a4 1f41 ae3f
000003e0: f600 c75c 3bf4 d43f 3845 ae28 cc46 c6bf
000003f0: f079 40b4 cd16 d93f 7eca b8da 2841 d83f
00000400: 8bbf 773e eb9b db3f e023 c6d6 c30e 5fbf
00000410: 201c df75 5823 7cbf 2870 774b ad4c d03f
00000420: 893a e7c8 6664 a0bf c26e 7c1f a49b ad3f
00000430: 1a44 f56e 0fb8 c83f 5e06 d0bd 0a39 b63f
00000440: 1a5f 8093 e601 d0bf 87d1 bdb7 8675 c73f
00000450: c756 340d 711d b1bf f453 b7de 3f3d e23f
00000460: d4a2 02ae ca74 82bf eb5d f18c 71c6 c1bf
00000470: 3df7 3854 08ac e03f def4 2335 456e d53f
00000480: fa2e bb5f 5ab2 b4bf 952a 7d36 d629 e23f
00000490: f583 b4ce d638 d7bf f91c 1f4e fda6 dcbf
000004a0: ef13 d9a8 6591 cb3f 3738 91d0 5585 ea3f
000004b0: e33f 34dc fac0 7ebf f5a9 193e e1f5 d63f
000004c0: 6043 3be1 37cf e63f 8435 6bd0 7ab3 d63f
000004d0: 10dc 7a21 37d9 df3f c932 121e 406a d23f
000004e0: f13e bb75 1138 9d3f b46a c7a2 355f abbf
000004f0: 16e7 11d8 d602 dd3f 13c3 876c 273a d13f
00000500: 8149 7d89 c831 83bf 7cb5 85d2 dc41 e63f
00000510: 9c55 f4cd e180 e23f bd0d 4dd4 f272 f2bf
00000520: 9bf6 4114 c07c d43f 56c3 aa9e 8cff cabf
00000530: 2c7e 2899 c7b9 eb3f 685c c612 e3cc b13f
00000540: dedf 534c c13d d7bf 1ef7 7229 6d95 e43f
00000550: 01ef e4b7 238a 573f 1fdb cac7 af3d e53f
00000560: f242 4b50 9206 a4bf 4645 1be1 d2c6 e03f
00000570: 16c3 3bc2 0881 c83f a5e4 68b9 425e f13f
00000580: 0883 f7fc 5496 f23f 5b19 c4f2 7fb0 f23f
00000590: e792 e178 9c1f a83f 526b acbc 1a34 81bf
000005a0: 95f9 adb5 68ed 7d3f e3da 35d2 7b92 e73f
000005b0: 4963 cc58 57fd e13f bda0 2005 936a c13f
000005c0: 64eb c86b ad94 d1bf 843f cb3f 1d17 8bbf
000005d0: 22b0 bcca 637b d53f 3ba3 f967 fd25 ee3f
000005e0: 01a9 f5ce 9f42 773f a014 174e 2cb8 d8bf
000005f0: 9f6e 2b1b 9451 613f 3534 4a4b 1fed b13f
00000600: f885 acdf 859d e9bf 1b11 65fa 791c d0bf
00000610: 2d58 1f94 933e da3f c193 e2b4 6cc7 cebf
00000620: 6f5d 7fa9 8fa5 d1bf 24db ffb8 16c5 e5bf
00000630: 9eb6 fbcd 68d8 9b3f fd97 7941 ff4e e3bf
00000640: f585 9474 f1ab 7a3f 739a 1a65 4930 8d3f
00000650: f69f 6004 5d19 7fbf f564 5f3c 7a58 813f
00000660: cacc b30a 1977 843f b10a c5c0 21d6 893f
00000670: efa7 f9a5 53a0 70bf 4f1c 502e 36ce 76bf
00000680: 404d b719 b05c 7c3f 04cd f16a fae9 84bf
00000690: 0384 39ed 1e10 76bf cd94 be90 5559 a9bf
000006a0: e102 7d79 0940 a1bf dc8a f64b ce93 a0bf
000006b0: 9cff d779 9733 763f db84 0cdd cd63 a1bf
000006c0: f4f9 49fe 29e6 94bf 9275 1d02 8a2c a1bf
000006d0: b8e4 cecd 6c5c a6bf 2e67 c09b 43c4 9ebf
000006e0: b0b1 41d6 f1a5 983f e61a e3f9 d913 9dbf
000006f0: 6aaf 46e7 26a9 a2bf 0ca4 bec3 0660 91bf
00000700: 445d 8bfb dda4 96bf 7d43 7241 68a3 a8bf
00000710: 7c45 a8ab 2685 87bf a128 3e0d a196 89bf
00000720: ece8 ef92 6ef2 84bf 6aaf e2be 620b 74bf
00000730: ae66 5b4d 32ba 68bf d62b 4847 350d 503f
00000740: 15c9 1f2e 8b31 84bf 9ab5 b1cd 39c2 a7bf
00000750: 5036 2095 2b2e 80bf d736 1cef 4149 94bf
00000760: c253 4e86 e446 90bf 8127 e48e b44b 91bf
00000770: 28a1 9dfe 42e4 a0bf a551 2198 ca49 92bf
00000780: 47ec 807a 222f 7f3f b3fb 33a8 5889 e43f
00000790: 9f44 c788 bb64 b4bf 686a 0887 518d a6bf
000007a0: acf7 1d2a f26e a2bf 67f4 33d5 f8eb a3bf
000007b0: 6354 5710 a114 9cbf 9b15 7349 345f a4bf
000007c0: 0e3a 9439 cf4d 83bf bb9c 226d bab3 7fbf
000007d0: 1f52 21ff a182 8c3f 5a3c de7d 4e0d e23f
000007e0: 9de2 10a7 2a0d d2bf 719b 8deb c836 a7bf
000007f0: 9e4f 9ee2 b2bc abbf 0a50 6900 5d5b a0bf

b1 f8 [16]
0.45322769082704845 1.3659626119371173 0.19213914783109773 0.12120259409534659 0.18156721899557704 0.18199418038408985 0.303032440989597 0.36615928140854265
0.1583357424267009 1.409177254050782 0.781366275427701 0.10858562286347684 0.213828804560692 0.4317982534417944 0.20510312673928366 0.8139476183034972
00000000: f799 6fb7 ae01 dd3f 2f42 9d9c fbda f53f
00000010: c3a1 1bfe 0398 c83f c672 d419 2207 bf3f
00000020: 504b ce39 983d c73f 4fef 67d6 954b c73f
00000030: 035a eb2d e264 d33f 05b3 b156 276f d73f
00000040: 085a c179 5844 c43f a1a4 c672 fd8b f63f
00000050: 0519 e5d8 f300 e93f 38b1 0373 44cc bb3f
00000060: 19f6 4305 be5e cb3f c127 4024 95a2 db3f
00000070: 4c87 d3ba d140 ca3f d9a8 28e0 db0b ea3f

W2 f8 [4, 16]
-1.598821662671725 -2.1479691215012977 -0.6093011614034035 -0.5852927167083243 -0.6700184741765298 -0.798325484951104 -0.7496404649598195 -1.1644112686680572
-0.28681669081815553 -0.5288026468540082 1.7478816636343473 -0.3428706899524111 -0.6969929874854588 -1.9994097320381938 -0.9505461701072224 1.3071081721730586
0.7288887742074036 -1.4084858064377863 0.8940174337880203 0.9039310513998663 1.2308985944431472 0.6271689609978791 0.8526604493609414 1.1333636938496021
0.8937720048405658 -1.106960498938843 -0.12607555422462324 0.5128766117413576 0.892553091782169 1.46520906745725 0.621620468472783 -0.19722008579513542
1.0066510098614914 1.050474998360887 -0.6744362735913032 -0.10970577709612647 -0.31299770461051735 0.26648892657885304 0.44885048301376224 0.7447163165539619
-1.0956396880833874 1.994993689664032 -0.8349696554168835 -0.006870048596725687 -0.11253947076460712 0.8743353306950236 0.3617064101748806 -1.8646858077759012
-0.1559991834193233 2.4937310087016327 0.36314840420644756 -0.16665421522233712 -0.2533511103035397 -0.12326650483588861 -0.5598008584031221 -0.7455805678835972
0.5168175831278499 -0.34507959015777434 -0.7362839584796612 -0.14734009338057874 -0.07596236822083097 -0.3380380748242031 -0.06050451346092944 0.7534459212526348
00000000: 82fb 1406 c694 f9bf d053 4d6f 0a2f 01c0
00000010: d58e 3426 657f e3bf 052d 9bca b7ba e2bf
00000020: 80ba 4995 ca70 e5bf e5b4 2de3 e18b e9bf
00000030: 5157 1800 0efd e7bf ed5e e0b5 6da1 f2bf
00000040: f0b2 c064 345b d2bf a7d6 4887 f3eb e0bf
00000050: c966 69c3 52f7 fb3f 5e90 06e8 97f1 d5bf
00000060: 0253 d93c c44d e6bf d987 260f 95fd ffbf
00000070: b65a 3ecd df6a eebf fd14 3d42 eae9 f43f
00000080: f18d f48c 0e53 e73f d77c b869 2889 f6bf
00000090: 6f8c 0573 ca9b ec3f 053e f3cf 00ed ec3f
000000a0: 0136 7db9 c2b1 f33f 8bab 11a4 c411 e43f
000000b0: 0f22 1391 fe48 eb3f bdec f8f7 4122 f23f
000000c0: d3db 5bbf c799 ec3f b07f 4e36 1cb6 f1bf
000000d0: 7023 1c67 3e23 c0bf 59ff 4936 7c69 e03f
000000e0: 41bd 6480 cb8f ec3f 3781 2810 7f71 f73f
000000f0: 75ac d39b 50e4 e33f a95d 4dfd 813e c9bf
00000100: 9a72 dd16 3e1b f03f 519c 33df bece f03f
00000110: b6f1 4961 fb94 e5bf 9e64 cf84 ad15 bcbf
00000120: 8a9d 4186 2708 d4bf 98bf 1992 270e d13f
00000130: 5ba0 5560 f7b9 dc3f feb2 0c50 b7d4 e73f
00000140: de48 487b bd87 f1bf 9155 cd80 7eeb ff3f
00000150: 785f 6548 12b8 eabf 01c7 b7a0 c423 7cbf
00000160: 5771 7102 63cf bcbf af51 6216 8efa eb3f
00000170: 6019 9da4 3226 d73f c967 1bc9 c0d5 fdbf
00000180: b18d 7eff c7f7 c3bf 2628 3b3e 29f3 0340
00000190: 6e52 eacd d23d d73f ff6b 0fe2 ec54 c5bf
000001a0: eb2c 4a93 e736 d0bf b65d f6c6 648e bfbf
000001b0: 01a7 637d e3e9 e1bf 26fb 72c7 cbdb e7bf
000001c0: 2205 3107 c589 e03f 90a9 8fb4 c815 d6bf
000001d0: 88aa 4760 a38f e7bf 24c6 3a49 0adc c2bf
000001e0: ac34 3c0f 4572 b3bf 640e 0b73 6aa2 d5bf
000001f0: 6071 2695 72fa aebf 84b5 e29e 3a1c e83f

b2 f8 [4]
-0.765048491940042 0.22872827025097633 0.6778101634047285 -0.14148994171561688
00000000: 3a92 97f9 467b e8bf 1905 33cc f746 cd3f
00000010: fd07 97f0 9eb0 e53f abd5 30a8 571c c2bf
