10by10recording/src/oldMLPparameters/tactile_mlp_model_trial_random_test2.npz (npz, 16380 bytes, 6 tensors)

mean f8 [100]
00000000: 0000 0000 0000 0000 0000 0000 0000 0000
00000010: 0000 0000 0000 0000 0000 0000 0000 0000
00000020: 0000 0000 0000 0000 0000 0000 0000 0000
00000030: 0000 0000 0000 0000 0000 0000 0000 0000
00000040: 0000 0000 0000 0000 0000 0000 0000 0000
00000050: 0000 0000 0000 0000 e4b5 2d07 9c8a a73f
00000060: 8fa4 e664 59ee 533f f274 01f7 b12f 913f
00000070: 0000 0000 0000 0000 362f 1414 dded 963f
00000080: 15e5 36b8 e795 943f 3feb c2b0 bc03 9b3f
00000090: 1c55 358a 468f a63f 578c 9da2 f2cc 993f
000000a0: 0000 0000 0000 0000 4548 1550 fb75 7c3f
000000b0: e130 79a4 bad8 733f d6d5 3063 de97 633f
000000c0: 2637 3c8c 66b3 4b3f c6dd 58db 675d 983f
000000d0: f16f d245 196f 7a3f 630d 3e49 0f1c 7b3f
000000e0: 8fa4 e664 59ee 633f d25e f981 84ac 793f
000000f0: 0000 0000 0000 0000 f958 1257 3485 773f
00000100: e151 a258 6226 7e3f 0972 1393 520d 7d3f
00000110: 8fa4 e664 59ee 733f fdcf 4938 8e70 813f
00000120: b465 fba1 a831 803f 3509 bcae 9cdf 753f
00000130: 5082 34dd 2f69 623f ac69 0f5e 6d94 523f
00000140: 0000 0000 0000 0000 05ed 5e30 715b 993f
00000150: 89e1 feb8 7ee6 773f 1e28 a415 0b8f 9d3f
00000160: 7ca0 9bb9 bd1e a03f 1d02 4cb0 ca80 8c3f
00000170: 440f 11b8 9ae0 9a3f 4c1e a92e f604 993f
00000180: fef5 a19d ce7e 723f 04da b2fd 50d4 683f
00000190: 0000 0000 0000 0000 dd32 8302 1d0a a53f
000001a0: cec6 98ec 8273 653f 7551 c69b 0673 983f
000001b0: 1a95 7231 a216 a03f 06f2 8de1 091c a03f
000001c0: e5c8 d939 bc11 983f 5f75 ddb3 0de3 963f
000001d0: 72f2 699e 65cf 953f 82fd ed58 fc90 313f
000001e0: 0000 0000 0000 0000 d25e f981 84ac 493f
000001f0: e93f 111b 16fd 713f 6499 2bbb ebbf a63f
00000200: bece c064 0c39 9a3f 8c66 b31b 6098 9b3f
00000210: ef23 227b 9852 683f 4773 9c66 d444 443f
00000220: d80e 35fb 3e2d 953f 0000 0000 0000 0000
00000230: 0000 0000 0000 0000 edd7 71b0 1736 763f
00000240: 5b03 d583 4cb8 733f aa3e 8847 94c5 6a3f
00000250: 1990 4380 0956 593f 933c 47fa 5a27 683f
00000260: aeb5 bf28 eeb0 643f 2acf 9c21 68ec 5f3f
00000270: 0de9 4a74 acf8 463f 0972 1393 520d 4d3f
00000280: 0000 0000 0000 0000 4f7d 052c 97a8 9b3f
00000290: df05 f28d e109 6c3f f832 baf1 f376 963f
000002a0: 8a93 4490 9b98 943f 0626 63c8 d1f0 6a3f
000002b0: 11e7 4016 4ac7 953f 45ae aa5c 970b 973f
000002c0: 541a 9572 31a2 663f b910 086a caf1 a43f
000002d0: 0000 0000 0000 0000 bf5a aed6 e8dc a53f
000002e0: 15e5 36b8 e795 943f 5407 e93f 111b 963f
000002f0: 3e3e ac8a 3812 953f 84d0 5ce4 c090 983f
00000300: 1f40 7ff9 c3d6 943f 8695 4eee fdc9 953f
00000310: 0605 3a14 2aa3 703f af28 cd87 6074 e03f
0.0 0.0 0.0 0.0 0.0 0.0 0.0 0.0
0.0 0.0 0.0 0.04597938144329897 0.0012164948453608248 0.016783505154639174 0.0 0.02239175257731959
0.020103092783505156 0.026381443298969073 0.044061855670103095 0.025195876288659793 0.0 0.006948453608247422 0.004845360824742268 0.0023917525773195876
0.000845360824742268 0.02379381443298969 0.00645360824742268 0.006618556701030928 0.0024329896907216496 0.006268041237113402 0.0 0.005742268041237114
0.0073608247422680415 0.0070927835051546395 0.004865979381443299 0.008515463917525773 0.00790721649484536 0.005340206185567011 0.002247422680412371 0.001134020618556701
0.0 0.024762886597938145 0.005835051546391753 0.0288659793814433 0.03148453608247423 0.013917525773195877 0.02624742268041237 0.02443298969072165
0.004515463917525773 0.0030309278350515462 0.0 0.04109278350515464 0.002618556701030928 0.023876288659793816 0.03142268041237113 0.0314639175257732
0.023505154639175258 0.022350515463917527 0.02129896907216495 0.00026804123711340205 0.0 0.0007835051546391753 0.004391752577319588 0.04443298969072165
0.025608247422680412 0.026948453608247422 0.0029690721649484535 0.0006185567010309278 0.02068041237113402 0.0 0.0 0.005422680412371134
0.004814432989690721 0.003268041237113402 0.0015463917525773195 0.0029484536082474227 0.0025257731958762885 0.0019484536082474226 0.0007010309278350516 0.0008865979381443299
0.0 0.027010309278350516 0.003422680412371134 0.021938144329896908 0.02011340206185567 0.003288659793814433 0.021268041237113403 0.022505154639175257
0.0027628865979381443 0.04090721649484536 0.0 0.04270103092783505 0.020103092783505156 0.021587628865979383 0.020577319587628866 0.023989690721649484
0.020350515463917525 0.021278350515463916 0.0040618556701030924 0.5142061855670103

std f8 [100]
00000000: 3a8c 30e2 8e79 453e 3a8c 30e2 8e79 453e
00000010: 3a8c 30e2 8e79 453e 3a8c 30e2 8e79 453e
00000020: 3a8c 30e2 8e79 453e 3a8c 30e2 8e79 453e
00000030: 3a8c 30e2 8e79 453e 3a8c 30e2 8e79 453e
00000040: 3a8c 30e2 8e79 453e 3a8c 30e2 8e79 453e
00000050: 3a8c 30e2 8e79 453e cab3 296f f1ce ca3f
00000060: 76b9 f65a c9d8 a13f 566f 4ab0 5b71 c03f
00000070: 3a8c 30e2 8e79 453e 3cd0 1182 27f0 c23f
00000080: b05a c232 16f7 c13f febf 14da 9f83 c43f
00000090: 6846 8bad 0f45 ca3f a1d2 b9ab 630f c43f
000000a0: 3a8c 30e2 8e79 453e 018c 6cd3 e543 b53f
000000b0: fc2a 0863 cec6 b13f a592 4199 7a02 a93f
000000c0: 7e5f 65fc a3c2 9d3f 3715 e579 0c82 c33f
000000d0: 3f0c cfdf c67f b43f 959b 670e fac1 b43f
000000e0: fa6a 56a7 4d39 a93f df46 b122 4334 b43f
000000f0: 3a8c 30e2 8e79 453e 0de8 1f7a e457 b33f
00000100: 81c9 6e33 f2e1 b53f 8fee 4117 bf7b b53f
00000110: 9a44 c665 6ed0 b13f 9519 3691 cf85 b73f
00000120: 26c9 95b0 8aac b63f 73ca 59ff 59a8 b23f
00000130: 29f9 ea70 be3e a83f 4310 246d 603b a13f
00000140: 3a8c 30e2 8e79 453e 0d3c 15f7 33e4 c33f
00000150: 9068 b16c 817f b33f 50b1 ebf5 566e c53f
00000160: 7bce 4d9c 0d5a c63f ae75 b9f3 75fd bd3f
00000170: 5720 12e8 a076 c43f 36b6 9763 06c3 c33f
00000180: bde2 e6ed e129 b13f 4f74 e1cb 1325 ac3f
00000190: 3a8c 30e2 8e79 453e 7d65 2a45 9b68 c93f
000001a0: 49ef 9fa2 682a aa3f ef16 7d30 7c8a c33f
000001b0: 260c 6bb0 9c54 c63f a39c 9778 3d58 c63f
000001c0: 3a2a 969c 6564 c33f d328 5e4a caeb c23f
000001d0: 9908 79b6 037b c23f de7e 1262 3dc3 903f
000001e0: 3a8c 30e2 8e79 453e 1e7e ffb9 d7a6 9c3f
000001f0: f12b 1a2a 8bed b03f 893a a470 0360 ca3f
00000200: 5004 71e7 2538 c43f 05cb b8ef 36ba c43f
00000210: 2851 33fc 65db ab3f 54b6 3389 b775 993f
00000220: 9714 6a7a 4837 c23f 3a8c 30e2 8e79 453e
00000230: 3a8c 30e2 8e79 453e f95b fbc9 e4cc b23f
00000240: 3ef5 ff5f 54b8 b13f aed1 8a5f b638 ad3f
00000250: cd1f 1a7f 501e a43f d304 b4bb aac2 ab3f
00000260: 14ef 5dcc f8b2 a93f f656 87a1 0c94 a63f
00000270: 2dfe cd61 5a1a 9b3f 6efe d768 167a 9e3f
00000280: 3a8c 30e2 8e79 453e 3b0b edcb 21c0 c43f
00000290: 296c d9b3 0fe7 ad3f 9265 4ee4 e8bf c23f
000002a0: b346 73da 3df8 c13f 463a a035 3250 ad3f
000002b0: 85b4 e12d a777 c23f f106 1430 22fc c23f
000002c0: 321c ad65 09e0 aa3f 6adf 1af4 875a c93f
000002d0: 3a8c 30e2 8e79 453e 8f14 b887 1be1 c93f
000002e0: e752 c232 16f7 c13f 568d 1c68 439a c23f
000002f0: 3724 08dd e32b c23f a20b c140 0f96 c33f
00000300: 5e4b d7ce b712 c23f 653f 0f19 c678 c23f
00000310: 7558 7d77 4b48 b03f 4113 0565 b1fc df3f
1e-08 1e-08 1e-08 1e-08 1e-08 1e-08 1e-08 1e-08
1e-08 1e-08 1e-08 0.20944040229679067 0.034857075075126184 0.128459416465257 1e-08 0.14795392848066224
0.1403529880378378 0.16026685856331818 0.20523258184271076 0.1567196453576303 1e-08 0.0830672875568297 0.06943979184886112 0.04884703751375711
0.029062807350185953 0.1524062724294397 0.08007472004014547 0.08108485080411605 0.04926531474776215 0.07892245861992418 1e-08 0.07555988294180356
0.08547891383822127 0.08391947095690909 0.06958665833214397 0.09188554091642794 0.08857027827415162 0.07288134082936341 0.047353698047560684 0.03365613300596284
1e-08 0.15540170254323052 0.07616433051717508 0.16742980010838915 0.1746232045367043 0.11714875412277223 0.15987025577146838 0.15438918936654183
0.06704532678748883 0.05497037757661671 1e-08 0.19850483777262787 0.05110480294385284 0.15266373031243272 0.17445715536277467 0.17456787479679745
0.1515013708670539 0.1478207457660746 0.14437910470775675 0.016369780646185876 1e-08 0.027980204322259998 0.06612462785612629 0.206055097580663
0.1579635028920472 0.16193281846207 0.054408251796902285 0.02486311697878414 0.14231210686935888 1e-08 1e-08 0.07343892985532809
0.0692188963293647 0.057073306239007734 0.03929378081835431 0.05421956578539668 0.05019357199395649 0.04409827682290583 0.026467716426394162 0.02976260199466057
1e-08 0.16211340386697679 0.05840348310876948 0.14648162029042716 0.14038823286550936 0.05725247292149453 0.1442765211135432 0.14831950519151563
0.05249051443257037 0.19807528895557464 1e-08 0.20218223692805679 0.14035298803778248 0.14533274253435974 0.14196441929405676 0.15301695501156326
0.14119622802408122 0.14431072448359852 0.06360313098170585 0.4997981535455445

W1 f8 [16, 100]
00000000: 4ed4 f03a 32c1 86bf 8d2f 7d79 fee1 7c3f
00000010: e18b 884c 71d7 803f 8e73 5460 76ae 973f
00000020: b1ac 188b 5f0c 8d3f d97f b2e2 1810 823f
00000030: d5d2 7171 5558 79bf b99c 37d2 602c 8fbf
00000040: ba71 1ad7 c39f 863f 3b8c a8b0 8e62 8abf
00000050: f30f 628b 98ea 753f a84f 2c12 bd6f f5bf
00000060: 8226 fe54 831b 7f3f f444 653f f475 f5bf
00000070: dce8 efff 8c2f 6f3f 6282 bc73 9932 f1bf
00000080: bdc7 027b 4868 e3bf 38c4 8edb 7b37 c7bf
00000090: 817a f3ad 1bbe e6bf f4ff c579 db38 ebbf
000000a0: bc34 fcab be51 73bf bb4f ea50 c972 d5bf
000000b0: 9648 bc46 a938 a2bf d7ce 92c8 53a2 b8bf
000000c0: 2953 15d7 5b7f 70bf 4877 626e 3ca4 e0bf
000000d0: f162 98d8 f1d3 6cbf 60d8 08f7 c898 c3bf
000000e0: 1cd6 6894 d00e 813f 7a3a 36db e807 d6bf
000000f0: 3afe 9e65 0fa3 a1bf 3486 4a55 d0b2 c9bf
00000100: e48e 83c8 1b58 823f a353 dcfa 3e3c 753f
00000110: 5052 6d5e a81c 733f 3480 23f1 0ec1 b43f
00000120: 71eb 9a72 7af0 a03f 2c2d 675a 48b3 c9bf
00000130: 3229 f913 c850 debf 0005 9dec cf32 a0bf
00000140: 57be 5bc9 6e14 8c3f 0d9c 87e8 39e9 c5bf
00000150: 90d0 a7a5 a267 b63f 14bc afa8 3cc7 cbbf
00000160: cdc1 396e 2ebb c3bf 224c 21bb 405f a63f
00000170: 2506 66ea 7d70 e3bf 9f6f 599c 4fd8 d2bf
00000180: 1bc4 68e3 f68e 94bf fa80 3277 2187 acbf
00000190: 59dc 46a2 78ce 8e3f c749 26b4 cd6d f5bf
000001a0: 2b57 7693 762d 79bf 16f0 50d8 8aa6 d2bf
000001b0: 3cc1 1243 734d bfbf 26f0 53cb a6e3 c0bf
000001c0: 867e a4ef 0492 e1bf 10c5 86ee 442e d3bf
000001d0: 19c0 fcc7 beda d2bf ca57 ec04 559b 90bf
000001e0: 8530 d7db 552c 56bf 1e7a 8641 643c 62bf
000001f0: 9fea 3db2 19c6 aa3f 4ec2 ec07 5d1a e2bf
00000200: ab28 c41f a972 c2bf 8fbc 974f fdb2 d1bf
00000210: a526 bdca 33a2 95bf 8600 bc8c 2bc3 80bf
00000220: 57c8 0d14 98ee ccbf 5a4f cc97 306f 35bf
00000230: 7a58 f954 8127 81bf 7e35 d8f5 2e29 d8bf
00000240: b2d6 b4ee 8e9d d2bf fdb4 8a35 ba84 61bf
00000250: a4b5 539c 45bf cbbf 656a 49e3 cc16 90bf
00000260: c570 8087 6bfd 86bf 3474 ec2e 8fe6 743f
00000270: cd07 e2de a3b8 cb3f 5d83 069e 3892 ca3f
00000280: 31a8 7c98 78cf 613f 4730 c27f 1f7f ddbf
00000290: d569 70a9 e498 91bf 0f3e 657a 0687 f2bf
000002a0: 3722 ea3e 8a4a d8bf 52d2 4a4b d103 98bf
000002b0: bafb 06fd 789c e0bf a1ec f4dd b33a e1bf
000002c0: 1a00 a808 ee47 ccbf a823 8a9e 09f3 f8bf
000002d0: 4157 e338 0389 423f b0a8 1e47 1135 f0bf
000002e0: b8fe 040a 3f0f bbbf adf9 bb42 1869 d9bf
000002f0: 12b5 fe2d 2b3c d8bf cb4b 029e 83b8 d9bf
00000300: af57 ca2a 239c e2bf b0c3 7c70 553b e2bf
00000310: ed18 4089 0d65 ddbf 5fa3 4fbc 8a53 ccbf
00000320: 478e face 109b 893f 7f68 dfdf 3b32 7fbf
00000330: 1e81 883b 97a6 74bf 97f8 b3c2 42b9 743f
00000340: a514 4736 85d9 933f 0eeb cb00 7a59 843f
00000350: ac4f eee5 7585 90bf 7859 626d 2ec2 82bf
00000360: 81ca 54f9 4a00 8f3f 0c6d cfae b786 84bf
00000370: d8e0 590d bbc0 463f 65ed ed97 eaa0 f7bf
00000380: 16e2 b914 c02b 7fbf 613b ff81 9aa9 f7bf
00000390: 7d86 ae99 ac83 803f af55 ddd1 2364 f4bf
000003a0: 2a9c b97c ea7c e7bf 1ddb c6bf 6b01 cbbf
000003b0: 4341 c21e bec6 e7bf a052 cc0c eba1 e7bf
000003c0: 20c9 1fb4 fff8 8c3f ec28 6935 e108 d2bf
000003d0: e952 d45c 67d1 8bbf d865 47d1 bd4e b5bf
000003e0: fc4d 9028 1228 9a3f 8d12 0c41 124d e2bf
000003f0: 7c9d 4279 a144 a93f d4f1 57b0 0d9b b7bf
00000400: a913 c534 0ae2 a73f 041e 47be 2caf d2bf
00000410: a479 3e8f f199 77bf 12c8 e085 da7c cbbf
00000420: 01aa 2d08 0017 a43f 7eed ba4b 35b8 b03f
00000430: 2a5c fe98 37d3 9d3f c308 1225 a321 c33f
00000440: cf6f 2bfa 809c ac3f f433 d458 8dda bcbf
00000450: 28c9 60ca b589 ddbf 0316 2655 bca8 a1bf
00000460: 38c5 8ea8 7fab 813f 4da5 07af 9812 c9bf
00000470: 53c7 9f83 4712 ba3f 1272 62f7 f4c8 cfbf
00000480: 9f2c eb57 3790 c4bf e570 1773 f436 b93f
00000490: 52dc 4ed0 e0ac e5bf 9bec 40f3 ae8f d6bf
000004a0: 6186 29dc 4bdc 98bf c0a5 e261 8617 b3bf
000004b0: 20e0 b2a9 7e49 51bf f7b3 0fd9 d59d f7bf
000004c0: a8ad 56da 936d 683f b056 6838 3ba8 d4bf
000004d0: bc6d 5c53 36cc bcbf 496c 1e26 2623 babf
000004e0: 3db8 e69d b175 e4bf 71d6 a13e 7a70 d6bf
000004f0: 085f a677 532b d6bf a29d 7bc7 e82f 82bf
00000500: 524a db60 01b1 773f c83e 03c8 5178 89bf
00000510: 79e5 cd7b 8e76 b03f 229a a2be d41c e6bf
00000520: d469 fe81 b3fb c4bf b02f a025 b0f1 d2bf
00000530: 0b71 88df 904a 92bf 89fe 6a77 3e6f 01bf
00000540: d0d2 63bf ee71 cfbf c9dd 929a 8638 9a3f
00000550: 9bbf 6b62 c7dd 7c3f bdf8 8ad5 abf4 d9bf
00000560: 1884 42ae b3ba d1bf d6fc a084 e2bf 8b3f
00000570: 2c0b 2957 022e ccbf 7fbe bcab 02fe 83bf
00000580: 261a 2dc1 e4cd 953f 6bf1 7239 c23c a03f
00000590: 1f53 8328 d766 ce3f bf37 48f6 f1dd d03f
000005a0: e1a5 018c 1c89 93bf 56c1 4a4b d76d dfbf
000005b0: f890 4cef 9307 503f 0dd8 2f71 c689 f4bf
000005c0: b19c 1b04 2220 ddbf 3658 f460 2ba0 91bf
000005d0: f501 4998 0dea e2bf 1207 00f3 b7d8 e3bf
000005e0: 31ce 33e2 6221 c8bf 76e1 a61e d8a5 fcbf
000005f0: 7c32 76e3 cbd8 903f 5eb2 1797 97e2 f2bf
00000600: 3985 d8ed c1d0 bcbf 86c1 591c b39e ddbf
00000610: d190 f304 b67d dcbf 3d21 f598 9418 dcbf
00000620: f1e6 32f9 fedb e5bf 4b26 9bf2 e646 e5bf
00000630: 32ab 86b9 ff01 ddbf e293 75aa 0f46 c4bf
00000640: df2a 1895 5f23 813f 35cf 066a 1f50 8fbf
00000650: c9d3 7035 d5a3 6f3f 4ab6 6589 a373 67bf
00000660: 9e3d c98d c4bb 113f 520e 80cf b8bc 55bf
00000670: a459 2f48 b329 823f e4eb b50d 4832 773f
00000680: 6f2f 7834 4139 90bf 16cf d757 6c92 78bf
00000690: d370 90ae 5adc 96bf c7de 8dc4 f566 813f
000006a0: 5a44 4f89 6953 603f a0a8 4786 2524 8abf
000006b0: 1b0d b834 581f 7d3f 35d9 9a14 7c06 813f
000006c0: be64 05b4 6293 81bf c061 0ad5 adfc 653f
000006d0: 915e 54c8 582b 64bf 3472 bcb4 8aad 893f
000006e0: 9ae2 a912 6bd7 45bf b357 fb01 2073 85bf
000006f0: 7d7a ea3c 44df 7d3f 65bd 2229 ea67 673f
00000700: e05c b339 e0fa 74bf b520 3eeb ad21 513f
00000710: a912 d63e 0241 78bf 7317 9f3a 0bec 7bbf
00000720: 06c2 4e2a 6722 7d3f bbca 7cb7 10eb 8f3f
00000730: 6af6 9971 c304 9b3f 3522 fe38 2830 83bf
00000740: a1de fa37 6560 703f a47b c96e 4ade 723f
00000750: 14c1 4132 6b27 86bf d741 5e32 2d93 723f
00000760: f729 4439 641a 883f cca9 c7b6 6698 7ebf
00000770: c0d3 bd78 76e2 9f3f ceb2 a66a 50c9 873f
00000780: 4c0e 7981 83a9 4fbf 9137 1e3d 5915 71bf
00000790: 10b4 67b3 431f 8b3f e090 9d39 4223 70bf
000007a0: a8c2 8d2d ebc1 6cbf 7389 0b89 5ada 8fbf
000007b0: 6fb3 b346 3d1b 90bf 0402 bb4d 033a 813f
000007c0: 1943 79ef e31f 84bf 6a04 db08 da0e 883f
000007d0: 8ad0 4075 18aa 57bf 2622 5d14 152f 8e3f
000007e0: b97d e824 1aad 893f ff3d 2445 87d9 8e3f
000007f0: a4d2 b7b0 df24 80bf 107b f269 5809 70bf
-0.011110680030563948 0.007051462212824944 0.008223424099076783 0.023126458768377094 0.014183756286988066 0.008819765489818042 -0.0061877572653556605 -0.015221363463707826
0.011046915056163498 -0.012883295789896212 0.005350681187454842 -1.3397799215208384 0.007594597831379725 -1.341297385825155 0.003806853666444272 -1.074853374571966
-0.6064798739009728 -0.18138073177900238 -0.7107065579874218 -0.8506905916583478 -0.004716629802499369 -0.33513100530512546 -0.03558854092092749 -0.09622691771329116
-0.004027708769474705 -0.5200483470868926 -0.0035190318637997532 -0.15310012876733747 0.008329038170908958 -0.34423276336102726 -0.03444717517367875 -0.20076946415524477
0.00895711618108614 0.00518440820248581 0.004666001978723758 0.08107083689856226 0.03308470391262731 -0.2007837716504154 -0.4736805148173914 -0.03163766635271692
0.013710847396821864 -0.17117999891272043 0.0875188497955739 -0.21701772915500384 -0.15414982206449537 0.043695471613908646 -0.6074819162460626 -0.294452574429437
-0.020076615934332503 -0.05571846561474732 0.015042250110907473 -1.3393075024692835 -0.006146872699351917 -0.29141493916154226 -0.1222755469086722 -0.13194737365836423
-0.5490746193426765 -0.29969905179594125 -0.2946011498452222 -0.016217544961442155 -0.001353343817174697 -0.0022260625957664223 0.05229263592533084 -0.5657181887418774
-0.14412416506849487 -0.27654965183951047 -0.02112656521720759 -0.008184757454273727 -0.22603131274405783 -0.00032706199981301853 -0.008376131444645763 -0.37751363762148304
-0.29086659728214237 -0.0021384846589486126 -0.21677465565828158 -0.015711976406559098 -0.01122554785984454 0.005102690992115067 0.2165722692771496 0.20758731571279557
0.002174125231154477 -0.4608839748041231 -0.01718480381178174 -1.157965162379586 -0.3795495619201889 -0.02345206281707341 -0.5191006605090174 -0.5384158454029554
-0.22094512388866933 -1.559335345549906 0.0005656495793810793 -1.0129559305301363 -0.10570138926140771 -0.3970394756032885 -0.378672404210037 -0.40188684874118213
-0.5815597377538689 -0.5697428891199845 -0.4592927780471559 -0.221299497555516 0.012502795521249456 -0.007616266140724303 -0.0050416858216808785 0.005059490950996579
0.019384461820454963 0.00993628802233595 -0.016134111555927852 -0.009159434044971645 0.01513727734945758 -0.010022578260694213 0.0006943620052899625 -1.4767862257711724
-0.007610082927947312 -1.4789071157462887 0.008063648643488403 -1.2744482229075904 -0.7339985309635086 -0.2109808622751296 -0.7430105782278037 -0.7385154008830632
0.014146802601292807 -0.2817919751729636 -0.013582999725750127 -0.08323274955127802 0.025543483472644 -0.5719081182911211 0.049351736118576434 -0.09220967822324805
0.046646422330503264 -0.2919418199712427 -0.005762046424847265 -0.2147477296544485 0.03923797702630694 0.06531079386598113 0.029126042092311767 0.14946402845459347
0.05588152936772383 -0.11270984095263242 -0.461530158648332 -0.03449047603048074 0.008627888995621377 -0.19588001772289446 0.10184142077903617 -0.24832021788905984
-0.16065112870123685 0.09849479493954368 -0.6773532932774151 -0.3525197387240923 -0.024277863800654113 -0.0745777119615445 -0.0010551201765292076 -1.4760340193708978
0.002981938147703384 -0.32276802547981287 -0.11249103102857466 -0.10209883146892297 -0.639366920853497 -0.350615082897412 -0.34639441189345677 -0.008880442226156419
0.005784039863743278 -0.012436522404100883 0.06430902979436394 -0.6910194133132033 -0.16393131110528592 -0.2960014693678614 -0.01786257137619977 -3.3253759217808056e-05
-0.24566444726192183 0.025606253799848298 0.007047442288907658 -0.4055585465793106 -0.27702037828027093 0.013549585030089888 -0.22015408759951904 -0.0097618302021083
0.02129323414853892 0.0317135520103616 0.23751344183133313 0.2635464577768935 -0.019077726407351284 -0.49107916214690783 0.0009783692050371866 -1.2836365147936732
-0.4550862350574319 -0.017212560455924307 -0.5910709356613199 -0.6202049013229234 -0.18851886792218545 -1.7904893109644866 0.01645201278511131 -1.1803203489354455
-0.11256038719922835 -0.4628112580167215 -0.4451727913240236 -0.4390002721525155 -0.6831049792446874 -0.6649050463103746 -0.4532470046785192 -0.15838809798438463
0.008368250596523406 -0.015289540694403672 0.0038623012765363935 -0.002862758071549708 6.764781159883943e-05 -0.0013267330923562204 0.008868599548731045 0.005663186511237737
-0.015843409373743563 -0.005999015059831489 -0.022324959663919963 0.008497161923272668 0.0019928990609306254 -0.012764256630323267 0.007109970621516549 0.008313149813471735
-0.008581896895224591 0.002683963314052046 -0.002462075618165312 0.012538036003712262 -0.0006665489975850758 -0.010473489819030712 0.007293001703742361 0.0028571675730614692
-0.00512206638378318 0.0010456274439736683 -0.005921372195534382 -0.006816905844919552 0.007112887372315862 0.01558507022818866 0.026385358627968016 -0.00936919616630503
0.0039981798033107705 0.00460652423188793 -0.01081737277147047 0.004534889745528812 0.011769087789180495 -0.0074695598855023075 0.03113732444713313 0.011614444975600515
-0.0009662525289475059 -0.004170750225865564 0.013243225967892541 -0.003939875308649671 -0.0035104363745904373 -0.015553195292743216 -0.01572890991240022 0.008411432084700195
-0.009826451059014073 0.011747077365159526 -0.0014443625305036478 0.014738239940599373 0.012537197352741157 0.015063339993985457 -0.007882831173426759 -0.003915162436128453

b1 f8 [16]
00000000: c83c 9d1e 5c31 f13f 82bb 51ee 4925 f33f
00000010: 8c07 0405 60ff 6b3f 891e c5e5 b64f f03f
00000020: 844a 10a6 dc1f f43f e4ad 2420 907c ed3f
00000030: 2127 4c80 38e7 c7bf 5dde 24c5 439b 993f
00000040: 8d9a d96b 46c6 dd3f 9169 447f 53f8 533f
00000050: 7c2c 4b4c f0fa bbbf 5006 9866 23c8 e33f
00000060: 52b0 45f3 bfd0 2b3f 771c 42b0 618c ed3f
00000070: 78c0 54e4 9506 68bf a8c5 6af9 7aa3 d63f
1.074550742708924 1.1966037091585524 0.003417670763270436 1.0194615340605273 1.2577787863598653 0.9214554431723028 -0.18674379601025584 0.025006350429264013
0.4652267506811903 0.0012188735391363873 -0.10929777014387015 0.6181809428964673 0.00021221488135425792 0.9233864252609142 -0.002932827718403582 0.3537280498231561

W2 f8 [3, 16]
00000000: 6a8e 2412 b87a 0040 f58e dcd9 1bd2 0240
00000010: e320 c556 7fd5 a1bf 764f adcc 4c27 0fc0
00000020: acf9 067d f5d9 ff3f 933d 6084 f834 e9bf
00000030: 04fd fd20 04c5 e33f e2fd fc4c 946e b7bf
00000040: 51c1 a2f3 72b0 eb3f ba46 03a5 2221 e0bf
00000050: 0a56 1abe 562c dd3f 2e62 e296 7e25 f53f
00000060: 1122 f4bd a6c1 b7bf 1d3d e6aa 0d66 fa3f
00000070: 2bc7 02d9 9ad5 b8bf bc1e 1b45 a8ab e6bf
00000080: 7c67 e72f e1a6 03c0 e1a5 d2a8 2c64 07c0
00000090: 08f8 9847 c64f 893f 4a54 de21 b1d7 0940
000000a0: ff8a e85b fb7a ffbf f6cd eab1 5129 0140
000000b0: 8de1 f16a c27d e7bf 5488 0fea a37e c4bf
000000c0: 2c2f 13de d7a4 11c0 5a41 6b58 3e70 e13f
000000d0: 8918 ecbb 506a dbbf ffee 91a6 9ff7 fcbf
000000e0: c54c e70e 7cb1 c0bf ca66 2080 b434 febf
000000f0: e493 459b 4133 c5bf 9526 da5f 1479 953f
00000100: 0324 a2bc ea9d d93f 94da 005d e39b e33f
00000110: 5660 6be0 310e 943f 8729 8fae df34 e43f
00000120: 326b a9e7 c100 95bf ff43 4cbc 982b f6bf
00000130: e8cd b1b6 3301 c03f bfe7 3db8 8238 d03f
00000140: c619 b223 8f63 0c40 d6da fdb8 c421 b5bf
00000150: 7c46 f1f4 29a5 9fbf 7777 f67b 95a3 de3f
00000160: fef5 14d1 fae7 cc3f a6f8 5cae 35a2 cc3f
00000170: 0ab8 b1cd f336 cf3f 6d69 371b bc12 e63f
2.0599213998228167 2.3525921841081705 -0.03483198103146081 -3.894189452208532 1.9907126315953105 -0.787716158434636 0.617799820363786 -0.09153105620952531
0.8652891882430059 -0.5040448401361666 0.45583122791990205 1.3216539281767257 -0.0927986348871246 1.6499153781658784 -0.09700935171238416 -0.7084542607999178
-2.4564841978544205 -2.9239133061680467 0.012359189090712888 3.2303183217978004 -1.9675248708887805 2.145175352075735 -0.7341014946714935 -0.16011475495094152
-4.410979719086566 0.5449516035969666 -0.42836397506506124 -1.8104549891131112 -0.13041640022001935 -1.8878674511856155 -0.16562671739225643 0.020969694471694018
0.4002634851572681 0.6127793137046234 0.01958539898154784 0.6314543160781775 -0.020510701908601443 -1.3856437068354805 0.12503668232567056 0.25344913475384695
3.548612860558225 -0.08254651562115653 -0.030903487753965994 0.4787343702863533 0.2258294602305994 0.22370024694277396 0.24386451285994354 0.6897869617053353

b2 f8 [3]
00000000: 6cd6 b471 0fb5 f5bf e108 ab11 e511 0540
00000010: 2d41 a1b1 ba6e f4bf
-1.356704181829083 2.6337376957245486 -1.2770335138957976
