10by10recording/src/oldMLPparameters/tactile_mlp_model_trial_06.npz (npz, 16380 bytes, 6 tensors)

mean f8 [100]
00000000: 0000 0000 0000 0000 0000 0000 0000 0000
00000010: 0000 0000 0000 0000 0000 0000 0000 0000
00000020: 0000 0000 0000 0000 0000 0000 0000 0000
00000030: 0000 0000 0000 0000 0000 0000 0000 0000
00000040: 0000 0000 0000 0000 0000 0000 0000 0000
00000050: 0000 0000 0000 0000 d9f7 7c68 ba72 913f
00000060: 8019 b34c e67f 893f 6785 0af6 4700 6f3f
00000070: 5d7b 00ec 3df6 843f 511d eab6 8350 8d3f
00000080: 68af 900b 20ce 853f 9167 0b7c b9c3 9a3f
00000090: 0fe6 89fa 3742 993f 884a 4069 c554 973f
000000a0: 0000 0000 0000 0000 594e 77d3 6225 7b3f
000000b0: af29 3eec 3315 903f 6fdf 1c27 fea1 623f
000000c0: 8b4d 436c c857 4a3f 8f7a cc84 a328 743f
000000d0: 2e80 3857 dcc7 793f 78e8 2530 07ab 8b3f
000000e0: 6093 c6f9 2c60 933f 05b3 fadb 566b 993f
000000f0: 0000 0000 0000 0000 02b0 f7d8 5368 763f
00000100: 79e9 2631 08ac 7c3f 3ab5 c977 bfa0 7b3f
00000110: 5b79 fee9 3bf4 723f 1111 1111 1111 813f
00000120: c352 150b 3490 7f3f dcfa 7f6b bd75 943f
00000130: c04f 1208 318d 8c3f a2b6 64ac 8d08 8d3f
00000140: 0000 0000 0000 0000 ea45 d597 8db6 723f
00000150: 7710 aa43 dd76 903f 40f8 169c 87d9 913f
00000160: 38c7 897f a804 943f 8331 795a d5e9 973f
00000170: 32a2 dfe9 c064 a53f 72f7 e234 ed0b a13f
00000180: 30ab bf6d b596 713f bf4e 1107 308c 8b3f
00000190: 0000 0000 0000 0000 8c4e 446d c958 8b3f
000001a0: 79e9 2631 08ac 8c3f e719 4d80 b3e6 893f
000001b0: 7c15 af48 e27b 953f 3de1 518f 9970 943f
000001c0: 72e2 1f2a 01a5 953f 626c 43e7 5795 9f3f
000001d0: 6fdf 1c27 fea1 523f e843 d395 8bb4 303f
000001e0: 0000 0000 0000 0000 04b2 f9da 556a 483f
000001f0: 4e1a e7b3 804d 8a3f 7710 aa43 dd76 703f
00000200: 6280 05f1 42fb 893f 264f ab3a fdf2 7b3f
00000210: 0ee5 88f9 3641 683f 4613 e0ac 7946 433f
00000220: 97ab 59a1 82fd 413f 12e9 8cfd 3a45 8c3f
00000230: 0000 0000 0000 0000 34af c371 b99a 753f
00000240: ccac 273c ea31 733f 3082 3a59 dec9 6b3f
00000250: 1818 1818 1818 583f 77e7 242f 06aa 6a3f
00000260: b948 0b01 2a86 653f 555f 36da 4a88 923f
00000270: a5e2 ecc3 67d8 453f cc84 a328 1466 8e3f
00000280: 0000 0000 0000 0000 5045 6eca 591c 923f
00000290: 4714 e1ad 7a47 843f 521e ebb7 8451 8e3f
000002a0: 8749 3f68 c453 863f 2faa be6c b495 903f
000002b0: b948 0b01 2a86 553f a6ce 2aba 7c72 9b3f
000002c0: fa7e 6abc 7493 683f 7d16 b049 e37c 863f
000002d0: 0000 0000 0000 0000 9e9d 9d9d 9d9d 9d3f
000002e0: 3fe3 5391 9b72 863f 8749 3f68 c453 863f
000002f0: 70e0 1d28 ffa2 833f 72f7 e234 ed0b 913f
00000300: ec5c 9aa4 7b1f 903f 9695 9595 9595 953f
00000310: caaa 253a e82f 713f 00ec 3df6 149a dd3f
0.0 0.0 0.0 0.0 0.0 0.0 0.0 0.0
0.0 0.0 0.0 0.01703921568627451 0.012450980392156863 0.003784313725490196 0.01023529411764706 0.01431372549019608
0.010647058823529412 0.026137254901960786 0.024666666666666667 0.022784313725490196 0.0 0.006627450980392157 0.015705882352941177 0.0022745098039215687
0.000803921568627451 0.00492156862745098 0.006294117647058823 0.013509803921568628 0.01892156862745098 0.024823529411764706 0.0 0.005470588235294118
0.007 0.006745098039215686 0.004627450980392157 0.008333333333333333 0.007705882352941176 0.019980392156862745 0.013941176470588235 0.014176470588235294
0.0 0.004568627450980392 0.01607843137254902 0.017431372549019608 0.019549019607843138 0.023352941176470587 0.0417843137254902 0.03329411764705882
0.004294117647058823 0.013450980392156862 0.0 0.013352941176470588 0.014 0.012647058823529412 0.020980392156862746 0.01996078431372549
0.021137254901960785 0.03084313725490196 0.0011372549019607844 0.00025490196078431374 0.0 0.0007450980392156863 0.012843137254901962 0.004019607843137255
0.012686274509803922 0.006823529411764706 0.00296078431372549 0.000588235294117647 0.0005490196078431372 0.013803921568627451 0.0 0.005274509803921568
0.004686274509803922 0.003392156862745098 0.0014705882352941176 0.003254901960784314 0.0026274509803921567 0.018098039215686274 0.0006666666666666666 0.01484313725490196
0.0 0.017686274509803923 0.009901960784313725 0.014803921568627452 0.010901960784313726 0.016196078431372548 0.0013137254901960784 0.026803921568627452
0.003 0.010980392156862745 0.0 0.02892156862745098 0.01096078431372549 0.010901960784313726 0.009588235294117647 0.01664705882352941
0.015745098039215685 0.02107843137254902 0.0041960784313725494 0.46252941176470586

std f8 [100]
00000000: 3a8c 30e2 8e79 453e 3a8c 30e2 8e79 453e
00000010: 3a8c 30e2 8e79 453e 3a8c 30e2 8e79 453e
00000020: 3a8c 30e2 8e79 453e 3a8c 30e2 8e79 453e
00000030: 3a8c 30e2 8e79 453e 3a8c 30e2 8e79 453e
00000040: 3a8c 30e2 8e79 453e 3a8c 30e2 8e79 453e
00000050: 3a8c 30e2 8e79 453e 207e 0a7c c090 c03f
00000060: 9932 c956 1963 bc3f 57d9 e264 db6f af3f
00000070: 55dc 3228 3cc4 b93f dbac fbc8 6868 be3f
00000080: fbca 81c4 3546 ba3f 7f15 c42f eb6b c43f
00000090: c8d0 eb01 8dda c33f 75c5 1044 7c19 c33f
000000a0: 3a8c 30e2 8e79 453e 0783 58b8 85c5 b43f
000000b0: 1c73 775b 6cd4 bf3f 3bb6 135a f363 a83f
000000c0: 6896 1692 b705 9d3f 4aed 904a 47ea b13f
000000d0: 0af2 2023 f13e b43f 5d05 4f0e bb8d bd3f
000000e0: cac4 6fed 9370 c13f 9bd1 b6a1 46ea c33f
000000f0: 3a8c 30e2 8e79 453e 96a7 7ca4 fde1 b23f
00000100: 4f36 d03f e957 b53f 27d6 83a9 31f4 b43f
00000110: 195a 72d5 c85f b13f ee48 bba9 9c45 b73f
00000120: 316d 92b4 bf62 b63f 7fbf ea1d 51e9 c13f
00000130: de39 49a0 e303 be3f 66ef a048 8943 be3f
00000140: 3a8c 30e2 8e79 453e 05e1 8a0b 8e43 b13f
00000150: 396c e416 7819 c03f 5585 d840 6bc0 c03f
00000160: aeee 27fe 8bb8 c13f a133 d7af ae54 c33f
00000170: 15be c37a be9c c93f 3e62 74cd b1f6 c63f
00000180: 0f4e 5203 50bd b03f e863 7a78 777d bd3f
00000190: 3a8c 30e2 8e79 453e 937a 8308 4762 bd3f
000001a0: acc7 8668 da13 be3f b979 d69b 5e9b bc3f
000001b0: 8ec4 f177 4358 c23f 2807 4fbc 1ce7 c13f
000001c0: a592 11ca 6869 c23f 6b69 2004 5821 c63f
000001d0: 6e60 41e0 a741 a13f da68 77b3 c458 903f
000001e0: 3a8c 30e2 8e79 453e 8430 d120 f2f0 9b3f
000001f0: fb83 0a4e 30d3 bc3f fcb5 420c a632 b03f
00000200: 48ff 87b5 91a6 bc3f 908c 27f8 1313 b53f
00000210: 7368 94be 77d1 ab3f 5329 f0e9 0ed4 983f
00000220: 1427 c8fd a7fc 973f 9796 88af 80de bd3f
00000230: 3a8c 30e2 8e79 453e 678b 229c 098b b23f
00000240: 7eb5 6f31 d57b b13f ca15 25b4 f7c4 ad3f
00000250: 2307 bf92 af9e a33f a415 2a4e b529 ad3f
00000260: 4a0d c7c4 be35 aa3f 0dc9 ae31 2c10 c13f
00000270: 4672 4e69 466e 9a3f d690 7a70 eef4 be3f
00000280: 3a8c 30e2 8e79 453e 0f1e 9d96 19df c03f
00000290: 7b39 0446 0759 b93f 17a0 8bf6 9cea be3f
000002a0: 74f1 518e 5f95 ba3f 9a8f b2d9 4528 c03f
000002b0: 32a1 7a60 a18b a23f 53fe 56ef 5bac c43f
000002c0: 25b0 036b 5500 ac3f 8508 e8d1 89ad ba3f
000002d0: 3a8c 30e2 8e79 453e e8d7 a872 7673 c53f
000002e0: 07ae 9966 81a7 ba3f 69cb 518e 5f95 ba3f
000002f0: c78f 5986 6af2 b83f be4b 12e7 8060 c03f
00000300: 09f6 e85d 6dde bf3f df3a 0ad6 fc62 c23f
00000310: 14db 68ce 518c b03f c72b 3dc2 f6e8 df3f
1e-08 1e-08 1e-08 1e-08 1e-08 1e-08 1e-08 1e-08
1e-08 1e-08 1e-08 0.12941747719467944 0.11088713043973043 0.06140027624626281 0.10065055829441978 0.11878065974058265
0.1026338200334002 0.1595434172851746 0.15510714143568394 0.14921525310050368 1e-08 0.0811389517844071 0.12433507187911313 0.04763756250927683
0.0283421214022809 0.06998105593168194 0.07908541782030212 0.11544388865788364 0.13624810308059515 0.15558703323553122 1e-08 0.07376084581178896
0.08337266738836856 0.0818511046271274 0.06786780558682216 0.09090594428861085 0.08744428785796711 0.13993276558676013 0.1172468439410532 0.11821802161369774
1e-08 0.06743705541419238 0.12577725522791797 0.1308721605901534 0.13844442281685104 0.15102180086105668 0.20009594911924525 0.1794035199352652
0.06538868027774235 0.1151957196365313 1e-08 0.11478084524012848 0.11749043514171714 0.11174575142511046 0.14331858975086614 0.13986548609505545
0.1438418375647831 0.17289257241720732 0.033704038739131956 0.015963624433290892 1e-08 0.02728632283496825 0.11259748368549076 0.06327283667879863
0.11191664392390266 0.08232235725840753 0.05433248711979468 0.024246438053560592 0.023424744476904527 0.11667637143599517 1e-08 0.07243404447448896
0.0682957883543249 0.05814336847337705 0.038320051825861755 0.056958833495666356 0.05119129325933132 0.13330604959407602 0.025811290910143357 0.12092485662521155
1e-08 0.13180847028910178 0.09901471576106317 0.12076741236853682 0.10384175514804445 0.12622902993927881 0.03622154524538458 0.16150998293413696
0.05469004565551953 0.10421048521678429 1e-08 0.16758614157305307 0.10411843066111014 0.10384175514790929 0.09744897632623327 0.12794505389009986
0.12448771994328224 0.14364586306734048 0.06464110650345517 0.4985939881195773

W1 f8 [16, 100]
00000000: 04ac 90a2 569f 84bf 9a1e 46b6 cb98 74bf
00000010: 0e30 0c5a 1689 833f 4129 fbcf aa3e 88bf
00000020: 93be 4fb0 45ca 86bf 1f64 c4fa 7863 72bf
00000030: bc33 4e01 4592 59bf 57de 5011 1694 84bf
00000040: 8722 c724 5429 883f e19c 5a39 0325 80bf
00000050: 05d2 e28d 04b9 723f 7e6d f38e 2001 ca3f
00000060: aceb eeda ad00 c03f 5603 2219 3dd7 ac3f
00000070: b864 6026 1da9 b93f eb2e c981 bf77 c03f
00000080: 12d9 0b3c d747 97bf 4e0c 772a 9a02 a33f
00000090: ff04 91e2 fa62 b93f bd60 f8db 7faa b43f
000000a0: ff9c e991 8231 68bf 104b 3391 133c 99bf
000000b0: dc50 9066 c8b4 ba3f 6d0b 58e7 3016 73bf
000000c0: ccb3 c79e 5104 89bf 7887 24dc 8c38 723f
000000d0: 8ce0 a2d7 47c5 84bf a192 f8c1 8c1c 973f
000000e0: 4f50 876b 8aba ae3f 1a40 39b1 41ad 833f
000000f0: cb97 a1db 3891 80bf 84f1 5f84 fa56 9cbf
00000100: 132e d997 9eb0 9dbf 65de 184f d0e2 99bf
00000110: d819 62c4 c89a 7ebf e5ef 2db7 d081 81bf
00000120: 8341 3913 deaa a3bf 814b 4b6e 75c5 8c3f
00000130: a436 3554 4865 8ebf 3f81 6f00 eeee 81bf
00000140: 1d37 336a 7f6d 843f 768e 7a33 2793 93bf
00000150: 7674 3792 0131 9abf 188d 20a3 70a7 b03f
00000160: f8e3 b891 c1b6 ae3f a4a8 03c5 bf66 ad3f
00000170: ab11 d696 3ac2 bc3f 6bb2 0d64 ceb8 b33f
00000180: 8ae4 3b56 6320 84bf 5fc2 8a65 c614 633f
00000190: 1f38 b3c4 2519 90bf 1b84 c304 dc4a 9ebf
000001a0: de56 7e1b 28da 7ebf 9c7e b40f e160 bb3f
000001b0: 37ff 93bb 772f ad3f 99d5 b25e d279 ac3f
000001c0: fc37 7da2 ce5a b33f 6347 d7c7 54cc a93f
000001d0: d919 dc85 c881 83bf 49e6 0442 ff04 73bf
000001e0: 8dd3 c05a b272 773f 1524 8023 d76b 55bf
000001f0: 4ce5 8060 d706 8abf e4ad acf6 99d4 86bf
00000200: de8b 092f 832d b43f 36a5 b323 1b55 92bf
00000210: 3a57 3471 2258 83bf cb8d f834 0e7e 83bf
00000220: d346 dd41 7b22 77bf b5ea b74c eacd a83f
00000230: b1de 0b19 9703 753f 98bc f96d 5b82 89bf
00000240: 93b8 7e56 d949 8ebf 2b57 a888 a6a8 86bf
00000250: 1a8f 6211 5fbd 7ebf 14af 3f5c 2c5b 6a3f
00000260: 1aa8 a150 2988 9cbf 3334 0823 41f7 b33f
00000270: 00a8 b9d6 0478 76bf 8c73 18cb 01cd ad3f
00000280: 759f d596 c3a1 7a3f db1c 4872 6c3c af3f
00000290: 13c4 9a5f f7da 8e3f f025 6e69 3fb5 85bf
000002a0: 3a1f 5e5e a3c0 603f 978c abca 6d5b 9bbf
000002b0: f2d7 38cb 172c 7fbf 846e 3d32 39bf b13f
000002c0: 1c39 8b05 1b95 93bf 3910 d859 a77a a73f
000002d0: 7557 2835 2bcb 683f 2ff4 a94f 9c05 bb3f
000002e0: 9b9a f1b5 a5da b03f 4a0d 1740 9066 95bf
000002f0: b155 f484 a4d8 81bf d25c ac69 597e 8dbf
00000300: a7ab 3e7a d09b 86bf efea 8983 e178 b03f
00000310: 4fde 6fcd dd75 99bf 6daa 63c5 6594 c5bf
00000320: da61 f4bc e206 76bf a2d5 076d 970d 81bf
00000330: 583e 0529 b253 18bf 3213 0bd9 f4ba 89bf
00000340: d7c5 9bf6 5c7d 67bf 73a9 ac84 34c5 443f
00000350: a0f0 c5c5 67ec 573f b82a d2c8 d8cd 903f
00000360: be0a 22b0 35c0 8e3f 3f23 315a 7cc1 80bf
00000370: 816b 99c6 e70a 7a3f dca5 f511 f20a 823f
00000380: 1b05 1b34 18d6 6abf 43ac b67a b816 77bf
00000390: 1093 9df8 257f 87bf f968 ecd6 1d63 65bf
000003a0: 40cd 9c4c 8eb4 96bf 1d34 e3d7 3421 a13f
000003b0: 1d81 8f5b 4183 833f 7317 dc13 bc10 923f
000003c0: e77a 39d5 a505 9a3f 27a9 6701 3095 a43f
000003d0: 0136 bf65 abca 843f ab39 8fc5 d6b3 a13f
000003e0: 92b3 a809 c762 983f 0311 971c 2f66 9a3f
000003f0: a327 a214 163f a93f 6168 58f7 c7d9 a03f
00000400: 6d48 a759 945b 94bf d97d 0e15 afe5 a03f
00000410: 4a2f 77bf 1e09 7f3f 24c1 4c55 12e6 6e3f
00000420: 18f9 4a23 b275 703f da88 4894 f8b5 9c3f
00000430: e85f 5114 5d53 833f 6596 60e8 acdd ac3f
00000440: 4dc6 1cd1 12a0 b23f 3203 2795 f85c 993f
00000450: 4925 a2af 1cbf 893f bd22 5ac0 ad87 7dbf
00000460: 7551 ff65 1057 863f 8ce1 5df0 772b 82bf
00000470: 2fe5 20bf 4876 94bf 7285 897d c887 7f3f
00000480: c5ac 263f b179 62bf 41b6 6422 4d30 a83f
00000490: 8986 a0c2 a2f0 9cbf ec60 b6d8 2150 873f
000004a0: 793e 9583 ae90 a33f ccd0 1922 51bc 79bf
000004b0: 44ea 9684 5b69 6b3f e5f6 93a5 daf3 7abf
000004c0: 7c89 a31b 6f12 553f cf41 64a6 7125 89bf
000004d0: c304 e31c 6b7a 85bf 3117 dd44 5f51 9f3f
000004e0: 967b e729 76d0 80bf 8959 8529 ac87 913f
000004f0: 30df d8d7 f4c7 8e3f 70ce f926 4eae 933f
00000500: fa31 9bc2 f483 793f 5156 7699 e9da a03f
00000510: d7ab c9a4 1e51 8b3f 0052 7f99 4709 923f
00000520: b190 60ee 7363 643f 9c8e 2ef8 7556 a03f
00000530: ac00 a8ca 693d 96bf 797c e3bb 7a4c 88bf
00000540: 8303 7935 ef0c 95bf b3ea 7cbe cf37 783f
00000550: 1cec a227 8395 7e3f 5f74 7f49 88ed a23f
00000560: 554c 6b8e da77 a83f 78f4 faad 68dc a13f
00000570: 1da0 1381 2425 a33f af6a 0d41 1db6 99bf
00000580: 7006 7bc8 d6e7 90bf 3d06 2bba d90d 5f3f
00000590: 27b0 26d7 d468 8f3f 3b94 35ba 0367 7cbf
000005a0: 93c9 4683 907c 843f 8bdd 2cdb 5e56 77bf
000005b0: 9954 32ca 51fc 843f d956 9fea 2079 903f
000005c0: e73c 04ad c66d 85bf e36c 4398 51ce 813f
000005d0: 2d98 147d 8f61 9a3f c46c c47e b5df 48bf
000005e0: 6bc6 d482 70e7 903f 4d65 698b b89b 79bf
000005f0: 17e1 8a27 2196 7b3f ff1e c075 1ff0 733f
00000600: d0fc 0cb8 02a6 8abf 1ada c385 b289 963f
00000610: 7e0c c255 024e 86bf 4826 4b3c 2f64 803f
00000620: 4a6d ee48 349f 6abf ef31 b8ac 324e 503f
00000630: 7f9f b95a bb32 a33f 3300 8d82 b3ec a53f
00000640: 30d3 acd2 a07a 3abf 3b15 6fef 53db 74bf
00000650: 4cf0 2e0c 1ff8 483f df95 4859 9f97 813f
00000660: c9d6 ead7 d9ef 41bf b8d8 7255 0e9e 643f
00000670: b592 a664 a813 2ebf d753 ed86 8c8c 8b3f
00000680: e0c6 3980 3b89 64bf 4f79 702a b574 833f
00000690: 567b c58e 9293 7c3f 7007 bb2d e8af a3bf
000006a0: 03e9 5855 fe21 9fbf 814d 8645 9483 bb3f
000006b0: f782 3a4e c272 c43f 105a 5e14 f499 c23f
000006c0: 0ca1 a3d2 52ac c13f b111 8aeb 0fd9 c23f
000006d0: 6ee8 8d14 cb56 c43f 6932 015b 4dcd bd3f
000006e0: 2cbc 0168 f97c 853f 1e81 0f21 2121 9ebf
000006f0: ccb4 0cec 2bba a3bf bfc0 da13 862e 6bbf
00000700: 0a8e 32ff b395 75bf 8d24 2f08 0344 a43f
00000710: ffd4 67cf ffb3 a1bf 56a2 413b 0a0d a33f
00000720: ed6e 20f5 614b bf3f 467b e4d7 2339 b93f
00000730: d872 2c23 59f7 41bf b3e0 e3ff e37b 7dbf
00000740: 6d07 d8a7 e6aa 99bf 1322 5a08 6fc0 a7bf
00000750: 828b 0f57 ad91 99bf 3a7a 2d0f c7b3 88bf
00000760: b196 2723 2d45 a1bf d516 7b20 10cf 9a3f
00000770: 7f9e 0438 c259 b63f fc6b 6c5d 4c5d bc3f
00000780: 5e71 4b66 da13 863f ec7c e246 7d87 a0bf
00000790: 79cd f4dd 5c27 b73f 9558 f390 1fcb bf3f
000007a0: 162a dcf5 68fd b43f 9b51 33b5 ea2c b23f
000007b0: 226d d099 9294 c13f 167f bfcb de6f b43f
000007c0: 6552 818f f322 9dbf 013f c201 1136 b23f
000007d0: e9d4 81bb d076 963f 65b5 f771 3f4b da3f
000007e0: 5754 9a91 2da5 be3f fc5d ae8c 2c69 c23f
000007f0: 1f46 2880 9998 b93f b135 f9c0 26ef b03f
-0.010069538913816352 -0.0050285298824587436 0.009538817046198769 -0.011838278266982473 -0.011127991145229365 -0.004489395691302383 -0.001560752284805774 -0.010048077014388186
0.011797578213092364 -0.007883095920375673 0.004570977964409644 0.20315939884208584 0.12502072515584695 0.05632964069173478 0.10023672282149476 0.1286544212074355
-0.022734988250669615 0.037129228290290514 0.0991665652409388 0.0807266151463208 -0.0029532957262748956 -0.024643235909773742 0.10432102684018524 -0.004659834890392439
-0.01221526876266834 0.004448461755858328 -0.010141907947726979 0.0225698464766021 0.060016942621274987 0.00960780450910197 -0.0080894891763811 -0.02767554696036846
-0.028994062440956436 -0.025279288127619277 -0.007471832510538033 -0.008548384275620389 -0.038412990423810654 0.014048497608575296 -0.014841618604488467 -0.008756503475468079
0.009974475315540904 -0.01911603213979026 -0.025577568578104302 0.06505493147465236 0.059988068617208457 0.05742453842124576 0.11233869726681316 0.0770386690398454
-0.00982740027346753 0.0023292422232191047 -0.01572093022405607 -0.02958244113040474 -0.007532269162671771 0.10694700845169297 0.05700277485629928 0.05561692625034737
0.07560435740489874 0.0503870481440021 -0.009524885735584231 -0.004643437481996645 0.005724617669376719 -0.0013074494327176601 -0.012708361275246681 -0.01114769252816123
0.07881946466800069 -0.017902778677045116 -0.009445447044111089 -0.00951777552751922 -0.005648118470917135 0.04844600855354512 0.005130377031256892 -0.01245566777580924
-0.014789293243520773 -0.01106386284395063 -0.007504817351364124 0.0032173029339811563 -0.027863164469103287 0.07799155335688183 -0.005485552693793139 0.05820470432465816
0.006501926441479945 0.061007870626832626 0.015066082577819306 -0.010599608807541266 0.002044982032149448 -0.026715960974695276 -0.007610409683868712 0.06932408787309369
-0.019123480046624328 0.04585764857986913 0.003026565923628983 0.10555436081809043 0.06583629314409693 -0.02089906111883736 -0.008713994319388659 -0.014401148354905056
-0.011039379816642226 0.06434449635882421 -0.02486368719470838 -0.16859123361730913 -0.0053776604611574744 -0.008326704993104898 -9.279990104470984e-05 -0.012563622354159063
-0.0028673949899420226 0.0006338602482618818 0.0014601720241378749 0.016410243279589593 0.01501504844441592 -0.00818154478305788 0.006358056425223136 0.00880993954952463
-0.003275916359456799 -0.005636902449093264 -0.01147298493351337 -0.0026107390216455442 -0.022173140932136848 0.03345646987290982 0.009527693373400365 0.017641962730543036
0.025412169589226343 0.04020071046018563 0.010152186434335244 0.03457518731703443 0.023814306225336042 0.0257804261398329 0.049309434908607196 0.032911538070224074
-0.019880598041546117 0.03300234920538587 0.007577056988747286 0.003771816069637295 0.004018493510271413 0.028037914324280468 0.009436347181846785 0.0563787492431345
0.07275502782138084 0.02476871881822546 0.012571548566728057 -0.007209471432027823 0.010908249008857432 -0.00887197210589432 -0.019982468286092455 0.007697852292581119
-0.002255293068818528 0.04724350972024328 -0.0282617026606489 0.011383308816946124 0.03821320873487095 -0.006283108641231116 0.0033461368045355783 -0.0065802136316486
0.0012861332930290395 -0.01227844990765528 -0.010487400836043275 0.030583847597220163 -0.008210108903709028 0.017119112047419036 0.015029824101574357 0.019219609383482383
0.006229358763175425 0.03292016981428659 0.013338317302631282 0.017613524192556795 0.002488829067276731 0.03190964369357838 -0.021718647951275358 -0.01186462293520506
-0.020557153357234192 0.005912600994458716 0.007466804812959384 0.0369684781760291 0.047789411435268526 0.0348847114923751 0.03739275050776334 -0.025108773322566943
-0.01650939558635972 0.001895392059552483 0.015336668792620923 -0.006934179840162587 0.010003212934724092 -0.005697603732918731 0.010246886237192764 0.016087068863121032
-0.010463287501379216 0.008694302996835329 0.025762788781456592 -0.0007590900618511744 0.016507871613788454 -0.006252022626165155 0.0067349715324598524 0.004867670908431653
-0.013011952630789386 0.02200964871823361 -0.010890978090406952 0.008003586795342646 -0.0032497426213475055 0.0009952063436485766 0.037496428322639545 0.042821511923193965
-0.0004040377267984672 -0.005091979858609814 0.0007620002364698924 0.008589978134362517 -0.0005473912895783357 0.0025167732197487157 -0.00022946768360756144 0.013451669566771613
-0.0025068437697023244 0.00949994598164197 0.006976673594492796 -0.038451438505503144 -0.03040311237257588 0.10747648904207631 0.1597521669364352 0.14532328600462607
0.13807139668575308 0.14724921227401702 0.15889872077588357 0.11641391250413737 0.010492275702033003 -0.029423253672463116 -0.03852975136246925 -0.003318082685687867
-0.005269721138720049 0.03958138918785279 -0.034576410358491565 0.03720886205048106 0.12224399790323633 0.09852813740552077 -0.0005482850304790688 -0.007198229430507452
-0.025065998072029517 -0.0463900277800954 -0.024969776572003173 -0.01206164851253987 -0.03373089841970279 0.026180507643195867 0.08730710857036604 0.11079861908767435
0.010780054327761131 -0.03228370180408455 0.09044437807897578 0.12419316567261014 0.08199172975961519 0.0709978763946481 0.1373465777440766 0.07983200525586329
-0.02845364154230125 0.07113748829783263 0.021937619633224967 0.41084276322984287 0.11970791630513254 0.1438346564216174 0.09998473528710193 0.06614916049257748

b1 f8 [16]
00000000: 0fc3 a33d b57d c03f ea31 760a 8dc1 983f
00000010: b93b 0217 ad7a cc3f ac09 f22e cc04 a93f
00000020: f768 a40c 00e1 c83f aa7d cc47 675f d03f
00000030: 0ef8 f2fb cef1 cf3f 14a0 28e4 a1b8 bc3f
00000040: 5cd1 5908 1276 bc3f dc91 9a6a 9b31 dd3f
00000050: bdaa 66a1 ff9f c53f fd31 da04 e39d ca3f
00000060: 2ee5 0dbf 41a9 d53f 3e4b 8579 0cd1 c63f
00000070: 3a38 a31d ed01 c23f 0723 b2f1 3acc cd3f
0.12883630285025346 0.024175838244944993 0.22249377845261423 0.048864727717062933 0.19436646096512053 0.25582296382523373 0.24956691076471355 0.11219226665764409
0.11117661193731493 0.4561527768185252 0.1689452684489278 0.20794332253389305 0.3384556165470539 0.1782546609270756 0.14068378398082065 0.23279511262469318

W2 f8 [3, 16]
00000000: c9dc e87a 459c d1bf 9785 987e b353 b4bf
00000010: 9689 4b71 e940 ddbf 7c03 b16b 345b c1bf
00000020: 073a a325 fe26 dabf a5ac eecf b78f dfbf
00000030: 72d0 91bb 94e3 c6bf 06fc a022 9004 d4bf
00000040: b3d3 9c07 1bc6 d4bf 26b6 737e 51f2 d0bf
00000050: 4bdb 20e9 a780 d7bf a7f3 f5d4 a0f5 e1bf
00000060: e7cc 6afc a0b8 903f 6dbf a9ec 68a8 cdbf
00000070: b341 febf cca3 d5bf f901 e594 1412 e1bf
00000080: af3c a2ad ffd4 da3f 2603 90d8 3a5e b5bf
00000090: a1c9 dfc6 b56c e63f 9a40 e9a5 f492 c03f
000000a0: 6dc1 db6c 7946 e03f 28c7 49fe 3058 ee3f
000000b0: 9a85 bfef 87ba e4bf 4c74 6d13 97ba c5bf
000000c0: 2543 9531 ddea dc3f 99d9 ac46 0f55 efbf
000000d0: 1635 0c65 936f e13f e47e 0958 fb72 c9bf
000000e0: 86cd b0a6 3bff e6bf 8123 cadb 956b debf
000000f0: ac7c bb08 0f4f da3f a71f 18da 3efb ea3f
00000100: 9592 d7d3 56b4 c2bf 13f1 ef53 2934 c43f
00000110: 9f87 d6c9 6e9a cebf d2b7 3ebb f3c1 743f
00000120: 09e0 473a c601 bcbf 7c63 92e3 775a debf
00000130: b17f 4fbb ad97 ea3f ef07 f08b 0089 df3f
00000140: d360 b04e 5545 c0bf 4ab0 3097 a4a8 f33f
00000150: 2fa5 2c7a 9791 c7bf f120 9c6e 4fb2 e83f
00000160: c01b 6e44 1286 e53f c9e9 22e9 2f35 e63f
00000170: 9a4e 6a58 48f8 b3bf e4cf 885a 72f3 d3bf
-0.27516304972546074 -0.0794021781989812 -0.4570869070431852 -0.13559584864017526 -0.4086299293093422 -0.4931468515957909 -0.1788202205531238 -0.31277850515101624
-0.3245914053289269 -0.2647899374850077 -0.3672275330204015 -0.5612339171781188 0.016329303175280165 -0.23170196109594646 -0.33812254666647873 -0.5334570797058965
0.41925041157169124 -0.08346908366366942 0.7007702717076435 0.12948473073129635 0.5086028219357509 0.9482655493322669 -0.6477698977070532 -0.1697567791806328
0.4518349632463006 -0.9791332607626827 0.5448700879657362 -0.19882146643339305 -0.7186563735653386 -0.47531649078205623 0.41107536175509085 0.8431696185734737
-0.14612851470805724 0.15784184072970983 -0.2390879140412467 0.0050677796133821885 -0.10940207407827542 -0.4742717478161962 0.8310154589089419 0.49273694673331553
-0.12711588232264734 1.2286725908152385 -0.18413060632273345 0.7717663917874501 0.6726161324048618 0.6939925721592825 -0.07800724180770616 -0.3117338070035187

b2 f8 [3]
00000000: 3441 5bfb 3dc5 f63f 74f6 23e7 c803 dbbf
00000010: 7743 92c1 4b04 f0bf
1.4231548136340963 -0.4221060044509166 -1.0010488091831726
