10by10recording/src/oldMLPparameters/tactile_mlp_model_trial_random_test3(1).npz (npz, 69556 bytes, 6 tensors)

mean f8 [100]
0	0x0000000000000000	0.0
1	0x0000000000000000	0.0
2	0x0000000000000000	0.0
3	0x0000000000000000	0.0
4	0x0000000000000000	0.0
5	0x0000000000000000	0.0
6	0x0000000000000000	0.0
7	0x0000000000000000	0.0
8	0x0000000000000000	0.0
9	0x0000000000000000	0.0
10	0x0000000000000000	0.0
11	0x3fafa91de48e3302	0.0618371335504886
12	0x3f6c9af4476ee467	0.00349185667752443
13	0x3f9b6af83a7023c2	0.026775244299674268
14	0x0000000000000000	0.0
15	0x3f9a04560e57b94a	0.025407166123778503
16	0x3f9a4f7a791b02cc	0.02569381107491857
17	0x3f9dac32e2ef3586	0.028977198697068406
18	0x3fa9db59770479eb	0.05050162866449511
19	0x3f99b25cdfb13a8d	0.025094462540716612
20	0x0000000000000000	0.0
21	0x3f877b615d06f8a1	0.011465798045602606
22	0x3f8dc785f27c0a6f	0.01454071661237785
23	0x3f7e197f2122892b	0.007348534201954397
24	0x3f499dde94079ade	0.0007817589576547231
25	0x3f9a9a9ee3de4c4e	0.025980456026058633
26	0x3f6a7877106e422a	0.003231270358306189
27	0x3f6dac32e2ef3586	0.0036221498371335507
28	0x3f59d484b32144b1	0.0015765472312703583
29	0x0000000000000000	0.0
30	0x0000000000000000	0.0
31	0x3f7a5d2400e16d40	0.0064364820846905535
32	0x3f915f0e22c85b6b	0.01696416938110749
33	0x3f8ee66e15c2c602	0.015087947882736156
34	0x3f5bc05bcb083d1b	0.0016938110749185667
35	0x3f57e8ad9b3a4c47	0.00145928338762215
36	0x3f7388601dac32e3	0.004768729641693811
37	0x3f7744bb3ded4ece	0.005680781758957655
38	0x3f7796b46c93cd8a	0.005758957654723127
39	0x3f74ddee600c9849	0.005094462540716612
40	0x0000000000000000	0.0
41	0x3fa195b441e2053e	0.03434527687296417
42	0x3f8de9adc5ec1493	0.01460586319218241
43	0x3fa98ccaaa4f95cc	0.04990228013029316
44	0x3fa4570443453d08	0.039726384364820844
45	0x3f8ebd717e6f86a4	0.015009771986970684
46	0x3fa2eb4284426aa5	0.03695114006514658
47	0x3fa0cf9a1124fda2	0.03283387622149837
48	0x3f72e46dc05f356a	0.004612377850162866
49	0x3f694be565611c22	0.0030879478827361565
50	0x0000000000000000	0.0
51	0x3fad610e782bec03	0.057381107491856674
52	0x3f8900c0fa9dd2a0	0.012208469055374593
53	0x3fa6167461e75b77	0.0431400651465798
54	0x3fa7c83af8c30f72	0.04644951140065147
55	0x3fa9c6db2b5ada3c	0.05034527687296417
56	0x3fa3facbeec9ee75	0.0390228013029316
57	0x3fa25bce729f0cdb	0.03585667752442997
58	0x3fa124fda1bd16fb	0.03348534201954397
59	0x3f77e8ad9b3a4c47	0.0058371335504886
60	0x0000000000000000	0.0
61	0x3f4a7877106e422a	0.0008078175895765473
62	0x3f7351b9fe928910	0.004716612377850163
63	0x3fadd52f7a4274e4	0.0582671009771987
64	0x3fa4d3af3a37c872	0.04067752442996743
65	0x3fa86f97b801a787	0.047726384364820844
66	0x3f8e64a38be5d2ad	0.014840390879478827
67	0x3f6f7cb6eb495906	0.0038436482084690552
68	0x3f9c8d4abfa879f2	0.02788273615635179
69	0x3f780400aac72130	0.005863192182410423
70	0x0000000000000000	0.0
71	0x3f62ffc0cfec0a54	0.0023192182410423454
72	0x3f399dde94079ade	0.00039087947882736156
73	0x3f801dfe2c1195b4	0.007869706840390879
74	0x3f5c9af4476ee467	0.001745928338762215
75	0x3f6b1c696dbb3fa2	0.003309446254071661
76	0x3f8b2a12f581aa17	0.013263843648208469
77	0x3f7fdc59a1b64237	0.007778501628664495
78	0x3f147e4ba99faf18	7.817589576547231e-05
79	0x0000000000000000	0.0
80	0x0000000000000000	0.0
81	0x3f9ec7b0a444567c	0.030058631921824105
82	0x3f32c91ab0d26081	0.00028664495114006516
83	0x3f9c26d345585b87	0.02749185667752443
84	0x3f9a3427698e2de2	0.02558957654723127
85	0x0000000000000000	0.0
86	0x3f9afa419a4b357f	0.02634527687296417
87	0x3fa0676d65dc11e8	0.03203908794788274
88	0x0000000000000000	0.0
89	0x3faa04560e57b94a	0.050814332247557006
90	0x0000000000000000	0.0
91	0x3facb9b1b8ed53ee	0.0561042345276873
92	0x3f9a04560e57b94a	0.025407166123778503
93	0x3f9cbd1c1adeee8b	0.02806514657980456
94	0x3f9ef4179d893077	0.03022801302931596
95	0x3f9a29e843b95e0b	0.025550488599348536
96	0x3f9a564f3cfe3806	0.02571986970684039
97	0x3f9a04560e57b94a	0.025407166123778503
98	0x0000000000000000	0.0
99	0x3fca3cb15e6a306b	0.2049771986970684

std f8 [100]
0	0x3e45798ee2308c3a	1e-08
1	0x3e45798ee2308c3a	1e-08
2	0x3e45798ee2308c3a	1e-08
3	0x3e45798ee2308c3a	1e-08
4	0x3e45798ee2308c3a	1e-08
5	0x3e45798ee2308c3a	1e-08
6	0x3e45798ee2308c3a	1e-08
7	0x3e45798ee2308c3a	1e-08
8	0x3e45798ee2308c3a	1e-08
9	0x3e45798ee2308c3a	1e-08
10	0x3e45798ee2308c3a	1e-08
11	0x3fced47c13cb3071	0.2408595177315678
12	0x3fae33c3c5e4863a	0.05898868361169858
13	0x3fc4a99aec9fb650	0.16142593912029435
14	0x3e45798ee2308c3a	1e-08
15	0x3fc424516077c3e4	0.15735833368628882
16	0x3fc4408f846152c9	0.15822023357272588
17	0x3fc5789585167537	0.1677424335329449
18	0x3fcc0775cead4e6c	0.21897766677522001
19	0x3fc4054f7cc98fca	0.1564120635331377
20	0x3e45798ee2308c3a	1e-08
21	0x3fbb412602e93f84	0.10646283694336317
22	0x3fbea4fc9bf2edea	0.11970499808642612
23	0x3fb5dd4d4c516007	0.08540804970959935
24	0x3f9c9eabc3616373	0.02794903163917035
25	0x3fc45ca226c334d1	0.15907694714261436
26	0x3fad0ea535d43e9e	0.056752360173161195
27	0x3faec22d9bb4247c	0.06007521176986416
28	0x3fa45035dd042d9f	0.0396744568152727
29	0x3e45798ee2308c3a	1e-08
30	0x3e45798ee2308c3a	1e-08
31	0x3fb478dab2f7698e	0.0799690901689358
32	0x3fc0879074ab82c9	0.1291370935132561
33	0x3fbf350665e874dc	0.1219028471754941
34	0x3fa50dd25a3c4c6d	0.04112107612140723
35	0x3fa38b5f1931e862	0.03817269499354904
36	0x3fb1a2d9aa8875d5	0.06889114774136058
37	0x3fb33d763a6b8bbe	0.07515658308288573
38	0x3fb35f0ab731976e	0.07566897366049627
39	0x3fb239bc40bd6e2e	0.0711934717232274
40	0x3e45798ee2308c3a	1e-08
41	0x3fc74f86f3e1b34d	0.18211447628291424
42	0x3fbeb647f73934a4	0.11996888910035125
43	0x3fcbdf014e1353c7	0.21774307548790103
44	0x3fc9001a69f16835	0.19531564877508037
45	0x3fbf209e0d2e71f9	0.12159145185291455
46	0x3fc8256abe5bf81e	0.18864187521825299
47	0x3fc6cf4f82e505c4	0.1782016171583064
48	0x3fb158917a4ed14c	0.06775769458801512
49	0x3fac6853c1405da5	0.05548345312143547
50	0x3e45798ee2308c3a	1e-08
51	0x3fcdc4d56fa7c802	0.23256938888476958
52	0x3fbc1cdcdfa95421	0.10981541119083761
53	0x3fca018d3453aaaf	0.2031723504545275
54	0x3fcaf03d7af4e1b5	0.2104565477727768
55	0x3fcbfcef13c5172c	0.21865642991377265
56	0x3fc8c97f85449d03	0.19364923484065608
57	0x3fc7cca4c8592e84	0.18593272955546436
58	0x3fc706f82713a85f	0.17990018756910595
59	0x3fb38064094cd712	0.07617783762983901
60	0x3e45798ee2308c3a	1e-08
61	0x3f9d17af1a44dd1e	0.028410659769375284
62	0x3fb18a3a8e688815	0.06851545311704428
63	0x3fcdfbd54e428c82	0.2342478401306814
64	0x3fc9490ef2114f1d	0.1975420648546952
65	0x3fcb49b3e3b0751c	0.21318672769204106
66	0x3fbef43591a6084c	0.12091383748887202
67	0x3fafae76245852d4	0.06187791055359573
68	0x3fc512d1ffdb3710	0.1646368502901443
69	0x3fb38b74ddd1389f	0.07634668746433924
70	0x3e45798ee2308c3a	1e-08
71	0x3fa8a0e08d029271	0.04810239526094485
72	0x3f943dc0b09f26ac	0.019766817836887426
73	0x3fb69ede06a42913	0.08836162244930205
74	0x3fa55ff88fb9da7a	0.04174782518832827
75	0x3fad67cbc4385027	0.05743252535117476
76	0x3fbd497a4ee781b1	0.11440243173956934
77	0x3fb67d7a4f2f88dc	0.08785213883632842
78	0x3f821b6da379f15d	0.00884137778415866
79	0x3e45798ee2308c3a	1e-08
80	0x3e45798ee2308c3a	1e-08
81	0x3fc5db17cc713228	0.17074868662383946
82	0x3f91559e9fe96e7c	0.016928175459141034
83	0x3fc4edf31603b0d6	0.16351164412424762
84	0x3fc4364f724165ca	0.15790741995696883
85	0x3e45798ee2308c3a	1e-08
86	0x3fc4801ef4c359df	0.16015994025538213
87	0x3fc68a92b25de68d	0.17610391339603773
88	0x3e45798ee2308c3a	1e-08
89	0x3fcc1c74a43f43ac	0.21961839694861618
90	0x3e45798ee2308c3a	1e-08
91	0x3fcd74aae39d4dfe	0.23012291063297136
92	0x3fc424516077bfd0	0.15735833368625984
93	0x3fc523ee29cb449f	0.1651590065071433
94	0x3fc5ea585a29045d	0.1712141456828559
95	0x3fc43275edff16b9	0.15778993721885629
96	0x3fc4431ea276a0af	0.15829832966597254
97	0x3fc424516077c5fe	0.15735833368630375
98	0x3e45798ee2308c3a	1e-08
99	0x3fd9d5f97bb7aa37	0.403684969728292

W1 f8 [50, 100]
0	0xbf78247b81a5a131	-0.005894167372709356
1	0x3f9083cae30553b5	0.016127748590708275
2	0x3f8a4da98c50d0ae	0.012843441576571326
3	0xbf7eac7f3ae05638	-0.007488724701052933
4	0xbf86a65926290531	-0.011059471585329024
5	0xbf8668bab28c2ed8	-0.01094194276222231
6	0x3f59ccf653fa7755	0.001574745707251653
7	0x3f71d2b472ac5a21	0.004351334452414452
8	0x3f80aafd7c8bfd47	0.008138637889259072
9	0x3f8216354e9223a5	0.008831421337406395
10	0x3f667d14707e80ad	0.0027451895911810493
11	0x3fc511624d54332f	0.1645930173475789
12	0x3fb6645dcba64268	0.08746896955404682
13	0xbf973d309d35de9d	-0.022694358439791718
14	0xbf739cc581a6c9d3	-0.004788180837226058
15	0x3fb5de140aa58122	0.08541989574360234
16	0x3fa6ade690aa274d	0.044295506629238625
17	0xbf9c9de284d4cbc8	-0.02794603286492839
18	0xbfa1fb08abcf5b8e	-0.03511836144723822
19	0xbf9cbf511a6586e7	-0.02807356570827482
20	0x3f766211dfa98d47	0.00546462041765789
21	0xbfd1f12495642b2b	-0.2803431948565726
22	0xbf60b8ca0235939d	-0.002041239307504174
23	0x3f7197e8137640cf	0.00429525999733489
24	0x3f76128304cc7ee8	0.005388747970556308
25	0x3fac5e14388fd913	0.05540526571705775
26	0x3f5bf114fb9a3936	0.001705427638089297
27	0x3f70ac077e689931	0.004070309898941014
28	0xbf94240792143adb	-0.019668691912609098
29	0x3f844f8f7d55e61f	0.00991737462276193
30	0xbf787e3f3ddb79e8	-0.005979773557298597
31	0xbf7a060ce54fcce1	-0.006353426336306729
32	0xbfb3643552c3f075	-0.07574780722274162
33	0xbf91adefb7b125e4	-0.017265077196759196
34	0xbfa0e3e81c0c88d3	-0.03298878996271672
35	0xbf92348d990589a7	-0.01777859922857208
36	0xbfa9c5d6d52bf5c5	-0.050337518236101476
37	0xbfa5ee45a47c4ecf	-0.042833496407323694
38	0xbfaf10d5607dde49	-0.06067530444027775
39	0xbf859018f032b04b	-0.010528750257741267
40	0xbf557b013dd34da3	-0.001311064922721574
41	0x3fb003206ee65405	0.0625477095366734
42	0xbf9cb442011ec666	-0.02803137904965638
43	0xbfb23eb4129ed047	-0.07126927809332627
44	0x3fb0ca3678e48be8	0.06558552218898195
45	0xbf55854e662b9fa7	-0.0013135209671250954
46	0xbfb3e49cdb315bbb	-0.07770710326563705
47	0x3fca5234d6944350	0.20563374021051084
48	0xbfae4adb3e271736	-0.059164859139441736
49	0xbf81aedb1aa34034	-0.00863429236451916
50	0xbf7fbbd158868c1e	-0.007747476346057018
51	0x3fc3a400708056fe	0.15344243520001294
52	0xbf925e6e3cadb2b9	-0.01793834920265411
53	0xbf9b7199694e6cd1	-0.026800534298314475
54	0x3fb00895aca9689f	0.06263099160551854
55	0x3fbc3ae837c98b65	0.11027385103220196
56	0xbfb947787639ed26	-0.09874680410751022
57	0x3fd01d2e4d67358a	0.25178105887319957
58	0x3fd14b2fe9e3b214	0.2702140602184795
59	0xbfa1f13e508f54b4	-0.03504366620442437
60	0x3f6be98a4e3e6a83	0.003407259109690587
61	0x3fb3115fefef568e	0.07448386771951673
62	0xbfa324ff24691c1c	-0.03739163703408385
63	0x3fb83da75b9e7397	0.09469076144018938
64	0xbfa7229aa751da30	-0.045185883450291064
65	0x3fb70ad9be352bfa	0.09000931638472301
66	0xbfb4f0acdb6dcdda	-0.08179741246367858
67	0xbfb54158b170e2e0	-0.08302835781149609
68	0x3fcd0759001e42cd	0.22678673272868935
69	0xbfb387b980ebecd6	-0.076289743399616
70	0x3f766870fcd217e0	0.0054706967904447346
71	0xbf99564d7b414dc2	-0.02474328102864632
72	0xbf8ee8f99dd922af	-0.015092802171367962
73	0x3fb4bd65006230ac	0.08101493129123821
74	0x3f86a0bc1f5af85c	0.011048764902963075
75	0x3fbd33c91e825ced	0.11407143587927111
76	0xbfb2e6c31787f9fe	-0.07383364986888094
77	0xbf722bfbf650dbbd	-0.004436477877837794
78	0x3f88a21d20c62319	0.01202795749920109
79	0x3f8cd75a46318fa9	0.014082627551210996
80	0x3f786943640ee6aa	0.005959761853711202
81	0xbfb19b117a6cb3b4	-0.06877240408785107
82	0xbf932c178e816ad6	-0.0187228852013089
83	0xbf86a9735e977ce1	-0.011065388988696192
84	0x3fa6539851ed440f	0.043606529236633766
85	0x3f6af04b3e9d26ce	0.003288409196930831
86	0xbfa2fb914ad9d891	-0.037075558077888655
87	0x3fc1d30d974ca10d	0.13925332915938107
88	0xbf7a84b0b2caef72	-0.006474199512634603
89	0xbfa706025d1ee594	-0.04496772181250744
90	0xbf95f91d45b7f9dc	-0.021458108310975152
91	0x3f5584ae09245511	0.0013133716170775115
92	0xbfa8614bd3bfa40f	-0.0476173110944914
93	0xbfa71740362e40a1	-0.04509926473031212
94	0x3fa7342ab1aeb3f5	0.045319875898122954
95	0x3fb26acd33253450	0.07194216250100394
96	0xbfa356b66034d8a3	-0.03777093815226464
97	0x3fb8617468eefce5	0.09523704110960159
98	0xbf7908da809fc1d7	-0.006111959004542609
99	0xbfb33ee3bdc26d66	-0.0751783693580613
100	0x3f7d7c83f7cb5cfa	0.007198825359146394
101	0x3f7d168b2f193b9b	0.00710157746068676
102	0x3f83642263f6ab0a	0.00946833484234368
103	0xbf70c6360aeb6826	-0.004095278839225036
104	0xbf92683110466ca2	-0.017975584619858716
105	0x3f605af72a9f18ec	0.0019965007277021798
106	0x3f7dc796e7551df0	0.007270421473840369
107	0xbf331d72c55d7ddf	-0.0002916722490819683
108	0x3f83eaeb51086c83	0.009725416574886353
109	0x3f8f571bfa556c5e	0.015302866532399925
110	0x3f063119aeb66b2c	4.23274958294056e-05
111	0xbfb80fd110b5676a	-0.0939913430969718
112	0xbfa08fc723ae20ed	-0.03234693823384469
113	0xbfab211f3a9457e6	-0.05298707571107268
114	0xbf6e2220079bf7d7	-0.0036783814983882657
115	0xbfa7ce6a41d24c5e	-0.046496696982239114
116	0xbf87e99e102095c7	-0.011676058642545407
117	0xbfac24c5ba33cdc5	-0.05496805093744287
118	0xbf9f9ba93bb9040c	-0.030867237348733353
119	0xbfa3f7b7c04e0b6f	-0.03899931166144809
120	0xbf91456527aaaef8	-0.016866283937516408
121	0xbfa0408e1986a6ed	-0.03174251615139476
122	0x3f9651650fa3346c	0.021794871406019586
123	0xbfae791f097e32da	-0.05951783171540166
124	0xbf900d323bf46280	-0.015675339612331474
125	0xbfa1a0df88d30b77	-0.03443048997134828
126	0xbf9213831429aaf5	-0.01765255747379065
127	0x3f7827821b806767	0.0058970529862792725
128	0xbf9104fce67d474d	-0.016620589797930397
129	0xbf63d550d5c7300a	-0.0024210528192494295
130	0xbf851b6de450e96d	-0.010306223421242955
131	0xbfa47d4aeae443f0	-0.040018407033251324
132	0x3f839187ed36c2fd	0.009554922033971897
133	0x3fa8958a6bb59305	0.04801590504465562
134	0xbf9dab87af49e411	-0.028974647592324546
135	0xbf70bf8cca86ea10	-0.004088926282231245
136	0xbf935487d9be80da	-0.01887714640145153
137	0xbf98d02c63956796	-0.02423161847887164
138	0xbfa588618d4a5c11	-0.04205612992989683
139	0xbf96ac6081b394ce	-0.02214194099078242
140	0xbf9791a14ac258ca	-0.023016472042024096
141	0xbf994daf933f2af7	-0.024710410463550905
142	0xbfb16df830f9bd8a	-0.06808425136272525
143	0x3fa98a305391cd3d	0.04988242168556176
144	0x3fa997b2bfca38bd	0.04998549071488998
145	0xbf9d76ca62e5080f	-0.028773462568331406
146	0xbf93d82abb8af596	-0.019379298874573424
147	0xbfa08f1f94a486be	-0.032341944594248315
148	0xbf90cb8b73b1d451	-0.01640146154064254
149	0xbf8c2218904cfb34	-0.013736907867153293
150	0x3f844a8589523c7f	0.009907763722621475
151	0xbfb1224d353bd011	-0.0669296507801962
152	0xbf8f93d100136b9d	-0.015418656172576034
153	0xbfa1afbf944297c3	-0.03454397854629534
154	0xbf9267af92c7e827	-0.017973655065340346
155	0xbfae58b1931306e9	-0.059270428851517405
156	0xbf89af8ae2b15beb	-0.012541852038493636
157	0xbf79a04568cf7c3d	-0.006256362085848952
158	0xbf67730323ea9549	-0.0028624593099545776
159	0x3f9ed31cc0cc851c	0.030102204577933653
160	0xbf8d7c9124743f70	-0.014397748875609045
161	0xbf84c444040cfb5b	-0.010139972089403029
162	0xbf932fbd2450045d	-0.018736796704619574
163	0xbfb2965860309608	-0.07260658596404579
164	0xbfa9c2035cb6b221	-0.05030832773931971
165	0xbfb1072984d0fd80	-0.06651553623759376
166	0x3fc533b165aae385	0.16564004387126033
167	0xbf974a911c3afdd8	-0.022745387409256995
168	0xbfa1820f564672d3	-0.034195403367652276
169	0xbfa98b7a0ae142cd	-0.04989224798976508
170	0xbf6ba24235ea1530	-0.0033732693839875413
171	0xbf91275640f87f12	-0.016751620975013877
172	0xbf3234c5eab23fa4	-0.00027780372574514657
173	0xbf857c898016a8bf	-0.010491441937876876
174	0xbf834e86830bf2fa	-0.009427119135119611
175	0x3fbbeffdaa01d7d0	0.10913072014395131
176	0x3fac5638c8454f59	0.05534532017432409
177	0xbf9a741754d7837d	-0.0258334775479656
178	0xbf243049b0857455	-0.00015402698069069917
179	0xbf7093e6600b957c	-0.004047298338922697
180	0xbf89fb055353c271	-0.012685815434879207
181	0xbfa6aa7ad570abba	-0.0442694078013441
182	0xbf6f5f960c2a8554	-0.003829758702821687
183	0x3f820322b09a8091	0.008795043005477761
184	0xbf8d89765af098cb	-0.014422344827903185
185	0xbf73d2a5424b5bbd	-0.00483955911905459
186	0x3f093451a97f286a	4.8073522691164546e-05
187	0xbfa18d294a431d91	-0.034280100169378554
188	0x3f9018fb0859b3e7	0.015720293411891986
189	0xbfbc39c9f186838f	-0.11025678774468715
190	0x3f90e776f25c9c41	0.01650796751269135
191	0x3f9966873bad125d	0.02480517675145887
192	0xbf9ec2768357eca5	-0.030038692251747396
193	0xbfa7d2a9298ef9e7	-0.046529089282092255
194	0xbf973fdc52d063a5	-0.022704546503607443
195	0xbfa4fdd2d83e4127	-0.04099902047812725
196	0xbfa394a2401e9e73	-0.038243360831356286
197	0xbf95a23cb2ee8ea1	-0.021126697941908138
198	0xbf9346e05a54860f	-0.01882505942660911
199	0x3fb9b5f4033c6243	0.1004326351070484
200	0xbf811673818879ba	-0.008343603506600118
201	0x3f834f17866ee5b1	0.009428199567866754
202	0xbf7d0c594b36146a	-0.007091854862101158
203	0xbf042c063628e1d6	-3.847497898274196e-05
204	0x3f6864c2c0f72eec	0.002977733972988497
205	0xbf8da5fa4c641b8a	-0.014476733642835322
206	0x3f6d030968e8f793	0.003541487101101867
207	0xbf771fb0d3d304da	-0.005645457012350275
208	0x3f65a8ef37377365	0.0026440307790224654
209	0xbf88e456dd5672d3	-0.012154272679987177
210	0xbf8270b885f6c816	-0.009004060352570103
211	0xbfaaa86d0185a3d2	-0.05206623691157798
212	0xbf8b7a5f45f4448c	-0.013417000124294164
213	0x3fb3b0b0f63d8a49	0.07691484462478927
214	0x3f8442c42f7c9f90	0.009892971705610681
215	0xbfa10c6df7d23836	-0.033297955037696544
216	0x3fbb4bf6d88c5cbb	0.10662787234137998
217	0xbfa6fca42e1996ca	-0.044896250369487925
218	0xbf9eb06d06ce4b0a	-0.02996988634147172
219	0xbfa7d1a8f1c135cd	-0.04652145339114675
220	0xbf6fa564bbfb91f3	-0.0038630454508725653
221	0xbf9c99f6e138fb08	-0.027931077476973903
222	0xbfa449b4128868ee	-0.03962481237631886
223	0x3f9f033f55274e76	0.030285825321540526
224	0xbf8d5eb9ecb59e38	-0.014340832268046375
225	0x3fb8ef0793d21fd2	0.09739730223566248
226	0xbf83ee9c74ddc758	-0.009732458416440146
227	0xbf7f3a12fb482503	-0.0076237431972086015
228	0xbf005716a4e2bf10	-3.116643766653941e-05
229	0xbf8cefacd023f26a	-0.014129018880788286
230	0xbf87578f76da2427	-0.011397476973131827
231	0x3fce7564c79f26d8	0.23795757052567157
232	0xbfa2fda533daf7a5	-0.03709141023635646
233	0xbfa47e1d1af3014c	-0.04002467111559102
234	0xbfa513ec74867e96	-0.041167630409515585
235	0xbfad31509d1ec0c4	-0.057016867809012634
236	0xbfa2c5a86da550a4	-0.03666426027726402
237	0xbf9c4b73a1d1ec44	-0.02763157534762352
238	0x3fa2090c9c31d098	0.035225290362093264
239	0x3fc4fdaedfbeeffa	0.16399179387178703
240	0xbf5513b23b63fbe5	-0.0012864342257328184
241	0x3fc54ec690274545	0.1664665416597392
242	0xbf90cd397d969de3	-0.01640786961584507
243	0x3fa6b4491a444803	0.04434421964300841
244	0xbfc732e406e0e7eb	-0.1812405618273368
245	0x3fbfe685e41121dd	0.1246112520030986
246	0xbfbaf15c72b438aa	-0.10524537849798557
247	0xbf9d713f3fff4467	-0.028752315789294516
248	0xbfd2ca20e1804ae1	-0.2935869409713359
249	0xbfc52dc330932411	-0.1654590594464769
250	0xbf77966f36821013	-0.005758699822880703
251	0x3fd0e6ddfad749d7	0.26409101005733987
252	0xbfa7b2e087ae8d2e	-0.046286598742222615
253	0x3fcbd799f3c31b7d	0.21751713182876733
254	0xbfbe3b545233361d	-0.11809279448353789
255	0xbfbabfdd87a14bdb	-0.1044901329162679

b1 f8 [50]
0	0x3fc42b557bd7e006	0.15757244631799966
1	0x3fb194920b5a5239	0.06867325570267092
2	0x3fcae4f96c6f2ddc	0.21011274141925085
3	0x3f9b4f693130a63b	0.026670116069146693
4	0x3fc5cfe5e2a43c3d	0.17040704313737534
5	0x3f9ec6e878d75114	0.030055649161867384
6	0x3fcd9b8b637ce05b	0.23130934102823883
7	0x3fca85973e95b544	0.20720186763666437
8	0x3fb208bf88d97ae7	0.07044598666241662
9	0xbf501bc718e74ba2	-0.000983185225426488
10	0x3fa46be4b0f11264	0.039885660743071566
11	0x3fc0488526939098	0.12721313842405801
12	0x3f953f95c16d5c52	0.020750369959696542
13	0x3fb03fb22276e7cf	0.06347192136209333
14	0x3fcb779caa63465f	0.21458776778904373
15	0x3fcf8a5ffe4c5aa4	0.24641036908061154
16	0x3fb0242d99a74c79	0.06305203439051067
17	0x3fa6baf1a49a34e7	0.04439501890474578
18	0x3fa7fd907bcae0c0	0.046856417762172864
19	0x3fc1c847d3809b44	0.1389245779730236
20	0x3fa6188e33d83f2b	0.0431560934340481
21	0x3fa234ffad93d9d7	0.03556059831491936
22	0x3fb24e515f221954	0.07150753567302576
23	0x3fa64d189a61c23f	0.04355694660705866
24	0x3fa02c0c846214e3	0.031586066398668476
25	0x3fa420e4a0bab5b9	0.0393134542658617
26	0x3fa237f57a9ac9d4	0.03558318254126261
27	0x3fc15cbdb64f1b42	0.13564273263747323
28	0x3f9f6c407cfdf90e	0.030686385754500604
29	0x3fc13a998f624d58	0.13460082532092588
30	0x3fc2f0bb633a95dc	0.14797155709417964
31	0x3fc1a952e7fc4e8d	0.137979853891569
32	0x3fbab5106b93cc76	0.10432531954192989
33	0x3fae0347b7ce5d90	0.058618775546331325
34	0x3fb8018ce508b25f	0.09377365676545811
35	0x3fca03c63ad320af	0.2032401835660997
36	0x3fb5ea267c67d027	0.08560410058254374
37	0x3fab91fc17b9220e	0.053848150154014104
38	0x3f81e6080a0fef93	0.00873953133304165
39	0x3fb5613735d26b57	0.0835146433259245
40	0x3facc9cd4dd87d5b	0.05622712683929861
41	0x3fc242639bca630e	0.14265103442155475
42	0x3fb55c8d03354d2e	0.08344346359563268
43	0x3fade9e2ba719020	0.0584250309555332
44	0x3fcfacf209444351	0.24746537640069247
45	0xbf9cb3c5cb3e306f	-0.028029528169597414
46	0x3fce13c56b255d8b	0.23497836810814152
47	0x3f46f399d383440a	0.0007004262070272615
48	0x3fc511d3f6d4e928	0.16460656692817932
49	0x3fb459a6ac22e887	0.07949296667621485

W2 f8 [64, 50]
0	0x3fa73746eab10b23	0.04534360518348126
1	0xbf9e4e5bcc5501b2	-0.029595789286078485
2	0x3fb26b02ba50fbc4	0.0719453530191308
3	0x3fa5232a5d413724	0.04128391636241549
4	0x3fb8a6b619bc6f10	0.09629381302186979
5	0xbf97ed621f114072	-0.023366482874110202
6	0xbfb84bb8da653256	-0.09490542728344428
7	0x3fb1e9ece4a3b15c	0.06997566778199399
8	0x3fa1b71f9a6e1e3e	0.03460024604924826
9	0x3f7b172b223f0041	0.006613892070106487
10	0xbf98e36bd49379ee	-0.024305043077100956
11	0x3fa9379af2657841	0.049252359475517433
12	0x3f97c2722635fd37	0.023202689726074168
13	0x3f9183baf994eb98	0.01710407398534705
14	0x3fbba3c442f84d43	0.10796763072021513
15	0xbfb7f60c601d7cb8	-0.09359814974367253
16	0x3f9ee96ede495fd5	0.030187351529406065
17	0xbf90160ee1f98b76	-0.01570914510956408
18	0xbf8c17d9292a6423	-0.013717361992620586
19	0x3fa9874802251ad6	0.04986023927863463
20	0xbfbe4da03794fcec	-0.11837197644216574
21	0x3f98eb2377a2c36c	0.024334482361783413
22	0x3fabf3404a87181d	0.054590233895894104
23	0xbf84342ad06d1ada	-0.009865126119291846
24	0x3f855c89463a8ecb	0.01043040509768591
25	0xbf76152248867a94	-0.005391248625896811
26	0x3f86d6b215ac719f	0.011151686941553161
27	0x3fa47b6f862dc4be	0.040004239205595024
28	0xbf88eb8eeae4aa72	-0.01216804174744832
29	0x3fa853fa31858a8b	0.04751569609176894
30	0x3fa81ce995ad5ffa	0.047095584412716066
31	0x3fb1b499dccb3b9c	0.06916200294948144
32	0xbfb2ee2a08ad350e	-0.07394659721213179
33	0xbf8b034feff3c957	-0.013189911375296388
34	0xbfa4d26dae12b375	-0.04066794156947299
35	0x3fadcfd0ab3b0dbd	0.05822612848489992
36	0x3facffaf2ecc7e7b	0.056638216459984535
37	0x3fa6dbffa69225c6	0.04464720638595625
38	0xbfab8442e0ef01ea	-0.053743448217122694
39	0xbf9e4f872ba8bff4	-0.02960025028204423
40	0xbf7ae8d41f15939a	-0.006569698905285382
41	0xbfbf4c977cf1e232	-0.12226244736110273
42	0x3fa493c92c4c4941	0.04019001641985876
43	0x3f9893e9034973ba	0.02400173265992909
44	0x3fb2b484f6608a8f	0.07306700720850244
45	0xbf846ed5987a7b90	-0.009977024760983416
46	0xbfb073c9c7cdb82c	-0.06426678779618616
47	0x3f91f07c1d41de3c	0.017518939290736876
48	0x3fb390cd4004cf7d	0.07642824948271527
49	0x3f547259d84a2066	0.001247966517583543
50	0x3fa8668b2b98221f	0.04765734584004044
51	0xbf905d5dd4c15fdf	-0.015981165037686536
52	0x3f8909f901ace33b	0.012226052631022824
53	0xbf87a04164047120	-0.01153613172987683
54	0x3fa53d072972d2b2	0.04148123150790663
55	0xbf96847508bd2ba8	-0.021989658983595867
56	0xbf7a5ad7ea588b82	-0.006434291286072093
57	0xbf91a38b95057d62	-0.017225438089892527
58	0xbf92e64388164f65	-0.01845651167020836
59	0x3f674cd5ee11df86	0.002844255287126121
60	0xbf7c472262bc7af3	-0.006903776473136547
61	0x3f9f67bf5743f053	0.030669202519661386
62	0xbf79825c61a41a32	-0.006227837433704185
63	0x3f8b730ae9159260	0.01340302013222433
64	0x3f97165017edabc7	0.02254605432555559
65	0xbf9cf47af63edb76	-0.028276368407854822
66	0xbf6b287db51d2207	-0.0033152060722481144
67	0xbf8960b3d59303e0	-0.012391476588506423
68	0xbf855b546e469604	-0.010428104033802128
69	0x3f61522dbdd5a16f	0.0021143811597321076
70	0xbf8d429e3597ddab	-0.014287220011268106
71	0x3f81203d9e4546e6	0.008362275497947502
72	0x3f6da309e83f45f9	0.003617781972913955
73	0xbf87d8176cacbca8	-0.011642630580892835
74	0xbf8e1d27a943bcc2	-0.014704046109243033
75	0xbf43916fe2cf5315	-0.0005971714323274891
76	0x3f9703a5c9b5df00	0.022474852024486403
77	0x3f9981576770bfa2	0.02490746086931462
78	0xbf82f6e9e48aafc4	-0.009260012900391142
79	0xbf885f790f1b0f35	-0.01190085008000317
80	0xbf93c2c3d991cf74	-0.019297657160179907
81	0x3fa686d53b84a467	0.043997443690678754
82	0xbf98bcb4f65828f4	-0.024157359634082234
83	0xbf64b0b79d8ff403	-0.0025256716003228
84	0xbf86fce2cf36e5de	-0.01122452921741773
85	0xbf2207e0efcccb88	-0.00013756390389970904
86	0xbf8d35cc7b2f003d	-0.014262769231095368
87	0xbf7e223aa10a6b72	-0.007356862087045767
88	0xbf924d0f22b36beb	-0.017872082226727242
89	0xbf9daa9b9f3e4955	-0.02897112998432168
90	0xbf8b479313c16804	-0.013320111313237966
91	0xbf67fcdb0e136bef	-0.002928188173070271
92	0xbf806026ab56e934	-0.007995893577448322
93	0xbf887794d742ddfc	-0.011946833438158493
94	0xbf95030e5e63f8c6	-0.020519470702304664
95	0x3f5545f1942cdc2f	0.0012984141510068538
96	0xbf8edb4cf6a3cb0c	-0.015066720272874722
97	0xbf8ac535959fc88a	-0.013071459416071702
98	0xbfa3a98ef62f59f4	-0.038403003265262387
99	0xbf77fe3f66dd9556	-0.005857703841546899
100	0x3f81d11cd0079f7c	0.008699631784977895
101	0xbf8ee0358fe33aa4	-0.015076082662202346
102	0x3fa36c18bd73fca7	0.037934086920352876
103	0x3f94234ef02fef65	0.019665940675607802
104	0x3f9592a5d5313d33	0.021067229401805675
105	0x3f690b965bfd8542	0.003057283087330249
106	0xbfaadd06509bfd9b	-0.052467534389502656
107	0x3fab443d65d09a7a	0.05325500362260001
108	0x3f840a886005810a	0.00978571455988277
109	0x3f7f320ea9247622	0.007616097706230758
110	0xbf5b1ced16ad1677	-0.0016548457449102863
111	0x3f9c3959b7e423f2	0.02756252465136195
112	0x3f8402add7436d03	0.00977073491269787
113	0x3f802a104799941f	0.007892729935699503
114	0x3fa767a5548b06c7	0.045712629862021674
115	0xbfb1d7c46a5e74dc	-0.06969859692476937
116	0x3f902e65577ab6a5	0.015801986183467637
117	0xbf7830a3b5857a5f	-0.005905761230990152
118	0x3f86dd7800d6fae2	0.011164605641963591
119	0x3f9e146166fec558	0.029374620353057906
120	0xbfac92c1a90cbef3	-0.055807163129768876
121	0x3f94519b3c635ba2	0.019842553673551706
122	0x3f9aa0bb5131ac05	0.026003767805757878
123	0x3f35f4cce60f59d3	0.0003350258103273194
124	0x3f8820c7052940d1	0.011781267971997885
125	0x3f446642eaa2de39	0.0006225420704799096
126	0x3f89e7e98584425c	0.012649368655304354
127	0x3fa20c2bd08d0348	0.035249108512749816
128	0x3f7749cb08a4a303	0.005685608959802082
129	0x3f9c114dde5b6700	0.02740976018581076
130	0x3f9e7efc9ed41771	0.029781291193124063
131	0xbf6fa3b497a2ee16	-0.0038622405237143205
132	0xbf9ce6cc04991b59	-0.0282241704756204
133	0x3f92a8dc0ee0ff9f	0.01822227326215364
134	0x3f3d99ac91514eaa	0.0004516645724994365
135	0x3fa68dfc8002db31	0.044052019716608
136	0x3f9d20952776fa20	0.028444605382668908
137	0x3fa529f97e3fdda2	0.04133586565142912
138	0xbf992c03a57f6421	-0.02458196351640052
139	0xbf907bdcfe8dfec3	-0.016097500836166356
140	0xbf862e6a50faf018	-0.010830717655487418
141	0xbfb4183deb06d3d1	-0.07849490154224205
142	0x3f9752057861c2e0	0.02277382418873486
143	0x3f81c8d6d9b371fc	0.008683851736742014
144	0x3f933b2e6442fca9	0.018780445928083953
145	0x3f4ae80f4026e72a	0.000821120688036835
146	0xbfa8cbb974a44d60	-0.04842929409837882
147	0xbfa44ef42b1b295e	-0.0396648695583106
148	0x3fa5b103f934075c	0.04236614625007348
149	0x3f728babd13d056f	0.0045277320494404435
150	0x3fab57e7cebe17dd	0.05340504072869099
151	0xbf901d795c04181b	-0.01573743461724329
152	0x3fb7420d4b401032	0.09085162245907055
153	0x3fa220ebc8a19b36	0.03540741752731551
154	0x3fa95d48cd229b80	0.04953982833949677
155	0xbfa83f5511e2893f	-0.047358187134948874
156	0xbfb3661e1084ef12	-0.07577693846991121
157	0x3fa6ed461d0bae97	0.044779006047830076
158	0x3f8df1422b82f4c7	0.014620320275179911
159	0x3f953de5f7dba1ff	0.020743935826347478
160	0x3f808258f23cf0b6	0.008061118023413232
161	0x3f7bae3d4d592df4	0.006757964574329634
162	0x3f93838894e044d8	0.019056448065445902
163	0x3f92709da20956f7	0.018007720007822105
164	0x3fb31feff08681ff	0.07470607397272742
165	0x3f9e427ae9ab7b7a	0.02955047656257246
166	0x3fa03d7b81628def	0.03171907381445382
167	0x3f8195e44485a0ae	0.008586676922917338
168	0x3f8917460c33467f	0.012251422164271773
169	0x3fa2501857fe1a26	0.03576732706192258
170	0xbfb24df4aba1a06e	-0.07150201025217637
171	0x3f98d0e30d8e4d2b	0.024234340383896196
172	0x3fa4941cdc5882c7	0.04019251050727273
173	0x3f73dacde22e5b9a	0.004847339851855726
174	0xbf672fbf4b305a3e	-0.002830384846230132
175	0xbf7cb7c7d24233b3	-0.007011204292337081
176	0xbf765fb6861587b6	-0.0054623727640734
177	0x3f8b09d7bd806d16	0.013202367277747967
178	0x3f8778d13f2afaf0	0.011460909595709862
179	0x3fb1b77b66cb01df	0.0692059637031046
180	0xbf65b457785682c9	-0.0026494701766782464
181	0x3fad4231e44b9a45	0.05714565192993296
182	0xbfa1d6d7b5af89b1	-0.03484224407999948
183	0xbfa09597672916dc	-0.03239129194530019
184	0xbf861e2a598a348c	-0.010799723489322476
185	0x3fa98244ff787b39	0.0498220025876805
186	0x3f98f2b38c67943f	0.024363332218758634
187	0x3f97a04b5d76dd8f	0.02307241208992888
188	0xbfad88d2046de2c5	-0.05768448165958299
189	0xbf81a6cf7b5f3d0e	-0.008618946983828948
190	0x3f938dd0daa74763	0.019095671983286332
191	0xbfacd48652cc41c1	-0.0563089347907666
192	0x3f9fbb5135861976	0.03098799599822529
193	0xbf4f5a74df83ae1c	-0.0009568281812141785
194	0x3fb0502fbe9e9dd2	0.06372354892538759
195	0x3f9fdb3fe792ba13	0.031109808453658582
196	0x3f9651eb214b9866	0.021796869189437372
197	0x3facd0180a404d7d	0.056275130511632
198	0x3fa3e087c9e8b9c0	0.03882240619383337
199	0x3faaa29e47af526d	0.05202192902621481
200	0xbf5d6d6488159ff9	-0.0017961007837019578
201	0xbf8d04d0a1661deb	-0.014169340062621457
202	0xbf530ae87da63124	-0.001162268678487407
203	0xbf83ad21380555d1	-0.009607562563057311
204	0x3f51c51195f8e97d	0.0010845824944128717
205	0x3f69321f59d8859b	0.0030756580661239325
206	0xbfa5082853dcd3dd	-0.04107786201203798
207	0x3f98eb831f1c8eea	0.024335907720469153
208	0x3f712e7dd852f11d	0.004194728452770383
209	0x3f80162cba8540e0	0.007854794923929764
210	0x3f8e9ef1e0393849	0.014951600699671401
211	0x3f7f6edc22fe6f63	0.007674083622898428
212	0x3f80d253418f59ce	0.008213663519126248
213	0x3f3594ea24ee2466	0.00032931057369773307
214	0xbf91b980191cba97	-0.01730919030449715
215	0xbf9e334f80b3f7db	-0.029492609243781814
216	0x3f4c00bca5af91b3	0.0008545800332027592
217	0xbf8b715b9d60b049	-0.013399806728635737
218	0xbf2765fd87459684	-0.00017851562337083484
219	0x3f3f83584a6b2385	0.00048085122618295894
220	0xbf7354c749531b88	-0.0047195229173614475
221	0xbf8f7876e556851d	-0.015366486429061294
222	0x3f6b9e4ab6c743fd	0.003371377874124891
223	0xbf6fbfe66b0c502c	-0.003875684771978546
224	0xbf7171b7345e57f0	-0.004258838312940924
225	0x3f52d096df07a3e1	0.0011483643867171644
226	0x3f776d6e255da6f8	0.005719595201165488
227	0xbf7ddd6f8304a893	-0.00729125556271461
228	0x3f8c59f76625179b	0.013843472294535355
229	0x3f735c27ebe73d33	0.004726558631275512
230	0xbf71b6f49494ac1f	-0.0043248704835532606
231	0x3f7ca8d246091889	0.006996938115270032
232	0xbf98dfe3a56a9bc6	-0.024291569682329393
233	0x3f8725cfca5c6ae6	0.01130258880907804
234	0xbf920773dc9770fa	-0.017606554354515837
235	0x3f97a30cec45a4c7	0.023082925721074312
236	0xbf911c5ae17e0063	-0.01670972825331808
237	0xbf823306fc66abe9	-0.008886389329594695
238	0x3f9fe5c83204f366	0.031149986317575616
239	0x3f7b2e15d4378d53	0.006635747212814752
240	0xbf5626ca1ef64fb0	-0.0013520215833055897
241	0x3f8698f66abaac99	0.011033940441242772
242	0x3f61c36d191a7731	0.0021683817693220133
243	0x3f9225a53bff80d1	0.017721730982771803
244	0x3f76bb98da2b6fb2	0.005550000266079923
245	0xbf6943e70ec1c736	-0.003084136280499995
246	0xbf8b2a69285d88da	-0.01326448587832767
247	0x3f89753ef82f13d3	0.01243066019913811
248	0x3f9481dd85318821	0.020026646856770584
249	0x3f7a6d37a1cb51f9	0.006451813995870464
250	0xbf9ebbf7a58ba9a5	-0.03001391361150642
251	0xbf83bea177804b35	-0.009640943011651618
252	0x3fac00eed4d3024e	0.054694617728732284
253	0x3f9e9a35d2d45707	0.02988514041233883
254	0xbfa4ff9e73641bcf	-0.04101271780569215
255	0x3fa6d16f273a65cd	0.044566606081570016

b2 f8 [64]
0	0x3fbdd0a3b177bf8d	0.11646483500203271
1	0x3fa02698a602bcd0	0.031544466271378746
2	0x3fab29b81b93bb8b	0.05305266701349528
3	0x3fb97b91bfcab036	0.09954176838317683
4	0xbf9968c01bd30063	-0.024813653658157252
5	0xbf818bd899d387d3	-0.008567516512304174
6	0xbf9cc963a50637ac	-0.028111988971026555
7	0x3fd44b5d8455d116	0.3170999328933858
8	0x3fb1d2fbc6974cbf	0.06962560270703742
9	0x3fda0e2a037937b5	0.40711450900277707
10	0x3faa887288302f96	0.05182226097539837
11	0xbf69517b384978bc	-0.003090611137209624
12	0x3fd1cb7c06a39d21	0.2780447068057175
13	0x3fce585f6e9ae049	0.23707192326196694
14	0x3f4bcaffe3af1db1	0.0008481740436473898
15	0x3f751b24f6375953	0.0051528400249110816
16	0x3fb14618b6ecb965	0.06747583833632616
17	0x3fba4840d808e006	0.1026649978092565
18	0x3fc0e90c710cd41f	0.13211207885766016
19	0x3fb72a52dd45933f	0.09048955824034709
20	0x3f7f1aaec4a0f348	0.007593805969062846
21	0x3fdca6f715142fb1	0.44769074495774946
22	0x3fb1408f74f24470	0.0673913631928984
23	0x3fb4e48dd8a115ef	0.08161245859908893
24	0x3fc4b3fa7d26e5c5	0.16174250708517782
25	0x3fbaff89b0e8281a	0.10546169823661025
26	0xbf77812156bfea3c	-0.005738382558770069
27	0x3fcfbb9f65e44dec	0.24791328883348684
28	0x3fbfcd566c8d600a	0.12422695303155265
29	0x3fdf86a3309e6b0e	0.4925926184456991
30	0x3f71354981844aae	0.004201209194678297
31	0x3fa1fc36e31d6365	0.035127368186926224
32	0x3fc619e487c1f944	0.17266518238825246
33	0xbf41bfc5f8f6f817	-0.0005416599905669919
34	0x3fa77630c19e9808	0.045823596606439365
35	0xbf8fbe3bcbd04770	-0.015499560506245763
36	0x3fc84adae4160acd	0.1897843946172401
37	0x3fc1535233fafa47	0.1353552583513695
38	0x3feae709a16b2b82	0.8407028343875569
39	0x3fb21736b34a187c	0.07066671254333018
40	0x3fc4ac8a7bdc7480	0.1615155319968018
41	0x3fb79ba6dab39c70	0.09221880759615586
42	0x3faee3642bfe4060	0.06032860791231154
43	0x3f9381cf5e304acc	0.019049873470133247
44	0x3f88eceef5bdc3f1	0.012170664667538108
45	0x3fc8dbef56f25889	0.19421188111727286
46	0x3face3fea1b30bea	0.05642696117276798
47	0x3f82c30bce6afda1	0.009161083447337516
48	0x3fc4e451f1447a7b	0.1632177761138854
49	0x3fd4bd01a5ee139a	0.3240360374841714
50	0x3fd1cca236ca4833	0.2781148467121312
51	0xbf735f0065415985	-0.004729272408516731
52	0x3fa08ac662820b9f	0.0323087687729846
53	0x3fbbde6c180aaad3	0.10886264407114803
54	0x3fb423af033823b2	0.07866948917957364
55	0x3fbfc99854efdf92	0.12416984628350594
56	0x3fc0214cf0106ca9	0.12601625177271572
57	0x3fd7e404d3cbed59	0.37329216655026226
58	0x3f42b9af53eecf22	0.0005714517682151347
59	0x3f96e2445d0fd8f2	0.022347515277908188
60	0x3fca54c8a1e9e98b	0.20571239381736137
61	0x3fae8e3178a756e6	0.05967859838317029
62	0x3fc195078142b70d	0.13736051379731187
63	0x3fa4dca8d4125e2f	0.040745998275437116
