10by10recording/src/oldMLPparameters/tactile_mlp_model_trial_05.npz (npz, 16380 bytes, 6 tensors)

mean f8 [100]
00000000: 0000 0000 0000 0000 0000 0000 0000 0000
00000010: 0000 0000 0000 0000 0000 0000 0000 0000
00000020: 0000 0000 0000 0000 0000 0000 0000 0000
00000030: 0000 0000 0000 0000 0000 0000 0000 0000
00000040: 0000 0000 0000 0000 0000 0000 0000 0000
00000050: 0000 0000 0000 0000 58a5 0718 70a9 8d3f
00000060: e008 65f4 b6ac 853f 31be 55c4 d659 6a3f
00000070: a835 cd3b 4ed1 813f 7605 c8bd e642 923f
00000080: 7ffb 3a70 ce88 823f 9fd0 d884 a1fb 9f3f
00000090: c41d 82bd 9cec a93f 8c00 94ac b006 a53f
000000a0: 0000 0000 0000 0000 cb35 f266 fa12 773f
000000b0: 107a 36ab 3e57 8b3f d67b 17dc fcac 5f3f
000000c0: b6ce d228 3764 463f 93ce adfd 8a22 713f
000000d0: 27a0 89b0 e1e9 753f acad d85f 764f 8e3f
000000e0: 5e01 72af b990 a43f 5e70 f3b3 7e20 a63f
000000f0: 0000 0000 0000 0000 ce88 d2de e00b 733f
00000100: 7446 94f6 065f 783f d8a6 9ef2 d57b 773f
00000110: f3b3 7e20 661c 703f 039d 36d0 6903 7d3f
00000120: c0ec 9e3c 2cd4 7a3f 3b95 f934 1464 913f
00000130: 302a a913 d044 883f 3d9b 559f abad 883f
00000140: 0000 0000 0000 0000 81df 99e3 eff1 9c3f
00000150: 6482 07f3 44fd 8b3f 6d0c 2756 3358 8e3f
00000160: ef82 9b9f f503 913f 166a 4df3 8e53 943f
00000170: 44b0 9793 3d2f a23f 423e e8d9 acfa 9c3f
00000180: 9f3c 2cd4 9ae6 6d3f d93a 4ba3 dc90 993f
00000190: 0000 0000 0000 0000 ca57 ef5d 70f3 a33f
000001a0: 7446 94f6 065f 883f 6abc 7493 1804 863f
000001b0: 7605 c8bd e642 923f db65 d2b9 b55f 913f
000001c0: 7a80 0197 da65 923f 201c c6b7 8ad8 9a3f
000001d0: d67b 17dc fcac 4f3f 81df 99e3 eff1 8c3f
000001e0: 0000 0000 0000 0000 68fd 40cc 3820 8c3f
000001f0: f56f 8432 7a5b 863f 6482 07f3 44fd 6b3f
00000200: ed79 1180 9215 863f e09c 11a5 bdc1 773f
00000210: 7f8f e720 d59d 643f fca9 f1d2 4d62 403f
00000220: b4a3 4b12 5e95 3e3f 705f 07ce 1951 9a3f
00000230: 0000 0000 0000 0000 b921 b3a0 1d5d 723f
00000240: 7aec 54e6 d350 703f dc21 d8cb c99e 673f
00000250: 7b14 ae47 e17a 543f bfc4 45db 1eaa 663f
00000260: 3764 16b4 a34b 623f 11a2 8f0c 4c81 8f3f
00000270: 405a 8966 8b91 423f e130 be55 c4d6 893f
00000280: 0000 0000 0000 0000 9893 3d2f 0250 923f
00000290: 2391 a326 e7b1 933f 5f73 2169 4ac5 893f
000002a0: 4ccb 35f2 66fa 823f 8fe7 20d5 9d14 933f
000002b0: 3764 16b4 a34b 523f 2e24 4da9 38fb a03f
000002c0: 8885 5ad3 bce3 643f 5146 6fcb 5a1d 833f
000002d0: 0000 0000 0000 0000 a245 b6f3 fdd4 983f
000002e0: 5124 72d4 e43c 963f 4ccb 35f2 66fa 823f
000002f0: 45fd 1ba1 8cde 863f fa7e 6abc 7493 983f
00000300: 865a d3bc e314 8d3f 7187 602f 277b 9e3f
00000310: 6c78 7aa5 2c43 8c3f 9a08 1b9e 5e29 d93f
0.0 0.0 0.0 0.0 0.0 0.0 0.0 0.0
0.0 0.0 0.0 0.014483333333333334 0.010583333333333333 0.0032166666666666667 0.0087 0.017833333333333333
0.00905 0.03123333333333333 0.050633333333333336 0.04106666666666667 0.0 0.005633333333333333 0.01335 0.0019333333333333333
0.0006833333333333333 0.004183333333333333 0.00535 0.0148 0.04016666666666667 0.04321666666666667 0.0 0.00465
0.00595 0.005733333333333333 0.003933333333333333 0.007083333333333333 0.00655 0.016983333333333333 0.01185 0.01205
0.0 0.028266666666666666 0.013666666666666667 0.014816666666666667 0.016616666666666665 0.01985 0.03551666666666667 0.0283
0.00365 0.024966666666666668 0.0 0.03896666666666666 0.0119 0.01075 0.017833333333333333 0.016966666666666668
0.017966666666666666 0.026216666666666666 0.0009666666666666667 0.014133333333333333 0.0 0.013733333333333334 0.010916666666666667 0.003416666666666667
0.010783333333333334 0.0058 0.0025166666666666666 0.0005 0.00046666666666666666 0.0257 0.0 0.004483333333333333
0.0039833333333333335 0.0028833333333333332 0.00125 0.002766666666666667 0.0022333333333333333 0.015383333333333334 0.0005666666666666667 0.012616666666666667
0.0 0.017883333333333334 0.019233333333333335 0.012583333333333334 0.009266666666666666 0.01863333333333333 0.0011166666666666666 0.033166666666666664
0.00255 0.009333333333333334 0.0 0.02425 0.021716666666666665 0.009266666666666666 0.011166666666666667 0.024
0.0142 0.029766666666666667 0.0138 0.39315

std f8 [100]
00000000: 3a8c 30e2 8e79 453e 3a8c 30e2 8e79 453e
00000010: 3a8c 30e2 8e79 453e 3a8c 30e2 8e79 453e
00000020: 3a8c 30e2 8e79 453e 3a8c 30e2 8e79 453e
00000030: 3a8c 30e2 8e79 453e 3a8c 30e2 8e79 453e
00000040: 3a8c 30e2 8e79 453e 3a8c 30e2 8e79 453e
00000050: 3a8c 30e2 8e79 453e edeb 6e40 b895 be3f
00000060: 011d 0f47 4432 ba3f bada 360a dffd ac3f
00000070: 9a52 bf9f 24c6 b73f 12ff 2bc9 b1f0 c03f
00000080: 6be1 f42f 433e b83f 609a dc63 eb43 c63f
00000090: c7bf 24f4 4f10 cc3f f585 44b2 a066 c93f
000000a0: 3a8c 30e2 8e79 453e aa16 1a45 f728 b33f
000000b0: 9baf 47cf 7561 bd3f 8afa b84d 9f7d a63f
000000c0: b627 0c33 46c2 9a3f 0622 4277 e885 b03f
000000d0: 7c6b c7b3 b4ac b23f 6df5 3f9d 94e9 be3f
000000e0: 0751 19e7 fe21 c93f ffb0 e065 3107 ca3f
000000f0: 3a8c 30e2 8e79 453e 7b64 a2be 8e6a b13f
00000100: a987 74cb 23b0 b33f 3022 158e 0f54 b33f
00000110: 0958 c893 1506 b03f 3d42 6188 1b78 b53f
00000120: 6a30 cfd7 90a6 b43f 5608 0698 e989 c03f
00000130: 06d9 3f27 b4b3 bb3f 9590 843e 93ee bb3f
00000140: 3a8c 30e2 8e79 453e 9652 fa32 c336 c53f
00000150: 99db 28ff ebb8 bd3f 892c 07d8 f7ed be3f
00000160: 173b 184b bd5c c03f 8822 d16e a2da c13f
00000170: 8a99 92da c1b0 c73f 2fee f3d5 de39 c53f
00000180: 5f39 c409 48e0 ae3f 5f4f 280e 94f8 c33f
00000190: 3a8c 30e2 8e79 453e db48 a91e 1ec5 c83f
000001a0: 99a6 0e36 78c2 bb3f f405 65e0 4b66 ba3f
000001b0: 070b 2cc9 b1f0 c03f c17d afcf de87 c03f
000001c0: e204 6bac 9400 c13f 257c fe1d a473 c43f
000001d0: 5120 ba53 73d2 9f3f a7c5 e1bc e837 be3f
000001e0: 3a8c 30e2 8e79 453e 278a 9c29 33cb bd3f
000001f0: 05de 6c3a e999 ba3f 9c70 b93b 5be0 ad3f
00000200: 792c f6f7 a670 ba3f a8ab 591c 9470 b33f
00000210: 5b4b f08e 21a7 a93f a763 cd4a 41e4 963f
00000220: 8fbb a284 a31d 963f 728b da23 2b41 c43f
00000230: 3a8c 30e2 8e79 453e 7b6a 41e5 4a1a b13f
00000240: 95c8 478d f81f b03f 995d f97b fa73 ab3f
00000250: e023 03f8 3217 a23f f86f c181 bae4 aa3f
00000260: 435e 1837 4d2b a83f 0cba a898 a381 bf3f
00000270: 5332 ea79 825e 983f fbc2 746d ad92 bc3f
00000280: 3a8c 30e2 8e79 453e 68cc 78be a8f6 c03f
00000290: 63f5 d037 7e94 c13f bcd1 b6b3 2189 bc3f
000002a0: 21ba c6bf 6d87 b83f 67fe c7e2 174f c13f
000002b0: fece 20e6 8719 a13f 1bef 1090 d1eb c63f
000002c0: 316e bb55 5ed2 a93f 42aa af99 c39d b83f
000002d0: 3a8c 30e2 8e79 453e 65ff 8e71 84b0 c33f
000002e0: 3a8b 45fb 28a8 c23f afe9 c6bf 6d87 b83f
000002f0: 569d 4043 93e6 ba3f 3214 913f 1c97 c33f
00000300: b57d 98dc de49 be3f af9e 6505 b1c0 c53f
00000310: c641 b280 6edd bd3f 05c1 736f c242 df3f
1e-08 1e-08 1e-08 1e-08 1e-08 1e-08 1e-08 1e-08
1e-08 1e-08 1e-08 0.11947204182699496 0.10232950911369089 0.05662438392339682 0.0928671731956662 0.13234541247219817
0.09470004959883276 0.17394773841916145 0.2192478124720749 0.19844444946743037 1e-08 0.07484383999880131 0.11476837454364246 0.043927171933764234
0.02613172232216928 0.06454327498989451 0.07294778241286609 0.1207516559515704 0.19634996685147874 0.20334451174256427 1e-08 0.06803218988570052
0.07690643040817115 0.07550141543209388 0.0625928388402316 0.08386394576633278 0.08066659230024845 0.12920875475907917 0.10821081121671136 0.10910911823572385
1e-08 0.16573371876861093 0.1161029336879963 0.12081860565301573 0.12783018271189725 0.13948469553931298 0.18508170292370735 0.1658285660449663
0.0603048812791822 0.15602350894243508 1e-08 0.19351555344707702 0.1084361202216776 0.10312341907867745 0.13234541247228312 0.12914643422025843
0.1328302232632615 0.15977908577494407 0.031076242432874605 0.11804060565352491 1e-08 0.11638183370499942 0.1039109962119867 0.05835232833916956
0.10328143647909539 0.07593656246323965 0.050103234003606466 0.02235509890610712 0.021597437830390084 0.15823878527325125 1e-08 0.06680744263705123
0.06298783730724929 0.05361922038417361 0.03533324506276592 0.05252631029063076 0.04720536515759168 0.1230718848898748 0.023798025790301058 0.1116131202914054
1e-08 0.13252744007477024 0.13734414792444757 0.11146746289779846 0.09581647808111217 0.13522623608877213 0.033397909967247216 0.17907161268691926
0.05043310925040279 0.09615728857139863 1e-08 0.15382438225605735 0.14575683850406468 0.09581647808128112 0.10508079902557674 0.15304902175754048
0.11831467519413404 0.16994297755740237 0.11666002885818391 0.488449677314762

W1 f8 [16, 100]
00000000: e46a 4025 2b80 7cbf 89b8 c000 730e 94bf
00000010: 5598 ec0b 6184 7abf 5278 39c0 f60e 873f
00000020: 3eeb b624 5d32 60bf b824 ca74 5d71 803f
00000030: f535 d233 d5ea 863f d686 1b7d ef86 7abf
00000040: 5fb5 c7b2 9c09 76bf bba7 5830 0b02 753f
00000050: e17b 59c4 c42c 57bf d433 d784 c234 93bf
00000060: 1824 d517 c819 b33f 7229 1d0f a196 a73f
00000070: fc78 eb7b 8f6c af3f 1179 702b 7acb 93bf
00000080: f2b9 241f 737c 92bf 0e96 201e 213d a83f
00000090: 760a bbb5 14e7 b83f 360b adb2 8703 b23f
000000a0: 8d32 c48b a5c4 753f 0aef d356 4a9e 88bf
000000b0: f98f 0b14 8516 ab3f 6480 b287 b812 92bf
000000c0: 4b9e 1a01 4e4c 87bf 5ae0 850f 3375 84bf
000000d0: 3c16 1920 9993 92bf 64e4 7e03 2d55 583f
000000e0: 5c42 1274 9717 ac3f e730 869c 18d2 aa3f
000000f0: 5a16 fbf5 90f1 703f ef30 b8c1 00f2 8bbf
00000100: 9eb6 ceb0 3c79 9fbf 1c9d 0b9f a162 91bf
00000110: b76a 014a c9b5 74bf af2e 7654 ad86 8fbf
00000120: ff79 fb62 6616 9abf 836b 4ebf faee 8c3f
00000130: 2deb 8c9b 4024 943f 4000 e5c9 5729 a63f
00000140: f32a 823c 8083 503f f402 d093 dc0e 973f
00000150: 211c fd2f 7470 9c3f 49b5 b901 a715 79bf
00000160: fe44 86bc 67a5 94bf 14ed acb7 1207 af3f
00000170: 9297 c9e5 e0ee b93f 1956 58ef 2c68 a63f
00000180: bf5c 5373 d1f7 92bf d895 0730 c47c a03f
00000190: 439c 7fb9 0c8d 813f d9d8 9b7f c5bd c83f
000001a0: 9d10 e2ab f673 993f 4ee3 726a 3144 98bf
000001b0: bfdb 4eb3 46a8 90bf 9614 b9fd cf07 a93f
000001c0: 8ce7 a0ae 7557 bc3f 5219 3860 69e5 ae3f
000001d0: 3d79 2d9e 7f5a 72bf 89f7 d972 1d22 aa3f
000001e0: 2a1e 86a5 fc75 8dbf 0dca e424 5697 983f
000001f0: df69 1bd4 eeac 9c3f 8764 4ca5 35f3 6fbf
00000200: ad1f 0c7b f93e 84bf 167b c9da ab5e 94bf
00000210: 1cd8 41c8 a8a5 86bf 3031 1120 31a0 8bbf
00000220: 2d7d d763 83c0 773f 51b9 3960 bec7 ab3f
00000230: 1eaa aedf 338a 823f b588 88e4 efd1 74bf
00000240: 1526 4ba9 b82f 9dbf 5849 c201 8eb4 8fbf
00000250: d184 1a47 8b06 55bf 43ce 9cb6 6a73 86bf
00000260: 6f80 bc40 cd46 8ebf a02f 6fcc 6143 7dbf
00000270: ef92 98ad 99a3 81bf 7b72 9f43 27fb 953f
00000280: 9860 6ea8 c0ac 45bf 1636 f44e 545b 9ebf
00000290: f7b4 6862 d034 94bf f36d b181 1bd2 8abf
000002a0: aa7d adf3 ce26 9bbf 4564 4c26 c3de a93f
000002b0: 8503 3daa 9b33 84bf 5724 66ee ae2c 95bf
000002c0: 56ca 2d63 975b 85bf 15de 50e3 ae6c 9b3f
000002d0: 4ceb 3fe7 4133 783f e880 de9f 4b90 a0bf
000002e0: 10db 52b0 d4fb 81bf 66a8 f437 f2ba 8abf
000002f0: 601f 9722 6f47 963f 327b acec 161e aa3f
00000300: 39a7 367d db76 a13f 50c0 4ecd 1427 95bf
00000310: 83d9 8e82 8c64 96bf c679 074d 9add c1bf
00000320: 7e96 01d1 4dfe 8fbf f73c 007d 4897 6b3f
00000330: 8905 7fd3 1c8d 66bf bc80 5131 f552 743f
00000340: 0f48 72cf 0ec9 94bf 8ef4 83f5 01f7 7dbf
00000350: 8cce e7fe a8d7 623f a52c 9fca abe2 403f
00000360: 1b80 e977 a545 613f 4c30 cc18 12a6 68bf
00000370: 5750 c322 e38d 853f b6db 156b edd5 96bf
00000380: 366b 0393 19e7 b23f f985 e19b 8738 a83f
00000390: b7f8 8968 2b55 ae3f 85be 788a b2e8 82bf
000003a0: 52aa 898f 6786 ac3f 71ae 8fa3 6d2d b13f
000003b0: a8df 19bd 0990 b73f ad49 d020 5271 b03f
000003c0: 95fe 1971 9395 913f 65bc be98 24c6 57bf
000003d0: fcb5 74c8 d5de 9b3f 344b 45d9 05d5 57bf
000003e0: b328 29a4 58a2 7bbf 2243 c2c6 03a1 953f
000003f0: 1f07 806a 8b46 93bf 43a0 6ad0 7dcf 4b3f
00000400: 1f45 de41 e2ed a53f bcd0 c9a7 81c3 a83f
00000410: 830b 97e4 44d3 923f c180 b4fb d175 94bf
00000420: 16f2 56a9 b155 91bf 4cf4 9c5a 81b6 80bf
00000430: e91a 561a 1c30 603f 83ab f014 180d 9bbf
00000440: 3fca c2ec 07f1 9cbf 8b38 68d3 d82b a13f
00000450: f915 230a 4a63 973f 6885 13d5 4205 a53f
00000460: 91ce b824 480f 3f3f f63c 9204 c7b0 71bf
00000470: 6022 f2c1 c509 9b3f 8e43 8ca3 8392 9cbf
00000480: 6ba4 fd6c 23da 92bf 220f 4dc6 4f04 b13f
00000490: 393d fbe7 adbc c03f 4799 b356 beee ae3f
000004a0: 1491 9767 97f3 98bf 8543 4ab7 3caa 823f
000004b0: 7a30 d233 9f4f 69bf 6313 bb34 d60d c73f
000004c0: 1ab5 9fff d926 a13f 765c 4172 986f 80bf
000004d0: bd5d bf6e 2f0d 97bf b456 b14f 1dfd ab3f
000004e0: af3a 7a3f 1852 bb3f c5b3 dcad f513 b13f
000004f0: a265 76d1 8f2e 74bf 4285 ef69 a9e6 93bf
00000500: 2add bb8d 3aaf 7e3f 61dc ac08 7fc8 953f
00000510: a7a2 b1dd 8d0e 9b3f d50c a7f7 405f 8abf
00000520: 2d79 d942 2d9c 95bf 0d46 3e24 7713 93bf
00000530: 5f35 3f08 1d4b 91bf 1d7f 8fb3 04ce 95bf
00000540: 3c5b ae8d 52a9 93bf 10bc 3431 94f4 753f
00000550: 24fb 6c4c bff4 773f 21f1 4090 b518 94bf
00000560: a540 d411 6236 8abf 8a7b d5b8 ba69 76bf
00000570: 3c9f 11a0 095b 9bbf 7ae4 f71c 1cba 82bf
00000580: 5f68 51ef 450d 643f f32d 6ce9 f25f 9bbf
00000590: 0c5e 185c 7f3d 7abf 696f c0f6 55a6 a13f
000005a0: 63db 09dc 9b14 7a3f 69b2 ab26 a245 88bf
000005b0: 70c3 abb0 3351 94bf 52ba b2b4 849d 9b3f
000005c0: 5d0f 6389 231f 9e3f 8f4d 5a2d e4a7 a83f
000005d0: 1a8a dcb3 b1a5 63bf bb9b c0b1 e6c8 623f
000005e0: ffd1 e593 15f1 84bf b77f 8600 ef2a 903f
000005f0: da46 7d77 42b1 82bf 0e84 f605 da91 90bf
00000600: 28c7 ebe3 4d70 8cbf cd3e 0d33 872e 983f
00000610: 3c6e 3f1f d6bc ad3f 53ec 31f3 be55 ab3f
00000620: ee62 3b86 05c1 993f 5c73 3dac a00c 80bf
00000630: 8fca 7441 e313 9abf 0c39 4748 b585 c2bf
00000640: d3ec 0c7f 2fc2 86bf be60 de56 5921 7c3f
00000650: 9ee6 2b79 478f 603f cd48 eb57 b05c 73bf
00000660: 6c29 03eb f9f1 82bf 67f1 6cfa 131c 833f
00000670: 5fcc d328 36d8 643f dace f017 2098 7bbf
00000680: c569 669d 2ace 913f 8f83 2701 c0bc 723f
00000690: fc13 d9dd 41fb 3e3f e624 6aa1 5ec9 cc3f
000006a0: f543 5c19 2164 b73f 0ab7 852a b156 92bf
000006b0: 3af7 02bd 3f39 a1bf bc09 f69b 66a3 db3f
000006c0: d9e7 1b6f 3c78 a43f d97e cf76 711f b83f
000006d0: 4db7 d519 0e42 c03f 5fcc 8aab a554 b63f
000006e0: 2f1f ced6 cf99 46bf c413 aed4 72d3 b3bf
000006f0: 156b b2ff b63d b13f dc6c 4ca4 4816 7fbf
00000700: 3e0a d049 5f94 81bf 734c ee1c eab4 443f
00000710: c42c 3260 460d 92bf 099c 5a0a 4264 77bf
00000720: 2233 b657 0bd3 b63f 7d34 088f 26f8 a53f
00000730: 6c43 1767 9c34 73bf 8f31 8a1f 7f73 a0bf
00000740: d00d dac8 d0ba a7bf ae13 be35 edab a0bf
00000750: be22 e2f8 dbf5 9ebf d649 b1a8 d8c6 a0bf
00000760: 9409 45de 68b5 aabf ef79 e804 cc04 9b3f
00000770: f377 1d05 3986 903f 1732 4502 cb16 a03f
00000780: 3371 cc25 d3dc 443f aec0 dd84 6f24 883f
00000790: c72e 294a eb96 a13f bdf6 e98b 9deb 96bf
000007a0: 38cf dc57 03a5 a0bf 8d63 4287 2582 b73f
000007b0: 687a 2ace da48 c53f e85a 7c37 6491 b53f
000007c0: 988d f916 092f a0bf 3925 7155 c67c ac3f
000007d0: ff63 e013 123f 733f 2877 cddd e117 d13f
000007e0: 1756 05b4 14f2 a23f 7054 708c c261 a3bf
000007f0: 78e7 f427 d5c4 a4bf 8a7c 430f 286b b43f
-0.006958168542065411 -0.01958636943907569 -0.006473902786444515 0.011259010068155249 -0.001977140351042377 0.008028726698528707 0.01119009556193882 -0.006476340773333885
-0.00538026056572724 0.005128902155357491 -0.0014144822647705823 -0.01875595031542672 0.07461214620447298 0.04607108411308304 0.061375125767641564 -0.019330891515090324
-0.018052862907262886 0.047341380050323165 0.09727601467879218 0.07036636459546916 0.005314489997783623 -0.012020664953972044 0.05290618772212947 -0.01764953926306169
-0.011376008423510294 -0.009989165221426944 -0.018141167244058773 0.0014851512514566729 0.054867489737379954 0.05238415632911302 0.004136625531548777 -0.013645177757120012
-0.03073592023036175 -0.016977811176642196 -0.005056177411541788 -0.01539359487539768 -0.02547607401981544 0.014127692187505541 0.01966954183010754 0.043284171481446254
0.0010079147632803792 0.022517630121003898 0.027772727421759073 -0.0061241649342325755 -0.020162220842000693 0.0606008385861633 0.101301246738869 0.04376354619686768
-0.018523476280134284 0.03220189176844784 0.008569812212909983 0.19329136591813414 0.024856428376111784 -0.02369763576709554 -0.016266922659010193 0.04888772937969425
0.11070952905074999 0.06034402179288868 -0.004480837352131947 0.05104152705187832 -0.014385198403728944 0.024014802934468494 0.02800343675230887 -0.0039001510398404856
-0.009885739390952464 -0.019892392376614408 -0.011058157550206053 -0.013489135542976344 0.005798829309667836 0.054258298155093095 0.009052663100949817 -0.005083024102107971
-0.028502354939325587 -0.015481099537542661 -0.0012832985052358312 -0.0109623276690406 -0.014783481157394555 -0.0071443386322690705 -0.008612824068288087 0.02146588659512581
-0.0006614628517693953 -0.029645268744436924 -0.01973271942749918 -0.013096060653132268 -0.026515229819208543 0.05052766649732424 -0.009864059574853598 -0.020678265858382918
-0.010428602899741051 0.0267817808382614 0.005908257899131918 -0.03235088659789814 -0.00878111041161625 -0.013051884014732628 0.021756874548173655 0.051010815039481364
0.03410993484005904 -0.020656895667059694 -0.02186793848860581 -0.13957527886573312 -0.015621765080321422 0.0033680358683408867 -0.0027528346072080473 0.0049619272077451836
-0.020298224841617748 -0.007315642979162663 0.002300100393080323 0.0005153025460854678 0.0021084052853410757 -0.0030088761763007784 0.010524534700756911 -0.022300443325970774
0.07383880461877088 0.04730628755420336 0.059243542204954584 -0.009232897616214384 0.05571292521638739 0.06709943049616542 0.09204159609532658 0.06422913838495133
0.01717214944664976 -0.0014510495557080946 0.027217235908372203 -0.0014545971981376306 -0.006746622328657792 0.021122035032536186 -0.018823793769121907 0.0008487095190803446
0.042830534496838484 0.04836659596631551 0.018384052707698394 -0.019980698573932146 -0.016928459129973282 -0.008160601213257256 0.001976065529280081 -0.02641713741119701
-0.02826321013044208 0.03353765087750656 0.022839695805279423 0.041055763731274564 0.0004739333278138492 -0.00431897870397723 0.02640446659327933 -0.027902657372638688
-0.018410256888646986 0.06647204009373955 0.130758035919351 0.06041521843308089 -0.0243667275407385 0.009113764136857725 -0.003089724485624554 0.18010976385826458
0.033499538854679226 -0.008025351511760297 -0.022511235365383565 0.054665485361210214 0.106721415994097 0.06671081061058633 -0.004927217283147741 -0.01943459233360057
0.007491329884707279 0.021272644905561914 0.02642270722972975 -0.012876994664912914 -0.021103579716844557 -0.01862894209586412 -0.01688809740862973 -0.021293710193162164
-0.01920060148003276 0.00536020171720876 0.005848643550790542 -0.01962550824122034 -0.012799040001965809 -0.005471925146905652 -0.026714468378855147 -0.009144038805049205
0.0024477353968395533 -0.026733203408225447 -0.006406304835330012 0.03447216641526902 0.006367310358306041 -0.011851565175186 -0.019841010721339314 0.026968072441997677
0.029415660152849344 0.04815590909597766 -0.002398345065459451 0.0022930627583437036 -0.010225456787090968 0.015788778693263086 -0.009127158423925353 -0.0161813799037454
-0.013886078374955327 0.023614990702582262 0.05808133250658584 0.05338856428803553 0.02515038139140107 -0.007836585289334223 -0.025466490621691092 -0.14470544842919997
-0.011112567009709562 0.006867741567383399 0.0020214458430672507 -0.004727066842592898 -0.00925059555483606 0.009330898361093088 0.0025445039560679085 -0.006736874928765702
0.017388025147377712 0.0045745372940197 0.00047273977347500585 0.22489531404088509 0.09137160176420862 -0.01790882894550009 -0.03363990003843616 0.43184819441389855
0.03997982841788401 0.09422978544852913 0.12701584111658307 0.08722911298791435 -0.0006897225226660581 -0.07744519894011065 0.06734794371224624 -0.007589610821720796
-0.008583778801043992 0.0006319182519852875 -0.017628764745080586 -0.00571084782647003 0.08915778056525572 0.04290886398312297 -0.004688845584909323 -0.03213116893775513
-0.046347164648092964 -0.032561695871698645 -0.030234753671296792 -0.03276707705721875 -0.0521652957272806 0.02638548641163568 0.016137019097520477 0.03142389681542939
0.0006366759294880508 0.011788245432143487 0.03435454635891016 -0.02238317648379139 -0.032508949733168924 0.09182962944249891 0.16628584925361456 0.08424974779732575
-0.03160885243849093 0.05563945572846269 0.004698820701400485 0.2670826593438158 0.037003180480194846 -0.03785522426930121 -0.040564213874360655 0.07976007816931677

b1 f8 [16]
00000000: 0d56 2b71 c09b b63f 5be4 a6b1 3aff b83f
00000010: eb99 0a98 4fdc c73f 94a0 e255 acbd d53f
00000020: d603 982e e323 b93f 806b 8e1e 93c8 c43f
00000030: 6392 9a90 e2c9 e23f 6802 ca00 93b6 c33f
00000040: 923a 886a 8c01 c33f 57d0 4fac e98d 903f
00000050: bef1 ba02 72a0 903f 4427 d475 72b8 ba3f
00000060: ad92 8593 c7db b93f 1582 c0ee 781f ce3f
00000070: a563 6244 214f d63f 7ab2 c573 c347 da3f
0.0883140827457611 0.0976444896431458 0.18641085552117373 0.3397017325137395 0.09820384872001794 0.1623710536194629 0.5871441673558134 0.15400922335176692
0.1484847564865573 0.016166354314876532 0.016237050453797634 0.10437693955114208 0.10100982047658631 0.23533546121417773 0.3485797088447334 0.410630095537989

W2 f8 [3, 16]
00000000: 4e26 dcf7 5480 cebf 1006 fc98 3fe9 ccbf
00000010: d727 42d5 421a d3bf c73c a946 006e e4bf
00000020: e0de e27d 9922 d6bf 5a74 1299 9c51 c3bf
00000030: b8be 7c78 1230 d03f e4a8 0f38 5e2a 883f
00000040: 61c5 2a6e 75b1 dbbf 1c40 d546 47a2 bfbf
00000050: 5c64 4318 6e3a 98bf d7a9 4032 c022 cebf
00000060: 8ac4 9364 c9cc d1bf f03b 6ba5 242c e2bf
00000070: b885 e19d c7ec cebf 312f f9c3 ec46 eebf
00000080: b882 b859 c7ab d33f 729f 1b3d b317 d53f
00000090: a2b3 7ea5 0abe e53f cc1c 1f21 8a57 f03f
000000a0: 3ffd 18fa fb13 da3f 7dda 1119 a3c6 de3f
000000b0: d14f 1643 a381 e53f 47fb 4b43 5fa4 d23f
000000c0: 02c7 cb6d a7d9 b8bf d984 d54f 26b9 bf3f
000000d0: 1ff7 fc69 c851 b73f 3fe2 c0bc 59b9 cf3f
000000e0: 2f38 5505 fa7d da3f 07d5 a333 266d e83f
000000f0: 92f8 d8c3 8455 ee3f b25b cff4 ac93 e8bf
00000100: 79d1 b696 1a42 babf 4786 2281 11eb b4bf
00000110: d130 2176 395f d8bf 2707 276d cf1a d7bf
00000120: d189 685d 95ba b6bf 2839 0f8f af51 d4bf
00000130: 5c07 e476 1e48 edbf 2f43 8d58 0050 d3bf
00000140: 9910 134d 7250 e13f bf4c 2298 3d90 76bf
00000150: 4efd 1c30 fd23 aebf b753 e8ea d255 a5bf
00000160: 87f7 2ab1 8d38 c3bf 70b3 1e5f cfdc c6bf
00000170: 182d e0cc 7f53 e7bf 34c9 4734 e2c0 fb3f
-0.23829137899911007 -0.22586817712731078 -0.29847784830110186 -0.6384278659915247 -0.3458617905957748 -0.15092809175704042 0.25293409124695243 0.011799560628749046
-0.4327062202310881 -0.12356992224999924 -0.02366039298144461 -0.23543550924053022 -0.27812418767923275 -0.5678885680043759 -0.24160094460516546 -0.9461578204731947
0.3073595405749461 0.3295715424305775 0.6794484360049078 1.0213719648179902 0.4074697439536585 0.48087384651390847 0.6720749197288517 0.2912824780650464
-0.09707113676611459 0.12391890954087915 0.09109165752030578 0.24784394947507057 0.4139390041426649 0.76332388006145 0.9479392838618586 -0.7680268079228567
-0.10257116488975794 -0.08171185877520158 -0.3808120397195696 -0.36101136836451747 -0.08878453760602346 -0.31748570414210286 -0.9150535890660012 -0.3017578949702963
0.5410701279984266 -0.005508652308111538 -0.05886832439727617 -0.041670409369693066 -0.15016337538503086 -0.17861358780410397 -0.7289427758672984 1.7345907251552264

b2 f8 [3]
00000000: 1b18 c671 137e f53f 0e09 8e9f 81d2 f5bf
00000010: 5116 fc71 8b1b 953f
1.343280262402465 -1.3638931496248605 0.02061288722236149
