10by10recording/src/oldMLPparameters/tactile_mlp_model_trial_07.npz (npz, 16380 bytes, 6 tensors)

mean f8 [100]
0.0 0.0 0.0 0.0 0.0 0.0 0.0 0.0
0.0 0.0 0.0 0.04452941176470588 0.0011568627450980393 0.016431372549019607 0.0 0.021784313725490195
0.0196078431372549 0.025627450980392156 0.04288235294117647 0.024254901960784312 0.0 0.006627450980392157 0.004607843137254902 0.0022745098039215687
0.000803921568627451 0.02331372549019608 0.006294117647058823 0.006313725490196078 0.0025098039215686275 0.00596078431372549 0.0 0.005470588235294118
0.007 0.006745098039215686 0.004627450980392157 0.008333333333333333 0.007705882352941176 0.0051764705882352945 0.0022745098039215687 0.0010784313725490195
0.0 0.024176470588235296 0.0055490196078431375 0.027941176470588237 0.030705882352941177 0.013470588235294118 0.025529411764705884 0.02372549019607843
0.004294117647058823 0.0028823529411764704 0.0 0.04003921568627451 0.0024901960784313726 0.02319607843137255 0.030666666666666665 0.03068627450980392
0.02284313725490196 0.021745098039215687 0.020745098039215686 0.00025490196078431374 0.0 0.0007450980392156863 0.0041764705882352945 0.04323529411764706
0.024980392156862746 0.02643137254901961 0.00296078431372549 0.000588235294117647 0.02015686274509804 0.0 0.0 0.005274509803921568
0.004686274509803922 0.003392156862745098 0.0014705882352941176 0.003254901960784314 0.0026274509803921567 0.00203921568627451 0.0006666666666666666 0.0008431372549019607
0.0 0.026333333333333334 0.003392156862745098 0.021666666666666667 0.019627450980392157 0.003372549019607843 0.02092156862745098 0.02211764705882353
0.003 0.03988235294117647 0.0 0.041686274509803924 0.0196078431372549 0.021019607843137254 0.020058823529411764 0.023372549019607843
0.02003921568627451 0.02088235294117647 0.0041960784313725494 0.5017450980392156
00000000: 0000 0000 0000 0000 0000 0000 0000 0000
00000010: 0000 0000 0000 0000 0000 0000 0000 0000
00000020: 0000 0000 0000 0000 0000 0000 0000 0000
00000030: 0000 0000 0000 0000 0000 0000 0000 0000
00000040: 0000 0000 0000 0000 0000 0000 0000 0000
00000050: 0000 0000 0000 0000 99a3 7a1e 8fcc a63f
00000060: 5b79 fee9 3bf4 523f a0dd e7be 62d3 903f
00000070: 0000 0000 0000 0000 e82f 118c a04e 963f
00000080: 1414 1414 1414 943f 71cd 5c1f 153e 9a3f
00000090: 8e6f eafe acf4 a53f 09cc c1ea 46d6 983f
000000a0: 0000 0000 0000 0000 594e 77d3 6225 7b3f
000000b0: e012 4679 acdf 723f 6fdf 1c27 fea1 623f
000000c0: 8b4d 436c c857 4a3f 46fe 1ca2 8ddf 973f
000000d0: 2e80 3857 dcc7 793f a9e6 f0c7 6bdc 793f
000000e0: f67a 66b8 708f 643f 04b2 f9da 556a 783f
000000f0: 0000 0000 0000 0000 02b0 f7d8 5368 763f
00000100: 79e9 2631 08ac 7c3f 3ab5 c977 bfa0 7b3f
00000110: 5b79 fee9 3bf4 723f 1111 1111 1111 813f
00000120: c352 150b 3490 7f3f ceae 293e ec33 753f
00000130: 6fdf 1c27 fea1 623f ab11 78de 44ab 513f
00000140: 0000 0000 0000 0000 8f65 097a b7c1 983f
00000150: ee49 d99b 91ba 763f 9d9c 9c9c 9c9c 9c3f
00000160: 0bb9 00e2 5c71 9f3f fd81 6dbf 7796 8b3f
00000170: 584d 76d2 6124 9a3f 4b18 e5b1 7e4b 983f
00000180: 30ab bf6d b596 713f 36b1 c573 bb9c 673f
00000190: 0000 0000 0000 0000 1a2e dc23 0580 a43f
000001a0: 00ae f5d6 5166 643f 8e64 0879 b6c0 973f
000001b0: cd85 a429 1567 9f3f 6c9f d205 396c 9f3f
000001c0: 6497 cafd 3064 973f abfc b4d3 5844 963f
000001d0: 0be2 85f6 333e 953f e843 d395 8bb4 303f
000001e0: 0000 0000 0000 0000 04b2 f9da 556a 483f
000001f0: 4f44 6dc9 581b 713f 2356 89bc ef22 a63f
00000200: fb7f 6bbd 7594 993f dee7 be62 d310 9b3f
00000210: 0ee5 88f9 3641 683f 4613 e0ac 7946 433f
00000220: 71e1 1e29 00a4 943f 0000 0000 0000 0000
00000230: 0000 0000 0000 0000 34af c371 b99a 753f
00000240: ccac 273c ea31 733f 3082 3a59 dec9 6b3f
00000250: 1818 1818 1818 583f 77e7 242f 06aa 6a3f
00000260: b948 0b01 2a86 653f e843 d395 8bb4 603f
00000270: a5e2 ecc3 67d8 453f 3ab5 c977 bfa0 4b3f
00000280: 0000 0000 0000 0000 c467 d815 20f7 9a3f
00000290: 3082 3a59 dec9 6b3f 3096 fc62 c92f 963f
000002a0: b32d 42f0 3719 943f 3ab5 c977 bfa0 6b3f
000002b0: a0c8 24b4 766c 953f 73e3 202b 02a6 963f
000002c0: fa7e 6abc 7493 683f 9fc7 23b3 756b a43f
000002d0: 0000 0000 0000 0000 2562 6c43 e757 a53f
000002e0: 1414 1414 1414 943f b948 0b01 2a86 953f
000002f0: 5761 38dc 4c8a 943f 224b a736 f9ee 973f
00000300: b847 0a00 2985 943f 6295 c8fb 2e62 953f
00000310: caaa 253a e82f 713f 4137 60bc 4b0e e03f

std f8 [100]
1e-08 1e-08 1e-08 1e-08 1e-08 1e-08 1e-08 1e-08
1e-08 1e-08 1e-08 0.20626814436065502 0.033993015364143814 0.12712743640823773 1e-08 0.14597862967070968
0.13864839846797214 0.15802116281394582 0.20259185768238228 0.15383954227839935 1e-08 0.0811389517844071 0.06772453228608508 0.04763756250927683
0.0283421214022809 0.15089797451232784 0.07908541782030212 0.07920772654725343 0.050035045783379035 0.07697567735072774 1e-08 0.07376084581178896
0.08337266738836856 0.0818511046271274 0.06786780558682216 0.09090594428861085 0.08744428785796711 0.07176124424583043 0.04763756250928934 0.032821776532649435
1e-08 0.15359678359290738 0.07428478629523538 0.16480433982176096 0.17251966436393365 0.11527850534015531 0.15772654834923386 0.15219262253753546
0.06538868027774235 0.053610130151866164 1e-08 0.1960512198750496 0.04983970303599449 0.15052582299167433 0.1724129509941484 0.17246631704728332
0.14940325071211 0.14585009999137263 0.14252979266510363 0.015963624433290892 1e-08 0.02728632283496825 0.06449053396794352 0.20338635039724418
0.1560652917398743 0.16041433322028606 0.05433248711979468 0.024246438053560592 0.1405367085146319 1e-08 1e-08 0.07243404447448896
0.0682957883543249 0.05814336847337705 0.038320051825861755 0.056958833495666356 0.05119129325933132 0.04511161921158734 0.025811290910143357 0.029024592244558823
1e-08 0.16012461425839636 0.05814336847338041 0.14559266854505565 0.13871631815596583 0.057975650856448 0.14312183430939035 0.1470661745226199
0.05469004565551953 0.19568279121739238 1e-08 0.199871291146991 0.13864839846796523 0.14344959671694787 0.14020153327292947 0.15108367216093743
0.1401343937926502 0.1429905001621262 0.06464110650345517 0.4999969646232365
00000000: 3a8c 30e2 8e79 453e 3a8c 30e2 8e79 453e
00000010: 3a8c 30e2 8e79 453e 3a8c 30e2 8e79 453e
00000020: 3a8c 30e2 8e79 453e 3a8c 30e2 8e79 453e
00000030: 3a8c 30e2 8e79 453e 3a8c 30e2 8e79 453e
00000040: 3a8c 30e2 8e79 453e 3a8c 30e2 8e79 453e
00000050: 3a8c 30e2 8e79 453e cd28 1e9b fe66 ca3f
00000060: b416 9052 8867 a13f 0f1b e63a b645 c03f
00000070: 3a8c 30e2 8e79 453e 3ee0 2c80 6daf c23f
00000080: 1b07 8810 3bbf c13f 174f 2e97 093a c43f
00000090: 8b42 97ad 87ee c93f 386b 759d 03b1 c33f
000000a0: 3a8c 30e2 8e79 453e 0783 58b8 85c5 b43f
000000b0: de3d 4e1b 6556 b13f 3bb6 135a f363 a83f
000000c0: 6896 1692 b705 9d3f 5213 c8f4 9f50 c33f
000000d0: 0af2 2023 f13e b43f 2b68 1c23 f546 b43f
000000e0: 7142 968a 319e a93f 100f cf90 adb4 b33f
000000f0: 3a8c 30e2 8e79 453e 96a7 7ca4 fde1 b23f
00000100: 4f36 d03f e957 b53f 27d6 83a9 31f4 b43f
00000110: 195a 72d5 c85f b13f ee48 bba9 9c45 b73f
00000120: 316d 92b4 bf62 b63f d1f6 27e5 f15e b23f
00000130: 46bd 135a f363 a83f b6d3 9b11 04ce a03f
00000140: 3a8c 30e2 8e79 453e a3b2 2635 0fa9 c33f
00000150: 7077 bae7 5304 b33f 9afc e200 4f18 c53f
00000160: 3514 2ed6 1f15 c63f 7323 5e62 e482 bd3f
00000170: 617a 6f2f 6230 c43f 3adf 3e40 0c7b c33f
00000180: 0f4e 5203 50bd b03f 881f 7977 c972 ab3f
00000190: 3a8c 30e2 8e79 453e a424 dad4 3418 c93f
000001a0: 1ff5 29ed 9684 a93f eef2 791f 6e44 c33f
000001b0: b39e f6a8 a011 c63f 5898 b053 6013 c63f
000001c0: bbbf dc4d a51f c33f 3b67 ca50 37ab c23f
000001d0: 56e4 198f 6a3e c23f da68 77b3 c458 903f
000001e0: 3a8c 30e2 8e79 453e 8430 d120 f2f0 9b3f
000001f0: ac3c 4b9e 7382 b03f d058 b45d 9008 ca3f
00000200: 6d1f 088e f2f9 c33f b7d1 7ef5 7488 c43f
00000210: 7368 94be 77d1 ab3f 5329 f0e9 0ed4 983f
00000220: 229a 7a5b 1bfd c13f 3a8c 30e2 8e79 453e
00000230: 3a8c 30e2 8e79 453e 678b 229c 098b b23f
00000240: 7eb5 6f31 d57b b13f ca15 25b4 f7c4 ad3f
00000250: 2307 bf92 af9e a33f a415 2a4e b529 ad3f
00000260: 4a0d c7c4 be35 aa3f 0ee3 5dc2 de18 a73f
00000270: 4672 4e69 466e 9a3f ed65 e169 9fb8 9d3f
00000280: 3a8c 30e2 8e79 453e 7220 c39e f67e c43f
00000290: af17 25b4 f7c4 ad3f e61c f8d2 c7a2 c23f
000002a0: 3761 f3d0 74c1 c13f a617 c908 fcae ad3f
000002b0: 02e7 d9f6 d051 c23f db13 f67c 10d3 c23f
000002c0: 25b0 036b 5500 ac3f d797 553a 220c c93f
000002d0: 3a8c 30e2 8e79 453e 055c 71e9 6195 c93f
000002e0: 2206 8810 3bbf c13f f307 436f 8e5c c23f
000002f0: 0bce 20b4 1ff2 c13f 2006 72b3 b556 c33f
00000300: 0e2e 317f ecef c13f c3e1 ea40 834d c23f
00000310: 14db 68ce 518c b03f 0cfd c944 f3ff df3f

W1 f8 [16, 100]
-0.014208093488967705 0.012798593209490401 0.0035682178160041495 0.006020816365280944 0.0020741405323462655 0.009606068543921672 0.0014479739810653693 -0.006269605072523424
0.016540738406512042 -0.010276484202282664 -0.012640701367699285 0.39564959801631827 -0.024532892284115308 -0.034088449394804286 -0.008944839183692906 0.2563600742312426
0.1872571413585771 -0.03385165708902059 -0.028670190520096554 -0.039058858125987375 0.004700214398203859 -0.05367488481093773 -0.020119257385155135 -0.012971577213134208
-0.02339217403088146 0.12228583271711493 -0.017934493496668456 -0.026298913954868598 -0.0174876099952678 -0.009057160545287076 0.0024542399139628026 -0.015895287865699118
-0.02058493557481937 -0.033800981647205554 -0.028641683237213438 -0.027665861050691184 -0.027969653467319902 -0.035449368125499855 -0.026627373107216773 -0.0043942526554798375
-0.001038933179978775 -0.034020182918168405 -0.022649978900679695 0.18095909551280098 0.07879162049468642 -0.04775164648756099 0.1289759326455696 0.09844389614049873
-0.03728129508709686 -0.005961849796291768 0.025201763189951976 -0.04381897855018105 -0.018359806432460702 0.22146791225041834 0.06042092061406387 0.06254716929510266
0.16148058328225687 0.10843063397763204 0.13684198532390623 0.00013790935194255604 0.011419715717507642 -0.0025460738868598193 -0.024371939543259506 0.2710180361397771
0.08518080104555359 0.09333312854689253 -0.020273612615009134 -0.0201123332415767 0.12700061445218142 -0.0076846742175300155 0.010321998687199399 -0.02761782016185666
-0.019229144439503992 -0.035827364938839056 -0.0048582756590115775 -0.016251099495870645 -0.011690482114843416 -0.006857599070592601 -0.011481469371353354 -0.0023665142781424385
-0.004002554238329458 0.06136343697284958 -0.011271146100337881 -0.02414717322931807 -0.035542933154086236 -0.010836930934754543 -0.0421232932984948 -0.03986212465479247
-0.024053397009835536 -0.04854702566726693 0.0016898885182457027 0.34765943111531195 0.10591978869603046 -0.025901156619070838 -0.024706155191459907 -0.054338318569385015
-0.03704045577331283 -0.0218249618668981 -0.0090690590147216 -0.2568186119251649 -0.018004069195226482 -0.0009764523711925779 0.0031143253175221755 0.0034863901791818697
0.011271822705376331 -0.001169371030071602 0.01087895687266472 -0.006038375178152338 -0.014295539710253265 0.009107885017857503 -0.0019693790893492527 0.012425492596291976
0.05230281470578826 -0.019512354246456146 -0.006713166232404484 -0.05351407407385536 -0.021353531718985942 0.08077304323827404 0.023108374400949212 0.030625241388404077
-0.0017034537798009432 0.12481140743343852 0.11506487276451764 0.07794875078135867 0.017394785818851587 0.009805699569270314 0.19607410340254045 0.16129595743153136
0.12956338508377344 0.12461655371908073 0.024924358071387324 0.10502768988706357 0.12199445554134611 0.1223241432013897 0.09817305998978733 0.2094476346788972
0.17610011358444647 0.08527038741410715 0.04816532061588784 0.051681053578359906 -0.0013296520411002954 0.03770287095997703 0.1423394330021434 0.06523015387439286
0.07396715622734512 0.2724265231352299 0.06068979523112735 -0.01873366338142819 0.10262043830435363 0.10037933433550315 -0.014655113645963086 -0.01235853707625158
0.14256320835238082 0.0017186031471415543 0.011558005052477989 0.1090449032287935 0.006504976134024579 -0.011516953963993394 -0.01647591252471861 -0.011236346901060727
0.0006574262964403263 0.06633573688293884 0.14822790847881406 -0.03392794567618883 -0.03212963460257353 0.03451952992969933 0.021338431903961248 -0.002363636236080308
-0.02980258121157662 -0.008036951024305374 0.002222705059274255 0.16960873854110137 0.13872643562285622 0.14900659972748886 0.08728890680592993 0.14615945003534306
0.058889050987951864 0.05240336926656345 0.031543468323307934 0.04847200164106826 -0.008875168374284786 0.08205827106640848 0.06549843009641952 0.005166194976785898
-0.024439770246636103 0.18301407707880235 -0.015365511124434785 -0.008603099684037873 -0.00793232660639248 -0.04531068093361893 0.0069358023286290975 -0.01665845181280589
-0.03118958457130582 -0.018325314883789672 -0.016354443426655655 0.04300331119660133 -0.03266784856096064 -0.0310973792340561 -0.015384999949150003 0.1597721916829756
0.0007925981588810909 0.006907166324539078 -0.010701122886620293 -0.004092944405485205 -0.007218635593706794 0.020960905943479154 -0.011163491309135767 0.002583952712677606
-0.006491179828901618 0.0060304082338932885 -0.004984516509914899 0.12133169415727754 0.007728935987977581 -0.02576654504474596 -0.006539582839254654 0.08222595493987513
-0.015677593080038733 0.06357091205277879 0.05906252178254501 0.053660227098452556 0.0017095524692612477 -0.028442571703607505 0.008738850341935707 -0.008355552555174933
-0.015100123544868397 -0.014019340201718158 -0.005157981898687657 0.0011185814177359548 0.0057602143434230015 0.0007762301262301248 0.003907261771620608 -0.0006116685060823793
-0.004855505548109023 -0.01629503260260606 0.007063726154047415 -0.019008273039565524 -0.002681497931682912 -0.015049146230849951 -0.0064265088052470115 -0.004242221565390589
0.0042230929870592775 0.03228985539738377 -0.011595053616005406 -0.008613148280857864 0.008107128009183477 0.005968692862383587 0.04864242185920195 0.03003139263146978
-0.009310779630719558 0.002593360231027797 0.01218901132669166 0.07184009864826824 -0.011853188769634884 -0.023425807970081074 0.024630213954481856 0.03185435277704325
00000000: 1030 fd06 2219 8dbf c413 281a 2636 8a3f
00000010: 1b4a 645a 183b 6d3f 7249 2596 48a9 783f
00000020: 5e99 1eb8 c9fd 603f 8b0a eab1 58ac 833f
00000030: af80 3939 3eb9 573f aad8 ec4b 28ae 79bf
00000040: 1fd8 072a 0ef0 903f 7f87 885c d60b 85bf
00000050: 1c3c c837 5ee3 89bf e6f5 09b1 5252 d93f
00000060: 8e71 2588 261f 99bf d3e1 a48e 0a74 a1bf
00000070: 3174 18fe ab51 82bf 43b1 b415 3468 d03f
00000080: c1ec 09c1 0af8 c73f 5eba 3920 0155 a1bf
00000090: fe98 9dea b75b 9dbf 3a5a 8acc 85ff a3bf
000000a0: 57d8 fd31 8840 733f af53 c245 467b abbf
000000b0: f1c8 f481 249a 94bf 6b7b 439f d790 8abf
000000c0: e2a7 c739 1ef4 97bf 1abd 48d4 1f4e bf3f
000000d0: a970 277c 6b5d 92bf bd08 6d3d 1aee 9abf
000000e0: 283c 0fa4 45e8 91bf d16a b182 8f8c 82bf
000000f0: 5a21 5805 ea1a 643f 54bb 2cb6 da46 90bf
00000100: 8c22 56a4 3714 95bf fdb0 7ebd 5c4e a1bf
00000110: 8e92 39d3 3e54 9dbf 2fae b681 7054 9cbf
00000120: f4bb b0ab 13a4 9cbf 1699 8669 6b26 a2bf
00000130: 280f b2c2 3444 9bbf cf5e 2137 b5ff 71bf
00000140: 069d f701 9a05 51bf 6b2f 13ea 176b a1bf
00000150: abb6 885a 8e31 97bf 8413 92ea aa29 c73f
00000160: b538 3909 b02b b43f 6b0b fd5f e772 a8bf
00000170: 6c87 578a 4882 c03f 1e0d 6a82 9e33 b93f
00000180: 5e9f 4dae 8816 a3bf 793a 61de 736b 78bf
00000190: cd3c cfb2 7dce 993f e461 a2ef 706f a6bf
000001a0: 1dd4 c0c0 e9cc 92bf 0e4e 1d80 0f59 cc3f
000001b0: 0c30 10ac 7def ae3f 7b70 945e 1703 b03f
000001c0: 3372 1150 65ab c43f a587 d12a 1cc2 bb3f
000001d0: 38cb d7c5 0984 c13f dd6c 1450 7813 223f
000001e0: 355e 4a4c 3863 873f 44ef 7802 81db 64bf
000001f0: f111 1d2d f5f4 98bf df2c 7608 5c58 d13f
00000200: 38dc bcb2 68ce b53f 3d05 be0e aee4 b73f
00000210: 3bea 9c1c 9bc2 94bf 0447 13d6 5398 94bf
00000220: 626f d25e 8e41 c03f d683 1d07 f779 7fbf
00000230: fbb6 5336 b323 853f c226 8789 d847 9cbf
00000240: e8ac fd09 ceb0 93bf cba7 6de1 f657 a2bf
00000250: b163 2071 45e6 73bf f96a 6fd3 20a4 90bf
00000260: 219f dcf2 2df1 87bf 19e1 cbbb b616 7cbf
00000270: 5d0e aebb 9883 87bf 7db2 c3ad f062 63bf
00000280: bf8e dd78 fb64 70bf 49e5 ef45 076b af3f
00000290: 0d78 1d9f 5315 87bf eb39 3e5d 09ba 98bf
000002a0: a75d 00ef ae32 a2bf 2e58 a13f ac31 86bf
000002b0: e9d3 3b2e 2f91 a5bf f499 7bf3 ce68 a4bf
000002c0: 7b4e 0f26 74a1 98bf 2833 1edf 27db a8bf
000002d0: 1b34 ddfa e7af 5b3f 9651 b257 0d40 d63f
000002e0: c7dc 722c 8f1d bb3f 1210 6e32 d585 9abf
000002f0: 1f98 3a02 924c 99bf b5ab 596a 3bd2 abbf
00000300: a0c2 5974 f7f6 a2bf 64b0 d165 4859 96bf
00000310: 9e62 fd7e cc92 82bf b340 ce54 b76f d0bf
00000320: a7bd 8da1 a86f 92bf 733f 0c80 13ff 4fbf
00000330: be5e 69ac 3683 693f 402f 9f79 7d8f 6c3f
00000340: 9253 166f ae15 873f 48e1 2f95 b228 53bf
00000350: 448c dcdf b447 863f 1f0a 94fe b1bb 78bf
00000360: 5e0e 46dc fa46 8dbf 30a6 4ca2 27a7 823f
00000370: 15a1 0759 1622 60bf b3bd b362 8972 893f
00000380: 03db 4c3d 6fc7 aa3f 410d 6ded 0bfb 93bf
00000390: 088d bbd6 437f 7bbf 84bd 0b5c 3266 abbf
000003a0: 4a6f 8c41 b3dd 95bf ff55 1bcb 8aad b43f
000003b0: 3261 43c1 b8a9 973f 06fd c728 395c 9f3f
000003c0: 9049 9191 cde8 5bbf 4e27 18f1 a3f3 bf3f
000003d0: 3327 7139 e474 bd3f a9b7 5e07 73f4 b33f
000003e0: 6600 da50 f0cf 913f 6920 b7b7 0215 843f
000003f0: 6a6c daca f418 c93f a09d 128f 58a5 c43f
00000400: 71d0 d872 8895 c03f 7680 c3d6 dee6 bf3f
00000410: 315f 295b c585 993f 3847 3d3d 18e3 ba3f
00000420: 8ee9 d754 073b bf3f 1eaa 8f92 a250 bf3f
00000430: 391f 01a2 de21 b93f 4ad0 951a 2ecf ca3f
00000440: f962 55d2 728a c63f 6dc6 42b5 47d4 b53f
00000450: 9e74 b1f9 1fa9 a83f 0a3e e265 f075 aa3f
00000460: d77e 0502 f7c8 55bf ce10 7a6b ca4d a33f
00000470: 2673 d6b4 2d38 c23f 3d83 9a61 ecb2 b03f
00000480: 6c7d f9f4 82ef b23f 7571 dba7 6f6f d13f
00000490: 1bf0 6f9b bb12 af3f 13e3 3ade ea2e 93bf
000004a0: 401b 6b42 5545 ba3f e74c 2ac6 75b2 b93f
000004b0: d0eb a00e 8003 8ebf 8a1d 8dc4 6e4f 89bf
000004c0: 653f bede 823f c23f dd21 f413 5828 5c3f
000004d0: 17bf a82d b9ab 873f 63c4 29e5 5dea bb3f
000004e0: 103f 1c3c f6a4 7a3f e7c5 ff64 3396 87bf
000004f0: e897 dcc5 0fdf 90bf 5c87 bbf3 1403 87bf
00000500: c0c1 ab38 e48a 453f 6ae1 77fc 60fb b03f
00000510: b8af a2d1 21f9 c23f 4e0b 33f2 005f a1bf
00000520: 8b72 b3a3 4b73 a0bf d321 3e38 8bac a13f
00000530: a5a5 b3ec bdd9 953f 5be5 ac8a e75c 63bf
00000540: da77 8f5e 9184 9ebf 4eb8 784e ad75 80bf
00000550: 1a3c 39b1 5935 623f 202e 9338 bdb5 c53f
00000560: e39f 0bb0 c9c1 c13f 7cde 5bf4 a512 c33f
00000570: c0f9 08d8 9058 b63f 3d9a f354 5ab5 c23f
00000580: c5e4 2ba8 b426 ae3f b573 664a 9dd4 aa3f
00000590: d5b8 b329 7726 a03f 23dd a37b 52d1 a83f
000005a0: b0f7 4fef 242d 82bf 06b6 9856 c501 b53f
000005b0: 3716 344f 81c4 b03f 4c58 85e7 2529 753f
000005c0: b966 b937 bd06 99bf 0c6b e159 016d c73f
000005d0: db4c 20fe f377 8fbf 1920 4c7e 809e 81bf
000005e0: 1f5d d8da d23e 80bf b5ec 8929 f632 a7bf
000005f0: 6c89 c442 b768 7c3f 7eb4 f3c6 e90e 91bf
00000600: 5e9d d696 29f0 9fbf 8b88 7510 dfc3 92bf
00000610: 91a6 a51e 38bf 90bf e710 6bae 8704 a63f
00000620: 4467 661a d7b9 a0bf 83d1 34cb fdd7 9fbf
00000630: 8763 0bbd 2b82 8fbf 0358 0b49 6a73 c43f
00000640: 61fb eb95 cbf8 493f 3b04 8d57 b04a 7c3f
00000650: 85ca a066 78ea 85bf 53bf da65 c3c3 70bf
00000660: 5155 bfbc 4991 7dbf 2f4c 1696 c676 953f
00000670: cec4 a770 e2dc 86bf b3cb a60c f12a 653f
00000680: 35cc 3dd1 7e96 7abf c96d 5662 57b3 783f
00000690: d3e2 57f6 a46a 74bf 22b0 5f0a 980f bf3f
000006a0: 40e2 d174 60a8 7f3f c03f 3191 8b62 9abf
000006b0: c009 c9e6 3fc9 7abf cd60 599b c20c b53f
000006c0: 2d2c 3c76 c90d 90bf 125b 3eec 2e46 b03f
000006d0: f05c f35e 713d ae3f e4b2 f770 5a79 ab3f
000006e0: 11bd 8ffc 6102 5c3f 58e0 1fad 0c20 9dbf
000006f0: 17d2 62a3 ace5 813f 3644 b747 b71c 81bf
00000700: e27e 5346 d0ec 8ebf 0e4b 6cfd 2bb6 8cbf
00000710: 7f71 1739 8920 75bf d48c daa6 ab53 523f
00000720: 0436 91c3 0598 773f f25d cf80 7d6f 493f
00000730: 8e95 6a98 0f01 703f f916 641d 0c0b 44bf
00000740: 2c07 8ed8 5de3 73bf af37 7620 a5af 90bf
00000750: 2acf 1c8d daee 7c3f fcc5 3b9c e776 93bf
00000760: d6c3 773d 82f7 65bf f95d 2737 16d2 8ebf
00000770: a7fb 55d2 ae52 7abf 24fc 2bae 4a60 71bf
00000780: 1e37 47e4 3b4c 713f 1842 d9c1 4b88 a03f
00000790: 6fdf 9bc0 25bf 87bf 277f 7431 c5a3 81bf
000007a0: cfb9 4f4d 789a 803f a907 4dca a072 783f
000007b0: 8cc1 2ad6 a8e7 a83f 176e d2a4 8cc0 9e3f
000007c0: b416 1db0 8711 83bf 80dc 20ac ab3e 653f
000007d0: a853 2668 8df6 883f 8858 3cda 1c64 b23f
000007e0: e87f f310 7c46 88bf 7b9b 745c effc 97bf
000007f0: 0541 b6ad a938 993f 8a46 d3b6 364f a03f

b1 f8 [16]
0.16540108337485956 0.16415978283935398 0.0817356578349837 0.1941400719840921 0.1739747621395311 0.10288532000941256 0.08239474149108397 0.07039872403649468
0.08299877098261724 0.5536494303433209 0.11439401528629843 0.26042798763500785 0.20812405195592829 0.11596338804195216 0.0850624734902856 0.054112671934999086
00000000: efb3 e8d9 dc2b c53f c186 4e11 3003 c53f
00000010: 2f7c 51c9 a0ec b43f b4e3 01f6 94d9 c83f
00000020: 37fd db14 ce44 c63f cacd ad3c b156 ba3f
00000030: 620b 1160 d217 b53f 3db8 6a99 a605 b23f
00000040: 4281 fa4e 683f b53f 47c1 9802 7fb7 e13f
00000050: 4745 831a ed48 bd3f b6bf 7626 daaa d03f
00000060: 23b3 5416 cfa3 ca3f 406d 2ccf c6af bd3f
00000070: eff4 c17d a7c6 b53f 791e 85f8 a7b4 ab3f

W2 f8 [3, 16]
-0.45553300552537873 -0.4743099938122351 -0.1686537862899113 -0.4135591694743902 -0.31530659964615737 -0.23666985526068574 -0.18608798158413695 -0.1692110868896317
-0.267940680051657 -0.6830778870530274 -0.3063821933191898 -0.41485636658505315 -0.34230213477063365 -0.22458741432484872 -0.161069713816123 -0.1514717304533273
0.7338470824861442 -0.15042885499852465 0.24179357909172952 0.7034977616340192 0.44573689723061666 0.3906306689768434 0.19320041030516372 0.19107473189298269
0.3765119320992934 -1.2414331095806639 0.5676480979298998 0.7623041755445958 0.6118093240604143 0.39591247476390495 0.19691490420741442 0.1375374938152522
-0.27123592006552216 0.6621469051645427 -0.04901795257790912 -0.31757930720274546 -0.11112338596514831 -0.17104129163960954 -0.019152626045152357 -0.05192721300490916
-0.126171963368276 1.910271164948094 -0.25897350868083374 -0.3471376824878494 -0.2567927926939819 -0.14666811181233416 -0.07454356788788534 0.002339238191753123
00000000: c7b9 3ee8 7327 ddbf 91ba e54d 185b debf
00000010: 5e1a 3b80 7296 c5bf 8e9e f6e0 c077 dabf
00000020: 925d 6cbb fb2d d4bf ec97 25a4 324b cebf
00000030: f78f 8a21 bbd1 c7bf f0e1 277a b5a8 c5bf
00000040: 5fc0 85aa f025 d1bf e06e 3028 c6db e5bf
00000050: aa7d 180f c49b d3bf cd4a c1b7 018d dabf
00000060: fc36 8c36 47e8 d5bf 9f28 cfc7 47bf ccbf
00000070: a0b0 9bb0 ee9d c4bf 8864 48f8 6c63 c3bf
00000080: 4960 71e0 ac7b e73f 30f4 4bb2 4041 c3bf
00000090: 5d77 4a8d 17f3 ce3f c6df e0bc 0d83 e63f
000000a0: f976 0e0d f486 dc3f 3e7d 04c7 1700 d93f
000000b0: 92cf ea81 caba c83f 1242 4906 2375 c83f
000000c0: 2de5 ba80 c518 d83f ea20 ddf6 e8dc f3bf
000000d0: 57db 0758 2c2a e23f 5e2f f2b9 cb64 e83f
000000e0: 6a46 c725 f193 e33f 151f cc46 a156 d93f
000000f0: 8439 d5f0 8134 c93f 0e85 f41e d49a c13f
00000100: 0da4 8be7 ed5b d1bf d389 dab4 4e30 e53f
00000110: 055e 7a8e e118 a9bf c39d 9428 3853 d4bf
00000120: 5c85 8a0c 9572 bcbf cfc9 ed58 aee4 c5bf
00000130: a75c fcf9 be9c 93bf 29cc 4123 3496 aabf
00000140: 9d5f 2b24 6726 c0bf 271a 3f7f 7890 fe3f
00000150: a321 949f 0593 d0bf a0a6 5ff8 8037 d6bf
00000160: b806 9e09 4b6f d0bf 53ce cc4b 05c6 c2bf
00000170: bba3 348a 4915 b3bf 650c fff0 bc29 633f

b2 f8 [3]
1.556659863773199 -0.8054172580908555 -0.7512426056823497
00000000: 626d 5e2c 14e8 f83f 7f4b e469 fac5 e9bf
00000010: 7d8f d8ee 2d0a e8bf
