10by10recording/src/3layerMLPparameter/3layermlp5_100ep_torch_with_adam.pth (torch, 54827 bytes, 8 tensors)

fc1.weight f4 [50, 100]
000000 67 3f 2b bb c0 7a 5b 3c 80 d3 b7 bb e8 a3 b3 bd
       -0.002613032 0.013395965 -0.0056099296 -0.08771497
000010 da a4 49 3c 20 ba c7 3c c0 56 61 3d 77 e1 14 3d
       0.01230737 0.024380744 0.055014372 0.036347833
000020 70 c9 a0 bd 47 c1 67 bd 4a 17 04 bd 14 5a dd bd
       -0.07850921 -0.056580808 -0.032248773 -0.10808197
000030 0b 9a c0 3e 2e 1f 86 3d 5d 3f 8c bd cd 12 d0 3d
       0.37617525 0.06548916 -0.06848023 0.10159836
000040 56 11 40 3e 16 65 92 3d cd c9 e2 3d 14 57 bf 3d
       0.18756613 0.07148187 0.11073647 0.09342781
000050 92 09 84 bd 8e b7 db 3e 44 00 3e 3c dd 7c 7f 3f
       -0.06447138 0.4291348 0.011596743 0.997999
000060 0c a1 2b be 91 35 e5 3d e9 74 87 3e c9 b5 53 3e
       -0.16760653 0.111918576 0.26456383 0.20674814
000070 8a e0 c4 3d 77 98 aa bd 0f 56 9c 3d d0 d7 dc 3e
       0.0961314 -0.083298616 0.07633602 0.43133402
000080 c9 26 99 bc 7c bd 03 3c ab e8 b2 bd ea 8b a4 bd
       -0.018695252 0.008040782 -0.08735784 -0.08034499
000090 11 3d f5 3d 78 9e bf 3d f0 74 6e be 22 55 e7 bc
       0.11974538 0.093563974 -0.23286796 -0.028238837
0000a0 aa 7e 76 bd d8 a4 b3 3e da d0 d2 3e 17 a6 db bd
       -0.06017939 0.35086703 0.41174966 -0.107250385
0000b0 88 27 09 bf d8 99 4d 3e cd ef 00 bf 6d 89 aa be
       -0.53575945 0.20078218 -0.50365907 -0.33307973
0000c0 78 27 4b be a5 b7 aa 3d 4b e6 be bd 00 24 bb 3c
       -0.19839275 0.08335809 -0.09321269 0.022844315
0000d0 e0 26 a0 3f 36 79 b8 3e a6 8c 6f be 2a e3 e7 3e
       1.2511864 0.36029977 -0.23393497 0.452905
0000e0 b2 60 07 3e 1e ca 91 3e 34 0f 05 3e f5 ff b8 3e
       0.1322048 0.28474516 0.12994081 0.3613278
0000f0 cd c2 b7 ba 73 b8 3b 3d 95 a5 66 3e 33 ed 3b be
       -0.0014019847 0.0458302 0.22524102 -0.18352203
000100 bf a3 70 be 11 f6 98 3e af 4e 3e 3f d7 7e c3 be
       -0.23499964 0.29875234 0.7433881 -0.3818271
000110 99 5b ba 3d 24 67 c7 3c f0 7c 47 3d ab e4 1b 3d
       0.09099502 0.024341173 0.048703134 0.03805987
000120 ff c7 7e 3d de 58 a5 3e 37 08 a3 bd c4 54 33 3f
       0.06220245 0.32294363 -0.07960551 0.7005122
000130 6c 9a f8 3e dd bc 39 3e de e5 93 3e 15 bc b7 bd
       0.48555315 0.18138452 0.28886312 -0.08971421
000140 87 08 c0 bc 69 07 b1 bd a9 1f 51 be 0b 48 87 3d
       -0.023441566 -0.086439915 -0.20422234 0.06605538
000150 f3 ff 25 bb 67 8a 19 ba 09 80 e6 3d 0a d6 aa 3d
       -0.002532956 -0.00058571104 0.112548895 0.08341606
000160 ab e7 a6 3d 0e b9 da 3d 38 dc 81 3d 78 a7 31 bd
       0.08149656 0.10679828 0.063408315 -0.0433726
000170 2d cb 0a be 4f db 28 3e cb d1 83 3d 41 65 f9 3e
       -0.13554068 0.1648991 0.06436499 0.48710063
000180 8b e0 a4 3d a5 4f ba be 67 48 31 3d 96 83 d8 3d
       0.08050641 -0.3638889 0.04328194 0.10571973
000190 30 eb 96 bd 67 a8 9f 3d b3 95 78 bc 00 90 67 b9
       -0.07369077 0.07795792 -0.01517241 -0.00022083521
0001a0 1a fc 2c 3d 7a aa cc 3c e0 96 fa 3c 90 55 16 bd
       0.04223261 0.024983633 0.03058952 -0.036702693
0001b0 e7 98 f1 3c a3 c7 8d bd 60 31 a3 bd 28 5b af 3d
       0.029491855 -0.06922843 -0.07968402 0.085623085
0001c0 d1 35 96 be 66 09 66 bc 33 47 68 3a 1a e7 79 3e
       -0.29337934 -0.014040327 0.0008860707 0.24404564
0001d0 3c 32 ab 3e 50 21 12 bd 69 c3 be be ef ee 87 3e
       0.33436763 -0.0356763 -0.3725846 0.2654948
0001e0 ed 1d ed bc ad ef 80 be 16 9e 00 3f e1 a1 8b 3f
       -0.028944934 -0.25182858 0.5024122 1.0908777
0001f0 20 0c 0d be 3e f9 89 3e 97 2c a0 3e a4 3e 1c 3f
       -0.13774157 0.2694797 0.3128402 0.6103308
000200 13 b0 c8 bc 9d 3b 84 3d f3 e7 f0 3c 1e 2c 40 3d
       -0.024498021 0.06456683 0.029407477 0.046917073
000210 85 06 f2 3e c9 88 f2 3e 5d 2c b8 be 7c 57 2b 3e
       0.472706 0.47369984 -0.35971346 0.16732591
000220 0c c0 d6 3e fc ae 49 3f 71 a4 20 3e ea f5 79 3e
       0.41943395 0.7878263 0.1568773 0.24410215
000230 f7 fb 76 3d ae d5 92 3d 2b 98 b8 3d 06 ca b6 3e
       0.060298886 0.071696624 0.09013399 0.35701007
000240 95 80 1e 3e 52 46 e6 3e a0 b6 89 bd da e7 05 be
       0.15478738 0.44975525 -0.06724286 -0.13076726
000250 66 bd 54 be 75 d4 e9 be ed cb 85 bd 5c a7 1b 3e
       -0.20775375 -0.45669904 -0.065330364 0.15200561
000260 38 d9 fb 3e b1 a7 3c 3e 35 f1 6a 3e b4 90 e5 bc
       0.49189162 0.18423344 0.22943576 -0.028023101
000270 2f a5 fc bd 9a c0 30 3e f5 e3 a2 3e 6c d8 44 3e
       -0.12336194 0.17260972 0.31814542 0.19223183
000280 3a 1e 96 bc 8d a4 34 3e ef 3d 8a 3d 1a a4 f7 be
       -0.01832496 0.17640896 0.06750094 -0.48367387
000290 5b 79 33 bd 7e 41 43 bd 2a 7b 59 3f a7 d6 43 3e
       -0.043816905 -0.04766988 0.8495356 0.19124852
0002a0 eb cb a5 bd 98 de 39 be 67 18 78 bc 3f 78 16 3e
       -0.08095535 -0.18151319 -0.015142537 0.14694308
0002b0 7e 3b c0 3d f4 70 a4 3e b5 68 5e 3d 20 af 7c 3e
       0.09386347 0.32117426 0.054299075 0.2467618
0002c0 44 69 18 3f 49 6c d0 3d 62 1c 81 3e a2 1b b6 3d
       0.5953562 0.10176904 0.25216967 0.08891989
0002d0 6f e3 ba 3d 17 01 ea 3e da 90 2c 3d ef ed a5 3d
       0.09125411 0.45703956 0.04213033 0.08102023
0002e0 de 14 0f 3e fb 14 a0 bd de c5 c6 3d d9 b2 64 3c
       0.13972804 -0.07816502 0.09705709 0.013958656
0002f0 73 ca 71 bd 67 db f3 3d e7 4d 77 3c d0 74 90 bc
       -0.05903096 0.11907082 0.015094257 -0.017633826
000300 a3 89 02 be fb b6 89 be 6d ee 1d 3e 69 c0 70 3e
       -0.12747817 -0.26897416 0.15422983 0.23510899
000310 7c a5 a5 3d d6 dc f4 bd 2d ec e9 bc 03 03 d4 3e
       0.08088204 -0.119561836 -0.028555 0.41408548
000320 07 2d 0d bd 93 41 59 bd 37 55 06 bd 8d c2 58 bc
       -0.03446677 -0.053041052 -0.03279611 -0.013229978
000330 33 7f 19 bb 4f f1 b6 3d 90 02 a3 3d 5d b8 1e bd
       -0.0023421764 0.08932745 0.07959473 -0.03875004
000340 95 4f c2 3d 05 c1 87 3d 62 21 be bd a0 c3 98 3d
       0.09487835 0.066286124 -0.09283711 0.074591875
000350 d4 c0 41 3d 39 83 67 3e 03 f1 53 3d fd 6a 41 3e
       0.047303036 0.22608651 0.05174352 0.18888469
000360 bb b4 97 3e 10 5c 55 3f 1e dd e7 3d 68 47 42 3e
       0.29630074 0.833436 0.11321472 0.18972552
000370 0a b8 87 bd b4 e5 1a be 9d 53 12 bd a5 5d b4 3d
       -0.066268995 -0.15126687 -0.03572427 0.08806924
000380 ca 0c 35 3e 23 7e 80 3e ad d4 27 3e 58 8e 2a 3e
       0.1768066 0.25096235 0.16389723 0.16655862
000390 41 b3 22 3e e7 40 2d bc 9d 04 56 3d d5 b7 84 3d
       0.15888692 -0.010574556 0.052250493 0.06480376
0003a0 5a 1b 80 bc f6 0a 6f 3c 4a 4e 0d 3e bb e9 5a 3e
       -0.015638042 0.014590016 0.13799396 0.21378224
0003b0 79 c5 22 3e be 73 aa 3e 8c 75 a3 3e d0 95 ad 3e
       0.15895642 0.3329143 0.3192562 0.3390336
0003c0 80 b7 df 3b 86 78 b6 3d 2d bc 98 3e f2 66 26 3f
       0.006827295 0.08909707 0.29831067 0.6500083
0003d0 f7 c8 ce bd d7 11 24 3e c3 5f 1a bd d3 29 46 3e
       -0.10096925 0.1602243 -0.03768898 0.19351892
0003e0 77 80 ea 3d 48 d2 de 3c d3 c1 06 bd ae 4e 76 3e
       0.11450284 0.02719988 -0.03289969 0.24053451
0003f0 f0 7c 4e 3f 95 d9 16 3f cd a7 7f be a5 39 60 3e
       0.8065939 0.58925754 -0.24966355 0.2189699

fc1.bias f4 [50]
000000 d1 8b 5f be 04 2f 5c be 43 40 53 be e6 21 ad bd
       -0.2183068 -0.2150231 -0.20629983 -0.08453731
000010 d5 d1 d9 be 24 21 b0 3e e3 26 9d be 96 a6 ab be
       -0.42542902 0.34400284 -0.3069373 -0.33525532
000020 7c d0 a6 be 06 92 a0 be e7 5e 53 bd 7f 84 b0 be
       -0.32580936 -0.31361407 -0.051604178 -0.34476086
000030 e0 31 7a be 39 c9 c9 bd aa cd 57 be 74 1d d4 3e
       -0.24433088 -0.09852833 -0.21074548 0.4142872
000040 64 bf e4 3b 98 78 8e be a8 1c 9c be 8e 15 a1 be
       0.0069808234 -0.2782638 -0.30490613 -0.31461757
000050 e8 b6 70 3d 39 b3 9b be fe c3 33 be 6b 45 0e be
       0.058768183 -0.30410174 -0.17555234 -0.13893668
000060 94 e1 37 3e 01 2f a6 bd bc 31 0b be 3f 83 3b be
       0.17957145 -0.08114434 -0.13593191 -0.18311785
000070 73 eb 8b be 81 5e 45 bd 61 57 9a be 74 5d 03 3f
       -0.2732807 -0.04818583 -0.3014479 0.51314473
000080 29 8b 45 bf a1 a9 da bd 49 6c 9b 3e cd db 02 be
       -0.77165467 -0.106768854 0.30356053 -0.1277916
000090 e0 c2 60 be 81 23 9f 3c 53 cf b3 3c 47 50 ce bc
       -0.21949339 0.01942611 0.021949446 -0.025184764
0000a0 57 7d 91 bd 08 76 83 bc 63 42 46 bd 69 93 6a bd
       -0.07103985 -0.016047493 -0.048403155 -0.057269488
0000b0 81 31 17 be b6 fc 9d be 20 b8 d2 be 17 e5 16 be
       -0.14764978 -0.30856866 -0.411561 -0.14735828
0000c0 d1 27 9d be ce d7 da be
       -0.3069444 -0.4274277

fc2.weight f4 [64, 50]
000000 44 3f 0e be 08 5a 24 3c c6 87 68 3d 1f a0 a9 bc
       -0.13891321 0.010031231 0.05677011 -0.020706234
000010 b5 e5 d8 bd 1e a6 cc 3d 2f 03 56 be a4 9b bb be
       -0.10590688 0.09992622 -0.20899652 -0.36642182
000020 31 ca a5 be 5e 7e 89 3d e2 85 4b be e2 32 1e be
       -0.32380822 0.06713556 -0.19875291 -0.15449098
000030 b9 ff 7b be cc 5b 2c 3e 04 a5 0f bf f4 a4 ac bd
       -0.24609269 0.16831893 -0.5611117 -0.084299
000040 74 e5 12 3e d2 0c bd 3e 8e 1a bc 3d fb e4 0b bd
       0.14345342 0.36923844 0.091847524 -0.03415392
000050 46 a9 b0 be 35 64 3c be 76 57 7f be 91 6c 3d be
       -0.34504145 -0.18397601 -0.24935707 -0.18498446
000060 d2 5d 72 be 9a 73 10 bf 15 3a 43 bf e0 be ae bd
       -0.23668602 -0.56426394 -0.762605 -0.085325
000070 64 8c 30 bd fb a3 e3 bd 97 b1 1f be 30 7f 57 be
       -0.043102637 -0.11115261 -0.15595089 -0.21044612
000080 9b 53 5f 3e f1 8c a0 be bf 9a 18 be 5c 82 b0 be
       0.21809237 -0.3135753 -0.14902781 -0.34474456
000090 fc f6 ea bd 8b 5b 72 3e 1f 91 ca 3e cc a4 52 be
       -0.1147289 0.23667733 0.39563844 -0.20570678
0000a0 83 9a 99 be f7 33 be bc 4e 37 04 be 2e ec 9f be
       -0.30000696 -0.023218138 -0.12911722 -0.31234878
0000b0 c6 cd ba be 13 08 cb be 90 0a 4f be 1d 5d 96 be
       -0.36485118 -0.39654598 -0.20218873 -0.29367915
0000c0 0c 07 4a be ab 9d ab be fd 2b 6e be 38 3a b5 bd
       -0.1972925 -0.3351873 -0.23258968 -0.08848995
0000d0 25 0a 3d 3d 84 03 8a bc 46 c5 37 3d cb 9c df bd
       0.046152253 -0.01684738 0.04486587 -0.10918578
0000e0 53 24 c3 bc 9d d2 8c 3d ae f9 f6 bd cc 95 94 bc
       -0.023821032 0.06876109 -0.12059341 -0.018137835
0000f0 25 50 8b bc 5a 91 bd bc 9d 98 b3 be a5 c8 ca bd
       -0.01700599 -0.023140598 -0.35077372 -0.09901551
000100 2d c0 1f be 07 89 5f bd 9c 0b 80 bd c4 fa c9 bc
       -0.15600653 -0.05457404 -0.06252214 -0.024655707
000110 63 35 53 be a3 09 a0 bd 84 61 75 bd a7 7d 53 3d
       -0.20625834 -0.07814338 -0.05990745 0.051633503
000120 34 bb 43 3e 38 36 5a be a1 f6 6f be b7 76 3e be
       0.19114381 -0.21309745 -0.23433925 -0.18599974
000130 a3 d1 86 be ad cf a6 be 76 a9 03 bc 2e a4 11 3e
       -0.26331815 -0.3258032 -0.008036008 0.14222786
000140 39 b1 50 be 1c e0 af 3e 2d f5 86 be 2a 75 fa 3d
       -0.20380105 0.3435067 -0.2635893 0.122293785
000150 8b c8 bd be 2d c2 86 be 11 2e 3e 3c 90 29 85 be
       -0.37067065 -0.2632002 0.011607663 -0.26008272
000160 cc 44 56 bd 7f e8 51 be b5 a3 59 bd 0b 88 dc bc
       -0.052311704 -0.20498846 -0.05313464 -0.02692034
000170 48 bc 4c be ce 1b 69 be 5f e0 aa be e8 8f 43 be
       -0.19993699 -0.22764513 -0.33374307 -0.19097865
000180 01 e0 37 be b2 45 06 3d cb e1 57 3d 86 45 a7 bd
       -0.17956544 0.03278131 0.052705567 -0.081675574
000190 59 1e 09 bf 0a b3 f1 bd e7 88 3b bf f1 83 25 bf
       -0.5356193 -0.11801727 -0.7325577 -0.6465445
0001a0 2d 84 5b bf 12 5e c2 bf ac 52 b4 3e e3 07 1f be
       -0.8574856 -1.5184958 0.35219324 -0.15530352
0001b0 5e ee 3d be 54 29 54 3e cf 85 3f 3d 98 9f f9 be
       -0.18547961 0.2071889 0.04675847 -0.48754573
0001c0 1d 51 ad be c5 bc 45 bf 36 be 83 bf ba 0f 82 bf
       -0.33850947 -0.77241164 -1.0292423 -1.0161049
0001d0 86 48 6d be ed 55 6a bf 17 cb e3 be fb 89 a1 bf
       -0.23172197 -0.9153736 -0.44490883 -1.2620233
0001e0 c3 c9 d2 be 52 0f 1c bf 1d b3 54 bf 81 7c f4 be
       -0.41169557 -0.60960877 -0.83085805 -0.4775124
0001f0 ed 1e c1 3e 14 b6 68 be 25 61 d3 be f1 35 b1 bf
       0.37718907 -0.22725707 -0.41285053 -1.3844587
000200 8e 05 5a 3e b0 5a a2 bf 1c 52 c2 be 1b f6 94 3e
       0.21291181 -1.2683926 -0.3795327 0.29094014
000210 9f 5f dd be 92 76 50 bf 8a d3 bc bf 00 78 82 bf
       -0.43237016 -0.81430924 -1.4752057 -1.0192871
000220 d9 a8 91 3e 7e 52 93 be ea 21 88 bf 85 88 5c bf
       0.28449133 -0.28773874 -1.063535 -0.8614581
000230 56 d1 4d bf 98 21 b0 bf fb bb ce be 79 a6 04 bf
       -0.80397546 -1.3760252 -0.40377793 -0.5181652
000240 8a 23 94 be 5a 21 a9 be eb c1 1a bf fa 37 a9 be
       -0.28933364 -0.33033258 -0.60452145 -0.3305052
000250 07 45 84 3e 28 06 b7 be 5f 33 2c be 1d cb 58 3d
       0.25833914 -0.35746884 -0.16816472 0.05292808
000260 5c d3 64 bd 37 1c 04 bd 65 e8 f5 bc 73 3b f2 bc
       -0.05586563 -0.03225347 -0.03001804 -0.029569363
000270 6b e2 28 bd 4c 87 21 be cf ea 44 be bc a0 82 3d
       -0.041231554 -0.15774268 -0.19230197 0.06378314
000280 4d 52 92 bd 57 7a b4 bd c3 cb 20 3d 57 6e 0c be
       -0.07144604 -0.08812397 0.039256822 -0.13713966
000290 4f 58 07 be 1a e3 e4 bc 1a cf 00 be 47 a2 4b 3d
       -0.13217281 -0.027940322 -0.12579003 0.049715307
0002a0 c0 ee 80 bd 38 4b d8 bd f2 66 cb bc ff 79 11 3d
       -0.06295538 -0.10561222 -0.024829362 0.035516735
0002b0 99 34 ee bd a5 19 8c 3b 00 f8 5f 3d 0f 3b 2e be
       -0.11631126 0.004275518 0.05467987 -0.17014717
0002c0 41 a0 a6 bd ec 1e 53 bd 5a 66 b5 3d e7 f4 db bd
       -0.08136035 -0.05154316 0.08857413 -0.10740071
0002d0 ff 60 f1 bd 82 8d b9 3c 86 fe 30 be 82 24 d7 bd
       -0.11786079 0.022650484 -0.17284593 -0.1050501
0002e0 70 89 bb bd 8e 42 fb bd 76 55 36 be 9e ca 09 be
       -0.091570735 -0.12268554 -0.17806038 -0.13456199
0002f0 62 8f bb 39 8f dc 43 3d b7 38 06 be 09 22 95 bd
       0.00035774248 0.047817763 -0.13107572 -0.07281882
000300 ce dc 92 bd b0 ec f8 bd 38 db 08 be df 5b 1d be
       -0.071710214 -0.121545196 -0.13364875 -0.15367077
000310 b3 e2 9f bc 74 ac cb bd 78 00 d3 bd 20 af 1c ba
       -0.019517278 -0.09945002 -0.10302824 -0.00059770234
000320 80 89 1d bd 97 f0 31 bd b8 55 8c 3c 25 db 82 3d
       -0.03846121 -0.043442335 0.017130718 0.06389455
000330 83 61 99 be 0e 49 dc bc 67 88 73 bd 07 b3 26 3e
       -0.29957208 -0.026890304 -0.059456255 0.16279231
000340 cf 23 ac be 55 d5 6a be dc 7a 20 3e c4 30 b2 be
       -0.3362107 -0.22932942 0.15671867 -0.3480283
000350 51 b1 06 be a5 4a d9 bd 8c 7b d6 bd c9 f3 28 be
       -0.13153578 -0.106099404 -0.104727834 -0.16499247
000360 6d 5d 77 be 0e b7 94 3d 1d 93 5b be f6 c5 a4 be
       -0.24156733 0.072614774 -0.21442838 -0.32182282
000370 6a d0 ce 3d 9f 06 9d 3c f5 22 81 be 62 d1 9d be
       0.100983456 0.019168196 -0.25221983 -0.3082381
000380 b8 02 0b be e5 08 06 3d 76 1a 29 3d 93 a7 b1 be
       -0.13575256 0.032723326 0.041285 -0.3469816
000390 06 5c 19 3b 62 a9 bd 3c b6 c7 9c be 6c 88 b4 be
       0.0023400798 0.023152057 -0.30621117 -0.35260332
0003a0 94 35 5c 3e 7c 47 34 3e bd c6 b3 3d 37 61 22 be
       0.21504813 0.17605394 0.08778141 -0.15857397
0003b0 79 b4 bc be 7c 54 95 be c3 29 8b be 51 bf ce be
       -0.3685644 -0.2916602 -0.271803 -0.40380338
0003c0 31 d4 03 bd ea 18 ea bc eb ea 49 3e 4a 2e 0a 3e
       -0.032184783 -0.028576333 0.1971852 0.1349422
0003d0 5a e3 18 be f3 f4 d3 be f2 d8 d1 3d d4 cc 9b be
       -0.14930478 -0.4139782 0.10246457 -0.3042971
0003e0 66 7d 79 be 02 91 b1 3d 43 8a 91 3d ed 42 3b be
       -0.24364242 0.08670236 0.071064495 -0.18287249
0003f0 36 7b 36 be a5 e9 1e be 09 ed 7e bd 9c a1 d8 bd
       -0.17820439 -0.15518816 -0.062237773 -0.105776995

fc2.bias f4 [64]
000000 8e 28 3e be c1 be 63 bd 94 60 45 bd ed 76 fa bd
       -0.18570158 -0.05560184 -0.048187807 -0.122297145
000010 e6 c6 18 be cd df d0 bd 2b 21 24 be 03 96 05 be
       -0.14919624 -0.101989366 -0.16028278 -0.13045506
000020 a7 48 d5 be 58 ba aa be 7f c6 fe bd 4b e1 b1 3e
       -0.41656992 -0.33345294 -0.12440204 0.34742197
000030 df 66 99 be 21 98 70 be e0 2f 01 be 56 31 1c 3e
       -0.29961297 -0.23495533 -0.12615919 0.15253195
000040 f7 ae ea be b6 94 51 3c 61 f0 f1 bd 2b 3c 52 be
       -0.45836613 0.012791803 -0.11813427 -0.20530765
000050 32 eb da bd 03 fb 2a be d9 72 93 3d 2d 68 a7 be
       -0.10689391 -0.16697316 0.0719964 -0.32696667
000060 03 d0 e9 be 64 51 87 3e 41 a7 a7 be 8a 89 03 bf
       -0.45666513 0.26429284 -0.32744792 -0.5138174
000070 60 a4 e1 3d 35 0b 95 bc dd c1 74 be 8f e4 d0 bd
       0.1101768 -0.01819382 -0.23902078 -0.10199844
000080 32 50 8a be 3b 95 7d bd 1e a2 3a be 18 9e 8d 3e
       -0.2701431 -0.061909895 -0.18225905 0.27659678
000090 df 98 ab 3c dc 58 c9 be 29 b3 30 bf 82 48 80 3e
       0.020946918 -0.39325607 -0.69023377 0.2505532
0000a0 7b 58 7a bd 6e 60 fc 3d c3 ed 43 be 14 1c ad be
       -0.061119538 0.1232308 -0.19133668 -0.33810484
0000b0 7b f0 f1 3e 75 ff 9a bc 07 51 b2 be 3f e0 dd bb
       0.47253785 -0.01892064 -0.34827444 -0.006771117
0000c0 8d 64 24 bd 26 e8 c8 bd 17 f1 87 3e 77 1d 5a be
       -0.040134955 -0.09809904 0.26551124 -0.21300302
0000d0 c2 c1 98 3e 1c 85 05 bf b6 7c 93 bd 1d 9c 94 be
       0.29835325 -0.52156234 -0.07201521 -0.29025355
0000e0 e3 f0 a0 b9 a9 25 41 bd 05 b1 8c be b5 c4 86 be
       -0.00030697053 -0.047155056 -0.27478805 -0.2632195
0000f0 02 a7 88 bd 4d 3e b2 be 08 61 0e bc b8 70 04 be
       -0.06672479 -0.34813157 -0.008690126 -0.12933624

fc3.weight f4 [64, 64]
000000 e2 ec d6 bd 6d fa cf bd 88 60 95 3c b8 6c a2 3c
       -0.104944006 -0.10155187 0.018234506 0.019827232
000010 2e ab 09 be 72 82 d4 3d 5e 91 43 3d ff 85 c5 bc
       -0.13444206 0.10376443 0.047746055 -0.024111746
000020 ac 04 a7 3c de 17 16 3d c5 66 a6 be 1c 65 1f be
       0.02038797 0.036643855 -0.32500282 -0.15565914
000030 ba a0 d2 3d 4f 7d c5 bd 5c 03 18 3d d4 71 97 bd
       0.102845624 -0.09643041 0.03711258 -0.07394758
000040 22 77 6c bd e9 15 f9 bd f0 e4 bb 3c cc bb d1 3d
       -0.0577308 -0.12162382 0.022936314 0.102408975
000050 97 49 81 be bf c1 27 be 73 37 27 3d 60 6f bf bd
       -0.25251457 -0.16382502 0.040824365 -0.09347415
000060 26 4b 25 be 58 0d 20 3d 1e 5f 45 3d 22 f6 18 be
       -0.16141948 0.039075226 0.048186414 -0.14937642
000070 67 6d 75 bb f0 af 80 bc 29 5e 4e bd 00 6e e3 bd
       -0.0037449242 -0.015708894 -0.050382767 -0.11104965
000080 53 0a 3b bd 0c bf e7 bd 08 ec 9a bd 9b df 86 bd
       -0.045664143 -0.11315736 -0.07564551 -0.06585618
000090 8f 86 80 bd e2 28 8f 3c dd 92 50 bd 7a c1 8e bd
       -0.06275665 0.01747555 -0.05092131 -0.069704965
0000a0 60 5e 5c 3c 97 7a 1d be b1 2d 71 be ec e0 1d be
       0.013450235 -0.15378796 -0.23552586 -0.15417832
0000b0 5e 70 f0 bd 02 f4 18 be fa 4c 1c be 43 90 43 bd
       -0.11740182 -0.14936832 -0.15263739 -0.047745
0000c0 05 95 ed bd f5 6d f1 3c 45 16 8c bd c2 ad 74 be
       -0.11600689 0.029471377 -0.06840185 -0.23894408
0000d0 37 7d 67 be 20 15 4d be 69 b1 46 3d 30 57 b9 bd
       -0.2260636 -0.2002759 0.048509035 -0.09049833
0000e0 f1 7a c2 3c 27 90 c0 be 6e 6d 0c 3d 6c aa 21 be
       0.023740264 -0.3760998 0.034284048 -0.15787667
0000f0 6e 77 bc bd 1e bf 15 be e5 ad c5 bd ab ab 03 3e
       -0.09202467 -0.14623687 -0.096523084 0.12858455
000100 49 0d a3 bd 54 1d 96 3e f2 e9 4c 3f 85 f6 ad 3c
       -0.07961518 0.2931925 0.8004447 0.021235714
000110 99 e5 d8 3d e3 63 34 3e 75 97 66 be d0 55 28 be
       0.10590667 0.17616229 -0.22518714 -0.16438985
000120 26 40 8a be 4c 52 37 bd 81 03 86 bd 22 ad c1 3e
       -0.27002066 -0.04475622 -0.06543637 0.37827402
000130 47 9e a9 bd f7 18 4e bc 05 e1 4b 3e 56 aa 7f be
       -0.08282142 -0.012579194 0.19910057 -0.24967322
000140 1b 9a 22 bd 5b 09 5a 3f a7 41 a7 3d 5b b7 32 bd
       -0.039697748 0.85170525 0.08166819 -0.043631893
000150 63 64 23 be 1e c2 9d bd 3e c0 96 be 9a 0b 4b 3d
       -0.15956263 -0.077030405 -0.29443544 0.04957161
000160 6a 50 84 3e dd 7b b4 be 76 61 b8 bd 8a 3e 37 be
       0.258426 -0.3525075 -0.09002964 -0.1789495
000170 98 bc ba bd d7 12 20 be d1 af cd 3d 3f 55 3f be
       -0.09118003 -0.15632187 0.100433 -0.18684863
000180 52 a4 f3 bd 38 01 0c 3e a9 ad b3 be ed 05 9a 3f
       -0.11896576 0.1367234 -0.3509343 1.2033058
000190 d4 24 78 be ca 38 32 be 60 5c 78 bc 51 54 a1 bd
       -0.24232799 -0.17404476 -0.015158743 -0.0787741
0001a0 94 af b6 3d da b8 7b 3f ee 39 49 bb 81 e8 ac 3d
       0.089202076 0.98328936 -0.0030704695 0.08442784
0001b0 a6 c4 b1 3f 9d 9d 1d be 4c 36 f7 bd e7 e7 d7 bd
       1.3888137 -0.15392156 -0.12070903 -0.10542279
0001c0 b6 eb 85 be 1a 38 3b bd c1 25 e8 3e 5b 78 d7 bc
       -0.26156396 -0.0457078 0.45341304 -0.026302507
0001d0 a0 a5 07 bf 54 eb a7 3d b3 38 99 bc ad c6 a0 bd
       -0.529871 0.08199182 -0.018703794 -0.078503944
0001e0 3c 94 bf bd e0 b1 8a be da a4 de 3d 91 e6 ad bd
       -0.09354445 -0.27088833 0.10871287 -0.08491243
0001f0 35 a9 20 be 9b 34 15 be 06 28 bc be 24 7e 37 bd
       -0.15689547 -0.14570849 -0.36749285 -0.04479803
000200 ec 94 17 be 1a e1 02 bd 60 cf 2a bc 40 8b 07 3d
       -0.14802903 -0.031952955 -0.010425419 0.033091784
000210 a5 27 17 be a0 3d a8 3d 8f 21 02 bd c2 81 7f 39
       -0.14761217 0.08214879 -0.031770285 0.00024367034
000220 ae 90 c8 3b ed 0f 42 bd 55 f7 04 3d 56 0e aa bd
       0.006120763 -0.04737847 0.032462437 -0.083035156
000230 5c b0 d3 bd 6f 59 b3 bd d0 f1 28 bd d4 9c 70 bd
       -0.10336372 -0.087572925 -0.041246235 -0.058743313
000240 53 08 4f 3d e8 40 d2 3c 2c 20 b0 bd cc 5d 72 3d
       0.050545048 0.025665715 -0.08599886 0.059171483
000250 02 e2 56 bd 56 e7 a4 3d 90 6d 56 bd 08 bf d6 3c
       -0.05246163 0.08051936 -0.05235058 0.026214138
000260 e2 05 06 be 88 32 9f 3c f3 2c 0c be e3 c1 3d be
       -0.13088182 0.019433275 -0.13689022 -0.18530993
000270 91 ba ef 3c 00 00 bc 35 b1 43 84 bd 33 84 f9 bd
       0.029263766 1.4007092e-06 -0.064582236 -0.12183418
000280 4d 17 54 bd c9 c1 6a 3d de 93 f2 bd 78 57 0e bd
       -0.051780034 0.057313714 -0.1184461 -0.034751385
000290 56 7a 7e 3d be f4 33 be 35 b6 4b bd e6 fc 97 3c
       0.062128387 -0.1757383 -0.049734313 0.018553209
0002a0 a7 51 b3 3c ee c8 6c ba 4d 8d 33 be 69 52 1f bd
       0.02188952 -0.00090326264 -0.1753437 -0.03889695
0002b0 cc 00 83 3d c9 79 19 be b6 93 a8 3d fe a3 d8 bd
       0.06396636 -0.14987864 0.082312986 -0.10578154
0002c0 28 6b 84 3d 90 9c b0 bd 1b b1 17 be 5c ae 85 bd
       0.06465751 -0.08623612 -0.14813654 -0.06527397
0002d0 13 45 1a be 19 d9 20 3d 50 f7 87 bb 67 69 ef bd
       -0.15065412 0.03926954 -0.004149355 -0.11690026
0002e0 63 78 3d be eb d9 a5 bc 48 c2 bb 3c 1b d9 dc bd
       -0.18502955 -0.020245513 0.022919789 -0.10783597
0002f0 59 ae 06 3d 92 78 89 bc 31 4f f1 bd 00 63 d6 bd
       0.032881115 -0.016781125 -0.11782683 -0.104681015
000300 5f de 14 3d bc 52 9f 3d b5 5e ec be 8c cb 2d 3c
       0.036344882 0.07779452 -0.46166006 0.010607611
000310 41 1f d8 bd 9d c8 10 be 8a 74 da 3d 93 ee f8 3d
       -0.10552836 -0.14139028 0.10666759 0.121548794
000320 6f d2 47 3d a2 48 53 be d8 43 29 be 9b 8c 7b be
       0.04878467 -0.20633176 -0.16529787 -0.24565355
000330 58 08 d6 bb 26 48 01 be 93 2e 17 3c 6c 1f 46 be
       -0.0065317564 -0.12625179 0.009227413 -0.19347924
000340 3d 4a 77 3d f4 e2 d9 be b2 4c 44 3b bd 31 fd 3c
       0.060373534 -0.42555964 0.002995294 0.030907506
000350 cd da 69 be 3c b7 3b bf c8 fe f6 3b 7f bb b0 bd
       -0.22837372 -0.7332647 0.0075376965 -0.08629512
000360 02 af 3d bd c8 a0 80 be 7b 65 0f 3d 2e 7b 98 bc
       -0.04630948 -0.25122666 0.03500889 -0.018613424
000370 5a 92 98 bd 0e 5c 1d be 56 be 89 3c 8c f5 19 be
       -0.07449789 -0.15367147 0.016814392 -0.15035075
000380 5d 7d 6a bd 3a f2 ec 3d 85 5b 56 be 0e 04 0c bf
       -0.057248462 0.115696386 -0.2093335 -0.54693687
000390 d0 c1 76 be 1e 9e c4 bb c9 69 8b be 3c 6b ad bd
       -0.24097371 -0.0060002944 -0.27229145 -0.08467719
0003a0 14 cf 37 3d 99 2b 3a bf 62 a1 68 bd 38 10 1b be
       0.04487522 -0.72722775 -0.05679453 -0.15142906
0003b0 81 9b 51 bf bb ed 29 be bf ec 64 3d 82 20 ad bd
       -0.81877905 -0.16594593 0.05588984 -0.08453466
0003c0 10 91 80 be 18 44 01 bf ba 81 13 bf 9b c8 48 be
       -0.25110674 -0.5049453 -0.5761982 -0.19607775
0003d0 ee 71 94 3d 5c 46 d8 be 5c f0 f7 bd ed 4c 52 be
       0.07248293 -0.4224118 -0.12106392 -0.20537157
0003e0 49 99 5b be 19 e4 e8 bb 3d e9 7a be 5f 9f 2f be
       -0.21445192 -0.0071072695 -0.24503036 -0.17150639
0003f0 00 f7 88 be 77 54 3f 3d b0 65 a7 bd f1 10 27 3d
       -0.26750946 0.04671141 -0.08173692 0.04078764

fc3.bias f4 [64]
000000 2a 6e 40 be 53 41 fe 3e 30 11 3b be 01 a4 e7 bd
       -0.18792024 0.49659213 -0.18268275 -0.11310578
000010 57 bf 52 be b4 0a 0f be 79 b4 f2 3d 05 34 0c 3f
       -0.20580803 -0.13968927 0.11850829 0.54766876
000020 ab 50 06 bf b3 44 48 3d 08 97 9f bd af bb cf bd
       -0.5246684 0.04889364 -0.07792479 -0.1014322
000030 ca 8b 71 bd 94 85 22 be dd dd 1a be 3c 98 4c be
       -0.058971204 -0.15871269 -0.15123697 -0.19979948
000040 20 e0 83 be b1 f9 b4 be 23 15 04 3f 6a 9c 4a 3e
       -0.2575693 -0.3534675 0.5159475 0.1978623
000050 ed 79 64 3e 7d 26 5a 3e 61 18 2f be e8 13 86 be
       0.22312136 0.21303745 -0.17099144 -0.26187062
000060 94 6f 01 be db 99 13 3f 03 f2 84 bc b5 f4 0b 3f
       -0.1264022 0.5765664 -0.016228681 0.5467027
000070 5a d8 19 3f d9 28 ba bd 02 f0 29 bf 69 76 92 bd
       0.6009575 -0.09089822 -0.6638185 -0.07151491
000080 b1 f7 b6 3e 4c 07 37 be 35 b1 0b 3d d6 df 39 be
       0.3573585 -0.17873877 0.034104545 -0.18151793
000090 d3 0d 58 be ce 63 21 3f 12 9f 49 bd 1f 01 0d be
       -0.21099024 0.63042915 -0.049223967 -0.13769959
0000a0 87 de db 3d 14 d0 43 be a0 97 1d bd 4a 04 a0 bd
       0.10735803 -0.19122344 -0.03847468 -0.07813318
0000b0 8f 1c 9a be ae e7 04 3f 9b d4 b4 bd e3 5e 12 be
       -0.30099913 0.51916015 -0.08829614 -0.14294009
0000c0 1f d4 06 3f 79 bf 48 be 4c e0 ed 3e 78 bb 84 bc
       0.5266742 -0.19604291 0.46460187 -0.016202673
0000d0 61 7f 54 be 52 c9 01 bd 9d 60 84 bd 40 5a 05 3e
       -0.20751716 -0.031686135 -0.0646374 0.13022709
0000e0 fd e7 ba be 3f 98 61 be 27 4c 5a be 02 f4 5b 3e
       -0.36505118 -0.22030734 -0.21318112 0.214798
0000f0 d7 42 42 3d c5 44 ee 3d ee 14 18 be 82 45 a1 be
       0.047427025 0.116342105 -0.14851734 -0.31498343

fc4.weight f4 [4, 64]
000000 04 19 88 3c 4f cd e1 3e 17 a5 ad ba 64 44 ee be
       0.01661349 0.4410195 -0.0013248053 -0.46536553
000010 de 6a 39 be d5 0f 8e bd 75 9e cd 3e c0 e3 02 3f
       -0.18107173 -0.069366135 0.40159956 0.5112877
000020 50 09 c5 be 92 dd 13 bf 44 49 a3 bc 57 ad e3 be
       -0.38483667 -0.57759964 -0.019932397 -0.44468185
000030 01 ab a7 be 4f e9 67 3d f7 a3 41 be a3 75 5d 3e
       -0.32747653 0.056618985 -0.18910204 0.21626906
000040 1c 83 25 bf 6a 31 b4 bd c5 09 a9 3e f6 ae b1 3e
       -0.6465318 -0.087984875 0.33015266 0.34703797
000050 a1 b0 15 bf e8 de ce be 04 a3 1d bd 53 13 83 3c
       -0.5847264 -0.4040444 -0.038485542 0.016000425
000060 c7 30 25 be 9a 62 04 3f c0 5e e8 be 69 01 2f 3f
       -0.16131888 0.51712954 -0.4538479 0.68361527
000070 45 36 c6 3e 2b 23 6a be 98 f3 07 be ab 26 90 3e
       0.3871328 -0.22864978 -0.13276517 0.281545
000080 91 4d 3a bf 84 1f 0c be 6e 04 d3 be 2c 06 17 bf
       -0.72774607 -0.13683897 -0.41214317 -0.5899379
000090 20 fe 41 be 31 d2 d8 3e 34 dd 3c bf 0b 37 07 bd
       -0.18944597 0.42347863 -0.7377503 -0.033011477
0000a0 65 09 21 bf f5 81 26 bf ce dd d6 be a2 a8 0d bc
       -0.6290496 -0.6504205 -0.419661 -0.008646162
0000b0 c8 89 5c bc f8 00 ab 3e 5c e8 09 3d 81 4e 0c bf
       -0.013460584 0.33399177 0.03366886 -0.5480729
0000c0 c5 ad de 3e 7e 52 8b be ef 95 fc 3e 8f 77 a1 bd
       0.4349195 -0.27211374 0.4933314 -0.07884132
0000d0 c0 d3 51 bd db f9 9e 3d 42 51 cd be 18 88 8e 3e
       -0.05122733 0.077625 -0.40101057 0.27838206
0000e0 62 1c 08 bd 6d 53 12 bf 49 c8 61 be 61 27 52 bf
       -0.033230193 -0.5715855 -0.22049059 -0.8209134
0000f0 6e 2a 5b 3d 84 90 e3 bd 68 45 ac 3c cc 95 67 bf
       0.05350726 -0.111115485 0.02102919 -0.90462947
000100 36 9d 91 3c 86 72 92 bd 69 8d 96 bd 0e 58 11 3d
       0.01777516 -0.0715075 -0.073511906 0.035484366
000110 ce 2f 05 be ef 24 17 3c 7e ce c1 bc 97 95 b2 be
       -0.13006517 0.009225114 -0.023658033 -0.34879753
000120 40 4e 0b 3a 3f e4 15 bf d8 d9 df bd 98 5c 4c bd
       0.00053140894 -0.585514 -0.10930222 -0.04989299
000130 86 f1 26 be 2d 30 0e 3d 92 99 d9 3d 9d 6e 18 3e
       -0.16303071 0.034713913 0.10624994 0.14885946
000140 93 88 be bc 3e 3f da 3d d1 cb 01 bf 31 95 7b be
       -0.023258483 0.10656594 -0.50701624 -0.24568631
000150 a8 8c 1d be b5 b1 4e bf 95 4d 45 be 5e f9 4a bd
       -0.15385687 -0.8073991 -0.19267876 -0.04955422
000160 9b 47 e0 3c 86 72 f9 be 2c a3 35 bf 2e bd 52 bf
       0.027377894 -0.48720187 -0.70952106 -0.82319915
000170 7a 56 17 bf fc 5a 18 3d 96 6e d3 bd 23 91 01 3d
       -0.5911633 0.037196144 -0.10323827 0.031632554
000180 30 7b 01 be fd d7 60 3c 19 7d 2e 3e ac 3c 62 3e
       -0.12644649 0.013723371 0.17039908 0.22093457
000190 9f e9 b2 3d ae d0 00 bf ba dd 68 3b 6b 62 57 bd
       0.08735966 -0.5031842 0.003553255 -0.052584093
0001a0 6c a7 c6 bc 7a f0 be 3d b7 66 55 be 5f 2c 02 3c
       -0.024249755 0.09323211 -0.20839964 0.007945149
0001b0 fe a4 4f 3d 44 1d 0d bf ed 74 f4 bd 10 2e b4 bd
       0.05069446 -0.5512278 -0.11936364 -0.08797848
0001c0 15 f5 c7 be 2e 0f 80 3c 2b d6 0d be 22 17 8b 3d
       -0.3905417 0.015632238 -0.1385123 0.067915216
0001d0 d5 5a ad bd ea 33 84 3c f2 88 9f 3d 24 8a 87 3d
       -0.084645905 0.016138036 0.07789792 0.06618145
0001e0 a0 62 d4 bd 40 67 34 3e a3 0f b8 3d 7a 39 b8 be
       -0.10370374 0.17617512 0.089873575 -0.3598135
0001f0 79 fa 10 bd 41 df 71 be 34 84 e2 3c 35 27 14 3e
       -0.03539512 -0.23620321 0.02765093 0.14468081
000200 ef 28 5b bd 88 22 34 be fa fe 98 bc 67 28 33 3e
       -0.053505834 -0.17591298 -0.01867627 0.17495881
000210 f6 3e 78 3e 2f cf f1 3d 03 3f cb 3d 58 20 80 be
       0.24242768 0.11807095 0.09924128 -0.25024676
000220 a1 f6 33 3d 6e f8 7f 3e cd a5 38 3e 17 3f 78 3d
       0.043936376 0.24997112 0.18031998 0.060607042
000230 7e 95 ae 3e 21 b2 73 3d 0c c4 67 bd 10 23 84 be
       0.34098428 0.05949605 -0.05658345 -0.25808
000240 88 97 91 bd c6 42 c5 bc 48 36 3f 3e 10 71 87 3d
       -0.071089804 -0.024079692 0.1867305 0.06613362
000250 de 7a b0 3d 50 8b ad 3e a5 fe c2 bd 29 42 ac 3d
       0.08617185 0.3389535 -0.09521226 0.084110565
000260 5c 32 9b bd 9f 09 34 3e 0b e3 b4 bd cb c9 c0 3d
       -0.07577965 0.17581795 -0.088323675 0.09413489
000270 9d a8 ad bc a3 5b 34 3e 67 3f 58 be 4b 81 5c 3d
       -0.021198565 0.17613082 -0.21117936 0.05383424
000280 96 f6 bf 3e ea d0 8d 3d 16 be bb be f1 c6 3d 3d
       0.37492818 0.06924613 -0.36668462 0.046332303
000290 48 5d a3 3d f3 fa 82 bd 0b 35 5c 3d fe 91 dc 3c
       0.07976776 -0.06395521 0.053761523 0.026925083
0002a0 6d 29 50 3e 5d 92 d3 3e 82 3f 86 3e 95 62 0e be
       0.20328303 0.41322604 0.26220328 -0.13904794
0002b0 c1 d5 23 bd ef d2 0e 3e 2e 59 63 bd 2a cc a7 3e
       -0.039998773 0.13947652 -0.05550497 0.32772952
0002c0 cd 8a 6d 3e ac b3 d2 bd b4 51 14 bf b1 93 10 3b
       0.2319748 -0.10288176 -0.5793717 0.0022060687
0002d0 28 94 57 3c 06 37 51 3d 6e 72 33 3e e3 d5 09 bf
       0.013157882 0.051077865 0.1752412 -0.5384199
0002e0 c6 f3 3c 3e 54 64 9b bd 38 37 90 bd 4e 1c e5 3d
       0.18452367 -0.075874954 -0.07041782 0.11187039
0002f0 32 6c 05 be dd 86 66 3e 9f 89 28 bd 1e 21 bf bd
       -0.13029554 0.22512384 -0.04114687 -0.093324885
000300 e6 b3 78 3d 94 df af be 94 90 4c be cc 8c 8f 3d
       0.06071844 -0.34350264 -0.19977027 0.07009277
000310 56 e4 75 3d 40 c7 e9 bd 4f 4d 09 bd 64 9b 8e be
       0.06003221 -0.11414957 -0.033520993 -0.2785293
000320 74 89 b8 be cd 23 8e 3e 83 27 85 bd bc f2 b5 bb
       -0.36042368 0.2776169 -0.06501677 -0.005552618
000330 34 a0 48 bd 42 77 8c be 83 04 11 bf 12 5e ba be
       -0.048980907 -0.27434736 -0.5664751 -0.36399895
000340 92 fa 85 3d ac 1b 9e be 6a df 4f bd ba 5b d4 be
       0.06541933 -0.30880487 -0.050750174 -0.41476232
000350 78 c3 0a bd cc 7d 9a 3e 9a f5 f0 3d 1c cc 61 3d
       -0.03387782 0.301741 0.11765595 0.055126294
000360 08 dc 10 3d 0a a1 b1 bd c0 4e 15 3e 48 5d cb bc
       0.03536609 -0.08673294 0.14580822 -0.024824753
000370 b0 b5 50 be 57 a5 85 bd b4 42 f0 bd 78 f6 6f be
       -0.20381808 -0.06525677 -0.117314726 -0.23433864
000380 35 5b e5 3d 70 5c 94 bc f5 56 9b be e2 2f 44 bd
       0.11199037 -0.018110484 -0.3033978 -0.047897227
000390 04 82 c0 be a4 1e 15 be 7d 81 5a be b0 41 8f be
       -0.37599194 -0.1456247 -0.21338458 -0.27979803
0003a0 3e e0 75 be 12 35 81 bd 1e f5 b7 3d a7 78 91 bd
       -0.24011323 -0.063089505 0.08982299 -0.07103091
0003b0 f2 f2 f7 be e8 fc 06 be c7 c2 f0 bc 13 34 01 3e
       -0.4842754 -0.13182414 -0.029389752 0.12617521
0003c0 4c 57 1b bc dc 0b 11 3e ba 1c b5 3d df ec 99 3c
       -0.009481262 0.1416468 0.0884337 0.018789707
0003d0 7c 69 e2 bd c3 b8 2a bb 1d 24 ed bd 55 75 c8 3e
       -0.11055276 -0.0026050068 -0.11579154 0.39152017
0003e0 54 8e 78 be d9 4f 02 bf 66 61 b4 be fb 1a 29 3e
       -0.24273044 -0.5090309 -0.3523056 0.16514198
0003f0 a9 9e ff 3c 67 0a ed 3d 9a 76 40 3d ea 87 8b be
       0.031203585 0.1157425 0.046988107 -0.27252132

fc4.bias f4 [4]
000000 77 be ad 3e 1f 05 f1 bd 1e d0 17 3d c5 fe cc be
       0.33934376 -0.11768555 0.03706371 -0.40038124
