10by10recording/src/3layerMLPparameter/3layermlp4_1000ep_with_adam.npz (npz, 105860 bytes, 10 tensors)

mean f8 [100]
00000000: 0000 0000 0000 0000 0000 0000 0000 0000
00000010: 0000 0000 0000 0000 0000 0000 0000 0000
00000020: 0000 0000 0000 0000 0000 0000 0000 0000
00000030: 0000 0000 0000 0000 0000 0000 0000 0000
00000040: 0000 0000 0000 0000 0000 0000 0000 0000
00000050: 0000 0000 0000 0000 0233 8ee4 1da9 af3f
00000060: 67e4 6e47 f49a 6c3f c223 703a f86a 9b3f
00000070: 0000 0000 0000 0000 4ab9 570e 5604 9a3f
00000080: cc02 1b79 7a4f 9a3f 8635 efe2 32ac 9d3f
00000090: eb79 0477 59db a93f 8d3a b1df 5cb2 993f
000000a0: 0000 0000 0000 0000 a1f8 065d 617b 873f
000000b0: 6f0a 7cf2 85c7 8d3f 2b89 2221 7f19 7e3f
000000c0: de9a 0794 de9d 493f 4e4c dee3 9e9a 9a3f
000000d0: 2a42 6e10 7778 6a3f 8635 efe2 32ac 6d3f
000000e0: b144 21b3 84d4 593f 0000 0000 0000 0000
000000f0: 0000 0000 0000 0000 406d e100 245d 7a3f
00000100: 6b5b c822 0e5f 913f 02c6 c215 6ee6 8e3f
00000110: 1b3d 08cb 5bc0 5b3f 474c 3a9b ade8 573f
00000120: e332 ac1d 6088 733f ce4e ed3d bb44 773f
00000130: 8acd 936c b496 773f 4998 0c60 eedd 743f
00000140: 0000 0000 0000 0000 3e05 e241 b495 a13f
00000150: 9314 ecc5 ade9 8d3f cc95 4faa ca8c a93f
00000160: 083d 4543 0457 a43f a486 6f7e 71bd 8e3f
00000170: a56a 4284 42eb a23f a2fd 2411 9acf a03f
00000180: 6a35 5fc0 6de4 723f 221c 6165 e54b 693f
00000190: 0000 0000 0000 0000 03ec 2b78 0e61 ad3f
000001a0: a0d2 9dfa c000 893f 775b e761 7416 a63f
000001b0: 720f c3f8 3ac8 a73f 3cda 5a2b dbc6 a93f
000001c0: 75ee c9ee cbfa a33f db0c 9f72 ce5b a23f
000001d0: fb16 bda1 fd24 a13f 474c 3a9b ade8 773f
000001e0: 0000 0000 0000 0000 2a42 6e10 7778 4a3f
000001f0: 1089 92fe b951 733f e474 427a 2fd5 ad3f
00000200: 72c8 373a afd3 a43f 87a7 01b8 976f a83f
00000210: add2 e58b a364 8e3f 0659 49eb b67c 6f3f
00000220: f279 a8bf 4a8d 9c3f 3021 c7aa 0004 783f
00000230: 0000 0000 0000 0000 540a eccf c0ff 623f
00000240: de9a 0794 de9d 393f b495 112c fe1d 803f
00000250: 67e4 6e47 f49a 5c3f a23f bb6d 691c 6b3f
00000260: 17aa 81f5 122a 8b3f 3742 b6a1 59dc 7f3f
00000270: 18af 9fa9 4b7e 143f 0000 0000 0000 0000
00000280: 0000 0000 0000 0000 7c56 44a4 b0c7 9e3f
00000290: 8160 d2b0 1ac9 323f 875b 5845 d326 9c3f
000002a0: e22d 8e69 2734 9a3f 0000 0000 0000 0000
000002b0: 7f35 4b9a 41fa 9a3f e811 dc65 6d67 a03f
000002c0: 0000 0000 0000 0000 4ab9 570e 5604 aa3f
000002d0: 0000 0000 0000 0000 ee53 edb8 b1b9 ac3f
000002e0: 4ab9 570e 5604 9a3f 8bee de1a 1cbd 9c3f
000002f0: 7730 899d 17f4 9e3f 0b5e b943 e829 9a3f
00000300: 0638 fe3c 4f56 9a3f 4ab9 570e 5604 9a3f
00000310: 0000 0000 0000 0000 6b30 6a5e b13c ca3f
0.0 0.0 0.0 0.0 0.0 0.0 0.0 0.0
0.0 0.0 0.0 0.0618371335504886 0.00349185667752443 0.026775244299674268 0.0 0.025407166123778503
0.02569381107491857 0.028977198697068406 0.05050162866449511 0.025094462540716612 0.0 0.011465798045602606 0.01454071661237785 0.007348534201954397
0.0007817589576547231 0.025980456026058633 0.003231270358306189 0.0036221498371335507 0.0015765472312703583 0.0 0.0 0.0064364820846905535
0.01696416938110749 0.015087947882736156 0.0016938110749185667 0.00145928338762215 0.004768729641693811 0.005680781758957655 0.005758957654723127 0.005094462540716612
0.0 0.03434527687296417 0.01460586319218241 0.04990228013029316 0.039726384364820844 0.015009771986970684 0.03695114006514658 0.03283387622149837
0.004612377850162866 0.0030879478827361565 0.0 0.057381107491856674 0.012208469055374593 0.0431400651465798 0.04644951140065147 0.05034527687296417
0.0390228013029316 0.03585667752442997 0.03348534201954397 0.0058371335504886 0.0 0.0008078175895765473 0.004716612377850163 0.0582671009771987
0.04067752442996743 0.047726384364820844 0.014840390879478827 0.0038436482084690552 0.02788273615635179 0.005863192182410423 0.0 0.0023192182410423454
0.00039087947882736156 0.007869706840390879 0.001745928338762215 0.003309446254071661 0.013263843648208469 0.007778501628664495 7.817589576547231e-05 0.0
0.0 0.030058631921824105 0.00028664495114006516 0.02749185667752443 0.02558957654723127 0.0 0.02634527687296417 0.03203908794788274
0.0 0.050814332247557006 0.0 0.0561042345276873 0.025407166123778503 0.02806514657980456 0.03022801302931596 0.025550488599348536
0.02571986970684039 0.025407166123778503 0.0 0.2049771986970684

std f8 [100]
00000000: 3a8c 30e2 8e79 453e 3a8c 30e2 8e79 453e
00000010: 3a8c 30e2 8e79 453e 3a8c 30e2 8e79 453e
00000020: 3a8c 30e2 8e79 453e 3a8c 30e2 8e79 453e
00000030: 3a8c 30e2 8e79 453e 3a8c 30e2 8e79 453e
00000040: 3a8c 30e2 8e79 453e 3a8c 30e2 8e79 453e
00000050: 3a8c 30e2 8e79 453e 7130 cb13 7cd4 ce3f
00000060: 3a86 e4c5 c333 ae3f 50b6 9fec 9aa9 c43f
00000070: 3a8c 30e2 8e79 453e e4c3 7760 5124 c43f
00000080: c952 6184 8f40 c43f 3775 1685 9578 c53f
00000090: 6c4e adce 7507 cc3f ca8f c97c 4f05 c43f
000000a0: 3a8c 30e2 8e79 453e 843f e902 2641 bb3f
000000b0: eaed f29b fca4 be3f 0760 514c 4ddd b53f
000000c0: 7363 61c3 ab9e 9c3f d134 c326 a25c c43f
000000d0: 9e3e d435 a50e ad3f 7c24 b49b 2dc2 ae3f
000000e0: 9f2d 04dd 3550 a43f 3a8c 30e2 8e79 453e
000000f0: 3a8c 30e2 8e79 453e 8e69 f7b2 da78 b43f
00000100: c982 ab74 9087 c03f dc74 e865 0635 bf3f
00000110: 6d4c 3c5a d20d a53f 62e8 3119 5f8b a33f
00000120: d575 88aa d9a2 b13f be8b 6b3a 763d b33f
00000130: 6e97 31b7 0a5f b33f 2e6e bd40 bc39 b23f
00000140: 3a8c 30e2 8e79 453e 4db3 e1f3 864f c73f
00000150: a434 39f7 47b6 be3f c753 134e 01df cb3f
00000160: 3568 f169 1a00 c93f f971 2e0d 9e20 bf3f
00000170: 1ef8 5bbe 6a25 c83f c405 e582 4fcf c63f
00000180: 4cd1 4e7a 9158 b13f a55d 40c1 5368 ac3f
00000190: 3a8c 30e2 8e79 453e 02c8 a76f d5c4 cd3f
000001a0: 2154 a9df dc1c bc3f afaa 5334 8d01 ca3f
000001b0: b5e1 f47a 3df0 ca3f 2c17 c513 effc cb3f
000001c0: 039d 4485 7fc9 c83f 842e 59c8 a4cc c73f
000001d0: 5fa8 1327 f806 c73f 12d7 4c09 6480 b33f
000001e0: 3a8c 30e2 8e79 453e 1edd 441a af17 9d3f
000001f0: 1588 688e 3a8a b13f 828c 424e d5fb cd3f
00000200: 1d4f 11f2 0e49 c93f 1c75 b0e3 b349 cb3f
00000210: 4c08 a691 35f4 be3f d452 5824 76ae af3f
00000220: 1037 dbff d112 c53f 9f38 d1dd 748b b33f
00000230: 3a8c 30e2 8e79 453e 7192 028d e0a0 a83f
00000240: ac26 9fb0 c03d 943f 1329 a406 de9e b63f
00000250: 7ada b98f f85f a53f 2750 38c4 cb67 ad3f
00000260: b181 e74e 7a49 bd3f dc88 2f4f 7a7d b63f
00000270: 5df1 79a3 6d1b 823f 3a8c 30e2 8e79 453e
00000280: 3a8c 30e2 8e79 453e 2832 71cc 17db c53f
00000290: 7c6e e99f 9e55 913f d6b0 0316 f3ed c43f
000002a0: ca65 4172 4f36 c43f 3a8c 30e2 8e79 453e
000002b0: df59 c3f4 1e80 c43f 8de6 5db2 928a c63f
000002c0: 3a8c 30e2 8e79 453e ac43 3fa4 741c cc3f
000002d0: 3a8c 30e2 8e79 453e fe4d 9de3 aa74 cd3f
000002e0: d0bf 7760 5124 c43f 9f44 cb29 ee23 c53f
000002f0: 5d04 295a 58ea c53f b916 ffed 7532 c43f
00000300: afa0 76a2 1e43 c43f fec5 7760 5124 c43f
00000310: 3a8c 30e2 8e79 453e 37aa b77b f9d5 d93f
1e-08 1e-08 1e-08 1e-08 1e-08 1e-08 1e-08 1e-08
1e-08 1e-08 1e-08 0.2408595177315678 0.05898868361169858 0.16142593912029435 1e-08 0.15735833368628882
0.15822023357272588 0.1677424335329449 0.21897766677522001 0.1564120635331377 1e-08 0.10646283694336317 0.11970499808642612 0.08540804970959935
0.02794903163917035 0.15907694714261436 0.056752360173161195 0.06007521176986416 0.0396744568152727 1e-08 1e-08 0.0799690901689358
0.1291370935132561 0.1219028471754941 0.04112107612140723 0.03817269499354904 0.06889114774136058 0.07515658308288573 0.07566897366049627 0.0711934717232274
1e-08 0.18211447628291424 0.11996888910035125 0.21774307548790103 0.19531564877508037 0.12159145185291455 0.18864187521825299 0.1782016171583064
0.06775769458801512 0.05548345312143547 1e-08 0.23256938888476958 0.10981541119083761 0.2031723504545275 0.2104565477727768 0.21865642991377265
0.19364923484065608 0.18593272955546436 0.17990018756910595 0.07617783762983901 1e-08 0.028410659769375284 0.06851545311704428 0.2342478401306814
0.1975420648546952 0.21318672769204106 0.12091383748887202 0.06187791055359573 0.1646368502901443 0.07634668746433924 1e-08 0.04810239526094485
0.019766817836887426 0.08836162244930205 0.04174782518832827 0.05743252535117476 0.11440243173956934 0.08785213883632842 0.00884137778415866 1e-08
1e-08 0.17074868662383946 0.016928175459141034 0.16351164412424762 0.15790741995696883 1e-08 0.16015994025538213 0.17610391339603773
1e-08 0.21961839694861618 1e-08 0.23012291063297136 0.15735833368625984 0.1651590065071433 0.1712141456828559 0.15778993721885629
0.15829832966597254 0.15735833368630375 1e-08 0.403684969728292

W1 f8 [50, 100]
00000000: a15d eed7 60cb 7d3f 97f1 3007 9edc 8b3f
00000010: 9a96 203d 3665 733f d1a5 908b 8c80 5f3f
00000020: d7f4 064f dee5 843f 61da 40d9 467c 79bf
00000030: 9513 1537 fffa 78bf daa1 79de 5876 93bf
00000040: cc7f f013 7033 7ebf 2196 d5f8 ff7e 863f
00000050: f82a 8e14 626c 62bf 345c 3ccf 7a25 01c0
00000060: 5182 30bc b420 f13f 70ea c14f 58d0 01c0
00000070: 58d6 0023 a0d4 823f 67dd 5652 760e f7bf
00000080: aac4 569b a653 ddbf 6b8d 09e3 4592 d3bf
00000090: e2de c8fe bd06 f6bf 23cc 17a7 b023 f5bf
000000a0: f367 dabc 566c 853f 6fb2 f1e9 7518 e3bf
000000b0: 3ff1 7c47 5c27 eebf f89e ba47 cee1 0140
000000c0: f0fb 7060 913d f53f 58cd 28ec bc71 f1bf
000000d0: 2b6c 5201 ad6f f53f 84a8 53d3 cb7b 01c0
000000e0: 39d9 7c97 9e80 ecbf d0f0 641f 5a6f 983f
000000f0: ab2c 41bb 169d 71bf c40e b678 37af 00c0
00000100: 3bf7 5d1a 0fc5 e8bf 6e11 70b5 8db4 fb3f
00000110: 53cb 4ab2 c332 0c40 a4b0 d925 1667 0640
00000120: 0611 3daf 1218 dd3f fcb0 da38 300a 01c0
00000130: 82c6 3624 3be8 e8bf 504f 807a 778d b13f
00000140: 1818 e9f4 403d 7abf 66e5 2b9c 2bd8 0640
00000150: d43a 91d2 baed e1bf 3b98 19c7 f033 a0bf
00000160: 2ac0 ac9b e78e d23f f141 151e db2b f73f
00000170: 2c57 8418 3fcc 02c0 c9ca 7a8e 9208 0dc0
00000180: 6da4 8c5a 312c f43f 198a 17d9 f627 0140
00000190: 846d 3d3f 21ff 853f 7b16 99dd c4f6 f13f
000001a0: ca33 b880 1180 e9bf 79e2 5e24 7631 0440
000001b0: 2b78 e1b3 b7bd dc3f 3027 987c c852 e8bf
000001c0: 5454 10ea a5f5 fbbf b8f9 1f98 497d b3bf
000001d0: c10e 2207 5223 f6bf 7f05 9f1b dd4e f2bf
000001e0: 101e 2e71 8b30 7bbf 8545 0b83 0b6c febf
000001f0: 2447 c286 9419 a9bf 3489 e05d 572c fd3f
00000200: 7886 005e b65b f3bf d610 15ae db86 01c0
00000210: 4b29 0af7 d39a e33f eb94 46ec 7455 eb3f
00000220: 15e7 73d6 91eb b8bf b3c1 8687 f282 fbbf
00000230: a565 9433 a724 853f eed4 452d f296 0040
00000240: 85c3 7e6f b448 f23f 10e0 f1a7 91e3 f1bf
00000250: e3db 4504 121e dfbf 57b4 318a 77ae f8bf
00000260: 3f75 d708 4c98 03c0 5b33 e794 1e77 e23f
00000270: cd47 2cc4 6c73 ebbf bca4 bafa 6cd9 66bf
00000280: 8506 05f5 92cc 91bf ac03 d547 25a4 fb3f
00000290: d385 670b d862 f03f bcea 878a ad92 f4bf
000002a0: 0905 5b5e a6f0 adbf 7c9a 29a8 1b9b 28bf
000002b0: 64e1 8fc5 25ac f4bf 0022 1a8b b8dd f7bf
000002c0: 12ed fd09 d40d 69bf b6a4 27f9 7f6d f4bf
000002d0: 23fc 25cb 0813 89bf 2b71 5e88 5e2c f7bf
000002e0: 798a ea0c 30bd f6bf 3ba3 fab7 ac76 f7bf
000002f0: 0c91 dc4f 9d7f febf fe8b 6b7d cb77 f6bf
00000300: 3004 c0c2 763c eebf 3333 1989 5024 f3bf
00000310: e710 776a f6a8 89bf 0c7c 3995 8df5 c8bf
00000320: 13aa 6ec1 3c7f 6b3f 2822 e52f bbba 74bf
00000330: 2734 3ecc 06f4 513f e539 e142 c8bc 7ebf
00000340: 43eb 9c93 470c 903f d170 2de5 da74 71bf
00000350: 1ab5 a9de ab76 81bf 29dd 8aef 2bfc 7d3f
00000360: 6971 4814 c0ef 573f 06b6 6723 2260 933f
00000370: 13e7 3bc6 a8fa 69bf ebf0 c02e 2ac1 e13f
00000380: 050e b25e b0ab dcbf a253 6ee8 47ef 0540
00000390: 3c10 ef51 0c09 85bf 8419 af3e 30ff 1340
000003a0: df49 34cd 076e 0840 09d0 ab32 7079 d13f
000003b0: febf 382f 0687 0040 00e4 fa28 b602 ff3f
000003c0: 5358 f2b0 f020 783f 823f 1c1c 1ea8 d23f
000003d0: 7227 3068 e924 e83f c184 9c5e 497b edbf
000003e0: 87c5 d4d1 e972 d63f f916 a73e 0880 1240
000003f0: 9486 359f 0103 c83f c30f ca38 7628 e13f
00000400: 26f6 ff2a 5716 d33f cd1b 08e6 44b7 89bf
00000410: a72b 46ac 404f 8a3f 53f9 a92a 0987 ea3f
00000420: 1b15 12d1 24e9 d4bf 29d4 68bf 30db e3bf
00000430: eb4f 6a3d b016 cdbf 5c62 d102 2956 f3bf
00000440: 70a1 37ee dc6b db3f a2d1 a78d 5c64 f63f
00000450: b1d6 551b c2bc 893f 309d b3a5 1586 f93f
00000460: e188 e43f bc0e 603f 237d 48dd ae19 cdbf
00000470: ed5d 75b8 17d4 dbbf 66c0 498c b607 0040
00000480: e2cf f993 38b4 b63f b0b4 d5c0 680f ff3f
00000490: 6924 2102 a181 f53f 2029 5e30 d72d 98bf
000004a0: af5f 7c2e d1e8 d13f e0f4 57c9 d1dc e83f
000004b0: 7350 ae5d 37b3 813f 4ae9 9b9d f406 fb3f
000004c0: d7c7 945b bb26 c73f 9fb9 8bbe e07a 0140
000004d0: b138 6458 436b 88bf 290c 5147 dda4 dabf
000004e0: da6c 1f69 b892 dfbf 8a9c b308 830d d43f
000004f0: 3031 5e86 ff97 f23f 7f27 5329 dccb 923f
00000500: 2568 913b 2702 7ebf 725b fbcb 8af3 1040
00000510: 86c4 9c60 cde9 e03f 9021 d814 6b77 0240
00000520: 9117 fb0d befe f13f 54e2 4dd5 347c e83f
00000530: d258 5d31 d0e9 d93f 0460 b625 5fd9 dc3f
00000540: 32a1 6f18 0fcd f43f 7987 80b1 7ee6 c63f
00000550: 25a2 0d17 a430 7dbf 235f 74eb db22 58bf
00000560: 0907 2e73 4065 ce3f 9e06 f12a 9197 0040
00000570: e295 60f7 33ae 0040 b0ef 74f1 2f5a e03f
00000580: 46a9 e2b9 b652 f23f d213 af9c eaf9 d3bf
00000590: e747 ca1a cfb3 0c40 ac5d d54d 3854 533f
000005a0: 2d5c fde6 a219 8abf 8235 7018 9fab c43f
000005b0: 7b4b 7e39 32a1 fd3f db74 2452 bc1d 0340
000005c0: 12d1 513d 2925 0840 9b94 f9b4 4c51 79bf
000005d0: 7a0b c161 d3a6 0240 edfe 199e f92a 0340
000005e0: 0807 29a4 60f3 50bf fb1a eff3 d7de 0d40
000005f0: 2a53 b053 a727 73bf 9327 0704 e97d fa3f
00000600: cfbb 3ee9 e66a 1440 26ba 207f dd13 0b40
00000610: ee79 8bb5 1051 0b40 81f5 d88a 1f1e 1440
00000620: e77a cbb9 f088 0440 8c77 047d fc30 0b40
00000630: f287 ff38 542b 7e3f 89a4 9a93 9b91 0e40
00000640: 3d35 d14b 9355 73bf 05f8 7fe0 4ca9 83bf
00000650: 7835 c17c 36f0 203f 8ee4 318b ebd7 68bf
00000660: 43bd 39a6 477a 52bf 63b1 2b7a 7580 743f
00000670: 8577 0e89 72d0 7e3f 292b ad73 23be 87bf
00000680: bf58 9e8c 2a8e 86bf 4767 850d 1b01 76bf
00000690: 639e e35c 803a 8abf 6687 0d60 79c2 cebf
000006a0: 22f5 a8ef 9898 0140 a3e2 0412 ca50 0840
000006b0: 98a0 0d99 451d 86bf 473c dcd4 62cd 0440
000006c0: ab99 a013 001e fc3f 175c 29b8 e1c3 1340
000006d0: bc7c 6e0c 0851 f53f 0ee8 229d bd35 0540
000006e0: ee56 97b2 6038 6dbf 6b7b b0db 45ae f3bf
000006f0: d737 9115 c02f eb3f 4982 d3f7 8dbf f93f
00000700: 5e33 6543 903e 0640 8e7e ba87 0070 fa3f
00000710: e9a6 112f c32a fc3f c702 3e65 fc5f 0a40
00000720: 860f 4a43 e23e 0940 f697 2b25 c9d3 753f
00000730: b1d1 e580 2c56 80bf 2605 9b52 c8b2 0940
00000740: 7232 2efd f040 93bf 0931 6604 2f47 de3f
00000750: 9745 25cd 1170 0140 437e 7123 c106 0540
00000760: 3d47 c72c 86cd ed3f 4405 18dd ae34 e43f
00000770: f7db a946 0585 f83f 1ba0 7d05 539c e73f
00000780: 410e 3864 0bff 623f 9f98 cf6e a926 0040
00000790: fad9 d3c2 1af6 d2bf 6221 00f8 fc56 e1bf
000007a0: ba60 e99a 9e06 cc3f 9c3a 1cc5 f0ea dc3f
000007b0: af07 9455 3a40 fc3f cc10 b465 8d81 f6bf
000007c0: 642a 8f14 75c5 d43f ab55 883a ffeb fb3f
000007d0: bbfa 6cce db64 74bf aaf0 ce19 c2a5 fa3f
000007e0: 3711 11c2 8085 0340 9dc5 683c 65c1 e33f
000007f0: c291 4eec 6fa5 e33f 2440 d668 08b1 a63f
0.007274034781310419 0.013604387850244133 0.004735195036152407 0.001922738314770068 0.010204064165800037 -0.0062220351720073406 -0.006098744329681068 -0.0190061460292855
-0.007373273662807333 0.010984420567818511 -0.0022489467268703676 -2.143300646810099 1.0704848624374288 -2.2267309409192464 0.009194613521781012 -1.4410308090571904
-0.45823064012354087 -0.3058027951394339 -1.376646037342589 -1.3212133910244652 0.010460546148625105 -0.5967359132024067 -0.9423047443629357 2.235256729490967
1.327531220172883 -1.0902680611587439 1.3397645999564343 -2.185447360029743 -0.8907006224388062 0.02386227432838056 -0.004300202173975236 -2.085555022293052
-0.7740550532323377 1.7315804564869626 3.5247873238635434 2.800335212427017 0.454594298488033 -2.1299747888316443 -0.778348513346103 0.0685648607325764
-0.006406072365797065 2.8555519295593284 -0.560269747986093 -0.03164627485675494 0.2899722118627347 1.4482070136183405 -2.3497297206294174 -3.6291857844565567
1.2607892548642454 2.1445137939747494 0.010740527861051737 1.1227463394328925 -0.7968833459905167 2.5241511193710804 0.44907944265821936 -0.7601053651316985
-1.747472681342761 -0.07613048519122045 -1.3836231497415812 -1.1442538336708308 -0.0066380927045268795 -1.9013781660945324 -0.04902328629499511 1.8233255068849532
-1.2098907157855177 -2.1908486938647043 0.6126499009126659 0.8541817297706563 -0.09734450803435053 -1.7194695753097278 0.01032381654890708 2.073704103177639
1.1427502017288316 -1.1180588302941068 -0.48621035020135944 -1.5425944708070085 -2.4493637743713914 0.577040949655934 -0.857839949751218 -0.0027892235283003258
-0.017381950573741384 1.7275746160450849 1.0241318173869913 -1.2858100329746511 -0.05847663785744756 -0.00018772804840523963 -1.2920282094256317 -1.4916310723948527
-0.0030583516490289087 -1.2767333729373553 -0.01224333639106418 -1.4483323408995357 -1.4211884026086905 -1.4664733111078039 -1.9061558837502757 -1.4042467974875303
-0.9448808482849298 -1.1963658671767916 -0.012529301761681612 -0.19499368463854727 0.0033565699227058403 -0.005060893249102118 0.0010957781205178736 -0.007504255552773097
0.015671842941837665 -0.004261832293959781 -0.008527128918297811 0.007320567726018448 0.0014609695218786528 0.01892140713782988 -0.003171281468777995 0.5548296845586526
-0.44797906158075335 2.7418363722485575 -0.010271164179251106 4.999207477032886 3.0537258178312494 0.27303700397828884 2.0659297646707264 1.938162002638137
0.00589078922270943 0.29151108498717104 0.7545058283733239 -0.9212996337775153 0.3507637547619073 4.625031451176022 0.1875917460811719 0.5361891850629877
0.29823855590061255 -0.012556589384088124 0.012846474892986693 0.8289838631897432 -0.3267299691872993 -0.6205066431490468 -0.2272548961524302 -1.2085352048944946
0.4284584356633081 1.3995023282451275 0.012567059001166699 1.5952354881972717 0.0019601513623835752 -0.22734628491250772 -0.43482010854265135 2.0037661514289082
0.08868745434466477 1.9412620098694724 1.3441476901228049 -0.023612367941987178 0.2798350290263398 0.7769555027477075 0.008642609163679737 1.6891981274225878
0.18086950275170352 2.1849989782705985 -0.011923338065141871 -0.41631252254973333 -0.49333009973424924 0.31332469796911566 1.1621089218852596 0.018355789205805714
-0.0073262722517828715 4.237834155289294 0.5285403143845009 2.308309710355566 1.1246929689527614 0.7651619115923247 0.4048958284451035 0.4507673137936765
1.3000632242711387 0.1789091459950745 -0.007126465775265466 -0.0014731547979120539 0.2374649584199278 2.0740073542409183 2.0850600553846883 0.5110091892197399
1.145193792452646 -0.31212868977700936 3.587797364519236 0.0011797475666151898 -0.012744209932561723 0.16148747151639148 1.8518545385201992 2.3895193498016005
3.0181450644105405 -0.006181049000223339 2.3314578663861854 2.395983920257882 -0.0010345882189004025 3.7338103349060225 -0.004676488514651559 1.6557397992459968
5.10439648099323 3.3846998149740726 3.4145826514425073 5.029417199604155 2.5668653979513354 3.3989190833080496 0.00736554049942305 3.821097520024129
-0.004720282912854143 -0.009600258446877072 0.00012922921303230492 -0.003032646223399888 -0.0011277866077781952 0.005005320449282233 0.0075230096853412575 -0.01159312912718276
-0.011013348022782641 -0.00537214820391247 -0.012806895098449183 -0.24030987920837815 2.199510452598262 3.03944791867646 -0.010798019154848057 2.6002861623487976
1.7573242918675571 4.941290738605878 1.3322830663308158 2.651240565898667 -0.0035669220567154858 -1.23004709068456 0.849578897594024 1.609266250678177
2.7805485978373516 1.6523442556280403 1.7604400480872135 3.2968681249188623 3.155704999635364 0.005328927730010582 -0.007976863559385846 3.2122961476858505
-0.018802419140728728 0.47309470586402874 2.1797214533805334 2.628298069859541 0.9313383936480261 0.631431037734878 1.5324757347386802 0.7378325564614018
0.002318880318627398 2.018877855024655 -0.2962710287678473 -0.541868671775813 0.21895201267284908 0.45183963059472787 1.7656806319141471 -1.406628987578233
0.32455183990228975 1.745116451876451 -0.004978998774105288 1.665468312086015 2.440186992784358 0.6173578433865036 0.6139449706429831 0.04431940345523369

b1 f8 [50]
00000000: e220 b240 ed4a f43f d8e0 abf8 e218 10c0
00000010: 2e14 ac16 1f90 08c0 82a6 ad25 1401 20c0
00000020: ddac 177d ea02 13c0 fde7 6dd7 eaac 24c0
00000030: b111 3893 a903 f6bf 9552 4b6a cac9 16c0
00000040: 366f 5cab 8635 04c0 5f69 b4e3 f50f 20c0
00000050: 97ab 7be4 883a 13c0 0d67 ce3e a55c 18c0
00000060: 7728 e45b f7a3 b4bf 6c7a 2e6d f26f fcbf
00000070: 9e73 1623 29a7 23c0 f2eb 38db 1373 16c0
00000080: e338 9794 505e 1bc0 4ac9 5441 5507 03c0
00000090: aa40 a80f d35e e5bf ecd1 197f f44b 14c0
000000a0: eef0 f68e ef6e f73f 87ee 6387 372d 1bc0
000000b0: b43f a472 b8cb 0ec0 c427 4a01 724d 10c0
000000c0: d5df abdb 7ef9 f9bf 7185 cc91 86ed f5bf
000000d0: 5bc1 52cf 2efa 16c0 6e24 f554 ca29 b43f
000000e0: b26e a860 cf08 14c0 be25 0824 3a54 01c0
000000f0: d930 6e03 a00d d73f e579 6a39 c488 06c0
00000100: 1281 c7c0 6ab9 1dc0 86f6 7e70 ede0 1fc0
00000110: 4aa2 8950 3704 1dc0 ff73 0a02 b5db f93f
00000120: 92e8 07a6 5025 14c0 22c7 2dfd e1fd f9bf
00000130: a9de ffdd afef 10c0 ca8f de70 8e92 15c0
00000140: 75a4 3743 89a7 e4bf 3e2c 55a5 4d04 1ac0
00000150: 05db f6ac 14b8 07c0 bb2a b72f 7b83 f7bf
00000160: a8b1 a5c2 4316 19c0 921e 76e2 211d 13c0
00000170: fbfc ffee cba0 fdbf d863 cb9a 17e5 27c0
00000180: 1e18 b386 ada5 21c0 b4a1 779c d9c0 17c0
1.2682926680736775 -4.024303327074641 -3.0703717967285433 -8.002106835792123 -4.752847628183386 -10.337729198614392 -1.3758941412680594 -5.697061215255094
-2.5261357677062746 -8.031172862790013 -4.8071628284914345 -6.090474110935031 -0.08062692635954415 -1.7773308052925598 -9.826485725870779 -5.612380433415625
-6.842104264955398 -2.3785805801391335 -0.6678252511792568 -5.074174867583206 1.4645839294963099 -6.794157138323164 -3.849472900044896 -4.075630207205851
-1.6234119969285434 -1.3704896636266677 -5.744319190431578 0.07876267027053682 -5.008603582649515 -2.166126519678726 0.3602066071987458 -2.816780518113989
-7.431071293045777 -7.969655759572225 -7.254117258453855 1.616139419528963 -5.036440462334342 -1.6244830980107925 -4.234069317571689 -5.393121493896567
-0.6454511940802506 -6.504202445338761 -2.964883185656961 -1.4695999015699914 -6.271742860186727 -4.77844957204765 -1.8517569862304402 -11.94744571430958
-8.823589524614416 -5.9383301208512655

W2 f8 [64, 50]
00000000: 566e 7ad3 c6c7 ddbf 0306 a72a 45ab f1bf
00000010: 0827 c7fd 2fb0 e83f be8f 7575 a5e7 c93f
00000020: e506 bba7 510a f0bf df16 b986 d71d c1bf
00000030: 3917 3eda 2e16 d2bf b89d 5ae7 8acf f03f
00000040: a48a 10d7 90c8 f3bf 3dcc 5ff2 7b5d eb3f
00000050: 1566 d589 60ff a13f dfc5 4ba8 42ff e6bf
00000060: 8e8e 4c57 7453 00c0 0532 467e 4647 f9bf
00000070: 31f8 b94b 9869 cf3f a6aa be30 d8b7 c83f
00000080: 51b1 2351 8211 d83f ee80 c6fd f542 00c0
00000090: 37ee 3102 44d4 e6bf 00b3 5f13 800e e53f
000000a0: 41ce 5f3b e393 1bc0 fa04 9991 9336 e73f
000000b0: d532 e9c8 3fc5 f3bf 5e98 93c3 9df8 e3bf
000000c0: 5d61 d663 0be2 f8bf 4149 353d adfb fdbf
000000d0: 43da a8a4 296f b43f eabe 65b1 114a e53f
000000e0: 52ec 0afa f24d f53f ddbb c53d 46d8 de3f
000000f0: 4dc3 6866 e40d d13f e6de 571b 5f9e efbf
00000100: 3c77 dde2 2d05 d73f d02a 3f64 c7ce d23f
00000110: 8cd5 461b d87c e93f bf1b ef3b 9a58 10c0
00000120: 3535 5ea0 e9ef d03f 6f3a 918d 6383 dfbf
00000130: 15b0 54d2 ad35 01c0 afdb 88a3 1dc8 e2bf
00000140: cbb0 8e38 f200 f1bf f8fc b7f6 0721 d03f
00000150: 4307 78f1 9096 e4bf 1c85 4e48 f424 c13f
00000160: 3c5d 5653 563d b3bf 5314 0f70 e827 e6bf
00000170: 5ceb 6d59 c810 06c0 cbae 54e1 f3e4 d0bf
00000180: 9ee2 b1ae 4cda b13f 7af9 bbbf 4033 b83f
00000190: d2ee 1893 d575 f5bf 446c 23d4 8098 e4bf
000001a0: 2c62 5100 611e d6bf 461c c83e 7895 e93f
000001b0: 7803 741b 952d f1bf dffe a786 e104 e6bf
000001c0: ce06 2358 b788 d9bf 5901 9e6b 9387 d43f
000001d0: b8c6 0384 a134 eebf 2a96 0e7f b459 d83f
000001e0: e767 5b2b 62f2 d73f 29ab 700f 25ab cc3f
000001f0: 0044 f33a 63c3 d8bf 53c6 56f0 3dc7 e5bf
00000200: 628d 608a f3a3 c83f 28ea 0376 5701 e0bf
00000210: 56e5 9246 c956 cebf 73e5 5f50 8bc3 f2bf
00000220: 2387 8e04 9270 bbbf 2e08 3d44 95ed e23f
00000230: 15bd 4652 6f06 cfbf 96ca 9b87 a543 e63f
00000240: b5c9 262b e1c3 e4bf 8072 273d 4818 e43f
00000250: 641f 3b56 9120 e4bf 6278 6078 e27b e9bf
00000260: 9bdd 5657 9c7b babf 7842 f9f2 d731 f5bf
00000270: 4d6d c642 d365 d8bf 0cbf fe84 6047 ecbf
00000280: 2f71 1dc3 a4e9 c73f 03ca c6f4 c853 0040
00000290: e399 2490 aa34 cfbf 0804 6c20 1ec4 afbf
000002a0: d420 bf9c f86e e3bf 7122 2db4 35aa e4bf
000002b0: 8a13 4a66 1e4c dcbf e798 8f4f d3f9 f2bf
000002c0: 732f cb2c 69de b73f 5bc7 3c33 091e d9bf
000002d0: 9bad b276 1e48 a4bf 70a6 634a 5074 eabf
000002e0: eb24 61f4 cec2 e2bf cb5b 85df 7692 ebbf
000002f0: 8e7f 616a 102e 81bf 4056 03c6 4e55 d4bf
00000300: 0170 c0d5 bb30 f2bf cca0 1751 3f0d e1bf
00000310: 72ab d045 3d54 d23f 0a32 d270 a277 eabf
00000320: 4f29 7f6e 7959 dbbf 4315 d291 469f d2bf
00000330: e69b ac09 19d9 d2bf d41c 6927 7959 d0bf
00000340: 9df0 fa81 0220 e8bf f78f 3413 5ba4 dbbf
00000350: e156 4a7b 87a7 dcbf fce8 b38f 395d d5bf
00000360: fbb0 abf3 58f2 e0bf 563d 7f37 e308 e3bf
00000370: dfa3 04cc db9f debf 2cd5 87e7 ec10 c5bf
00000380: 9a7d eaee 830e a33f 97ac c501 9ba8 ca3f
00000390: 1b7f 2b2c 9179 c4bf 2d56 90b3 18bb d4bf
000003a0: 5ec0 a120 d8d5 bfbf 8d78 b463 fac4 d53f
000003b0: 4817 cf55 2f89 8e3f 2d4b 9618 942e 993f
000003c0: 670b c42c 242c f1bf d629 9092 6877 df3f
000003d0: 5a38 3e7e eabc be3f 4042 b530 a0d8 cf3f
000003e0: acc9 a6a9 4d51 dabf 404c db4c 9c82 c1bf
000003f0: 28f2 d127 c00a d9bf dd62 4fa3 d92c debf
00000400: 9eac 2519 e5a4 b9bf 670d a3a3 77b0 d3bf
00000410: 3db1 5b71 ed0f e4bf 45a5 df63 2ed7 d33f
00000420: ba3c ee61 cbe1 b23f eca7 a395 5f4d d73f
00000430: d7a1 a865 1511 c9bf e686 2645 c4a7 d1bf
00000440: 86fe 3771 4d46 dfbf 91fe 9c73 ce2d d63f
00000450: 54bd 7789 d2c4 d0bf ed70 c2e0 c865 e0bf
00000460: 8533 6b2e 2d08 b9bf f359 33ca 0db8 d5bf
00000470: 27ab 5744 e617 9dbf 1eaf d0dc 6ac4 cbbf
00000480: 711b ce50 6336 c3bf c586 a196 d138 c0bf
00000490: 8399 af7d af60 b9bf b174 11b4 d475 d13f
000004a0: 2819 318f 2ea7 b4bf 10bc db68 0e3b d9bf
000004b0: 2809 71bc c7e2 02c0 7e39 5eb1 5ac8 f43f
000004c0: 8fd7 45a7 d36a f4bf b441 017b fde8 f63f
000004d0: 72af a250 0b41 b53f d995 ff23 7ff8 f13f
000004e0: 8363 03fe 9d4c b5bf 19c2 d7ad b6a1 e53f
000004f0: 5e54 e197 5b1a fcbf cafa 1507 cedd ef3f
00000500: b06a 0c9b 2eaa f3bf 2d1a d415 a647 fb3f
00000510: de51 c2f6 3d07 11c0 757c 2192 c750 03c0
00000520: 5bed c3d1 8ebd bebf 7340 871e 475e e73f
00000530: 95db de0c 6516 fa3f bff5 a53e a919 fdbf
00000540: e9c1 cb4d f42b 0fc0 38ad 1e4d 7a9c c6bf
00000550: 902f 8ee6 673f c0bf 724c 90f5 49a9 0040
00000560: d061 8529 32fd c83f 4550 03df 9254 f9bf
00000570: b36e a493 3b2a 02c0 228c 3fad 76f4 10c0
00000580: b4e9 aa8e 3688 fb3f d3ff d654 f6cd 08c0
00000590: 575d 268a a619 d33f 1719 c498 a004 b3bf
000005a0: db9c 9178 5524 10c0 a420 2035 470c dd3f
000005b0: a70e 813b deab 0240 370e 6928 20ac f23f
000005c0: 85d1 ef8e 961d e63f aea6 bee3 1b8a 04c0
000005d0: 1729 b3c0 8e05 dfbf a623 c3d0 6db6 0ec0
000005e0: 71fe 4ca0 fc1d f2bf 7eba f20b 79fe c13f
000005f0: 2f2f e5b5 d90c fabf 598e b6ba 6fcb f23f
00000600: ab76 3dbc 1c23 af3f ceb7 1ec8 2b6d 03c0
00000610: f280 bc1b f72d d3bf 2f0f e67f 15ae d33f
00000620: ad9f 8e4e fbe1 0bc0 d661 2cf1 3e42 f43f
00000630: 4ab6 d22d f7ef fe3f f3dd b45f 4fd2 00c0
00000640: b92e 42ca 6a04 f5bf 4048 1f17 cf7e c7bf
00000650: 7cfc 98ba e940 fa3f bc3c 51b2 4d25 d83f
00000660: 9da0 3b7a 4333 cb3f 8ab3 a2da 5eb8 e5bf
00000670: b510 aedf 2c5d f73f 57a1 2c5c 1741 d13f
00000680: 7ba6 7e71 9588 c93f 5095 5f67 ef04 e0bf
00000690: e567 76c9 5693 ddbf c8a5 1118 0eee c93f
000006a0: 5bd5 14fd 297f c53f 83bb d570 3167 cebf
000006b0: 1bdf 1501 70df cb3f 3ea4 847f 588e dcbf
000006c0: 26c4 e7d6 1d0c e1bf c880 5fef 93e0 e33f
000006d0: 76b1 0154 b037 adbf 9eca b9b7 b17f f93f
000006e0: 2126 0456 43f6 02c0 57b3 ed48 daa6 e63f
000006f0: 45af fcb4 dc19 f7bf 5edb f793 f53b e53f
00000700: 121f 5b9e 3487 e53f 4d6b 53bc 1f33 0140
00000710: 635b f09d a27d da3f b327 7e54 825c ecbf
00000720: 5523 aa39 6b74 ec3f 8b30 536c df63 e03f
00000730: c4e7 ab52 a8e9 b7bf 7e93 6e06 341a f13f
00000740: 3a9b f48f e8c2 f6bf 8f09 c1b9 dc93 ebbf
00000750: f549 2658 129c d3bf ea3d dc4c 33bf f5bf
00000760: a647 baeb db1d e13f f21f b371 bb59 cdbf
00000770: 01d1 a7d2 23f0 d8bf c374 dad4 9268 dcbf
00000780: a868 cb90 1c02 ec3f c1aa 2da5 0de6 f1bf
00000790: 2122 cb6d 16da e4bf 88e3 158e 15ca e4bf
000007a0: d224 80b9 cb04 c2bf bc92 9f86 861f f2bf
000007b0: 173e ac2f e398 ca3f 78fc 9b0f 0927 c5bf
000007c0: e919 bd54 651c b73f 841c 76a5 9df1 fa3f
000007d0: 2138 c38b f968 d8bf c60a fb09 59b8 e5bf
000007e0: 0f11 fc73 b990 ca3f cb2e 5956 b445 f0bf
000007f0: 377c dc50 01d3 f0bf 7da5 43ca b7f8 e2bf
-0.46531839992687674 -1.1043140092955361 0.7715072590446832 0.2023817847758646 -1.0025192787147088 -0.13372320249816647 -0.28260394394634464 1.0506695782913607
-1.2364662552796881 0.8551616414901059 0.03515149767435958 -0.7186597144156471 -2.040749246620016 -1.5799012119852034 0.2454100007780098 0.19311048870198028
0.3760686676385108 -2.032695753689146 -0.7134113352653405 0.6580200556178113 -6.894421508524432 0.7254121631341655 -1.235656533058479 -0.6240986652235383
-1.5551866435908643 -1.873944510549862 0.07982120771416938 0.6652916397851787 1.3315305487910973 0.4819503405805657 0.26647291184331295 -0.9880824598357918
0.35969111590189917 0.29387078084679974 0.7964897663829773 -4.086525856465356 0.26464310322701873 -0.4923943407529014 -2.151210444650142 -0.5869281953845212
-1.0627309998772485 0.2520160588610021 -0.6433796611965835 0.13394025354959005 -0.07515468153575439 -0.6923715771341769 -2.7581946360273104 -0.26397416119537515
0.0697372366429456 0.09453205758106789 -1.3412681337348897 -0.6436161177947572 -0.34560418158574424 0.7994958139614787 -1.073628527869202 -0.6880958204273745
-0.3989694939337881 0.3207748938512132 -0.9439246729291062 0.3804751625815209 0.3741689132126553 0.22397292379295067 -0.38692551380978557 -0.6805715269203553
0.19250339752862106 -0.5001637749658743 -0.2370235056494418 -1.172740282023679 -0.10718643771408813 0.5915018399030083 -0.24238387601278846 0.6957576416592299
-0.6489110796740564 0.6279641336837614 -0.628975552005596 -0.7963726378545852 -0.1034486497145423 -1.3246688357504848 -0.3812149192906034 -0.8837130162773703
0.18681773688411726 2.0409106372037527 -0.24379474676352605 -0.062043134172206804 -0.6072962819535186 -0.6457775610989086 -0.44214591969676376 -1.1859925372933107
0.09323747008892073 -0.39245824817327496 -0.03961272429418302 -0.8266984417834475 -0.5862803242718234 -0.8616289487498475 -0.008388641592489223 -0.3177067693444293
-1.136897883384336 -0.532867105849641 0.2863915616787188 -0.8271038249527589 -0.42733608046241484 -0.2909714149503381 -0.2945005983805785 -0.25546101425829915
-0.7539074457813687 -0.4319064796020479 -0.44772517242505044 -0.3338149932238961 -0.529583431166912 -0.5948349079061852 -0.4785069935192591 -0.1645790224571696
0.037220118441150876 0.2082704313901089 -0.1599599328683262 -0.3239194634964829 -0.12435675427127665 0.3401475881272596 0.014910096937352471 0.024591745377232122
-1.0732766865409873 0.49166311562353593 0.12007012922387741 0.24879839304277773 -0.41121236388712634 -0.13679841759457823 -0.39128116501504673 -0.47148743580104996
-0.10017234672493422 -0.30764571170967375 -0.6269442762400456 0.31000861886294145 0.07375785008319982 0.3640974961587051 -0.19583384956173575 -0.27586466553667177
-0.4886659246112476 0.3465458039317833 -0.26201308655341404 -0.5124248876413994 -0.09778101332922347 -0.33935875650550357 -0.028411481782238426 -0.21693168432226967
-0.1500972885662253 -0.1267339692595241 -0.0991315538263731 0.2728168257215869 -0.08067599292653382 -0.39422950973579507 -2.3607325288768557 1.2989146164360075
-1.2760807546705768 1.4318823628310442 0.08302374571456797 1.1231681257426003 -0.08320033504004525 0.6759904284827513 -1.7564350064106047 0.9958257807155289
-1.2290483528692384 1.7049923756291137 -4.2570723110297575 -2.4144431511372724 -0.12007992383216985 0.7302585216766729 1.6304674628024476 -1.8187649199675062
-3.896462066441235 -0.1766503216325448 -0.12693499333942926 2.082660597292084 0.1952269270648359 -1.5831478797381504 -2.270621446090297 -4.238733965877175
1.7207551548914184 -3.1005674961197456 0.2984405850524658 -0.074289357468022 -4.035482295882697 0.45387439907109184 2.3339199684867995 1.167022855618496
0.6911118308767504 -2.5674360077435585 -0.4847142106851989 -3.8390766439010404 -1.132321001219591 0.14057839473158035 -1.6281373124392748 1.1746671002846567
0.060814760187651494 -2.4283061632513414 -0.29968049725177004 0.307500243092579 -3.4853426110530195 1.2661733074984247 1.93358533763548 -2.102690456111071
-1.3135784054492616 -0.18355740193379866 1.6408479012459614 0.3772768250827985 0.21250194042591355 -0.6787561674333216 1.4602478730676414 0.26959785462761005
0.1994807056592441 -0.5006024378787206 -0.46211785959314816 0.20257736373177537 0.16794323785294804 -0.23752420434490426 0.21775627186775 -0.44618809178297514
-0.5327290723199709 0.6211642909293227 -0.057065496687616 1.5936753441607503 -2.37024562072908 0.7078677582154381 -1.4438139982039087 0.663569249153493
0.6727545826806554 2.149962874694586 0.41391816543312226 -0.8862926149606579 0.8892112852346182 0.5121914973947396 -0.09340908068034454 1.0688972712752896
-1.4225850699674099 -0.8617995861061888 -0.3064008580051046 -1.3591797830921402 0.534894905477121 -0.22930090953582255 -0.3896569783385218 -0.4438826635976733
0.8752577617663251 -1.118665356853555 -0.6516220230487911 -0.6496684813601954 -0.14077135617870923 -1.1326966532443938 0.20779075458311588 -0.16525376569913752
0.09027703589263293 1.683988233884322 -0.38140715264023767 -0.678753394597458 0.20754163897812147 -1.0170176861746991 -1.0515149267810224 -0.5928610754464639

b2 f8 [64]
00000000: 155d 92cd cb1a c23f 45ec a7b0 798d e5bf
00000010: 0c78 2a19 f2df cdbf 73d2 fa2b 451e e73f
00000020: 2653 90ba 2abd f1bf b36c 3185 f40b e6bf
00000030: ed73 ec04 f854 efbf 23e1 1acf 6d0c b9bf
00000040: e9a8 f2c3 91d9 f1bf a6af a2f6 3ec2 eebf
00000050: e14c ea63 04b5 b9bf 8662 1f20 a3bb e83f
00000060: f44e 9b47 6a43 f5bf d96f 73bc 5045 c8bf
00000070: 21cd c25c e83c c9bf 6d9f e090 0f61 00c0
00000080: 0ef9 c81e 59c1 e2bf fe14 4384 1b01 c1bf
00000090: 6ba7 22dd 5ce4 c7bf 4766 8c5c 52b5 b9bf
000000a0: 2989 7dc4 39b6 b9bf 5737 1e54 48c8 eb3f
000000b0: 903b 3f20 75f7 c8bf fa49 e64d 1cef c3bf
000000c0: 30fe 35ff 4f84 f4bf a37c 3388 5e73 fcbf
000000d0: 167c 3575 5a4c a1bf d7f8 7da5 f7ce d1bf
000000e0: 07cf 6822 abc3 ed3f b242 556a 886c e33f
000000f0: f96d f692 d684 cebf 5bad 8ed7 202f ddbf
00000100: 589f d1ad ae2e b5bf 27e7 4bf0 fa54 1040
00000110: fdf4 d6ce f8ea d1bf bee6 0d8d bd28 e2bf
00000120: 7288 3805 ac59 e03f 8eac 6c8b b398 f9bf
00000130: 9657 605c 510a cabf 5aac 61e7 6d43 d2bf
00000140: e5e9 d9c6 6a91 d4bf e8fc 369e a471 03c0
00000150: 563c 97bd 0763 00c0 c352 fa04 e1c0 06c0
00000160: afe9 2c50 9bb4 c9bf 2bed 784a 2db9 e0bf
00000170: 0ae5 0170 c137 d1bf 941a b985 fcd6 d4bf
00000180: 6c7e e9ec e6cf db3f c50b ad98 81fe eabf
00000190: 6266 dc24 0384 d9bf 70da b537 c9b5 e2bf
000001a0: ea36 b3b7 fbdb dcbf 4dd0 52b9 ee16 df3f
000001b0: 4acc 28ca 743c e5bf 3bbe c393 3eb7 b9bf
000001c0: 75b0 31eb 194c d2bf c441 0466 03bb eebf
000001d0: a74f 2389 5c44 c2bf b025 3bdf 9978 e0bf
000001e0: 9d2a c946 f92e d1bf c7f6 a5d7 a84f f5bf
000001f0: 080c 3bb7 c337 edbf 50de 8917 84b6 b9bf
0.14144275224382655 -0.673519940405989 -0.233396780288729 0.7224450930576282 -1.1086833274504868 -0.6889593697955178 -0.9791221710362358 -0.09784590059542046
-1.115617528363652 -0.9612116639232127 -0.10041835250222021 0.7729049327272868 -1.328958778108185 -0.18961533738808958 -0.1971712544378557 -2.047392970900481
-0.5861020661612046 -0.13284629781825424 -0.18665657804131838 -0.10042299994929592 -0.10043679282310748 0.8681985514574347 -0.19505180429993318 -0.15573457530679474
-1.2823028535057226 -1.7781663246494552 -0.03378565483830458 -0.2782572857030465 0.9301353141840715 0.6069986416642534 -0.2384288995352646 -0.4560014824916913
-0.08274356597541777 4.082988505013225 -0.2799665470045765 -0.567473197457012 0.5109462835282683 -1.5997806020994036 -0.20343987474978736 -0.28536555858472
-0.3213755552202698 -2.4304897652178745 -2.0483546077517003 -2.8441791905300717 -0.2008241788369793 -0.5226046042002158 -0.2690280526945378 -0.3256217294587398
0.4345643342585166 -0.8435676557495461 -0.3986823902101603 -0.5846906745999387 -0.45092671336611423 0.48577468965527687 -0.6636299084115163 -0.10045233829054549
-0.28589485138105114 -0.9603287689697528 -0.14271122642696563 -0.514721809385426 -0.2684920493381158 -1.331948130012664 -0.9130571917270354 -0.10044122290298074

W3 f8 [64, 64]
00000000: 49bc e529 7309 d53f c06e 07b6 a940 f23f
00000010: 7048 fd44 ac3f 8b3f 7de4 ac5c 1895 dbbf
00000020: fa76 1aa9 d92a ecbf 39b4 1530 8aff ba3f
00000030: ec46 9e39 f518 c23f 177e 7431 dbae 69bf
00000040: b2e7 cfe4 d8b9 ecbf 3c30 8d2f 1973 e5bf
00000050: 416c 1386 c3c5 823f 235a 04e5 5d32 eb3f
00000060: 07d5 fe46 3c27 cfbf 6d31 5b31 28b0 b7bf
00000070: b3fd 9799 54d2 c6bf 82f8 de12 ec7e f1bf
00000080: 9a55 a0b1 1df2 de3f 78ef 87b1 4657 d0bf
00000090: b37a b0b1 3b9e a73f 0a66 30e7 d51a b8bf
000000a0: f53c 76eb e431 bcbf 9d8b 0253 38cf edbf
000000b0: 3131 adee 8127 6dbf e509 427e dffc 843f
000000c0: 7408 4214 b111 d73f ab0d 5d8c be0f aa3f
000000d0: c60b 688b c695 973f e07b 6301 838c b43f
000000e0: 9545 01cf c3c4 d23f 3526 9301 60da b1bf
000000f0: 910d 7ac2 3f38 df3f 2391 46ce 682e dcbf
00000100: e6dc da30 4041 b93f 1965 24a4 f828 05c0
00000110: 2de6 f4eb 2ea9 b83f 23ed a5a0 ffc4 e1bf
00000120: 9221 766e 250c d9bf c6f1 75b7 c6da e9bf
00000130: 5340 f415 aec6 303f d2fa 0172 fa02 b53f
00000140: 7ae8 9e22 ee0a debf 8275 8881 0ad4 c0bf
00000150: d2e1 36b2 dc92 c93f 72b3 f5db 739c cb3f
00000160: 7ff4 a607 2ba6 ba3f 5946 f0cc 68aa 85bf
00000170: caf4 1c50 553c 8d3f cac1 a678 5bee afbf
00000180: 7217 7393 ea28 e1bf c6d3 99c9 2e1d e23f
00000190: 1259 0923 7797 c83f 6a0e 1364 7d0a f6bf
000001a0: b9d3 7d55 ad74 ec3f bc02 e9af 0f0a e13f
000001b0: 6fa8 bd8c 2bb5 6abf 4585 62fa 42be 64bf
000001c0: cc19 3461 61cf b83f 8408 1a15 3454 cabf
000001d0: b7fc c10a 8de6 9f3f 982e 618f 3537 ebbf
000001e0: baa2 b790 dcc2 d53f d8da b697 fa5c c4bf
000001f0: fdbc 187c 1840 e1bf 5c60 9a71 4976 b8bf
00000200: 328f 5916 bcb1 7b3f a380 92d8 c512 80bf
00000210: 9adb b44b 2b8a b8bf e4d0 e66c 2e9c aabf
00000220: 483b ea06 ef1f b7bf 8194 eb83 d0de 623f
00000230: ac5f 63c0 8eb6 b9bf e822 7614 7218 52bf
00000240: fd4c cd09 e716 b9bf 3c7a 21e8 71b0 b1bf
00000250: f202 fd05 4dda 6f3f b16a 0cad 9f7f 98bf
00000260: 998a 55bf 914a a5bf 1590 6c4f 5eb5 80bf
00000270: 2003 7e58 49b6 683f a0df 76d1 d294 b7bf
00000280: a7c2 735d 129c 5bbf 833b 4159 d10c 773f
00000290: 364c 29b1 b45a 9dbf cda3 ce96 579b 943f
000002a0: 0121 120a f29d 703f 2000 018e 0cde afbf
000002b0: 3320 c9a6 8ab8 92bf 7e42 de67 19ab 93bf
000002c0: fc49 3207 e505 713f fdef 752a c470 73bf
000002d0: 17f7 3a0e f542 71bf c8c1 c81b 7fe0 93bf
000002e0: 63e5 85c6 3faa bcbf 017d eb2f 4d0f 86bf
000002f0: 6c6e 03f8 ee0b 78bf c161 b9ac d8b8 b8bf
00000300: 6cf7 21c2 8ba9 8ebf ef6f 37b0 7ffa 8bbf
00000310: 0304 8090 2b8b 803f 96d6 a6e9 9cf2 78bf
00000320: 22e1 5fcf 9b86 babf b975 4a4d 70f0 73bf
00000330: 1b82 b195 ab68 6d3f 862c 68d8 1709 803f
00000340: 8090 14da c0f9 67bf 85de e620 c404 713f
00000350: fa20 cb55 ec0e b7bf 5a11 4530 f366 483f
00000360: d198 f78b 1250 79bf cdd5 4172 4322 7dbf
00000370: 0be6 ad8d 9f4e 923f 272a 6c80 f0a1 803f
00000380: d6b1 d808 367c a7bf 8ea5 0c3d 537b 863f
00000390: b9f5 d4d7 3510 afbf 5d71 6fd7 1b44 acbf
000003a0: 07d4 b827 8cbe 7bbf f0ba 03aa 1d6b b8bf
000003b0: 0cc2 fa95 fd90 b6bf 36fc ca3b b925 7dbf
000003c0: 25ae cee1 6a43 6f3f 2b45 eaf0 c31a 95bf
000003d0: 528d 1216 7df0 6ebf 770b a606 8ead 4a3f
000003e0: 5a66 928b b778 c1bf 1eb1 55f3 6d63 7d3f
000003f0: e526 de89 d950 71bf 41c0 ed37 051e 593f
00000400: d2ab 6307 ba7e b8bf b859 dfd0 4e5e babf
00000410: 6e81 c8e2 023a b9bf 91bc cc9f 300f 663f
00000420: 1f8a 1064 0662 603f bf1a 1e64 94b6 843f
00000430: 7e55 198f 986b babf a5bb 78b4 592b 763f
00000440: 5eec e9e7 fc03 b9bf c919 e852 1f98 a8bf
00000450: b84f dcfd 0995 b4bf 0d64 b847 ea58 88bf
00000460: 7204 a731 a085 703f 85d6 63ac 56e3 923f
00000470: ea0f 6053 2bfd 5f3f 31a1 f7be fd64 b7bf
00000480: a93d 93eb 39f6 84bf b85d 1cc2 8004 7d3f
00000490: 43db 6fa3 d6e7 b9bf dbb6 be85 9c66 72bf
000004a0: 9835 0f71 65a5 3b3f fc86 fd55 e3db b5bf
000004b0: f3e3 3090 f44b 7ebf 32e5 7971 8596 7bbf
000004c0: 17ef 58d5 7e1f 9ebf 536b f29e e9cf 60bf
000004d0: fa56 801e 3b4e bbbf b0e9 62d8 a995 a8bf
000004e0: bb3f 92ab a334 b7bf f29b d19a a92a acbf
000004f0: 17d1 f794 71a9 b8bf 499c 680e c50b bdbf
00000500: 1adb cdbe f060 533f 3530 1f2f 9a5d 86bf
00000510: b246 8951 a20a b6bf 2852 2a67 5f7f 5b3f
00000520: 07ac ae3c c2ff 8bbf ff47 d68a 9372 a6bf
00000530: 9ad3 ac57 43ba 53bf 508c b0cd def7 babf
00000540: 43f7 783f 35ea 623f 71a5 9694 b9b5 70bf
00000550: ac13 0bf1 9e6c 5ebf af84 7248 5d07 85bf
00000560: 9b69 b6ca 7984 53bf f2fe 57b9 b5f4 79bf
00000570: 64dd e4c8 c2cc b8bf 5676 5aed a585 bebf
00000580: a3bf ed19 2f8b 483f b1b9 4013 f88e 343f
00000590: 2e3f 6936 1e8a 9bbf c42d e517 1282 b6bf
000005a0: 83ee 0033 2c09 b6bf 1ec5 9acc 4777 b6bf
000005b0: 6426 44ff 1efa b7bf 7f9f b05c d20f 53bf
000005c0: a458 761a 44ec b7bf 8c36 6b41 e956 adbf
000005d0: 63c6 fb61 ade2 bbbf 2f43 3ebb 1740 713f
000005e0: 3cbb 684b 2b78 bbbf db91 ec00 04c0 98bf
000005f0: 8304 4c96 fa83 6fbf 5808 d5ad 38c6 9bbf
00000600: a9a2 3927 b3dc fa3f 838f cda6 2497 e93f
00000610: 93b1 2434 abf2 a0bf 9dce 08fa 755e 0540
00000620: 32f2 a8e5 c52c d5bf 6ffc ef4b 7214 e13f
00000630: 055c cef0 78b7 0340 f9a2 fbed 38b3 82bf
00000640: 049f 8e73 44bd f13f 81e2 0bfe 6317 b13f
00000650: d1db df44 5c13 853f a8d9 e64c 75e6 fd3f
00000660: c2dd 42f8 2fc2 0040 15e6 9ca8 22ad 473f
00000670: 1316 d099 7977 923f 0a23 952f bd51 ddbf
00000680: fbc8 7f8e 10ec f03f c5d7 b2eb 1b92 c13f
00000690: 2d10 44b3 e0a6 e13f cc4a 530a cc0f 2cbf
000006a0: 5f94 ec0f af74 823f 4f1e 9ce1 03fb f03f
000006b0: 5611 1f4e 34d8 7dbf 7f2b 8635 77e7 a33f
000006c0: ada4 4d1e 6da4 e73f 744e 790c cb10 d6bf
000006d0: 18aa e5cc c34c e13f 9a89 a4e6 5a32 cabf
000006e0: b271 f119 b113 f13f b4c8 9a93 9461 e23f
000006f0: 358e 30fc 7a42 cabf 24a1 20b1 433a f13f
00000700: f520 5a38 fe94 be3f 9324 9099 40b3 f4bf
00000710: 8950 b5b3 1bc7 cabf bf27 93e1 b672 c13f
00000720: 44e1 695b 9e74 ddbf a51a 04d1 c172 d33f
00000730: 0de1 fd71 1d7f 723f 974b 364b d7a7 c7bf
00000740: 853d 70ed 9e78 c3bf 86ac 471a e05f dfbf
00000750: 7e96 0e21 fdc4 e0bf e9b0 ac1b 076a dc3f
00000760: 80c6 c16a f4f2 b83f 13e4 a400 ce00 c8bf
00000770: 9cd7 33ee 0ee1 c7bf ad73 7aeb 474c 89bf
00000780: e34a d4b3 b247 f53f 74c8 6da2 4279 e03f
00000790: 0e92 b0fc 52f2 e83f 6fe9 3ea0 1966 e8bf
000007a0: 10c4 81cc f6a3 0240 60d9 0bea c492 0340
000007b0: 0a32 bdbf 125c e93f 4d50 243f 2699 b9bf
000007c0: 64c2 9ca3 bc26 c9bf 8de8 ace5 186e ccbf
000007d0: 75ea 2829 4068 bfbf bd27 e252 cdc7 e3bf
000007e0: 0a4a a471 543b 0940 5343 66db 00f9 e73f
000007f0: 121e dee8 8c39 d5bf c4d4 5ab8 4a78 653f
0.3287017735628451 1.1407868490704658 0.013305040221585268 -0.43097504663780467 -0.8802307417679167 0.10546172784752707 0.14138665498153757 -0.0031351357571478655
-0.8976864308344743 -0.670300095438058 0.009166266946001868 0.8498982880581177 -0.24338487116407512 -0.09253169255243217 -0.17829377650921927 -1.0934868561885485
0.48352758737868273 -0.255326913232913 0.04612909835872383 -0.0941594781328591 -0.11013632534580949 -0.9315454121864267 -0.003558877729494502 0.010247942009532227
0.3604548166114292 0.05090136969968325 0.023032285937016693 0.08026903900052629 0.29325957503632455 -0.06973838842818554 0.4878081702410891 -0.44033260482889797
0.09865189736125365 -2.6450054954153868 0.09633153210315788 -0.5552976739558385 -0.3913663462376685 -0.8079560836045452 0.00025598287716466667 0.08207669528381281
-0.46941712742739805 -0.13147097897391907 0.1997943754374903 0.2157120536825477 0.10409802376575959 -0.0105789363424577 0.014275232798917865 -0.0623653969554457
-0.536244667041258 0.5660623490826928 0.19212235651748039 -1.3775609883458864 0.889242808318719 0.53247818334065 -0.0032602167684006515 -0.00253213006642797
0.09691437361843852 -0.2056946852717979 0.031152919561006267 -0.8504894066222333 0.3400184071784157 -0.15908749015735313 -0.5390741752397897 -0.09555491469871086
0.006761297908813012 -0.007848306342851002 -0.09585829351713784 -0.051972819131522546 -0.09033101958105505 0.00230351186415817 -0.10044185826279656 -0.0011044611036103383
-0.09800571431451384 -0.06909858624701654 0.0038882736552355796 -0.02392434591011278 -0.04158454380628491 -0.008158432768659943 0.003016608479754615 -0.0921146165263722
-0.0016851596208732696 0.005627458351297745 -0.028666327775067134 0.020123833255329338 0.004056878534477671 -0.06224097474523682 -0.01828209536532217 -0.019207379307376808
0.004156012192782384 -0.004746214173220406 -0.004214246033084532 -0.01941107375222531 -0.11197279545549103 -0.010771372818850102 -0.005870755645641528 -0.096570532006246
-0.014971820699652937 -0.01366138226051558 0.008077946040431888 -0.006090748729936776 -0.10361646473746025 -0.004867972068180953 0.003589949728436415 0.007829843799319624
-0.0029267088545044673 0.0041549359579488064 -0.09007145971839128 0.0007446944660292429 -0.006179878662328346 -0.007112754308868441 0.017878048918168726 0.00812137500681327
-0.04586953027714784 0.010977411556796903 -0.06067054996172367 -0.05520712857080199 -0.006773517113789935 -0.09538445854898803 -0.08814988051995715 -0.007116054123513618
0.003816326860450097 -0.020609914378444543 -0.003776783284210752 0.0008141463743388384 -0.13649648966820643 0.00717490147995317 -0.004227494964547528 0.0015330363237033991
-0.09568369560626813 -0.10300152396607742 -0.09854143177699878 0.0026927900020364344 0.001999866945440645 0.010113868050905748 -0.1032042836535165 0.005412435922649649
-0.09771710073430159 -0.0480356014923476 -0.08039915511864038 -0.011888342202881952 0.004033685453067469 0.01844535281357775 0.0019524500944507702 -0.09138475334441833
-0.010235264302905405 0.007084372484107808 -0.10119382372054724 -0.004492389121805575 0.00042184568979738426 -0.08538647508023794 -0.007396655392818185 -0.006735345137365999
-0.029417020579997812 -0.00205226544455909 -0.10666245932256038 -0.04801684156832964 -0.0906469625354011 -0.05501298918607479 -0.09633550536074541 -0.11346084214947995
0.0011827803639030189 -0.01092071968368922 -0.08609976282721268 0.0016783172292537205 -0.013671414830090723 -0.04384289808071173 -0.0012040765420355593 -0.10534470102042914
0.002308944702035827 -0.004079556392221449 -0.001856951919920062 -0.010267952702920217 -0.0011912526486868916 -0.0063368891328534505 -0.09687440304411649 -0.11922680897483792
0.0007490138994921024 0.0003136974003180816 -0.026894065924636106 -0.08792222102527264 -0.08607746358114281 -0.08775757546643034 -0.09366029483876442 -0.0011634401623812072
-0.09344888349582675 -0.05730370448655461 -0.10892757074523156 0.004211514187674222 -0.10730238524477625 -0.02416998153343451 -0.00384711211006611 -0.027123342141983947
1.6788817913276637 0.7997000940199402 -0.03310141574397387 2.671123460191508 -0.33085772922257484 0.5337459071305498 2.4645861447311312 -0.009130902064002454
1.108707858462311 0.0667631621580629 0.010290833331948608 1.868764210126395 2.094818057575794 0.0007225436431561061 0.01803388596819928 -0.458113953082418
1.0576329771398025 0.13727139481278364 0.5516208173071441 -0.00021409383513189826 0.009011619256464152 1.061282998360088 -0.007286266629254653 0.03887531784410835
0.7388215629445277 -0.34477497308873883 0.5406207086464887 -0.20466171514369763 1.0673075688747358 0.5744116671469528 -0.20515382112454153 1.0767247122804031
0.1194609534815106 -1.2937627790982205 -0.20920130038087262 0.13631330503841174 -0.46024283339604133 0.30387921725961525 0.004515757580400026 -0.1848096005674875
-0.15211855500863805 -0.4902267700806039 -0.524046482624456 0.4439714212665096 0.09745719534273611 -0.1875245574135823 -0.18655573492986555 -0.012352525590637453
1.3300044083195466 0.5148022816122322 0.7795805869432699 -0.7624633912849229 2.3300605752087975 2.4466646466127457 0.7924894089606493 -0.09999312440442161
-0.19649465550311895 -0.22210990156765256 -0.12268448834303476 -0.6181398981873297 3.153969657732209 0.7491459164758488 -0.33163759938222015 0.0026208361985831947
