10by10recording/src/3layerMLPparameter/3layermlp3_with_adam.npz (npz, 105860 bytes, 10 tensors)

mean f8 [100]
0	0x0000000000000000	0.0
1	0x0000000000000000	0.0
2	0x0000000000000000	0.0
3	0x0000000000000000	0.0
4	0x0000000000000000	0.0
5	0x0000000000000000	0.0
6	0x0000000000000000	0.0
7	0x0000000000000000	0.0
8	0x0000000000000000	0.0
9	0x0000000000000000	0.0
10	0x0000000000000000	0.0
11	0x3fafa91de48e3302	0.0618371335504886
12	0x3f6c9af4476ee467	0.00349185667752443
13	0x3f9b6af83a7023c2	0.026775244299674268
14	0x0000000000000000	0.0
15	0x3f9a04560e57b94a	0.025407166123778503
16	0x3f9a4f7a791b02cc	0.02569381107491857
17	0x3f9dac32e2ef3586	0.028977198697068406
18	0x3fa9db59770479eb	0.05050162866449511
19	0x3f99b25cdfb13a8d	0.025094462540716612
20	0x0000000000000000	0.0
21	0x3f877b615d06f8a1	0.011465798045602606
22	0x3f8dc785f27c0a6f	0.01454071661237785
23	0x3f7e197f2122892b	0.007348534201954397
24	0x3f499dde94079ade	0.0007817589576547231
25	0x3f9a9a9ee3de4c4e	0.025980456026058633
26	0x3f6a7877106e422a	0.003231270358306189
27	0x3f6dac32e2ef3586	0.0036221498371335507
28	0x3f59d484b32144b1	0.0015765472312703583
29	0x0000000000000000	0.0
30	0x0000000000000000	0.0
31	0x3f7a5d2400e16d40	0.0064364820846905535
32	0x3f915f0e22c85b6b	0.01696416938110749
33	0x3f8ee66e15c2c602	0.015087947882736156
34	0x3f5bc05bcb083d1b	0.0016938110749185667
35	0x3f57e8ad9b3a4c47	0.00145928338762215
36	0x3f7388601dac32e3	0.004768729641693811
37	0x3f7744bb3ded4ece	0.005680781758957655
38	0x3f7796b46c93cd8a	0.005758957654723127
39	0x3f74ddee600c9849	0.005094462540716612
40	0x0000000000000000	0.0
41	0x3fa195b441e2053e	0.03434527687296417
42	0x3f8de9adc5ec1493	0.01460586319218241
43	0x3fa98ccaaa4f95cc	0.04990228013029316
44	0x3fa4570443453d08	0.039726384364820844
45	0x3f8ebd717e6f86a4	0.015009771986970684
46	0x3fa2eb4284426aa5	0.03695114006514658
47	0x3fa0cf9a1124fda2	0.03283387622149837
48	0x3f72e46dc05f356a	0.004612377850162866
49	0x3f694be565611c22	0.0030879478827361565
50	0x0000000000000000	0.0
51	0x3fad610e782bec03	0.057381107491856674
52	0x3f8900c0fa9dd2a0	0.012208469055374593
53	0x3fa6167461e75b77	0.0431400651465798
54	0x3fa7c83af8c30f72	0.04644951140065147
55	0x3fa9c6db2b5ada3c	0.05034527687296417
56	0x3fa3facbeec9ee75	0.0390228013029316
57	0x3fa25bce729f0cdb	0.03585667752442997
58	0x3fa124fda1bd16fb	0.03348534201954397
59	0x3f77e8ad9b3a4c47	0.0058371335504886
60	0x0000000000000000	0.0
61	0x3f4a7877106e422a	0.0008078175895765473
62	0x3f7351b9fe928910	0.004716612377850163
63	0x3fadd52f7a4274e4	0.0582671009771987
64	0x3fa4d3af3a37c872	0.04067752442996743
65	0x3fa86f97b801a787	0.047726384364820844
66	0x3f8e64a38be5d2ad	0.014840390879478827
67	0x3f6f7cb6eb495906	0.0038436482084690552
68	0x3f9c8d4abfa879f2	0.02788273615635179
69	0x3f780400aac72130	0.005863192182410423
70	0x0000000000000000	0.0
71	0x3f62ffc0cfec0a54	0.0023192182410423454
72	0x3f399dde94079ade	0.00039087947882736156
73	0x3f801dfe2c1195b4	0.007869706840390879
74	0x3f5c9af4476ee467	0.001745928338762215
75	0x3f6b1c696dbb3fa2	0.003309446254071661
76	0x3f8b2a12f581aa17	0.013263843648208469
77	0x3f7fdc59a1b64237	0.007778501628664495
78	0x3f147e4ba99faf18	7.817589576547231e-05
79	0x0000000000000000	0.0
80	0x0000000000000000	0.0
81	0x3f9ec7b0a444567c	0.030058631921824105
82	0x3f32c91ab0d26081	0.00028664495114006516
83	0x3f9c26d345585b87	0.02749185667752443
84	0x3f9a3427698e2de2	0.02558957654723127
85	0x0000000000000000	0.0
86	0x3f9afa419a4b357f	0.02634527687296417
87	0x3fa0676d65dc11e8	0.03203908794788274
88	0x0000000000000000	0.0
89	0x3faa04560e57b94a	0.050814332247557006
90	0x0000000000000000	0.0
91	0x3facb9b1b8ed53ee	0.0561042345276873
92	0x3f9a04560e57b94a	0.025407166123778503
93	0x3f9cbd1c1adeee8b	0.02806514657980456
94	0x3f9ef4179d893077	0.03022801302931596
95	0x3f9a29e843b95e0b	0.025550488599348536
96	0x3f9a564f3cfe3806	0.02571986970684039
97	0x3f9a04560e57b94a	0.025407166123778503
98	0x0000000000000000	0.0
99	0x3fca3cb15e6a306b	0.2049771986970684

std f8 [100]
0	0x3e45798ee2308c3a	1e-08
1	0x3e45798ee2308c3a	1e-08
2	0x3e45798ee2308c3a	1e-08
3	0x3e45798ee2308c3a	1e-08
4	0x3e45798ee2308c3a	1e-08
5	0x3e45798ee2308c3a	1e-08
6	0x3e45798ee2308c3a	1e-08
7	0x3e45798ee2308c3a	1e-08
8	0x3e45798ee2308c3a	1e-08
9	0x3e45798ee2308c3a	1e-08
10	0x3e45798ee2308c3a	1e-08
11	0x3fced47c13cb3071	0.2408595177315678
12	0x3fae33c3c5e4863a	0.05898868361169858
13	0x3fc4a99aec9fb650	0.16142593912029435
14	0x3e45798ee2308c3a	1e-08
15	0x3fc424516077c3e4	0.15735833368628882
16	0x3fc4408f846152c9	0.15822023357272588
17	0x3fc5789585167537	0.1677424335329449
18	0x3fcc0775cead4e6c	0.21897766677522001
19	0x3fc4054f7cc98fca	0.1564120635331377
20	0x3e45798ee2308c3a	1e-08
21	0x3fbb412602e93f84	0.10646283694336317
22	0x3fbea4fc9bf2edea	0.11970499808642612
23	0x3fb5dd4d4c516007	0.08540804970959935
24	0x3f9c9eabc3616373	0.02794903163917035
25	0x3fc45ca226c334d1	0.15907694714261436
26	0x3fad0ea535d43e9e	0.056752360173161195
27	0x3faec22d9bb4247c	0.06007521176986416
28	0x3fa45035dd042d9f	0.0396744568152727
29	0x3e45798ee2308c3a	1e-08
30	0x3e45798ee2308c3a	1e-08
31	0x3fb478dab2f7698e	0.0799690901689358
32	0x3fc0879074ab82c9	0.1291370935132561
33	0x3fbf350665e874dc	0.1219028471754941
34	0x3fa50dd25a3c4c6d	0.04112107612140723
35	0x3fa38b5f1931e862	0.03817269499354904
36	0x3fb1a2d9aa8875d5	0.06889114774136058
37	0x3fb33d763a6b8bbe	0.07515658308288573
38	0x3fb35f0ab731976e	0.07566897366049627
39	0x3fb239bc40bd6e2e	0.0711934717232274
40	0x3e45798ee2308c3a	1e-08
41	0x3fc74f86f3e1b34d	0.18211447628291424
42	0x3fbeb647f73934a4	0.11996888910035125
43	0x3fcbdf014e1353c7	0.21774307548790103
44	0x3fc9001a69f16835	0.19531564877508037
45	0x3fbf209e0d2e71f9	0.12159145185291455
46	0x3fc8256abe5bf81e	0.18864187521825299
47	0x3fc6cf4f82e505c4	0.1782016171583064
48	0x3fb158917a4ed14c	0.06775769458801512
49	0x3fac6853c1405da5	0.05548345312143547
50	0x3e45798ee2308c3a	1e-08
51	0x3fcdc4d56fa7c802	0.23256938888476958
52	0x3fbc1cdcdfa95421	0.10981541119083761
53	0x3fca018d3453aaaf	0.2031723504545275
54	0x3fcaf03d7af4e1b5	0.2104565477727768
55	0x3fcbfcef13c5172c	0.21865642991377265
56	0x3fc8c97f85449d03	0.19364923484065608
57	0x3fc7cca4c8592e84	0.18593272955546436
58	0x3fc706f82713a85f	0.17990018756910595
59	0x3fb38064094cd712	0.07617783762983901
60	0x3e45798ee2308c3a	1e-08
61	0x3f9d17af1a44dd1e	0.028410659769375284
62	0x3fb18a3a8e688815	0.06851545311704428
63	0x3fcdfbd54e428c82	0.2342478401306814
64	0x3fc9490ef2114f1d	0.1975420648546952
65	0x3fcb49b3e3b0751c	0.21318672769204106
66	0x3fbef43591a6084c	0.12091383748887202
67	0x3fafae76245852d4	0.06187791055359573
68	0x3fc512d1ffdb3710	0.1646368502901443
69	0x3fb38b74ddd1389f	0.07634668746433924
70	0x3e45798ee2308c3a	1e-08
71	0x3fa8a0e08d029271	0.04810239526094485
72	0x3f943dc0b09f26ac	0.019766817836887426
73	0x3fb69ede06a42913	0.08836162244930205
74	0x3fa55ff88fb9da7a	0.04174782518832827
75	0x3fad67cbc4385027	0.05743252535117476
76	0x3fbd497a4ee781b1	0.11440243173956934
77	0x3fb67d7a4f2f88dc	0.08785213883632842
78	0x3f821b6da379f15d	0.00884137778415866
79	0x3e45798ee2308c3a	1e-08
80	0x3e45798ee2308c3a	1e-08
81	0x3fc5db17cc713228	0.17074868662383946
82	0x3f91559e9fe96e7c	0.016928175459141034
83	0x3fc4edf31603b0d6	0.16351164412424762
84	0x3fc4364f724165ca	0.15790741995696883
85	0x3e45798ee2308c3a	1e-08
86	0x3fc4801ef4c359df	0.16015994025538213
87	0x3fc68a92b25de68d	0.17610391339603773
88	0x3e45798ee2308c3a	1e-08
89	0x3fcc1c74a43f43ac	0.21961839694861618
90	0x3e45798ee2308c3a	1e-08
91	0x3fcd74aae39d4dfe	0.23012291063297136
92	0x3fc424516077bfd0	0.15735833368625984
93	0x3fc523ee29cb449f	0.1651590065071433
94	0x3fc5ea585a29045d	0.1712141456828559
95	0x3fc43275edff16b9	0.15778993721885629
96	0x3fc4431ea276a0af	0.15829832966597254
97	0x3fc424516077c5fe	0.15735833368630375
98	0x3e45798ee2308c3a	1e-08
99	0x3fd9d5f97bb7aa37	0.403684969728292

W1 f8 [50, 100]
0	0x3f7eaf7c3d3a43d5	0.007491574582346912
1	0x3f6ebce6030d520d	0.003752183191332975
2	0xbf70bc2148008bbc	-0.004085664753833148
3	0xbf84e97f48122696	-0.010210985552720413
4	0xbf79799bba8db1b2	-0.006219490351992029
5	0xbf80bf0f956c0ddc	-0.008176919696331213
6	0x3f8fcc794647ad44	0.01552672143676282
7	0xbf9198ef2a8d8554	-0.017184960338800195
8	0xbf88e7fe589be84a	-0.012161242560513003
9	0xbf4727e821e98bec	-0.0007066615542722344
10	0xbf861ef24ad36338	-0.010801213177204269
11	0x4008933aa729cd96	3.0718892154342923
12	0x4010ea3ba0e38a81	4.228743089569094
13	0x400a279d016e5196	3.2693424331466288
14	0x3f87d488b449dd7f	0.011635845186204417
15	0x40114a8531cee023	4.322773721934968
16	0x40102c67ba6d2cb6	4.043364441789143
17	0x40157c4d181ad54c	5.371387840879219
18	0x400b7e3c0f73b62d	3.436637993544329
19	0x400ad7c81f8ae57c	3.355362173486979
20	0x3f907793804ba245	0.016081146913082617
21	0x400301efcd68caac	2.375945667992104
22	0x3fd299c906c510e0	0.2906363073455065
23	0x4002bfb46aa30880	2.3436058360103402
24	0x4007bb3abc252854	2.966420621761282
25	0x401001ac7b455f10	4.001634527310458
26	0x400121d5b6268730	2.1415209036357723
27	0x40071faf7e53bf16	2.8904714459712393
28	0x4012c2c7469cedf1	4.69021330197164
29	0xbf59c10b2d5d7932	-0.0015719041016023058
30	0xbf3127e5f5649281	-0.0002617775366096434
31	0x3ff67d67b4d07d93	1.40561648016578
32	0x3ffcf9ea131c4b8a	1.8110142466073023
33	0x4005ed294615f5b0	2.740801379723699
34	0x4012e0f5f7bd7e11	4.719688292446805
35	0x400accbfe53e69af	3.349975386588276
36	0x400276ba5d20e681	2.3079726482072265
37	0x3feb404b0dc8e850	0.8515982884630464
38	0x3ffb8e85e67afeb6	1.722295666040663
39	0x40017d73c2fadb08	2.186255954056268
40	0x3f812551c11b333f	0.008371962266573994
41	0x40117588da71e2c8	4.364779866410295
42	0x4004f5449c30fa00	2.61975976967301
43	0x40099861596fb1eb	3.199404429169808
44	0x400802fe474ba3a6	3.0014615602453487
45	0x4003794c6037e6ec	2.4342277066287945
46	0x400fa0108848f1e9	3.953156532980064
47	0x4005d26b836d9b6d	2.7277441280197565
48	0x3ff4f9baf5368b85	1.3109693125377089
49	0x4013109a88d4c00c	4.766214502320519
50	0x3f2df6f5505882bb	0.00022861237100448524
51	0x4016b96b6672f652	5.681073761717544
52	0x40093ac519e0f8ce	3.153696252992723
53	0x40034c3ac46e2ee8	2.412221464741254
54	0x40026449a08fefad	2.2989685577321866
55	0x40064b73550ee080	2.7868410725751005
56	0x40050ccab5dd87cc	2.631246014426301
57	0x400197c2cec9f749	2.1991020350823516
58	0x3fffc48e46dc7df0	1.9854872482318306
59	0x4000678e9245f002	2.0505649020760766
60	0x3f723b2d7c0e7b51	0.0044509674779920775
61	0x400537a1e58b22da	2.652164262112234
62	0x4000d78cd39a354e	2.1052490741191496
63	0x401b8874b43bf3f2	6.883257690581546
64	0x3ff36aecd4bc88e3	1.2136047658937563
65	0x3fe3592455daad7a	0.6046315838661223
66	0x3fc242531ce3af5b	0.14264906797995533
67	0x3ff4c9a15e2d04ac	1.2992261580223312
68	0x400c27f054a23339	3.519501362991289
69	0x40112da80d629bba	4.294586381095479
70	0x3f727fe80ad218e4	0.004516512312994634
71	0x4012dd751faf7036	4.71626710422793
72	0x400fc4fdf09c9ff2	3.971187476901826
73	0x40055a18303131e6	2.6689914479268166
74	0x400c3c070cabd884	3.529310320848767
75	0x3ffe5e678f0a5674	1.898047980071536
76	0xbfdf38df7391aa8a	-0.48784624372516616
77	0x4012d5543ead231a	4.708329181020213
78	0x400190caffa519c2	2.1956996891269407
79	0xbf6e225491a86355	-0.003678479360371171
80	0x3f81fb2c0d4ce16f	0.00877985396947231
81	0x40194a8e73e2f90e	6.322809038856816
82	0x4012df0ed9012be6	4.717830076881887
83	0x4012df07a8d0da54	4.7178026559327755
84	0x401713d875882ba6	5.769380413471401
85	0xbf87c5747f4b21d1	-0.011607084402741304
86	0x4009d6b6e28c8a6c	3.22984101287266
87	0x4009df2613a5c375	3.233959344383431
88	0x3f714263c61c939e	0.004213704816525969
89	0x4010de67ab83a989	4.217192344580675
90	0xbf73328104f37de8	-0.004686836225317383
91	0x4018334cd58fe676	6.050097786815618
92	0x4014e451f0f4f6d5	5.2229688310159945
93	0x40128d473116b7dc	4.637966887485131
94	0x400acd35c31164a3	3.3502001990969617
95	0x401403c2d5d82502	5.003672925298135
96	0x40150c7889fe7ae3	5.262178569943646
97	0x401261105b477ebf	4.594788957823481
98	0x3f8328960d851148	0.009354755675879858
99	0x4010cddda6061ae6	4.201040834543823
100	0x3f75cf38da51fc27	0.005324575501730633
101	0xbf914145cdc9e505	-0.016850557980864007
102	0x3f6576971dfa09c3	0.0026200248246947846
103	0xbef375182baa72f1	-1.8556022704718564e-05
104	0xbf83874c3df0a9c8	-0.00953540386224895
105	0x3f8705378ec75df7	0.011240419430506228
106	0xbf8d6a00961821a9	-0.014362339573396126
107	0x3f88513893b427bc	0.011873666770515594
108	0x3f9037499b722331	0.015835905182515823
109	0xbf929a4ce2481c6d	-0.0181667340384845
110	0x3f15a2ea511fbfee	8.25362697296492e-05
111	0x402237c1bbb386eb	9.108899942078514
112	0x400f50f6bb0a3d50	3.9145331013202522
113	0x402929d263a27d06	12.581683267197615
114	0xbf89069896bbadd0	-0.012219612216958803
115	0x402c695f473de04f	14.205805040648697
116	0x40282f71c246c1e8	12.092664786469825
117	0x402098db2452c32d	8.298546919920762
118	0x4027dfb8aa4acca4	11.93695575869635
119	0x4028ee924fec1f12	12.465960023473176
120	0xbf911197f8139e04	-0.01666867686881625
121	0x4017938121a5d7f0	5.894047284838948
122	0x400d0216c9e56460	3.6260200284128103
123	0x401d884103b28dff	7.383060510418999
124	0x402017ffc150af76	8.046873131846706
125	0x40285c21708b4c60	12.1799426240961
126	0x401fcd4a3b9ef07d	7.950478488517658
127	0x400f8b230c48516a	3.942937942463847
128	0x4029bb8df5f89df3	12.866317450140718
129	0xbf7ef76fead2203b	-0.007560193230467911
130	0x3f7b56a992cdec8e	0.0066744445765564275
131	0x400df072e4d142e0	3.74240664256682
132	0x400409141697c78d	2.504432846552794
133	0x40101051709a0bb7	4.015935668375213
134	0x401bc2c10364a5fb	6.940189412134255
135	0x401ecfa049e2fc9d	7.702759890059636
136	0x401202013cb47ebf	4.501957844273135
137	0x400ff267a044a7c6	3.9933617135002093
138	0x40134df0db01e427	4.826114103308135
139	0x401921fa7cf60117	6.283182098879727
140	0x3f784b925ace28e7	0.005931445787505241
141	0x401a5cd9cd12298a	6.590674595101868
142	0x40103735e28d872f	4.053916492355525
143	0x40120f7ca651698c	4.515123938292515
144	0x40050db89400925c	2.631699711101005
145	0x40121382cae95839	4.519053621761537
146	0x400bb33a03a96bab	3.4625129972532327
147	0x400702166057acad	2.8760192419773234
148	0x3fb6c41bd22dc1d8	0.08892988091771004
149	0x4023c5e982a2cd11	9.886547167180227
150	0xbf7d19bb675f0bd5	-0.007104618116445989
151	0x4027030649eea1d7	11.505907354717165
152	0x4018d56080f0230c	6.20837594476394
153	0x4018ba1a1e5d85ae	6.18174025960745
154	0x4014106ffb5f054f	5.016052177118879
155	0x4018a2a86ee715e6	6.158845646719305
156	0x401bb7bab01e62f9	6.92942309556451
157	0x40160b43c8d45794	5.511000764808973
158	0x4012e5267fd540fd	4.723779675856574
159	0x4010fcb9e665c16b	4.246802902184167
160	0x3f6e7807569d5d9a	0.0037193435027053747
161	0x40291d1d9667a39f	12.556866359854949
162	0x401bcf6198019ca5	6.952520728205092
163	0x402138feb109a167	8.611318142343135
164	0x4015811c4ab0a958	5.3760844869924185
165	0x401a96178daaa266	6.646574224033065
166	0x40123dc9c355a035	4.5603399773609015
167	0x400f5a9eb6c60664	3.919248035352938
168	0x401e07cf94586861	7.507627790351848
169	0x400f9efd237b6b26	3.952631261066375
170	0x3f5a48dba40a8fbe	0.0016042847566177655
171	0x40238ef778d5f5a4	9.779231811636073
172	0x4024037e900af25e	10.00682497151973
173	0x4026312287bf3566	11.095966569987194
174	0x4025a5997c47585e	10.82343662615693
175	0x402334d9737e877b	9.603221520610296
176	0x40186cd264047e27	6.106271326803415
177	0x40151a0de048ffe7	5.275443558173698
178	0x40231e2487432e71	9.558872439337593
179	0xbf7c23b6c2835bd6	-0.006869996934446973
180	0x3f8193511bb696a5	0.008581765802613115
181	0x4022d0b0ecd2add0	9.407599831311842
182	0x4025277211992152	10.57704215044274
183	0x4025c3fb7c70a689	10.882778061629567
184	0x40281ac12dd4a89c	12.052255089005762
185	0xbf309fe9a8b5a301	-0.00025367216649967167
186	0x4028b7ad79062ae2	12.358745367052908
187	0x4024e8b40e2ef070	10.454498713712582
188	0xbf699fa6d9874f67	-0.0031278857024776177
189	0x402c5a7d6c33f86c	14.176738149017375
190	0xbf3498f544b346c8	-0.00031429279324611233
191	0x4023e6407fa5e92b	9.949710835459504
192	0x40239667315430de	9.793756047751625
193	0x402723c9f86b1310	11.569900286741841
194	0x4026f5d4e81b7ce2	11.480139973979423
195	0x40279649055f9c2f	11.793525855942873
196	0x402a0eb0f3c29575	13.028693788054378
197	0x4029f8cd6c4992e4	12.98594225309484
198	0xbf641f7e4e410b94	-0.0024564234645664904
199	0x402c96231e038180	14.293236673286401
200	0xbf638b9ca7344aad	-0.0023859080917046555
201	0x3f7034eee2b2d5e3	0.0039567309824426215
202	0x3f47206732636be0	0.0007057670489091193
203	0x3f7264680a326a2c	0.004490286260216563
204	0x3f80479ff4180dc1	0.007949113499313822
205	0xbf9282c6d4f2a03a	-0.018076998469638485
206	0xbf5730c49e1ae80e	-0.001415435799954515
207	0xbf6fff4db8f8f6ba	-0.0039059179323704648
208	0xbf8fa2ba6da1795a	-0.015447098227181644
209	0x3f5aab9dceee5f00	0.001627830609981673
210	0xbf80fe1cdb0957b5	-0.00829718154379209
211	0x40048402ba224e85	2.5644583265037135
212	0x40050482d57f5d43	2.627202671002722
213	0x40050b337ca68484	2.6304692972485686
214	0x3f5dfd7e10f37cd2	0.0018304568400749244
215	0x400c37d26d9c26b6	3.527256828620774
216	0x401571c35b1290f6	5.361096785553164
217	0x4010ddbfd36acf6e	4.216552070039922
218	0x400e8536f3200c67	3.8150462144999895
219	0x4006d3053086f6e2	2.8530372420490133
220	0xbf860f32ad64c2ae	-0.010771175304939842
221	0x3ffe09df289432c2	1.8774100861657392
222	0x3febef0bff5ead96	0.8729305255596269
223	0x3ff6a39650295554	1.4149382716471637
224	0x40018f26f3b016fc	2.194898513614019
225	0x40144b52751165c0	5.073556737124306
226	0x40002a3e9396c01e	2.020627167737998
227	0x3fffd3a7985a646d	1.9891735030453461
228	0x400939cf80147e2b	3.153227806687729
229	0x3f8fe9da3e5db4a5	0.015582757023106028
230	0x3f7a9f7707fa42c8	0.0064997338919432004
231	0x3fe006f1b7c52541	0.5008476819286117
232	0x3ff0d93d1bf7b415	1.0530367939456984
233	0x4002fba73ccd1ded	2.372877573976203
234	0x400c5e922f916da4	3.546177264810199
235	0x40086f4f8297eca8	3.054350872289053
236	0x3ff05967d8b3e9cd	1.0218275513603772
237	0x3fe8201bd8317fd4	0.7539195272947787
238	0x3ff74c5bf78c1f63	1.456142394048549
239	0x3ff9701348ab35ab	1.5898621405243414
240	0x3f8051680c980913	0.007967770466170287
241	0x400b30947aaaa024	3.398720701534346
242	0x3fec06ed772a4336	0.8758456542437674
243	0x4008f676c05feea4	3.1203436879421407
244	0x3fff84417eed2323	1.9697890241679452
245	0x3ff4bf2012649a09	1.2966614454722978
246	0xbfb0e9aa935e61d9	-0.06606546495311906
247	0xbfd4a2877c40820b	-0.32241999753935663
248	0x3feaa82e988289f7	0.8330300310811357
249	0x4006e931541c1409	2.863863617998963
250	0x3f66d05eaae6da01	0.0027849053360242686
251	0x40167748961e5d17	5.6164878326447
252	0xbfe0344ea4c6bd5e	-0.5063851564681661
253	0x4007b73b66e4af95	2.9644687689341915
254	0x4008a1f293ec12fd	3.079075961725151
255	0x3ff93a09af4ac446	1.5766693923326485

b1 f8 [50]
0	0xc010d54e41fdb757	-4.208306342230421
1	0xc02ad8dbded7a02c	-13.423552478620046
2	0xc00b378de0a1e37e	-3.40212607854886
3	0xc0093c4af6e7d873	-3.1544398583892472
4	0xc02359f719093124	-9.675713331577363
5	0xc018b743b55348c0	-6.17896922417475
6	0xbfdf656a51d5f6db	-0.4905648993661608
7	0xbf90e71df7a8625b	-0.016506641617612377
8	0xc013cf3ba3a524c0	-4.9523759431405665
9	0xbfd6cdbe007ce68c	-0.35630750701566494
10	0xc02c14813c4a0ec2	-14.04004848865532
11	0xc0003554f4e5cc13	-2.0260409481647996
12	0xbff026098024f667	-1.0092864041938812
13	0xc0256c170c081fa4	-10.711113334647798
14	0xbfffc77973f4489c	-1.9861998109304642
15	0xc00be976fdaf8919	-3.4889964884943194
16	0xc027980049fb9c84	-11.796877204860955
17	0xc01e536f02773ae7	-7.581478155638911
18	0xc01d969b59f1ea25	-7.397076993360803
19	0xc02db8656454f98a	-14.86014855897226
20	0xc013492d3d92e67c	-4.8214616413985105
21	0xbfc6ed7051d3fb35	-0.17912105556021066
22	0xbff8912a2bc141c0	-1.535440607946029
23	0xc01be06013cdccfe	-6.969116506038743
24	0xc02925323cfafc00	-12.572648912084333
25	0xbfd48b0406ba1517	-0.3209848466579656
26	0xc02f22f32fe16b49	-15.568261619822481
27	0xc01a6cbf67dbf997	-6.606198904801565
28	0xc00992d83149848a	-3.1967014170227843
29	0xc00a4808d67f6afa	-3.2851731069216585
30	0xc00bbb5083f3f3bb	-3.466462164766623
31	0xc01f9a1586b59ed4	-7.900472740969878
32	0xc006cee0a7f6953c	-2.851014435017218
33	0xbfdf291921557c8a	-0.4868834329153705
34	0xbfc6cbd212dd6737	-0.17809511109481388
35	0xc00b47e8740ee45a	-3.410111338333576
36	0xc006954262317958	-2.822880522856547
37	0xc0124f40ad1f50dd	-4.57739515784871
38	0xc017f44774ebef29	-5.988553835773737
39	0xbf9c34c9c0c61ee3	-0.02754512061213078
40	0xc02164babe1cdc4f	-8.69673723318388
41	0xbfeab30566db279b	-0.8343531617076566
42	0xbfffab407d31b605	-1.9793095484159278
43	0xbff52c5e759a9736	-1.3233322709942974
44	0xc02808afea86c234	-12.016967133474374
45	0x3ff2df55ff5773d8	1.1795253729135222
46	0xbffd0f740a1e6e0e	-1.8162727732914195
47	0xc016d400581d89a4	-5.707032563021503
48	0xc0171cdafce96e9a	-5.77817912268406
49	0xc002968a1bc7668c	-2.3235056085803247

W2 f8 [64, 50]
0	0xbfb91d3188642d4a	-0.0981017072664844
1	0x3f6d3b3b6bd4111f	0.003568283135452557
2	0xbfb7fb6c6eb2d1fc	-0.09368016913033012
3	0x3f7af80a922ae88e	0.006584206860390419
4	0xbfb7d9df2606faf7	-0.09316820791626045
5	0xbfb4bc5fde7ad8f1	-0.08099936658513564
6	0xbfbb298e52039017	-0.10610284330647378
7	0xbfb97f359b7c1c54	-0.09959731145873835
8	0x3f8b3901a1caf613	0.013292324781441633
9	0xbf926f39b52a33c7	-0.01800241630785473
10	0xbfb6a4104095d73a	-0.08844091011800695
11	0x3f8b11aed865b944	0.013217321375773701
12	0x3f8db4c5b6e7deb6	0.01450495209154155
13	0xbfbf1f458fdf7701	-0.12157091867944915
14	0x3f921a01d914d4c0	0.017677334665866296
15	0x3f94678e2faae8a5	0.01992628255786912
16	0xbfb8421bbcd56b6d	-0.09475873336979897
17	0xbfbd162e3b373f0c	-0.11361969896028884
18	0xbf76c61054b8da85	-0.005559982102161802
19	0x3f8ea5f4c0685861	0.014964973565877839
20	0xbfb78682abce910f	-0.09189621634010713
21	0xbfbae194c993333e	-0.1050045959593264
22	0xbfb62fdf7f9654f0	-0.08666798462794012
23	0xbfbb15a393b4d1b8	-0.10579893451796962
24	0xbfb45700e3b38f18	-0.07945256766430153
25	0x3f90861c66716aa1	0.01613659262907652
26	0x3f6f2ee7d1468a67	0.003806545990486843
27	0xbf7cbb6821541a37	-0.007014662512352879
28	0xbfb8f609fd7e2d66	-0.09750425757208844
29	0xbfbcaad55fdc325a	-0.11198171224914102
30	0xbfb938395b7d7238	-0.0985141609539334
31	0xbfb706c3f1218188	-0.08994698178276483
32	0x3f507d2eeee1a987	0.0010064085322719367
33	0xbfbace56a7285a1e	-0.10471097546574312
34	0x3f3848ff1657ad2a	0.0003705618640583325
35	0xbfb57ceda8770f15	-0.08393750536839335
36	0xbfba2aa2a0ae0df2	-0.10221306250428322
37	0xbfb9d0fd1441631f	-0.10084516281621035
38	0xbf72e377ac737bd8	-0.004611461138863647
39	0xbfbb687631fe0cf5	-0.10706270905034272
40	0x3f5b4d4426d6ad5a	0.0016663709205698347
41	0xbfbb3be05e277ce1	-0.10638239191711164
42	0xbf5d5d27c53b07e8	-0.0017922294982075596
43	0xbfb82e0acc61b0f9	-0.09445254792962378
44	0xbf7447c145e81942	-0.004951243374767879
45	0xbfbbd0319344808b	-0.10864553304100093
46	0x3f5dab5393d269d0	0.0018108669458230982
47	0xbf93b0b52fb401f0	-0.019228774105615132
48	0xbfb8ab6390b82425	-0.09636518748460839
49	0xbfb722c5c146f950	-0.09037433594401034
50	0xbfe537923e08838d	-0.6630336009585435
51	0xbf94cbecdfac6994	-0.02030916323847405
52	0xbfdb6f7cf7f4b65c	-0.42867969717449284
53	0xbfebce05bd584746	-0.8688992212430342
54	0x3fc4fac8b488f2dc	0.16390332045730005
55	0x3fee2db723fa6e6d	0.9430804922771593
56	0x3ff6d2682ae2339a	1.4263688731327648
57	0xc000a54cd91bdce8	-2.080712982333001
58	0x3fe8a8ca83be1ee6	0.7706043789957817
59	0x3fa51fe02e68fdad	0.04125881735353274
60	0x3fe169caa9e462be	0.544164020367212
61	0xbfee741c2976a6f6	-0.9516735849221891
62	0xbfe38a7c0739105d	-0.6106548443863279
63	0x3fe2bfa066bbe48b	0.5858919149897174
64	0x3ff2edd11c78ef31	1.1830607521250835
65	0xbff95634e74bca6e	-1.5835465464594125
66	0xbfad3b74d9b598ea	-0.05709424169144646
67	0xbfe62b07fc38d2dc	-0.6927528310976316
68	0x3fca655ebbf21d6f	0.20621856858290807
69	0x3fc04647967d08da	0.12714476440493777
70	0x3fe517f5a143354f	0.6591747426661331
71	0xbfea83e5da80b6a5	-0.8286008136398847
72	0xbfe43943b9c59bf1	-0.631990301929248
73	0x3fed75424ed947fd	0.9205638446821919
74	0xbfc93b9b659f799b	-0.19713156187112876
75	0x3fd3bab890ed0554	0.3082715430537821
76	0x3fd77207ad468419	0.36633483811789486
77	0x4007955e200b9c2b	2.94793343577796
78	0xbffc758e9fd233f4	-1.7787004702579425
79	0xbff38e35387ee1ad	-1.2222187239513957
80	0x3fbc973b0bd71020	0.11168259657921498
81	0xbfe09593a2ae1ade	-0.5182588746400503
82	0xbfe3720ddaf8549c	-0.6076726223715414
83	0xc0012a0f17713a9c	-2.145536597388242
84	0xbfcdb5e3cf1b21e1	-0.23211333859059294
85	0x3ff29aeb2439e280	1.1628219046671404
86	0x3fe05fbce03c62a1	0.5116867427451163
87	0x3ff0f1f666b68a5e	1.0590728771427602
88	0x3fe429e7aa3f9045	0.630115349308206
89	0x3fd1007e0daf6ada	0.265655053486325
90	0xbfc539d6afb4cc60	-0.1658275945606844
91	0xbff0e7e7d48a2006	-1.0566175749136177
92	0xc00a1403f15ab70c	-3.259773145275977
93	0xc006e36ca76e8451	-2.8610470848657674
94	0x3fce2c1ae4d57781	0.2357209794380957
95	0x3fea1e18fcea5a15	0.8161740245585088
96	0x3ffee1c45a73694c	1.9301188977465982
97	0x3fe3db2fb157c67e	0.6205061401107768
98	0xbfd12aac797f6dfd	-0.26822959771172333
99	0x3fde969fe3f13188	0.47794339427925836
100	0xbfb89dbf17ef6c34	-0.09615701994282305
101	0xbf8e2842a0f6d357	-0.014725227868305586
102	0xbfb77876f2427098	-0.09168189444102592
103	0x3f7a7dc2644bed2a	0.006467589705376123
104	0xbfb9f35c873fed86	-0.10136965085978575
105	0xbfb6ea3ee46a9736	-0.08951180531093147
106	0xbfb85ff43a582a91	-0.09521414207862679
107	0xbfb9ab0d4c552e54	-0.10026629556267014
108	0xbf78853da764b3b3	-0.005986443362684324
109	0x3f7a6dcc920df864	0.006452368835082909
110	0xbfb9e52d4ded45bf	-0.10115321304808499
111	0x3f60201c946d85b8	0.0019684370230812175
112	0x3f760649a1b13787	0.005377090095022192
113	0xbfb8b7f340340bd3	-0.09655685727561485
114	0xbf74805b7a0d6981	-0.005005223590013209
115	0xbf89db3f57647e7f	-0.012625212530621653
116	0xbfb9a67ed392eaf5	-0.10019676843050347
117	0xbfbd95c315faecb0	-0.11556643759370178
118	0xbf8246aba8ed8b88	-0.00892385587002821
119	0xbf9adea4b9b406a4	-0.02623994239275497
120	0xbfb75b0f7eeefb26	-0.09123322342837223
121	0xbfbd37edbdf094d4	-0.11413465392304839
122	0xbfbc98c60c5b38ea	-0.11170614053409947
123	0xbfb752df659ccdb1	-0.09110828619741686
124	0xbf80ba20eb3d999b	-0.008167512110685496
125	0x3f8a496c8ebd7c5b	0.012835357767185742
126	0x3f92b05c589c1128	0.018250887783339526
127	0xbf8efdbd986e81bb	-0.015132409300179775
128	0xbfb1296ca01d712c	-0.06703833493287864
129	0xbfbcc54b25c22ab6	-0.11238546058499818
130	0xbf6569aa18ec40f5	-0.0026138612951244152
131	0xbfb3882868a7d45f	-0.07629635386531806
132	0x3f61e99f4d398588	0.0021865950928236545
133	0xbfb3a842fce5b85e	-0.07678621935130667
134	0xbf6ad34374c505dc	-0.0032745664122166684
135	0x3f7b5dbebae54abf	0.006681199111272461
136	0xbfb90c6d3f9816dd	-0.09784586718168549
137	0xbfbb1074f2285971	-0.10571986114550726
138	0xbf7e4c2743c23993	-0.007396844270387243
139	0xbfb578223bbb9bba	-0.0838643451530591
140	0x3f6f1e344f9d5759	0.003798582239066411
141	0xbfb5db65c2b246d3	-0.08537899020509636
142	0xbfbb9ea01de86670	-0.10788918237849443
143	0xbf69bb4908d0c857	-0.003141062398321497
144	0xbf817a5498337c61	-0.00853410806160876
145	0xbfb7ba12a877b8c6	-0.09268299687366541
146	0x3f72c4f8b1d92e52	0.004582377876043946
147	0x3f94a3fb1ee41fe1	0.02015678764385587
148	0xbfb76ac71dbae421	-0.09147304988700046
149	0xbfbbd9addd2f09a1	-0.10879027032846135
150	0xbfd38b1468bfb87d	-0.3053637526453555
151	0xbfd05b84042eac99	-0.2555856743662815
152	0xbfee762749b12de5	-0.9519230307864147
153	0xbfd75f5fe0163ab3	-0.36519619830589106
154	0xbfe0ea582882db2f	-0.5286064902528319
155	0xbfb9cda542a408f8	-0.10079415204021192
156	0xbff14d0476a9367a	-1.0813030848688912
157	0xbff7cffcce61220c	-1.488278204126007
158	0xbfd05bc9f5217db9	-0.2556023496490201
159	0xbff14540a60f9244	-1.0794073569060325
160	0xbfc46c8f5b3c2d0a	-0.1595629878505423
161	0xbff3750e36108add	-1.21607800597183
162	0x40044cf9ceda94dc	2.5375858459907317
163	0x3fe8767895670346	0.7644617956176283
164	0xbfd20478eeab8a4b	-0.2815229731333246
165	0xbff6b73dc9b228c6	-1.4197366598842094
166	0xbfd27c69928fdd98	-0.28884352982228156
167	0x3fc1609b8c86b120	0.13576073037746372
168	0x3fb5fb4c72f3b0c3	0.085865762772019
169	0xbfc4f42da096ef27	-0.16370172826088344
170	0x3fa94380835557e4	0.049343124420076184
171	0xbffeae94f8188470	-1.9176225367775963
172	0xbff47df1d701d084	-1.2807482145990727
173	0xbfc8abd20b69906e	-0.19274354512447495
174	0xbfd036b3b6da1a07	-0.253338745657317
175	0xbfdd25cfbd36a23a	-0.45543282964584686
176	0xbfddbf5c6a0fad14	-0.4648047481302495
177	0xbfda053f75ccac38	-0.4065703058610697
178	0xbfece5682cb327c0	-0.9030037758868659
179	0x3f8b5e2e4470e0ba	0.013363229240085029
180	0xbff880a6d6ef1066	-1.5314091106274872
181	0x3fd5fb6d9df3cdbf	0.34347095894846896
182	0xbfe3b3f8c8ae61fb	-0.6157192153505656
183	0xbff3cf369ebe86cb	-1.238089199156479
184	0xbff9a03dd9e133a3	-1.6016214857984117
185	0xbffee0b9a13cafb6	-1.9298645304033761
186	0xbfee8d1a7f839427	-0.9547245493419084
187	0xbfdad2da5a17ff7e	-0.41911944196908013
188	0xbfdb9f1477f8816d	-0.4315844699467764
189	0x3fcb82045234cba5	0.2149053002736682
190	0x3f9493538f07b289	0.020093255619871662
191	0xbffa296eccb4c6cb	-1.6351154323896704
192	0xbfffc3fc29322077	-1.9853479012690778
193	0xbffb2181f35dfd74	-1.6956805712250942
194	0xbfef467047e145ab	-0.9773484615235949
195	0xbfb15431f8fc8c41	-0.06769096688053457
196	0xbfe8c26ac6330fa1	-0.7737325545390271
197	0xbff2dc56c847f5c0	-1.1787936995964259
198	0xbfd7dc6695c8e6f9	-0.37282719256801006
199	0x3fa02a2721112bef	0.03157160071039999
200	0x3fc8b0d3fd2f1b8b	0.1928963648080891
201	0xbfecff89f44476eb	-0.9061937113617352
202	0x3fa357eec30a80c9	0.03778024798271102
203	0x3fde374fe1eb74fe	0.4721259790656659
204	0xbfe14823c1b3564b	-0.5400561125958999
205	0xbfc77fd83b6a48a8	-0.18358900929576305
206	0xbf9158709f5dbb02	-0.016938934065758644
207	0xbff157ca5c4c444a	-1.0839332204234489
208	0xbfd8fea833c10735	-0.3905430322084727
209	0xbfe4f8a3291c9b26	-0.6553512385333746
210	0xbfc158fb4d6ad8c8	-0.13552800445694957
211	0xbfc207f44f009f51	-0.1408677469018991
212	0xbfd990f33b30b0d0	-0.3994720533398892
213	0xbfc6b63ceb180eb7	-0.17743646125028587
214	0xbfe587092e2a3a8e	-0.6727338697108551
215	0xbfb6c46c0f36eef5	-0.08893466350030706
216	0x3feb368b111ec15d	0.8504081091287322
217	0xbfe886a345dd946e	-0.7664352764665077
218	0x3fe0e8bb8db69bf9	0.5284097450102073
219	0x3fcb93d50e06fa5a	0.21544898209500013
220	0xbfe60b23fc127de9	-0.6888599322591605
221	0xbfe865492b327347	-0.7623639911358645
222	0xbfc1fddc4cd481b1	-0.14055970908613127
223	0xbfed1ecbb1263ad4	-0.910009237284465
224	0xbfe80b1a7ad3bde2	-0.7513553999869453
225	0xbfdf353eaf1bca40	-0.4876248083157044
226	0xbfc36fe84df7e55b	-0.15185264403388996
227	0x3fb17ed6ed662c7c	0.06834166808964598
228	0x3fc07eb2113eb2cd	0.12886644212757972
229	0xbff319e7c96b9438	-1.19382456474092
230	0xbff3938fb96a2892	-1.2235257380257605
231	0x3fe5dc7b4729f622	0.6831642522735744
232	0xbff22c65b624c442	-1.1358391871438163
233	0x3fd3992e169f3297	0.30622436722914287
234	0xbfe4e396c9f88663	-0.6527818627111625
235	0xbfd89b3d763e6ac0	-0.3844751028752107
236	0xbfe1d69a1a1f75db	-0.5574465284550415
237	0xbfe7642798d8f0bc	-0.7309759125996815
238	0xbff27e086edc6b64	-1.1557697611339899
239	0xbfd71847ac65892e	-0.36085693202598434
240	0xbff958298830a341	-1.584023982994225
241	0x3fd4360d88447484	0.3157991247879368
242	0xbff8c0699678214b	-1.5469756963448897
243	0xbfe96e871bc3f3d6	-0.7947421591085184
244	0xbf93becaaf419f1c	-0.019282500216291174
245	0xbff4703776e8a712	-1.2773966450571987
246	0xbff232f0fb6da24d	-1.137436849729187
247	0xbfe4d61e37aaa2da	-0.6511374556767706
248	0xbfd8200ee287720d	-0.3769566738317572
249	0xbff408a2f5f5b2cf	-1.2521085365107643
250	0xbfb8a915ea77617b	-0.09633004164004959
251	0xbfb72cc3e7a5f50e	-0.09052681355929712
252	0xbfbe10df5b7b4ef2	-0.1174449537605218
253	0xbfbb9cc016a3df66	-0.10786057045686234
254	0xbfb7d6e1d9c708f9	-0.09312259260972046
255	0x3f7762f09b347dc5	0.005709590786210088

b2 f8 [64]
0	0xbfbfc4a4897dcc7a	-0.12409427983020463
1	0xc001b31f7a25965a	-2.2124623816223847
2	0xbfd4450f6ba985ea	-0.31671510232817346
3	0xbff565a309eb01b6	-1.3373136889859842
4	0xbffd9e9fbf1db3ec	-1.8512265649289885
5	0xbfb9b6e0debb8b13	-0.10044675290877718
6	0xbfd05a2be9101ce7	-0.25550363311817964
7	0xc0031d6c51b4216f	-2.3893667586418625
8	0xbfca2471fc554802	-0.20423722096398939
9	0xbfcf78240ed41ec7	-0.2458539078145263
10	0xc01a6fca6d986f85	-6.609170639447147
11	0xbfc9ffe612093532	-0.20312190895712373
12	0xbfb9b72919e3ccd7	-0.10045105821682242
13	0xc009db54691ed974	-3.2320945942439554
14	0xbfc7290ae3114ba6	-0.18094001853259306
15	0xbfefcb37a52446c5	-0.9935568070815967
16	0xbfd175583a17fdfb	-0.27278714822020306
17	0xbfca597270de9029	-0.20585470687103793
18	0xbfb9830fb720922e	-0.09965608807449008
19	0xbfd0b8ac425cfd49	-0.26127153855118884
20	0xbfd013c42f6333ef	-0.25120644214331284
21	0xc00e1593d389d09e	-3.760535862582471
22	0xc002978ebb0de288	-2.3240027059185344
23	0xc00ad59432d290ae	-3.3542865725049387
24	0xbfd58c786a5ce008	-0.3366986311625628
25	0x3fc7c65bc2cdba1f	0.18574091922660416
26	0xbfe74b54fdab2d30	-0.7279458002534849
27	0x3ffa1c46a67b11ac	1.631903314891228
28	0xbff163e7de7ff75b	-1.0868910495186899
29	0xbfdd7d9568c3ccb2	-0.46079001646939866
30	0x3ff0d6796c4db3f2	1.0523618918043636
31	0xbfd54e50e89b1dc2	-0.33290503230497503
32	0xbfb9b714f5f46ee0	-0.10044985775715132
33	0xbfb85e752397192b	-0.09519130820180936
34	0xbfd914208eb1167f	-0.3918534654115788
35	0xbfdb53209c357cdc	-0.4269486928441901
36	0xbfcb22f2d3473962	-0.2120040446884089
37	0xbfb9b7202df6ae20	-0.10045052644880359
38	0xc0184edcf51be9ee	-6.077014760807726
39	0xbfca3d9256f1d5c2	-0.2050040173086654
40	0xc015df9b1845fa08	-5.46836507727722
41	0xbfc50f6f73d8aef5	-0.16453354984820803
42	0xbfb9b6e89293444d	-0.10044721201417524
43	0xbfb9bf09ab3b7ed4	-0.10057125502089131
44	0xc00939333f1bf743	-3.152929776230765
45	0xbfc3e48fb5e8f77d	-0.15541263944936282
46	0xbfb9b723dc0ffac6	-0.10045074579827959
47	0xc00a1c00ae1f5d3c	-3.263673172313842
48	0xbffe93447f97a13b	-1.9109539970468876
49	0xbff6f9bf8733be51	-1.4359736710865898
50	0xbfd7e33edec087e6	-0.373244969874689
51	0xbfa8d660b0221568	-0.048510571957232795
52	0xc0137ed2c905b76b	-4.873850956891924
53	0xbfe80d2777a2e582	-0.7516057335516708
54	0xbfd8001105f1e4e6	-0.37500405865246333
55	0xbfb9b71d774ca454	-0.10045036470968799
56	0xbfb9b6ee8eef70e3	-0.10044756879455323
57	0xbff0c9ce8461579b	-1.0492692156890147
58	0x3fe36de6149b3b03	0.6071653749912403
59	0xc004b7255f37691d	-2.5894267500672314
60	0xbfd5171419d7b039	-0.3295336010330661
61	0xbff69b077c7567b9	-1.4128489362396819
62	0xc0117cbadb377c51	-4.371806550275395
63	0xbfdf260d086e1f94	-0.48669744323023534

W3 f8 [64, 64]
0	0x3fb7a5c7a9c1b0e9	0.09237335104416257
1	0xbfb59dc6d77131e4	-0.08443873176401656
2	0x3fb876fe64c3e598	0.09556570015037946
3	0x3fe1347b0e37a671	0.5376563337023993
4	0x3fdf2a272c9e3d32	0.48694781644094853
5	0xbfb85fad252d4f10	-0.0952099052204256
6	0xbfba8c82cff35ff4	-0.10370652748986214
7	0x3fd98493f0094151	0.39871691170721585
8	0x3fb94f36c00d0e4d	0.09886495770211319
9	0x3fbb83bb1f8409a9	0.10747880477359807
10	0x3fe53fc0cb7fc1e8	0.6640323614683981
11	0x3fd13912e85755f8	0.269108511825237
12	0x3fb9d5b625fe1507	0.1009172289614818
13	0x3febc6aa29e746c2	0.8680010622431029
14	0x3fb535ea667106c6	0.08285393715871256
15	0xbff73eb8c7ce1fd7	-1.4528129391564926
16	0xbff4f0f4cf952f98	-1.3088272198392357
17	0x3fb564d35a61f6c8	0.08356972653015327
18	0xbf7fa357c4ca88ee	-0.007724135252518345
19	0x3fbaad318ba9069d	0.10420522365259406
20	0xbfb2169c5672d251	-0.0706575118118249
21	0x3f90110f969e2485	0.015690082138040146
22	0x3fe492a5d6640621	0.6429013430899354
23	0x3fe929cf16b85863	0.7863536304237296
24	0x3fb61262d2202fb5	0.08621804838202148
25	0x3fc0fb0ed9c766d3	0.13266168245063756
26	0xbfe3acaf15c2943a	-0.6148295807839823
27	0xc00788f3b73c052d	-2.941871100920841
28	0xbff162c1c168bcc0	-1.0866105608982224
29	0x3fdbbbdcd5fb2f56	0.4333412255916661
30	0x3fe084751357ee1f	0.5161691072275437
31	0x3fce9249b637c25c	0.23883935353616692
32	0x3fb960d50c8178cd	0.09913379245105887
33	0x3f5b51ab881206a3	0.0016674208748387674
34	0x3fcdd8a192ddca76	0.23317355796060085
35	0x3fce19843906e6a4	0.23515370163459182
36	0x3fc039625078bfd1	0.12675122193604563
37	0x3fb829a873375362	0.09438565075772723
38	0xbfef4ba9d11a5cdc	-0.9779862484018866
39	0xbf7b9cbdc4869b9c	-0.006741277008052739
40	0xbff037e0c1c8499f	-1.0136420793174705
41	0x3fbb48f8fed465da	0.10658222409656251
42	0x3fbbee4117a8ac9f	0.10910422160729859
43	0x3fb6233bf7c27a59	0.08647513197727487
44	0x3ffea5a4d8802933	1.9154404122405821
45	0x3fa1d24b5793e8f5	0.03480754322113625
46	0xbfb71305fc244427	-0.09013402372171751
47	0xbfe6c43c700feb8e	-0.7114546002115831
48	0xbfb9f35b03024f16	-0.10136956046545395
49	0x4000c5851836971b	2.096445264020884
50	0x3fd2d46adb8fe40f	0.2942149299775005
51	0xbfba517637abf91c	-0.10280550822424
52	0xbfe26caea8b0af73	-0.5757668776254675
53	0x400110233a310f23	2.1328796907636316
54	0x3f9658fdd8fc7f8f	0.021823850983423262
55	0x3fb8d5af37533000	0.09701056576449218
56	0x3fba049a9de1a368	0.10163275103117331
57	0x3fe3d75b1d87500d	0.6200385643701353
58	0xbfdce1eacbd3c64f	-0.4512888899326741
59	0xbff3cd7ab6e66689	-1.2376658577472048
60	0x3fca32025a9033b2	0.20465115949664675
61	0xbfec95564712fcbd	-0.8932296169440616
62	0xbfdf9c75f15e370e	-0.49392460414024775
63	0x3ff1088e40e571a4	1.064588788510357
64	0xbfc047bd2a572456	-0.12718929831888443
65	0xbfb97c082746aa83	-0.09954882582557371
66	0xbfbb850708c8342f	-0.10749858822255541
67	0xbfbcbfea4a50506a	-0.11230339350032784
68	0xbfb8603fed0c2ce3	-0.0952186540345568
69	0xbf835cfca9adda8a	-0.009454702308841396
70	0x3f8a4b8c6dace187	0.012839409920716317
71	0xbfc09b3a36a83849	-0.1297371641998686
72	0xbfbad13ea6496395	-0.10475532111867232
73	0xbfb7b81062443ba5	-0.09265234374127702
74	0xbf7faa8623338d49	-0.007730983709936475
75	0xbfb898ae9dc3da7a	-0.09607974387822962
76	0xbfb879850599d6da	-0.09560424219838684
77	0x3f60cb8db8578ee1	0.0020501869173460284
78	0xbfbca8a8bde4ade8	-0.11194853435579655
79	0xbfb6d772456666d6	-0.08922495073639011
80	0xbfb63de439f9dd85	-0.08688188949041915
81	0xbfb79485b4583a1b	-0.09211002018876295
82	0xbf9109ba971d6cb6	-0.01663867518741987
83	0xbfbc7750332250b2	-0.11119557617559186
84	0xbf7b1471fac3b8d5	-0.006611294968236166
85	0xbf811926a0b74690	-0.008348752765331896
86	0xbfb439d0dfffed4d	-0.07900720089667353
87	0xbf63a65a62f3e2f8	-0.0023986592638006697
88	0x3f81ea52b01fe561	0.00874771690358739
89	0xbfb76b1c24d88447	-0.09147811793856518
90	0xbfba7f60622e547c	-0.10350611111637592
91	0xbf5bbd291ffefc40	-0.0016930486308266574
92	0xbfbb3139b2be2d27	-0.10621986974563367
93	0xbfba0ff1c26059ab	-0.1018057918121033
94	0xbf74193a7b184737	-0.004906872216013095
95	0xbfb7c269e5e1f587	-0.09281026708955241
96	0xbfba9ec6ec116f90	-0.10398524535543019
97	0x3f6ea2929901e43e	0.0037396300540959706
98	0xbfb5b3ad0909779e	-0.08477288694981985
99	0xbfb4f8538afd854f	-0.08191415923422095
100	0xbfba7cfb0762069e	-0.10346955232855712
101	0xbfb582c3d60e6b05	-0.08402656532272708
102	0xbfbb37aff0e99fe8	-0.10631847030310804
103	0x3f872879ca5a680c	0.011307670104816502
104	0xbfa40a79dc106487	-0.03914242564514674
105	0xbfb86f0b79388292	-0.0954444094609335
106	0xbfbb007834b2b138	-0.10547591482708618
107	0xbf8e3756618ee537	-0.0147539852640529
108	0xbf2000527e849f8e	-0.00012207991609014226
109	0x3f9a194ef39a52db	0.025487168901764484
110	0xbf4d7e110f40a844	-0.0009000380800945414
111	0xbfb8c0472d665f2e	-0.09668393000026462
112	0xbf7966c4bfaff86c	-0.006201523351590504
113	0xbf6abdc71df60d96	-0.0032643212322811073
114	0xbfbaee3c1aa4266b	-0.10519767427845188
115	0x3f8f6428810af793	0.01532775539214607
116	0xbfb9255371fbbe20	-0.09822579891965022
117	0xbfb969e9d458bf0a	-0.09927236017460586
118	0xbfbb6a1bedcd2690	-0.1070878463334799
119	0xbfb4281475abfc32	-0.07873657105300039
120	0xbfb84447f35c0f01	-0.09479188624760228
121	0xbfba23cb421780c4	-0.10210867274827523
122	0xbf798cf991e8df1b	-0.006237959749846113
123	0xbf83120050ef2b10	-0.00931167838088734
124	0xbfb8e3f841343d8d	-0.09722854225059603
125	0xbfb49a4afb422ffc	-0.08047932276002706
126	0xbf7177968396204a	-0.00426443857703169
127	0xbf664672063c440d	-0.0027191378629898345
128	0x3fbcd4e10603f38c	0.11262327572690206
129	0xbfdce4b4002211f8	-0.4514589310931849
130	0x3f923282f9bfb44a	0.01777081155153252
131	0x3fa9ab8bca1c3529	0.050136917516378006
132	0x3fe26b0aee625940	0.575566735834208
133	0xbfbd4981ddd467c7	-0.11440288224949234
134	0xbfb95260177bb1ae	-0.09891319821662733
135	0xbfee0f4017c1866d	-0.9393616165145439
136	0x3fb9cf9060010127	0.10082342475744054
137	0x3fb366a3c31a0f45	0.07578490746715001
138	0xbfc0dbd7feff9297	-0.13170909834947928
139	0x3fc9fd28251e4381	0.203038232921724
140	0x3fb9ae696fcb778b	0.10031756381382999
141	0x3fee5c7b3c22c539	0.9487892317321559
142	0x3f947909d28e1be4	0.019992974735511995
143	0x3fc2958209c02c7b	0.1451876208887802
144	0xbfe963abb56adcb5	-0.7934168380078491
145	0x3fb8232b83cba9cb	0.09428665130295781
146	0x3f78d0968276fef7	0.006058299949870386
147	0x3fb8d3c913525b95	0.09698158952447351
148	0xbfb8b157d7b3c336	-0.09645604149023942
149	0xbfde880f94c85c32	-0.4770544960933335
150	0x3fe54aed5119573b	0.6653963645901294
151	0xbfe2e266f6a8165d	-0.5901369874488399
152	0x3fbba6f32a5a83f7	0.10801620277426581
153	0xbf98a09589277283	-0.02405007981893671
154	0x3fe2ac4ab29afa1b	0.5835317123781495
155	0xbff413705bce4213	-1.254745825401305
156	0xbfe54a9feaa734d1	-0.6653594573087053
157	0x3fe5f2aaa31660bf	0.6858723817158746
158	0xbff2bd630da71517	-1.1712370427424668
159	0x3fb20c96d0320e02	0.07050459463976469
160	0x3fb7c1862912d719	0.09279669287465388
161	0x3f7ed5195cf4080d	0.007527445864299776
162	0x3fcd918b772ab7f0	0.23100417441077026
163	0x3fcc4b9492c39486	0.22105652967653472
164	0x3fbab2dcda2bb496	0.10429172827180574
165	0x3fb81991a6a254aa	0.09414015119758071
166	0xbfeb222c84efcfb5	-0.8479216190739779
167	0xbf6df7d7539b487f	-0.003658218917601152
168	0xbff3e39e0840282d	-1.2430706331529209
169	0x3fbaed7a269a0edf	0.10518611376215457
170	0x3fb791cbd7d19914	0.09206842440616853
171	0x3fbc25eae59de4f3	0.1099535761440114
172	0xbfe88e6f2b4d5c6d	-0.7673869939561776
173	0x3fbd74fbcd912476	0.11506627815937684
174	0xbfbadcbbf05b3bfc	-0.1049306356246546
175	0xbfe6121d08cae0ae	-0.6897111102798783
176	0x3fe7d5fad40f9fce	0.7448705808465037
177	0x3fd920a8673c6d1e	0.3926182754673436
178	0x3fcba409307098a9	0.21594347825265928
179	0xbfba52c24f05ef21	-0.1028253024032293
180	0x3fc6289f7c1864a9	0.17311471518840918
181	0xbfe1b11dadf52644	-0.5528705976113959
182	0x3fbdd147fca10299	0.11647462766360163
183	0x3fb7ad2292ddb5c8	0.09248558126065298
184	0x3fba9f6ecfc3c79f	0.10399525234586669
185	0x3ff1096f0848b51b	1.064803154334476
186	0xbfe4e87a997fda00	-0.6533787725482512
187	0x3fcd6c3a3339ba87	0.22986533643002735
188	0x3fcb9fb543e5ba9b	0.21581140342046443
189	0xbfb16570bf131fc5	-0.06795410790357355
190	0x3fce411ab701647e	0.23636182723820193
191	0x3fe3b251b1401c9d	0.6155174695894804
192	0xbfbd4dd2dcaf2d57	-0.11446874511527959
193	0xbfc17f33ccaec8e4	-0.13669440740847627
194	0xbfb6a8505e795720	-0.08850576693052092
195	0xbfb964dece2e1ca6	-0.09919540914244127
196	0xbfc2eab9a5176110	-0.14778824387645573
197	0x3f7128083d78902e	0.004188568294498691
198	0xbf86e1a116628293	-0.011172541137342484
199	0xbfd24a2171d309dd	-0.285774575382815
200	0xbfb5e0312faf62d5	-0.08545215048014694
201	0xbfb9671a09414ec5	-0.09922945714907445
202	0xbfb31fd900cb2f5c	-0.07470470685364944
203	0xbfb7ca8aea6d29df	-0.0929343054132583
204	0xbfbafe6c4b664d20	-0.10544468727885148
205	0xbfa1a7341256acc1	-0.03447878574237385
206	0xbfbb424050442e92	-0.10647966346385321
207	0xbfbbaf1fb013ff04	-0.10814092682630522
208	0xbfa71a915a90d970	-0.045124571137807545
209	0xbfb9d651e0930c81	-0.10092651112340613
210	0x3f5fa8124167fe9b	0.0019321611667918795
211	0xbfb8f361cb9d92b6	-0.09746371480066326
212	0x3f91bd17288c3255	0.01732288537009404
213	0xbfb204ab13bc9ac6	-0.07038373214582369
214	0xbfc52299a6bc2727	-0.16511841431957316
215	0xbfa862c532d4b31d	-0.047628557639063575
216	0xbf74f764866f887a	-0.005118744541478754
217	0xbfbb0d267f76a1be	-0.10566940891170071
218	0xbfb9377851bc1d67	-0.09850265498618214
219	0xbfd050c480c66c66	-0.2549296624726537
220	0xbfb9537b923476e2	-0.09893009490448493
221	0xbfba690de5e90ecc	-0.10316550124212681
222	0xbfc10b3721674b58	-0.13315476542501403
223	0xbfb6a7f3c37f2267	-0.08850024721972148
224	0xbfb9d89edf6ed3a0	-0.1009616179934043
225	0x3f4868bf8af80c91	0.0007449088352021895
226	0xbfb784ed2a4676ea	-0.0918720463000359
227	0xbfb8d7b3e8eeda74	-0.09704136311379746
228	0xbfb8303dbfec4895	-0.09448610244388285
229	0xbfb8122f2d39d240	-0.09402747015139656
230	0xbfc147193b2f0ca9	-0.13498225583871218
231	0x3f6cb7ac8ca72ac8	0.0035055513483020807
232	0x3fa917f4381ef050	0.04901087937420867
233	0xbfbda6405bde0c30	-0.11581804507118032
234	0xbfb1a2568b5cfdb3	-0.06888333227560998
235	0xbf61522fca7c60dc	-0.0021143849770731537
236	0xbfa193d0edb047ba	-0.03433087254974461
237	0x3f8fc0b099be2db9	0.015504245464191923
238	0x3f8112745a051d3c	0.008335980412666026
239	0xbfd22faef8dc8d98	-0.2841603689468797
240	0xbfc6e2dfac903b36	-0.17879863668391643
241	0xbf9caea611bab87e	-0.02800998194896253
242	0xbfb71c6dbf1a58cc	-0.09027753749464579
243	0x3f8cd2bb2c1c860d	0.014073812755273552
244	0xbfce6557d590eb70	-0.23746774604827747
245	0xbfc731b2655f7048	-0.18120412778705686
246	0xbfb93538d3a3e51a	-0.0984683529567473
247	0xbfb8472d1f08ac8a	-0.09483606345809129
248	0xbfb7984eb18add0d	-0.092167776437112
249	0xbfbe4224eb263977	-0.11819678059530313
250	0xbfd2fb5811602211	-0.2965908212359248
251	0x3fa576904de8de87	0.04192019415898778
252	0xbfb8ea938e4ee40f	-0.0973293516571092
253	0xbfbc221055f55799	-0.10989477251618353
254	0xbfbbb202673fd8bf	-0.10818495770203905
255	0xbfb2595be5714984	-0.07167600967048854

b3 f8 [64]
0	0xc0163c398d1bd701	-5.558813290428362
1	0xbfc9b129f6c1d04a	-0.2007191138142182
2	0xc0138b361a80a776	-4.885948576071192
3	0xbfdb794aadf7e010	-0.4292780589016738
4	0xbfe3532947c6288b	-0.6039015199505838
5	0x3ff6b3a4e76793cd	1.4188584365121983
6	0xc00d26db666d0938	-3.6439731599831724
7	0xc00e980955ccb70f	-3.824236555395039
8	0xc007acf8adc16083	-2.959458692039392
9	0xbfd288d2d918cb33	-0.28960105133880915
10	0xbfc526499bc4507b	-0.1652309427814805
11	0xbfda5f2ea2c958e2	-0.4120594587051426
12	0xbff2a9ef83b56d76	-1.166488184439769
13	0xc0098e770f85d55c	-3.1945630276410792
14	0xbff68596d4b384a6	-1.4076145466463372
15	0xbfcf8f4c8cb123a6	-0.2465606390926755
16	0xbff96812871f4617	-1.5879082945069791
17	0xc0125efc9d7c0a22	-4.592760525413299
18	0xbfea75e9763a0b33	-0.8268935498348128
19	0xbffc5e61b44bd9ef	-1.7730423968147269
20	0xc01aa7e7edaa91cc	-6.663970674072015
21	0xc00a3f07047d9329	-3.280775103647461
22	0xbfeb8938c67d0aa9	-0.8605007054068966
23	0xc0053a6e6e574d12	-2.65353094295427
24	0xbfc998f69bdae119	-0.19998056993586813
25	0xc012e3163ff3f074	-4.721764563812133
26	0xc0130e84f5111fb8	-4.764179066820297
27	0xc004dea4f223b8e3	-2.608713046755939
28	0xc0055b0c5f36eed3	-2.6694571913375085
29	0xbff27d78c98ca163	-1.1556327698727606
30	0xc013c95add9aac79	-4.946635687413726
31	0xc01fedbd825cd013	-7.982168232836574
32	0xbfd06ce82437bb82	-0.25664714371571773
33	0xc0003725926f37c3	-2.0269271316710458
34	0xbff521856e271bdb	-1.320683889660123
35	0xbffd9ea8498f96ab	-1.8512347100708364
36	0xc0035c48ff80398b	-2.420061107731447
37	0x400fdaa0faea7fbf	3.9817523577512186
38	0x3fe19c892dc8cee2	0.550358380720777
39	0x3fe442ea2ba90cc7	0.6331683018437609
40	0xbfd3aa2dd4ba0f14	-0.3072619035158237
41	0xc00a406f938c69e0	-3.281462815020163
42	0xbfe339064e3da460	-0.6007110145702761
43	0xc00f509df46991dc	-3.9143637747495017
44	0xbfc518d6780e1528	-0.16482048856793452
45	0xbfc8f526ea18e6e7	-0.19498144560366557
46	0xbff0a6815d328f5a	-1.0406507149245585
47	0xc00abfe95ba56bb8	-3.343706813798658
48	0xc01059867f6b42cc	-4.087427130624473
49	0xbfee97dbd04c02ff	-0.9560374325083955
50	0xc0112fe791e66aa1	-4.296781806648739
51	0xc01311bd36550abf	-4.767323349896002
52	0xbfe25c75b85b484d	-0.5737866020883843
53	0xc009c29d73064c39	-3.2200268732354087
54	0xbffeb65c1b8ec698	-1.9195214344476081
55	0xbfd5798e903cf869	-0.335544243676742
56	0xbff05b8c42863c07	-1.0223505591018254
57	0xc00bc10451bce7a8	-3.469246519639416
58	0xbfe278673ecdd2aa	-0.5771976687088529
59	0x3ff15fb9f24beee3	1.0858706917487602
60	0xbfc9b6c9d5857809	-0.2008907597145824
61	0xc0001a98c8258a89	-2.0129867207008982
62	0xc011bba86b8b7695	-4.4332596591827
63	0xbfe2ba6d534463d0	-0.5852572084723935
