10by10recording/src/3layerMLPparameter/3layermlp.npz (npz, 105860 bytes, 10 tensors)

mean f8 [100]
000000 00 00 00 00 00 00 00 00 00 00 00 00 00 00 00 00
       0.0 0.0
000010 00 00 00 00 00 00 00 00 00 00 00 00 00 00 00 00
       0.0 0.0
000020 00 00 00 00 00 00 00 00 00 00 00 00 00 00 00 00
       0.0 0.0
000030 00 00 00 00 00 00 00 00 00 00 00 00 00 00 00 00
       0.0 0.0
000040 00 00 00 00 00 00 00 00 00 00 00 00 00 00 00 00
       0.0 0.0
000050 00 00 00 00 00 00 00 00 02 33 8e e4 1d a9 af 3f
       0.0 0.0618371335504886
000060 67 e4 6e 47 f4 9a 6c 3f c2 23 70 3a f8 6a 9b 3f
       0.00349185667752443 0.026775244299674268
000070 00 00 00 00 00 00 00 00 4a b9 57 0e 56 04 9a 3f
       0.0 0.025407166123778503
000080 cc 02 1b 79 7a 4f 9a 3f 86 35 ef e2 32 ac 9d 3f
       0.02569381107491857 0.028977198697068406
000090 eb 79 04 77 59 db a9 3f 8d 3a b1 df 5c b2 99 3f
       0.05050162866449511 0.025094462540716612
0000a0 00 00 00 00 00 00 00 00 a1 f8 06 5d 61 7b 87 3f
       0.0 0.011465798045602606
0000b0 6f 0a 7c f2 85 c7 8d 3f 2b 89 22 21 7f 19 7e 3f
       0.01454071661237785 0.007348534201954397
0000c0 de 9a 07 94 de 9d 49 3f 4e 4c de e3 9e 9a 9a 3f
       0.0007817589576547231 0.025980456026058633
0000d0 2a 42 6e 10 77 78 6a 3f 86 35 ef e2 32 ac 6d 3f
       0.003231270358306189 0.0036221498371335507
0000e0 b1 44 21 b3 84 d4 59 3f 00 00 00 00 00 00 00 00
       0.0015765472312703583 0.0
0000f0 00 00 00 00 00 00 00 00 40 6d e1 00 24 5d 7a 3f
       0.0 0.0064364820846905535
000100 6b 5b c8 22 0e 5f 91 3f 02 c6 c2 15 6e e6 8e 3f
       0.01696416938110749 0.015087947882736156
000110 1b 3d 08 cb 5b c0 5b 3f 47 4c 3a 9b ad e8 57 3f
       0.0016938110749185667 0.00145928338762215
000120 e3 32 ac 1d 60 88 73 3f ce 4e ed 3d bb 44 77 3f
       0.004768729641693811 0.005680781758957655
000130 8a cd 93 6c b4 96 77 3f 49 98 0c 60 ee dd 74 3f
       0.005758957654723127 0.005094462540716612
000140 00 00 00 00 00 00 00 00 3e 05 e2 41 b4 95 a1 3f
       0.0 0.03434527687296417
000150 93 14 ec c5 ad e9 8d 3f cc 95 4f aa ca 8c a9 3f
       0.01460586319218241 0.04990228013029316
000160 08 3d 45 43 04 57 a4 3f a4 86 6f 7e 71 bd 8e 3f
       0.039726384364820844 0.015009771986970684
000170 a5 6a 42 84 42 eb a2 3f a2 fd 24 11 9a cf a0 3f
       0.03695114006514658 0.03283387622149837
000180 6a 35 5f c0 6d e4 72 3f 22 1c 61 65 e5 4b 69 3f
       0.004612377850162866 0.0030879478827361565
000190 00 00 00 00 00 00 00 00 03 ec 2b 78 0e 61 ad 3f
       0.0 0.057381107491856674
0001a0 a0 d2 9d fa c0 00 89 3f 77 5b e7 61 74 16 a6 3f
       0.012208469055374593 0.0431400651465798
0001b0 72 0f c3 f8 3a c8 a7 3f 3c da 5a 2b db c6 a9 3f
       0.04644951140065147 0.05034527687296417
0001c0 75 ee c9 ee cb fa a3 3f db 0c 9f 72 ce 5b a2 3f
       0.0390228013029316 0.03585667752442997
0001d0 fb 16 bd a1 fd 24 a1 3f 47 4c 3a 9b ad e8 77 3f
       0.03348534201954397 0.0058371335504886
0001e0 00 00 00 00 00 00 00 00 2a 42 6e 10 77 78 4a 3f
       0.0 0.0008078175895765473
0001f0 10 89 92 fe b9 51 73 3f e4 74 42 7a 2f d5 ad 3f
       0.004716612377850163 0.0582671009771987
000200 72 c8 37 3a af d3 a4 3f 87 a7 01 b8 97 6f a8 3f
       0.04067752442996743 0.047726384364820844
000210 ad d2 e5 8b a3 64 8e 3f 06 59 49 eb b6 7c 6f 3f
       0.014840390879478827 0.0038436482084690552
000220 f2 79 a8 bf 4a 8d 9c 3f 30 21 c7 aa 00 04 78 3f
       0.02788273615635179 0.005863192182410423
000230 00 00 00 00 00 00 00 00 54 0a ec cf c0 ff 62 3f
       0.0 0.0023192182410423454
000240 de 9a 07 94 de 9d 39 3f b4 95 11 2c fe 1d 80 3f
       0.00039087947882736156 0.007869706840390879
000250 67 e4 6e 47 f4 9a 5c 3f a2 3f bb 6d 69 1c 6b 3f
       0.001745928338762215 0.003309446254071661
000260 17 aa 81 f5 12 2a 8b 3f 37 42 b6 a1 59 dc 7f 3f
       0.013263843648208469 0.007778501628664495
000270 18 af 9f a9 4b 7e 14 3f 00 00 00 00 00 00 00 00
       7.817589576547231e-05 0.0
000280 00 00 00 00 00 00 00 00 7c 56 44 a4 b0 c7 9e 3f
       0.0 0.030058631921824105
000290 81 60 d2 b0 1a c9 32 3f 87 5b 58 45 d3 26 9c 3f
       0.00028664495114006516 0.02749185667752443
0002a0 e2 2d 8e 69 27 34 9a 3f 00 00 00 00 00 00 00 00
       0.02558957654723127 0.0
0002b0 7f 35 4b 9a 41 fa 9a 3f e8 11 dc 65 6d 67 a0 3f
       0.02634527687296417 0.03203908794788274
0002c0 00 00 00 00 00 00 00 00 4a b9 57 0e 56 04 aa 3f
       0.0 0.050814332247557006
0002d0 00 00 00 00 00 00 00 00 ee 53 ed b8 b1 b9 ac 3f
       0.0 0.0561042345276873
0002e0 4a b9 57 0e 56 04 9a 3f 8b ee de 1a 1c bd 9c 3f
       0.025407166123778503 0.02806514657980456
0002f0 77 30 89 9d 17 f4 9e 3f 0b 5e b9 43 e8 29 9a 3f
       0.03022801302931596 0.025550488599348536
000300 06 38 fe 3c 4f 56 9a 3f 4a b9 57 0e 56 04 9a 3f
       0.02571986970684039 0.025407166123778503
000310 00 00 00 00 00 00 00 00 6b 30 6a 5e b1 3c ca 3f
       0.0 0.2049771986970684

std f8 [100]
000000 3a 8c 30 e2 8e 79 45 3e 3a 8c 30 e2 8e 79 45 3e
       1e-08 1e-08
000010 3a 8c 30 e2 8e 79 45 3e 3a 8c 30 e2 8e 79 45 3e
       1e-08 1e-08
000020 3a 8c 30 e2 8e 79 45 3e 3a 8c 30 e2 8e 79 45 3e
       1e-08 1e-08
000030 3a 8c 30 e2 8e 79 45 3e 3a 8c 30 e2 8e 79 45 3e
       1e-08 1e-08
000040 3a 8c 30 e2 8e 79 45 3e 3a 8c 30 e2 8e 79 45 3e
       1e-08 1e-08
000050 3a 8c 30 e2 8e 79 45 3e 71 30 cb 13 7c d4 ce 3f
       1e-08 0.2408595177315678
000060 3a 86 e4 c5 c3 33 ae 3f 50 b6 9f ec 9a a9 c4 3f
       0.05898868361169858 0.16142593912029435
000070 3a 8c 30 e2 8e 79 45 3e e4 c3 77 60 51 24 c4 3f
       1e-08 0.15735833368628882
000080 c9 52 61 84 8f 40 c4 3f 37 75 16 85 95 78 c5 3f
       0.15822023357272588 0.1677424335329449
000090 6c 4e ad ce 75 07 cc 3f ca 8f c9 7c 4f 05 c4 3f
       0.21897766677522001 0.1564120635331377
0000a0 3a 8c 30 e2 8e 79 45 3e 84 3f e9 02 26 41 bb 3f
       1e-08 0.10646283694336317
0000b0 ea ed f2 9b fc a4 be 3f 07 60 51 4c 4d dd b5 3f
       0.11970499808642612 0.08540804970959935
0000c0 73 63 61 c3 ab 9e 9c 3f d1 34 c3 26 a2 5c c4 3f
       0.02794903163917035 0.15907694714261436
0000d0 9e 3e d4 35 a5 0e ad 3f 7c 24 b4 9b 2d c2 ae 3f
       0.056752360173161195 0.06007521176986416
0000e0 9f 2d 04 dd 35 50 a4 3f 3a 8c 30 e2 8e 79 45 3e
       0.0396744568152727 1e-08
0000f0 3a 8c 30 e2 8e 79 45 3e 8e 69 f7 b2 da 78 b4 3f
       1e-08 0.0799690901689358
000100 c9 82 ab 74 90 87 c0 3f dc 74 e8 65 06 35 bf 3f
       0.1291370935132561 0.1219028471754941
000110 6d 4c 3c 5a d2 0d a5 3f 62 e8 31 19 5f 8b a3 3f
       0.04112107612140723 0.03817269499354904
000120 d5 75 88 aa d9 a2 b1 3f be 8b 6b 3a 76 3d b3 3f
       0.06889114774136058 0.07515658308288573
000130 6e 97 31 b7 0a 5f b3 3f 2e 6e bd 40 bc 39 b2 3f
       0.07566897366049627 0.0711934717232274
000140 3a 8c 30 e2 8e 79 45 3e 4d b3 e1 f3 86 4f c7 3f
       1e-08 0.18211447628291424
000150 a4 34 39 f7 47 b6 be 3f c7 53 13 4e 01 df cb 3f
       0.11996888910035125 0.21774307548790103
000160 35 68 f1 69 1a 00 c9 3f f9 71 2e 0d 9e 20 bf 3f
       0.19531564877508037 0.12159145185291455
000170 1e f8 5b be 6a 25 c8 3f c4 05 e5 82 4f cf c6 3f
       0.18864187521825299 0.1782016171583064
000180 4c d1 4e 7a 91 58 b1 3f a5 5d 40 c1 53 68 ac 3f
       0.06775769458801512 0.05548345312143547
000190 3a 8c 30 e2 8e 79 45 3e 02 c8 a7 6f d5 c4 cd 3f
       1e-08 0.23256938888476958
0001a0 21 54 a9 df dc 1c bc 3f af aa 53 34 8d 01 ca 3f
       0.10981541119083761 0.2031723504545275
0001b0 b5 e1 f4 7a 3d f0 ca 3f 2c 17 c5 13 ef fc cb 3f
       0.2104565477727768 0.21865642991377265
0001c0 03 9d 44 85 7f c9 c8 3f 84 2e 59 c8 a4 cc c7 3f
       0.19364923484065608 0.18593272955546436
0001d0 5f a8 13 27 f8 06 c7 3f 12 d7 4c 09 64 80 b3 3f
       0.17990018756910595 0.07617783762983901
0001e0 3a 8c 30 e2 8e 79 45 3e 1e dd 44 1a af 17 9d 3f
       1e-08 0.028410659769375284
0001f0 15 88 68 8e 3a 8a b1 3f 82 8c 42 4e d5 fb cd 3f
       0.06851545311704428 0.2342478401306814
000200 1d 4f 11 f2 0e 49 c9 3f 1c 75 b0 e3 b3 49 cb 3f
       0.1975420648546952 0.21318672769204106
000210 4c 08 a6 91 35 f4 be 3f d4 52 58 24 76 ae af 3f
       0.12091383748887202 0.06187791055359573
000220 10 37 db ff d1 12 c5 3f 9f 38 d1 dd 74 8b b3 3f
       0.1646368502901443 0.07634668746433924
000230 3a 8c 30 e2 8e 79 45 3e 71 92 02 8d e0 a0 a8 3f
       1e-08 0.04810239526094485
000240 ac 26 9f b0 c0 3d 94 3f 13 29 a4 06 de 9e b6 3f
       0.019766817836887426 0.08836162244930205
000250 7a da b9 8f f8 5f a5 3f 27 50 38 c4 cb 67 ad 3f
       0.04174782518832827 0.05743252535117476
000260 b1 81 e7 4e 7a 49 bd 3f dc 88 2f 4f 7a 7d b6 3f
       0.11440243173956934 0.08785213883632842
000270 5d f1 79 a3 6d 1b 82 3f 3a 8c 30 e2 8e 79 45 3e
       0.00884137778415866 1e-08
000280 3a 8c 30 e2 8e 79 45 3e 28 32 71 cc 17 db c5 3f
       1e-08 0.17074868662383946
000290 7c 6e e9 9f 9e 55 91 3f d6 b0 03 16 f3 ed c4 3f
       0.016928175459141034 0.16351164412424762
0002a0 ca 65 41 72 4f 36 c4 3f 3a 8c 30 e2 8e 79 45 3e
       0.15790741995696883 1e-08
0002b0 df 59 c3 f4 1e 80 c4 3f 8d e6 5d b2 92 8a c6 3f
       0.16015994025538213 0.17610391339603773
0002c0 3a 8c 30 e2 8e 79 45 3e ac 43 3f a4 74 1c cc 3f
       1e-08 0.21961839694861618
0002d0 3a 8c 30 e2 8e 79 45 3e fe 4d 9d e3 aa 74 cd 3f
       1e-08 0.23012291063297136
0002e0 d0 bf 77 60 51 24 c4 3f 9f 44 cb 29 ee 23 c5 3f
       0.15735833368625984 0.1651590065071433
0002f0 5d 04 29 5a 58 ea c5 3f b9 16 ff ed 75 32 c4 3f
       0.1712141456828559 0.15778993721885629
000300 af a0 76 a2 1e 43 c4 3f fe c5 77 60 51 24 c4 3f
       0.15829832966597254 0.15735833368630375
000310 3a 8c 30 e2 8e 79 45 3e 37 aa b7 7b f9 d5 d9 3f
       1e-08 0.403684969728292

W1 f8 [50, 100]
000000 fc 7b ac 49 82 e4 6c 3f c7 ae a1 59 1b f3 7c 3f
       0.0035269303019869174 0.007067782246035831
000010 12 16 12 29 e7 f3 6a 3f 93 52 c7 a2 18 aa 70 3f
       0.003290130124301135 0.004068466409496668
000020 86 95 10 93 58 3c 90 3f d7 c0 21 b1 a9 71 5b 3f
       0.015855201698419495 0.0016750485561054984
000030 da 26 10 37 2d 30 42 bf fc 99 fe f6 53 06 6a 3f
       -0.0005550595070655487 0.003176845544618388
000040 ce 9a cc 31 d8 da 4a bf da ea d4 fa a0 57 80 bf
       -0.0008195453297944134 -0.007979638724113714
000050 7c 48 05 13 9c 39 63 bf f1 50 46 e1 72 b7 b7 bf
       -0.0023468063665542088 -0.09264295577878891
000060 9b 34 3e 7c cd 0e a8 bf 0a f4 7a 7c 08 e2 e1 3f
       -0.046987935463314666 0.558841937184867
000070 d5 94 1d ba 81 9b 93 3f a8 cb ea ac 24 51 ac bf
       0.019147898659316837 -0.05530657397084521
000080 9e de cf 16 17 a4 a8 bf 55 01 c8 c3 47 81 a5 3f
       -0.048126908812205146 0.04200195565136037
000090 46 97 27 0b 55 28 d0 3f 6c 3d d6 ad f2 5b d0 3f
       0.25246168221780285 0.2556120584130983
0000a0 c7 3a c2 7a 43 1b 81 bf 3f 2a 11 44 22 57 a9 bf
       -0.008352782424734596 -0.049492903527227565
0000b0 a8 4f 4b 08 4c d1 a5 bf a4 7f e8 9d 31 52 bf bf
       -0.04261243439910284 -0.12234792809658629
0000c0 60 8e 0e 05 b7 fe 84 bf 0d ef d7 76 dd 9f 94 bf
       -0.010251455156157607 -0.020141086939459863
0000d0 f0 8c 80 4b ed 86 9f bf 03 72 c2 68 6d 98 9b 3f
       -0.03078814290360027 0.02694865180875362
0000e0 e4 0d 83 89 21 58 9f bf 7f 93 0c 6c 39 45 60 bf
       -0.03060963060194223 -0.00198613372085038
0000f0 1e 30 32 3d 8a 90 76 3f 70 4f fd 2e f7 ba 88 bf
       0.005508937832143372 -0.012075358506684813
000100 79 d2 59 64 0a 2c af bf 8c 59 25 22 d9 5b b4 bf
       -0.06088287806497745 -0.07952649196281508
000110 ca 05 38 d7 ef 03 84 bf d9 a3 f7 5d 9e a3 96 bf
       -0.009773133998353684 -0.02210853050738479
000120 85 77 53 0a 5e fd 8a bf e0 26 ea 7c 0a 14 a1 bf
       -0.013178572359205063 -0.03335602545582872
000130 28 7d ff 1c d1 be b1 bf 48 7d 96 ea 1b b2 a1 3f
       -0.06931788404425687 0.03456198919888692
000140 55 0b 08 4b 45 eb 91 bf f1 38 51 79 81 7a ba bf
       -0.017499048904947873 -0.10343178951118027
000150 4a a8 8b 0c 31 01 7c bf ce e2 e8 3b 94 9c 87 bf
       -0.0068370738961026165 -0.01152911956624916
000160 a2 70 00 c5 6a 5a aa bf 79 8b 2b e5 8e 63 6c 3f
       -0.05147107748800407 0.003465441791705212
000170 cc 7e 28 cf d6 0c a3 bf 76 c8 8f f0 7e 41 9b bf
       -0.037207329547752716 -0.02661703437110715
000180 11 b8 e0 87 58 ef a8 bf cd 76 e9 0f 8b 7f b4 bf
       -0.04870106371559769 -0.08007115496135526
000190 a8 c8 75 fe 98 31 84 bf ed 99 b9 7e 97 61 bd bf
       -0.00986022497702195 -0.11477038234588806
0001a0 45 96 d9 31 c9 9c b9 3f bb 5d f5 1e 89 42 ad 3f
       0.10004861323394561 0.05714825156126887
0001b0 ef 09 39 64 87 f6 b5 bf a4 0f 8c 1e 46 fe b2 bf
       -0.08579298207136053 -0.07419241185931341
0001c0 9b 20 59 17 08 44 b4 bf 31 ce df a0 d0 7e a1 bf
       -0.07916307992957387 -0.03417064632222056
0001d0 d2 de 3d 06 6c 83 b5 bf fb 73 22 f7 3f 03 c0 3f
       -0.0840365901220779 0.1250991780006244
0001e0 50 6c 0d ae fe 96 5e 3f d7 8d fa 0b 65 0c 95 3f
       0.0018670546634982528 0.020555094581721747
0001f0 c2 c0 fe 08 a4 45 b5 3f 17 ff 75 45 4e 34 a8 bf
       0.08309388370139728 -0.04727406118308702
000200 ff f4 14 7d 25 23 8f bf 11 06 36 df f1 2c b0 bf
       -0.015203755263991868 -0.06318580340850867
000210 3b c8 ba 1b 09 69 8b 3f b9 25 10 c9 8f 0c 9a bf
       0.01338393321870878 -0.025438543936649547
000220 ac 1e 7a bb ed d8 ae bf b2 b4 e8 52 c5 ad a3 bf
       -0.060248784194354726 -0.03843514096329538
000230 f6 10 ed 26 83 c5 84 3f 9d 99 ca 43 b3 cc 9f bf
       0.01014234983961913 -0.0310543069960204
000240 61 f2 05 82 16 a9 a9 bf 0a b8 42 95 98 4d 9d bf
       -0.050118163463569905 -0.028616317854066188
000250 e0 4d 3c b7 f5 2f 8c bf 59 82 d6 a0 38 0d 9b bf
       -0.013763351110845201 -0.026417622391479465
000260 83 df 2f 1b 8a 8e ae bf f6 15 33 2f a1 02 aa bf
       -0.05968123990891085 -0.05080131245771817
000270 14 7b 17 8e 9c cd 74 bf 60 12 1a 59 ba 93 83 3f
       -0.005078898947856531 0.009559112400219394
000280 15 a3 ec 78 72 79 91 3f 76 1b a7 40 78 ed bc bf
       0.017064846640241067 -0.11299850061832992
000290 40 11 91 7c 4f 92 80 bf b4 37 51 a0 96 e2 b3 bf
       -0.00809156512162501 -0.07767621435161126
0002a0 6c 51 56 c3 38 03 a9 bf c9 1a 2d 65 6e 25 55 3f
       -0.048852704853888124 0.0012906625822368004
0002b0 19 1a b0 cd 9a e5 5c bf 20 a8 ad 42 22 17 a7 bf
       -0.0017637264015789632 -0.045098372115561114
0002c0 75 72 0f 21 b4 f4 6f 3f 57 ab 20 ed a1 30 d8 3f
       0.0039008634707740583 0.37796829373353574
0002d0 5a aa 86 ee e7 af 9f 3f ae 79 c6 00 49 4f b5 bf
       0.030944465573762826 -0.08324104565551835
0002e0 8a 1e 80 6c 99 a2 ae bf 7a eb 97 6e 7a de 9d bf
       -0.059834284300504484 -0.02916899967201967
0002f0 89 f6 34 d5 ea c3 9e bf f3 70 b8 b9 d4 26 a4 bf
       -0.030044240248790408 -0.03935875670524238
000300 ca 2f 4d 56 3a 2a 40 3f ac 82 86 26 d7 dc a1 bf
       0.0004933152054973297 -0.03488800378113885
000310 f3 f9 76 6f 9c 2b 81 bf f9 7f 2d 32 24 e3 a3 bf
       -0.008383962775835285 -0.038842326283656754
000320 9e f6 2b e9 5d ad 94 3f d2 9b e8 ce 5f 17 87 3f
       0.020192592007325254 0.011275051595545014
000330 32 0c 6d cf c0 9f 81 3f f9 a4 39 6a 09 06 91 bf
       0.008605486230981983 -0.016624590977163376
000340 a7 74 45 a6 1e 8c 36 bf cc 4b ee 96 34 75 82 3f
       -0.0003440451457857409 0.009012614112895799
000350 85 7e 97 18 6b 6b 61 3f 05 52 4b e6 48 e1 75 bf
       0.0021264163703874094 -0.0053418014183148664
000360 35 cf 94 2d eb 33 87 bf 75 6a ca c9 8c 73 00 3f
       -0.011329495743303756 3.137849237085526e-05
000370 d8 0a 0a f1 dc 17 68 3f 2a b6 54 cc 10 26 a3 bf
       0.0029410662903627087 -0.03739979261659372
000380 fe 56 c7 75 ce 3b 90 bf 95 f6 4d 1f b7 c1 c4 3f
       -0.01585314363349876 0.16216172245542695
000390 7c bd 8e 58 59 bc 72 3f ea 0e 64 bc d0 78 b6 3f
       0.004574154861003318 0.08778099631677674
0003a0 ec f2 e4 95 c8 e9 aa 3f 11 e1 51 27 e7 60 96 bf
       0.05256487684025565 -0.02185403039445172
0003b0 cd 4b 1e 51 8d 36 90 bf 32 b6 c3 68 72 97 9e bf
       -0.01583309943778115 -0.029874599117581897
0003c0 92 16 d7 43 7b 4a 57 3f 02 48 e9 39 f1 f0 91 bf
       0.00142156636808136 -0.01752068439447641
0003d0 e7 09 2f b3 9e 9a 95 bf 93 a8 01 13 86 29 91 bf
       -0.02109764069224154 -0.016759962949813256
0003e0 84 24 4f 35 68 bc 70 bf 23 a1 5b a8 76 87 a8 3f
       -0.00408592897742566 0.04790850453520281
0003f0 96 f5 42 23 48 c7 98 bf 23 2f e1 4f 86 ee 7c bf
       -0.02419769969195825 -0.00706341233860622
000400 35 94 d3 f1 16 b1 80 bf 99 79 3d fd b3 ec 70 bf
       -0.008150271658857825 -0.004131987650764301
000410 65 8b 8b 8c 0d 75 6d bf 5b 5a 26 34 80 c2 90 bf
       -0.003595854246996865 -0.01636696165368288
000420 d5 e9 a1 07 d5 c2 7c bf 4c 8a b6 8c e8 2a 95 bf
       -0.007021743915283503 -0.020671495045130592
000430 5c a6 a5 ac 8b db 82 bf 2e 3b af db be 6e 89 bf
       -0.009207812505979955 -0.012418261603583138
000440 07 d2 2d e4 16 e9 85 bf 55 c1 43 ed 58 5e 80 bf
       -0.010698489035100968 -0.007992453327887597
000450 8e ae 32 50 73 f2 85 bf 2a db ed 04 9b b4 83 bf
       -0.010716343769977568 -0.009621821487355204
000460 4d 52 9a e7 16 4c 8e bf 48 c1 74 82 9a 35 a1 3f
       -0.01479356664939604 0.03361208765488982
000470 95 97 bc fc 36 e1 96 bf 4e df 5a bb 2f f5 93 bf
       -0.022343501258681526 -0.019489999590148792
000480 6f 65 86 a4 15 13 a0 bf 42 15 82 94 3b 11 7c bf
       -0.031395603498093 -0.006852371916584334
000490 f2 ea 0c 33 db 39 97 bf 7a 59 78 dd 82 fa 7b bf
       -0.02268164156996994 -0.006830702964654706
0004a0 d9 ed 43 c7 19 bb 84 3f 14 58 d6 7b a2 65 87 bf
       0.010122491258235765 -0.011424321560110008
0004b0 af 58 90 1b f1 15 83 3f f2 3d 32 31 13 0c c3 3f
       0.009319194463426632 0.14880599882279416
0004c0 b1 64 6a bd c2 90 af bf 21 1a d6 2f f7 d0 9e bf
       -0.06165131151392112 -0.030094015402506117
0004d0 89 50 fc f9 9c 34 90 bf e9 97 4c 51 a7 18 90 bf
       -0.015825703390036003 -0.01571904596053023
0004e0 19 1b 93 64 03 62 9c bf 17 95 45 5d 00 0c 9b bf
       -0.02771764088972892 -0.026412969296321167
0004f0 fa f4 d2 2b 57 1d 97 3f a1 5a b2 ba 8b 8e 87 bf
       0.022572862672622464 -0.011502353320151317
000500 55 d5 b5 0c 89 b6 91 bf ee e1 f6 6f 41 ce 67 bf
       -0.01729787960126335 -0.0029059675286726627
000510 95 78 cf 6f 07 ec 85 bf fa 17 60 76 fe 4d 90 bf
       -0.010704095935519834 -0.01592252347474952
000520 d6 88 fd 54 24 30 98 bf a0 fc 24 f1 b1 2f 97 bf
       -0.02362114685764357 -0.022642879813471795
000530 ee d8 63 6a 80 f2 9c 3f 1c 92 d3 ec 6f df 7e bf
       0.028268820279628785 -0.007537305076060121
000540 c9 73 19 8f ce e8 a0 bf 70 5e 13 85 d3 77 85 bf
       -0.033026175468627246 -0.010482456682822078
000550 95 63 45 07 71 a1 90 bf b7 0f b7 ce 42 69 80 bf
       -0.016240850514211386 -0.008013269360965454
000560 1e d2 ae bb 0a 30 99 bf 44 2d 2b b0 d8 ac a4 bf
       -0.02459732790494417 -0.04038121366974193
000570 32 62 32 87 be 93 76 bf cc b6 5e de 4d e5 86 bf
       -0.005511993647040957 -0.011179550503438128
000580 cc 3c a0 9a 5b 77 b2 3f 47 86 44 d3 66 0d ad bf
       0.07213375592276633 -0.056742871560584045
000590 e9 20 80 db 6d 91 6f bf 63 77 5f b2 5b 3e 91 bf
       -0.0038535257008370694 -0.01683944011880757
0005a0 b3 91 e7 87 b6 1f 81 3f c5 bb 0a ba 6c af 95 3f
       0.008361269018629302 0.02117700467595875
0005b0 e4 ba 52 af ee 34 5b bf 15 81 b1 ae e2 e4 b1 3f
       -0.0016605692774579956 0.06989876522994039
0005c0 c2 fc 12 af e2 cb b0 3f 33 8e f2 51 d1 55 6a 3f
       0.06561104559203826 0.0032147491725298626
0005d0 d1 78 c4 83 ee a8 bc 3f 71 a0 d2 db 0f 39 98 3f
       0.11195269314746105 0.023655174056927245
0005e0 3c 11 5e 41 46 5b 70 3f 3b 50 09 46 cf 8b 9d bf
       0.003993296084335459 -0.028853644036942887
0005f0 fc 5c 07 f7 d0 80 85 bf 14 95 b7 69 04 3e 8c bf
       -0.010499603785247384 -0.013790163494329856
000600 fd 46 17 d0 14 57 b3 3f 46 be ab 45 24 17 a2 3f
       0.07554750519127747 0.035332807068581704
000610 67 2f fa 80 6b 6e 8e 3f ea b4 29 00 8c af b9 3f
       0.014859046815466305 0.10033488277413807
000620 44 b0 b7 3c 75 3f a4 3f 48 d0 a7 ec 37 e3 b7 3f
       0.039546645795639296 0.09331082847330763
000630 51 ad 7d f9 db c6 71 3f 23 67 f9 d1 a1 91 ab bf
       0.004340037608794604 -0.05384545982515323
000640 a5 f7 86 1b e1 9d 78 3f 62 cd fb a3 45 a3 83 3f
       0.006009940458566653 0.009588760439760594
000650 24 55 28 69 a7 6b 82 3f 43 d3 a6 89 cb 1b 6e 3f
       0.008994396111158105 0.00367536309678443
000660 01 4a 8c d1 05 b8 5a bf 16 84 ee f3 54 95 4e 3f
       -0.001630788499998759 0.0009333290871503832
000670 a5 a6 df 33 e5 08 8d 3f b1 b9 fe 3f ea cd 86 3f
       0.014177122731740719 0.011134939268086482
000680 41 06 a9 db 6d f4 76 3f 7e a5 3e 19 0b a5 6a 3f
       0.005604199536323019 0.003252526928879617
000690 10 6e 4f c6 fe 06 84 3f 71 65 19 87 f2 0f 9b bf
       0.009778967310857062 -0.02642802190380195
0006a0 24 cf db 84 a3 d6 9f bf cb c0 bc 6b e3 8a 9f bf
       -0.0310922193375084 -0.030803254557384457
0006b0 56 f6 85 d0 55 53 85 3f 57 e9 ff 25 97 2c aa bf
       0.010412855554700656 -0.05112144793379752
0006c0 48 07 e8 f8 51 fc b0 bf 64 a4 6e 19 1c d0 ae bf
       -0.06635010077300507 -0.060181501488224126
0006d0 f9 eb 6e 10 ee c4 b3 bf e9 46 30 f7 f3 5c a2 bf
       -0.0772236623878796 -0.035865425037753536
0006e0 3f ac 5e 0d fd 88 92 3f ae 94 84 71 d8 6b b5 bf
       0.018100694600132746 -0.08367684146340323
0006f0 1c 59 e8 85 77 a7 a0 bf bf 14 3f 74 9d b6 a0 bf
       -0.032527670951980364 -0.032643242302165636
000700 0d 69 f7 89 16 4f a5 3f b8 d4 61 98 1e 42 ab bf
       0.04161901888046957 -0.053238826848351406
000710 03 a0 84 92 bb 9c 98 bf 3f ee a9 fc fd 14 a0 bf
       -0.024035387819054687 -0.0314101572921257
000720 a0 ef 45 88 fd 5d 95 bf e1 e1 62 2a 24 67 8b bf
       -0.020866357271628666 -0.013380320113683676
000730 9a ea dd dc 02 a8 6a 3f a2 15 67 2a cb e4 a5 bf
       0.0032539420998863424 -0.042761181760890624
000740 e4 02 21 4e f2 1e b0 bf 95 4f 70 d7 b8 15 af bf
       -0.06297220618672444 -0.06071260099284285
000750 c5 b5 2c 05 2e 96 a5 bf 3b d9 06 7f 2d ee a1 bf
       -0.042161405688925714 -0.03502027679080518
000760 b0 be 08 26 69 85 a5 bf ee 0c 93 29 33 eb a0 bf
       -0.042033468144265895 -0.033044432473184546
000770 59 b3 b0 94 a4 47 a0 bf 91 09 9e a7 74 f9 a2 bf
       -0.03179659190241208 -0.03705944582090404
000780 bf 5d e4 5b 81 d4 83 3f 23 4d e2 4f 9f ea ac bf
       0.009682665459464055 -0.05647752618929249
000790 e6 c8 59 a4 a6 99 80 bf e6 bc 09 12 87 58 b9 3f
       -0.008105565920434942 0.09900707426435282
0007a0 fe 3e 6d 9a cf 69 b8 bf 59 5b 8d 11 a4 1b 93 3f
       -0.09536454696830884 0.018660129138278723
0007b0 53 64 e1 21 06 3a c1 3f 50 62 5f de 72 fa b0 bf
       0.13458325056379525 -0.06632154397028356
0007c0 f2 83 5c 0a fa 47 6b 3f 23 07 a4 0d e6 81 99 bf
       0.003330219612408752 -0.024909586508335423
0007d0 67 af 6f 52 d7 e8 5a 3f 06 4d 86 37 ba 91 bd 3f
       0.0016424277071065087 0.11550487380582206
0007e0 34 2a 5a 2d d4 09 b1 bf bb 8a db 26 35 2e 8d bf
       -0.0665562258456383 -0.014248290298785595
0007f0 61 fc 4c aa 6a 3d b3 bf 82 cf 47 f3 7a 71 a6 bf
       -0.07515589387638634 -0.04383453578694142

b1 f8 [50]
000000 c4 7d 11 a9 38 ba c7 3f c8 05 97 6f c1 8d b5 3f
       0.18537052398003884 0.08419426893580984
000010 c7 8d c2 61 bf 6a d1 3f c9 9b 30 8f 6c f0 d4 3f
       0.2721403555571808 0.32717432006250796
000020 ee ea 9a 23 dd 46 c7 3f 5b 73 e9 76 45 9c b6 3f
       0.18185009230167942 0.08832201150057754
000030 93 a3 af 8a 99 a7 d0 3f 1d 11 6b 10 49 73 9d 3f
       0.26022947829783866 0.028760091425980783
000040 20 cd 00 5a 4d ac ca 3f 91 67 3e cb 09 0b ac 3f
       0.20838324446376877 0.05477171522143388
000050 f4 17 b4 45 16 44 c2 3f 6d 24 60 52 25 a4 c7 3f
       0.14270285037508723 0.18469683191532074
000060 2c 70 6b 71 7c 3d 98 3f 8b 80 58 95 ca 4f cd 3f
       0.023672050879085457 0.2289975384928805
000070 3f 10 14 7b 30 58 96 3f 7e 39 7c 76 52 d9 a7 3f
       0.0218207907792165 0.046579911197215815
000080 0c c0 31 5c 7c 92 e1 3f 70 0f eb 53 d1 e0 c7 3f
       0.5491315651579511 0.18654839131897516
000090 26 9c af 18 7e 87 b3 3f ea 80 0c bc bc d6 b9 3f
       0.07628620245633097 0.10093288031612571
0000a0 32 56 94 d5 9d f2 cc 3f ba bc d9 3a 64 9f d3 3f
       0.22615406922038656 0.30660348651049285
0000b0 ce 2a 27 cb 2d dd 98 3f cd 4d 53 81 3e 09 b1 3f
       0.024281230473017605 0.06654730470045607
0000c0 2b cb 50 19 f3 9a 99 3f 5b 41 75 3c d3 5a c1 3f
       0.02500514833463822 0.1355842633443086
0000d0 82 2f 21 88 83 87 b3 3f ea 27 41 07 02 0e d6 3f
       0.07628652642705272 0.34460497578095206
0000e0 a0 e7 1d f5 23 89 ba 3f 37 e5 21 19 11 db b0 3f
       0.10365509733483558 0.06584269393524243
0000f0 76 08 ee 73 03 cb b4 3f 28 19 c8 22 c9 59 d5 3f
       0.08122273998563564 0.3336050834335702
000100 eb 0b 8d 01 0b e3 b6 3f f5 87 f0 62 67 4d be 3f
       0.08940190112939177 0.11836858907238919
000110 61 82 c8 3c f9 91 87 3f 10 02 83 74 7c 6c ac 3f
       0.011508891265351541 0.05551518366110397
000120 46 ef fa 99 6b 6a d6 3f 7a 68 7e 7f fe b8 b3 3f
       0.35024538075571277 0.0770415364517322
000130 71 9c c5 3e 84 c0 ae 3f b6 58 70 c4 3a 0e cb 3f
       0.06006253496416825 0.2113717517065134
000140 d7 a9 e2 7b 54 ac b8 3f e9 7c 97 f7 be e2 a8 3f
       0.0963795473532295 0.04860493442878939
000150 0d d5 92 13 7f bc c1 3f 7c 84 36 e7 5c 81 a7 3f
       0.13856495338192368 0.045908835624921956
000160 5a b6 41 6d ae 12 bf 3f 96 ca 11 f1 b5 dd c1 3f
       0.12137880484962107 0.1395785739037662
000170 07 fc 67 e3 b3 34 aa 3f 04 ad 67 71 12 e3 c2 3f
       0.05118333960489712 0.14755468880989764
000180 22 05 4b 86 0f 93 ac 3f 22 a7 d2 e1 86 ec a9 3f
       0.05580948366469786 0.05063268190981619

W2 f8 [64, 50]
000000 96 15 36 50 32 1c a7 bf d7 1e 78 11 3e 4d a9 3f
       -0.04513699750081483 0.04941743815657922
000010 22 88 d5 d3 38 f4 b3 3f c9 70 53 69 58 55 b5 3f
       0.07794528171282925 0.08333351680215907
000020 72 74 f9 df c5 bb c0 3f 88 cb 48 c3 98 e5 b1 bf
       0.13073037563563933 -0.06990961806950058
000030 62 95 3b 91 46 de c3 3f 2b 3f 1d 6a 70 bd 97 3f
       0.15522081462328702 0.023183590389918834
000040 64 94 0e 2d 0b c7 af bf c5 64 59 34 e8 83 71 bf
       -0.062065457582584554 -0.004276186989579493
000050 73 c5 e3 a0 90 c6 ac 3f cf 92 6a 9e b9 49 ab 3f
       0.05620243038164121 0.053296852672507826
000060 31 70 b8 59 04 7d 90 3f a2 43 d6 a8 39 f8 b6 3f
       0.016101901985266124 0.08972511646267248
000070 49 8e e3 f3 a2 86 98 3f 7b ce c2 b8 0f b2 6a bf
       0.023951097617908954 -0.0032587344231503313
000080 8c 27 ab 0c 6f ef b4 bf 0a 68 c3 88 80 5f b0 3f
       -0.08177846965113938 0.06395724619815737
000090 77 a9 70 f3 6e 34 9e bf e5 9b 3d 56 b9 03 ae 3f
       -0.029496892555621792 0.058622161652969663
0000a0 84 39 31 b5 92 04 c7 bf 8c f6 1e 92 af 3c a2 bf
       -0.17982705924300657 -0.03561924608901021
0000b0 ef fd 55 86 94 b2 64 bf 2b 20 84 27 8d 91 9d 3f
       -0.0025265599130646003 0.02887554696738463
0000c0 ae f7 1d c8 d0 6d a4 3f 58 35 8a b0 a0 9e a0 3f
       0.0399003261836549 0.032460233259466065
0000d0 d6 07 4b ee 1d 77 a2 3f 44 b0 2b 90 8a c1 b7 bf
       0.03606503995753456 -0.09279695529738868
0000e0 60 dc 74 2c 4a fc b5 3f 3f 81 2b 32 03 f3 b1 3f
       0.08588088593829601 0.07011432623722146
0000f0 9c c8 52 c0 b3 47 a2 3f 62 e7 16 56 b7 4b bd 3f
       0.035703294016813575 0.11443658687394767
000100 a0 be db 9f a1 61 a9 bf 07 93 3a 2a bc d0 33 bf
       -0.04957299305340013 -0.00030235856886866346
000110 30 0a a8 09 7e f7 85 3f cd 44 c9 95 f4 91 b0 bf
       0.010725960416498287 -0.06472710282220646
000120 fb 52 db 45 c4 ff b4 3f 94 7b b9 1e 84 12 72 bf
       0.08202768998610203 -0.004412189573115639
000130 ce 33 d4 cf 40 0c a7 3f 36 a8 71 dd 24 1a 8a bf
       0.04501535927747789 -0.012745178230222459
000140 ba d9 a4 05 d5 47 b5 bf ee 27 a3 7b 9a 31 a1 3f
       -0.08312732112685853 0.03358156928295829
000150 39 cc 0c 2a f5 9a bb 3f 5b c2 4e e6 e0 2c a3 3f
       0.10783321644412149 0.0374517708909294
000160 40 07 0e 75 43 85 a5 bf ab b6 da 96 47 a1 a3 3f
       -0.04203234485522822 0.038339841046178456
000170 02 81 1d a2 d4 1f 60 bf 8a fe e5 40 ad 1a a5 3f
       -0.0019683030122196197 0.041219152614755464
000180 1f 51 bf a9 ec d4 a9 bf f0 35 0d 80 29 0e 92 bf
       -0.05045260974989873 -0.01763214916291206
000190 73 22 fc 9d 14 e3 83 bf 3f 64 c9 7d b1 d0 64 bf
       -0.00971046549922614 -0.002540918982316259
0001a0 e8 d2 db bd 57 f1 80 3f 3d fe 0e f5 c5 c3 a0 3f
       0.00827282474663478 0.032743631519676054
0001b0 a3 3b f8 bb 53 cf 8d 3f 46 46 c8 cf 0a 2e af bf
       0.014555601285818847 -0.060898149360707296
0001c0 b0 91 8c 7d 19 86 8f 3f 7a 28 59 4b e5 bb 83 3f
       0.01539249338527146 0.009635726320216021
0001d0 f0 33 9d 5f ca d8 8f bf d8 2c 8b 6e c7 f4 9b bf
       -0.01555021385470387 -0.027300945398377546
0001e0 ae 42 c7 14 57 3f 80 3f 38 63 29 11 fa e3 92 3f
       0.007933311769109021 0.018447787568536017
0001f0 6b e9 50 d3 c9 20 85 3f c7 bf 17 b6 ba 65 89 3f
       0.010316445123056813 0.012401064569502197
000200 09 3c f1 c5 16 fe 8b 3f a3 8c ba 1d e1 03 74 3f
       0.013668229976387296 0.004886512145876018
000210 be 05 49 0a d2 e9 b3 3f c1 76 f0 fd 9d c6 97 3f
       0.07778656722168528 0.023218601822114552
000220 7b 2f bb 58 97 d1 86 3f 71 10 b6 90 d5 17 74 bf
       0.011141950984345552 -0.004905542601935862
000230 44 c0 15 bb 51 a4 9a 3f 85 30 04 24 d5 5c b8 bf
       0.026017453235397406 -0.09516651276880068
000240 85 61 1e 71 db 4f 86 bf eb f7 f4 8a 7c b5 57 3f
       -0.010894503011329668 0.0014470783460889213
000250 ad 83 0d 26 72 53 76 3f 38 c4 0e cf cc 46 86 3f
       0.005450673955096724 0.010877227848910306
000260 e2 ff 49 07 5d 63 74 3f 75 f9 6f e5 27 f3 b3 3f
       0.004977572815391769 0.0779290137433913
000270 aa 9d 55 f8 c7 05 9d 3f 28 83 53 b7 60 c4 9a bf
       0.028342365772372403 -0.026139746846527562
000280 25 fc a3 65 da e3 64 3f 10 b3 1f 2a fc d8 af 3f
       0.002550055081087093 0.06220233930785046
000290 dc 76 a5 57 31 b0 74 bf d6 14 5f 8c e7 ff 95 3f
       -0.005050842994334306 0.021484010641661687
0002a0 da 82 59 d5 01 4a 65 3f f2 62 e8 41 cc ab 9b 3f
       0.002598765927175212 0.027022544405641953
0002b0 a7 d2 e8 06 a8 5d ab 3f 90 81 79 61 60 37 88 3f
       0.05344891628593489 0.011824372267427191
0002c0 03 0d 9c f1 88 4b 9e 3f 0a 98 fa 0f 0a 70 af 3f
       0.02958501791637237 0.06140166707091062
0002d0 56 b5 f6 e9 65 b3 a4 3f 9a c5 14 1a ba cd 81 3f
       0.04043119889261486 0.008693174286778672
0002e0 58 da 5a d4 16 52 96 3f 70 1a 02 f6 76 c4 93 bf
       0.021797520362009187 -0.019304140820646187
0002f0 aa df 8c d7 3b c0 9d 3f 2c f9 13 38 46 94 91 3f
       0.0290536260901885 0.01716718404076649
000300 31 9f c3 a9 a1 d9 6a bf 58 a6 1b f6 ab 6f 94 3f
       -0.0032776029093958482 0.01995724382041994
000310 92 70 10 44 8e 63 90 3f 23 e1 2c b6 bc f0 50 3f
       0.016004774956045305 0.0010339587103783208
000320 85 f2 1f 24 1a bf 84 bf 59 bc 3f ec e5 7b 80 bf
       -0.010130123355332596 -0.008048816940542535
000330 79 0b 16 1b 36 a7 8c bf 45 f3 3a 55 84 35 92 3f
       -0.013990805341341549 0.01778227586941063
000340 80 43 af a1 dd 0a 71 bf f5 6c 44 77 c0 65 51 bf
       -0.004160753010140961 -0.0010618571805654485
000350 b6 62 d3 d6 2c 37 91 bf 14 9d 51 6a 4f 12 8d 3f
       -0.016812039005204858 0.014195080215542201
000360 c5 03 21 da e7 2c 58 3f d2 5a 29 bb 41 02 4e bf
       0.0014755500965437523 -0.0009157963707576383
000370 cd 10 73 fe 92 a3 8f bf 4f c4 31 d5 38 4d 92 3f
       -0.015448711767369972 0.017872703564027422
000380 96 ff 42 9e 36 f8 8b 3f d4 f2 19 ac a5 9a 95 bf
       0.01365702314831178 -0.02109774458812093
000390 b3 dd 3e 2e 8a 4a 8a bf 70 19 2e ea b2 64 7e bf
       -0.01283748582487374 -0.00742025269108236
0003a0 68 41 95 6d 9f c5 a0 3f 01 c7 d5 10 cb 79 86 bf
       0.03275774204905951 -0.010974489642396447
0003b0 df 20 31 87 5a 57 93 3f 48 eb df 1e d2 02 6b 3f
       0.01888791513582155 0.003297243491940636
0003c0 8a 92 f1 23 0b aa a0 bf 32 c7 21 a3 bb 17 a2 bf
       -0.032547329080249446 -0.03533731809956321
0003d0 e7 97 a1 7f 31 b7 61 3f 88 17 11 3f 7c 9d 74 bf
       0.002162548710702861 -0.005033002221415013
0003e0 b9 6c 29 64 46 a6 42 3f c2 02 44 b5 2c a8 75 bf
       0.0005691379267988218 -0.0052873369606920035
0003f0 f3 df c6 89 84 bd 8c 3f 65 20 98 09 e5 29 94 3f
       0.014033351378074576 0.019691065512262535
000400 bf de 8e 1d 4d 37 94 3f 67 d5 29 0c 34 aa 8a bf
       0.019742207459528368 -0.01301994955177106
000410 82 1f 7e 9a 66 f7 71 3f 07 a7 20 44 71 c2 82 3f
       0.004386330408926999 0.009159932033145702
000420 bc 31 db 63 d1 c3 47 bf 69 97 51 a1 1f 4e 90 3f
       -0.0007252476131838696 0.015923017712700913
000430 a3 fe 46 eb 09 9a 63 bf f7 1f ca 8c ec 1a 79 3f
       -0.0023927873355374537 0.0061291923744946
000440 4f fa a2 a8 d5 f0 3d 3f 68 23 4d 90 cd 61 66 bf
       0.00045685974385981527 -0.0027321829715315944
000450 0f c4 ca 4d da 17 65 3f ad 92 8b 16 30 33 9b 3f
       0.0025748504397928927 0.026562453628587935
000460 e0 2b 68 7e 93 4c 90 3f f8 e0 02 67 c7 15 7a 3f
       0.015917114820734102 0.006368426242424834
000470 0a ee d6 67 c3 25 6a bf c3 da 6e 52 eb 24 5c 3f
       -0.0031918350711899234 0.0017177866045422908
000480 e8 51 ae 4c d1 90 99 3f 38 2c 2a 67 81 6c 95 3f
       0.02496649771235751 0.02092172805945955
000490 2a 05 44 d1 57 a7 7c 3f b6 8a 54 4c 8d 5e 81 bf
       0.006995528256312592 -0.00848112477485095
0004a0 a0 47 f3 bb 81 6f 81 3f 95 2c 63 fd 09 a0 97 3f
       0.008513463543213196 0.023071437922038546
0004b0 74 c2 e4 ca e0 ae 9c bf ce c3 36 50 55 71 83 3f
       -0.028010856994287583 0.009493509779391032
0004c0 27 3a 9c 44 84 b6 91 3f 7e 4e 38 4d 33 46 79 bf
       0.017297808349264223 -0.006170463940651792
0004d0 88 4a 97 b3 7c 17 8b 3f 12 a0 ed 44 24 29 7b bf
       0.013228391867334169 -0.006631032635461069
0004e0 9d 29 de 66 ab 8d 8d 3f 42 b1 e0 01 5a 74 80 bf
       0.014430369450356301 -0.008034423048308374
0004f0 2e c7 0c 00 a7 f4 96 bf 68 3d 58 66 10 e8 71 bf
       -0.022417649629637264 -0.0043717041603622345
000500 67 ad a1 49 d1 d2 91 3f 36 71 a3 55 92 77 89 3f
       0.017405767554391185 0.012435096014478658
000510 d7 e2 8e 07 c6 b4 7f 3f 63 b2 e6 f9 bc 69 8d 3f
       0.007740758469417761 0.01436183583867851
000520 f9 3c 7b a9 10 21 84 3f b8 69 70 8f fa 51 65 3f
       0.009828691646730269 0.0026025670772586683
000530 41 69 87 9d 87 bc 9d bf 55 a3 47 08 bf be 8a 3f
       -0.029039496412090363 0.01305913204210333
000540 1e d1 c1 86 03 c5 87 bf 96 28 0d 7b 5e d7 80 3f
       -0.01160624270435356 0.008223283891897897
000550 42 8d 6c 00 66 e0 9d bf 37 dc bc e1 0c 7f 95 bf
       -0.02917632463062359 -0.020992471006334248
000560 72 09 33 92 80 68 86 3f f9 2c c7 b4 b9 7e 82 3f
       0.010941509687090376 0.00903077204647794
000570 fe b9 ea b4 39 0b 84 3f 47 9d 73 20 d5 90 87 3f
       0.009787035783429762 0.011506714871258551
000580 a4 04 f9 33 ae 9c 72 3f 90 93 fe 5c 22 b7 77 bf
       0.004543953400174026 -0.005789884788019686
000590 d2 a6 8e 24 42 90 9c 3f 15 86 30 a9 d9 fb 7c bf
       0.027894052010799815 -0.007076120603444665
0005a0 ba c2 0c 2a f9 b7 74 bf 24 6b db 01 d7 b9 7a 3f
       -0.005058263109092459 0.0065248869629737395
0005b0 6c e7 27 77 6d 78 82 bf 5c 2e 73 51 13 4d 88 bf
       -0.009018759917114948 -0.011865759776262745
0005c0 82 07 db 84 f4 16 6b bf d8 66 fe 82 e8 da 81 bf
       -0.003306844307048474 -0.0087183155990717
0005d0 46 d9 16 cb 28 0b 92 3f 41 46 e9 2b 16 b7 81 3f
       0.017620694537719993 0.008649991240562762
0005e0 04 01 d9 ce 61 ef 8f 3f 84 0f 21 54 26 23 83 bf
       0.015593303799619658 -0.009344386522691435
0005f0 cd e1 3f 70 96 21 5c bf 21 8a d8 10 b9 47 7b 3f
       -0.0017169922948579886 0.006660197175309552
000600 5d 96 aa 65 bf 8f 76 3f 2e c2 e5 1a 75 00 5c 3f
       0.005508182187133307 0.0017090934375937439
000610 72 95 12 13 f7 7e 7c 3f 4f 90 f0 68 c4 c3 6c 3f
       0.006957020888113662 0.0035113178378356823
000620 83 44 20 d7 be 85 8d bf 89 e5 1b 6b 70 ec 90 3f
       -0.01441525548946943 0.016526943719303886
000630 f2 5a a6 3b bc da 85 3f fd 08 1a d2 8d 4c 90 bf
       0.010671110697143747 -0.015917030285444323
000640 b5 78 c2 90 de 08 ad bf 31 3a 16 18 12 19 a3 3f
       -0.056708293124061816 0.03730064910915976
000650 b4 88 da f8 62 27 ba 3f b7 80 de 32 c0 3a b8 3f
       0.10216349196938063 0.09464646570131917
000660 d5 ea ab 56 0a d0 bd 3f 5e b7 18 30 fe f8 aa bf
       0.116455694351241 -0.052680915232811584
000670 f9 65 2c 61 22 9d c0 3f 8d ce 39 2e a0 e7 8a 3f
       0.1297953581313747 0.013137103472423273
000680 4d 86 45 72 b6 39 b8 bf 4f c4 9d 20 6e eb 95 bf
       -0.09463062562783726 -0.02140590738367037
000690 3c 33 09 23 5b f5 ae 3f 84 a6 fe e7 38 4a ac 3f
       0.06046566775021353 0.05525377113310717
0006a0 d7 1d 5f d7 b1 95 94 3f c4 c4 4c d9 0e 9f ba 3f
       0.020102289934383535 0.10398953252003468
0006b0 fd ec a3 cc 28 90 99 3f 25 be a1 8f 9a 10 82 bf
       0.024963986864332977 -0.008820731647772704
0006c0 1b 2d 27 f7 53 c3 b7 bf 1a c1 e5 27 6c 42 ae 3f
       -0.09282421859750338 0.05910051333455808
0006d0 13 8d a1 fd 35 0d 92 bf c1 67 69 57 cc 68 b0 3f
       -0.01762852058926707 0.06409909376216573
0006e0 4f c7 4d 21 d4 ec c8 bf 1d 94 a8 25 89 64 a9 bf
       -0.1947274363151856 -0.04959515175531968
0006f0 9d af e4 77 c5 0b 7d 3f e9 49 35 4d e0 69 93 3f
       0.007091304169346471 0.018958573067104387
000700 b8 cc 97 26 49 c2 90 3f ca 77 74 84 bc 25 a5 3f
       0.016366141300704767 0.0413035308540511
000710 d0 68 74 7b 81 e3 9b 3f cf ce 7c 6c 31 7b b8 bf
       0.027235053215101612 -0.09562977694150308
000720 ff 71 94 04 4d 2b b8 3f 3b d6 24 68 93 a3 b3 3f
       0.09441071855366799 0.07671471874785933
000730 52 e9 02 6a 00 a1 a2 3f f0 47 95 92 a5 91 b6 3f
       0.03638459486087932 0.0881598933094947
000740 bc f4 55 60 4f 60 a6 bf 4d 6b 93 5a 6a 49 8b 3f
       -0.043703537473427784 0.013323622597842944
000750 e6 8e eb 86 4b 92 91 3f 0b a5 e6 92 e9 b5 b7 bf
       0.017159633741257084 -0.09261951290558927
000760 10 a5 60 51 01 2a b9 3f 2a 28 b1 77 d3 f1 81 3f
       0.09829719769244982 0.008762027826509994
000770 db 5c 87 6b 86 be a3 3f 6f 82 35 ff 57 bc 92 bf
       0.038562965990132723 -0.01829659934208155
000780 e3 35 bf 24 55 4d b6 bf 02 38 f8 05 6b f5 ad 3f
       -0.08711750170842651 0.058513016203605175
000790 ea b2 d6 a6 1e 56 ad 3f 94 e3 ca f5 4b 69 a5 3f
       0.0572976664219363 0.0418189752139774
0007a0 a1 20 37 57 82 d3 aa bf e2 7c f1 68 fd 65 a6 3f
       -0.052394936701206214 0.043746871052229755
0007b0 ca 83 85 fa ba e0 8e bf fc f4 56 62 38 9f a6 3f
       -0.015077076692877518 0.04418350410876745
0007c0 21 92 08 92 c8 89 a6 bf 9c f2 6b 24 24 a9 9d bf
       -0.04401995451579333 -0.02896553489971386
0007d0 7d c2 df 1b d2 a0 72 bf 78 1f 85 1a 56 f8 81 bf
       -0.004547901857208656 -0.008774445232702752
0007e0 62 b2 42 69 e6 ba 85 3f 14 cb f6 5d f1 98 89 3f
       0.010610389792725165 0.012498746566824738
0007f0 73 32 a5 88 83 db 40 3f e8 8c bc 56 c9 e8 8a bf
       0.000514449334596613 -0.013139317473877601

b2 f8 [64]
000000 50 a1 cd b5 b2 4d ba 3f cc ce b8 81 73 e9 a9 3f
       0.10274807871394853 0.05060921629447321
000010 79 44 66 d8 c8 6b 81 bf 21 26 4c 55 9b 3b 71 3f
       -0.008506363967884166 0.004207236070905591
000020 cf 31 d7 2d 77 5e c0 3f d7 86 16 33 6e c3 9b 3f
       0.1278828595954011 0.027112695568240888
000030 9d 4b 40 33 ac fb 9c 3f 47 c0 e2 ce 67 0d a3 3f
       0.028303804996606997 0.03721165085278293
000040 ce 2f 9c dc 2d 3a b1 3f 34 20 ed 54 a9 03 70 bf
       0.0672939933394325 -0.003909741832849579
000050 51 91 fd b7 04 5f 6c 3f 04 9e 0e 78 33 79 88 bf
       0.003463277069316963 -0.0119499226583022
000060 9b e0 83 8f 8d a1 ba 3f ab 3f 55 d4 93 99 9e 3f
       0.10402760270869964 0.029882726511743545
000070 e8 45 b6 49 66 b7 b6 3f 1c 60 51 b8 21 b2 d5 3f
       0.08873595523461797 0.33899729728500616
000080 f6 85 18 34 81 10 b7 3f 78 9c ec 35 f6 1c a5 3f
       0.0900955917536733 0.04123658569579275
000090 ea a3 eb 45 62 0b c3 3f 4d 72 61 7f 44 f8 84 bf
       0.148784908429007 -0.010239157807682942
0000a0 dd 80 ec 8e 55 ed 8f bf 87 4c 7b 20 91 2a b2 3f
       -0.015589397834958546 0.07096201937683776
0000b0 b7 e8 f4 3b a0 88 ac 3f d8 96 63 af 5c 23 87 3f
       0.05572987300770776 0.01129791651005567
0000c0 91 41 ac af e1 3c b4 3f db 1d ff 52 57 00 b4 3f
       0.07905397929085313 0.07813020492823546
0000d0 27 93 51 e1 1b 56 a5 3f 4c f4 64 df b0 75 bf 3f
       0.04167258382293531 0.12288957075084389
0000e0 7a 13 19 73 f4 fd b5 3f 74 a1 a5 47 1c c5 b8 3f
       0.08590629396446828 0.09675766705698213
0000f0 73 09 98 aa 35 f0 83 bf c3 8f cb 7b 1b 78 b9 3f
       -0.00973550726758241 0.09948894283621627
000100 09 38 5b 01 2f 89 b5 3f 5f 0a a0 ca 9b 8e d8 3f
       0.08412450583566068 0.3837041357766448
000110 03 ba 87 3e 7b a9 b5 3f 84 ec 07 6b 20 57 c3 3f
       0.08461733128181241 0.15109639383431184
000120 c7 cc 69 15 40 65 88 3f ae 7d a3 55 bb 50 b0 3f
       0.011911869672280763 0.06373186913287185
000130 61 fe a9 7a 4e c4 63 bf 63 f7 8b 87 33 6b bf 3f
       -0.002412942199327792 0.1227295118260066
000140 f7 d1 0a ab 64 85 bb 3f 4b 13 0e 83 b7 1a 96 3f
       0.107504169233671 0.02158629166980867
000150 1e 7c 75 8d 61 fc b5 3f a7 29 24 f0 37 d6 ee 3f
       0.0858822794302658 0.9636497202166553
000160 33 68 3a 1c 89 b1 56 3f 22 56 6a d1 34 ae b3 3f
       0.0013851012198871193 0.07687692749672029
000170 9d 22 12 0e 2a 7f b2 3f 0d ef 54 3f 2e 4c 91 3f
       0.07225287288214095 0.016892168631996763
000180 57 9c df 3c 36 03 93 bf a6 14 43 8d d2 3f ae 3f
       -0.018566939797804185 0.059080676788235295
000190 c0 9f a5 44 c8 06 89 3f db 90 4c 66 e9 ff 75 3f
       0.012219967455806002 0.005371009556970753
0001a0 5e 88 04 fe 62 e8 79 bf 5e db cd 28 1b d6 ba 3f
       -0.0063251368412996205 0.10482949968523544
0001b0 64 18 3d cf ae 70 a9 3f 16 7b 70 f4 9e 2c c2 3f
       0.04968782691734999 0.14198672233120452
0001c0 7f 77 93 36 7a 6a 9d 3f db 2e 03 e8 50 c9 a0 3f
       0.028726491528565653 0.032785919496374404
0001d0 55 bd 8a ab ad 23 d7 3f 9f 85 93 d8 12 5d b3 3f
       0.3615526366438265 0.07563894069200792
0001e0 f5 80 5a 24 d8 b6 97 3f bf 5a 6a cd f2 65 c2 3f
       0.02315843316921558 0.14373621969271785
0001f0 0b 7b ca 38 3d cc 6d 3f 43 ad 90 22 2a 78 d2 3f
       0.003637427877336013 0.28858426452162095
