10by10recording/src/3layerMLPparameter/3layermlp6_1000ep_torch_with_adam.pth (torch, 54841 bytes, 8 tensors)

fc1.weight f4 [50, 100]
000000 40 27 3c bd f7 c2 6c 3d 83 5e 8c 3d fa 06 f9 3c
       -0.04593587 0.05780312 0.06853964 0.030398834
000010 f2 9c b9 3d da c2 69 bd 50 0d 7b bd c7 ec 40 bd
       0.09063138 -0.05707059 -0.061291993 -0.04710081
000020 20 84 ac 3c 53 97 a5 bd e8 59 82 bd 37 b8 f3 3f
       0.021059096 -0.080855034 -0.063648045 1.9040593
000030 22 cc d4 3f e1 2f 03 40 fa d4 89 bd fe 36 61 40
       1.6624796 2.0497973 -0.06730075 3.5189815
000040 36 16 59 40 8b 5e 0f 40 5e 51 62 40 33 8f 4f 40
       3.3919806 2.2401454 3.5362163 3.2431152
000050 67 52 36 bc 0d d3 df 3f 34 de 25 bf af 1b 38 40
       -0.011128045 1.7486283 -0.6479218 2.8766897
000060 f9 d2 60 40 d2 79 4a 40 6e 18 33 3f b9 02 d3 3f
       3.5128767 3.1636853 0.6995915 1.6485206
000070 a6 37 4f 40 ca ba 00 bd a0 07 92 bd 17 db b1 3f
       3.2377715 -0.031428136 -0.071303606 1.3894986
000080 e2 cb 82 3f 44 b9 24 40 47 b3 8d 40 6c e9 47 40
       1.021847 2.5738077 4.4281344 3.123622
000090 5a 36 d9 3f 04 a0 34 3f 2a 14 ab 3f fc c9 c3 3f
       1.6969712 0.70556664 1.3365529 1.5296016
0000a0 03 29 6d 3d c9 8e 24 40 1e 1b f3 3f e9 d3 bf 3f
       0.05790044 2.571215 1.899265 1.4986545
0000b0 c7 24 1c 40 14 4d 98 3e 21 fb 8e bc cb 3f b8 3e
       2.4397447 0.29746306 -0.017453732 0.3598617
0000c0 80 81 86 3e c8 1d 52 40 b3 0a c0 3c e4 d8 37 40
       0.26270676 3.2830677 0.023442602 2.872613
0000d0 8c a6 c7 bd 63 13 dc 3f 37 98 d5 3f 9b 01 0f 40
       -0.09748563 1.7193416 1.6687077 2.234473
0000e0 30 1b 03 40 1d 68 aa 3f dd b7 e3 3f b8 a1 93 3f
       2.0485344 1.3313023 1.7790486 1.1533728
0000f0 25 b1 c9 bd 7d 5a 0c 40 ce 49 3c 40 be 77 ab 40
       -0.09848241 2.193023 2.9420047 5.358367
000100 79 a4 e3 3e 22 7e 50 40 20 00 1c 3f d6 47 12 bf
       0.4446142 3.2576985 0.6093769 -0.5714086
000110 aa 98 31 40 ac a6 f3 3e 67 3e cf 3c 23 1b 8d 40
       2.7749429 0.47588098 0.02529831 4.4095626
000120 66 23 11 40 a7 10 0f 40 49 a3 0b 40 d9 44 0c 40
       2.2677855 2.2353914 2.1818411 2.1917021
000130 56 59 10 40 40 dc 7a 3f 07 4a 15 40 6d 85 bf 3c
       2.2554526 0.97992325 2.3326433 0.023379052
000140 7d 3c a0 bd 9d 45 bb 3f c6 5a 35 40 71 05 b4 3f
       -0.07824037 1.4630619 2.8336654 1.406416
000150 15 81 f1 3f 83 a0 0c bd 38 62 32 40 d5 f9 03 40
       1.8867518 -0.034332763 2.7872448 2.0621235
000160 3d c1 5e 3d bb 94 5d 40 73 74 ab 3c 08 b0 ce 3f
       0.054383505 3.4622028 0.02092955 1.614747
000170 b2 87 0d 40 1b 53 08 40 bf de 99 3f e9 07 9b 40
       2.2114072 2.1300724 1.2021102 4.8447156
000180 c0 58 77 40 48 34 2f 40 4d 0a 82 bb 6a 87 6f 40
       3.8647919 2.737566 -0.003968513 3.74264
000190 4f 6a 8b bd 07 9c ae bd 88 55 90 bd aa 40 c3 3d
       -0.06807386 -0.085258536 -0.07047564 0.09533818
0001a0 98 3c a7 3d 4a 59 4a bd 0d 28 c4 3c 77 d6 4b bd
       0.08165854 -0.04940156 0.023944879 -0.049765076
0001b0 3a 7b 2d bd 00 75 22 3d 33 79 42 3c 35 dc bf be
       -0.042353846 0.03966236 0.011869716 -0.37472692
0001c0 13 1d 39 3f 14 1b 40 3f 9a e1 1d 3c e6 b4 9e 3f
       0.7230999 0.7504132 0.009636307 1.2398956
0001d0 5a 26 2a 40 55 b3 91 3f 8a b6 ec 3f 03 3b d8 3f
       2.6585908 1.1382853 1.8493207 1.6893009
0001e0 2b 90 ad 3d 6b 67 df 3f 92 20 ea be 4f 63 6d 3f
       0.084747635 1.7453436 -0.45727974 0.9272966
0001f0 5b 22 90 3f a8 a0 e2 3f 9a 22 a4 3f ff 2c 33 be
       1.1260484 1.7705278 1.282306 -0.17497633
000200 e1 39 eb 3d a3 0d 96 bd 6d ad ac 3d 34 69 16 3f
       0.11485649 -0.0732682 0.08431516 0.5875428
000210 dd 97 1c 3f 7e cd 51 3f 79 ef 24 40 4c 19 17 40
       0.61169225 0.8195418 2.5771163 2.360919
000220 3c 59 b0 3f da 66 00 bf 09 4a a7 3e 3b 8e d1 3f
       1.3777232 -0.5015694 0.32673672 1.637153
000230 8d 48 97 3c fb 9c 58 3f a0 dd b2 be f4 52 34 be
       0.018467212 0.84614533 -0.3493471 -0.17609769
000240 51 e2 48 40 6b 4e 0a be 88 67 0e 3f f2 1b 65 bf
       3.1388133 -0.13506477 0.55626726 -0.89495766
000250 f3 dc 1a 3f a3 6f 94 40 32 63 82 3d e6 37 57 3f
       0.6049339 4.6386275 0.06366576 0.8406967
000260 18 d9 8f be 23 92 23 be 16 98 0b 40 c4 73 b5 3f
       -0.28095317 -0.15973715 2.1811576 1.4175954
000270 55 de 7f 3f a5 51 f5 3d 8b 09 d9 3e d9 b7 33 3f
       0.99948627 0.11978463 0.42390093 0.70202404
000280 03 e9 8d bd 85 ab 44 3f 67 7d 38 40 0c d6 32 40
       -0.06929209 0.7682422 2.882654 2.7943144
000290 7c 11 43 bf 10 48 e0 3e 18 af 2b 3e 1a 69 3b be
       -0.76198554 0.4380498 0.16766012 -0.18301812
0002a0 ff 5d f2 3e 83 28 19 3f 53 45 29 3d d1 30 3f 40
       0.47337338 0.5982744 0.04132588 2.9873545
0002b0 9e 12 17 3f 25 21 49 3f 60 59 9f 3f 23 63 52 3f
       0.5901278 0.785662 1.244915 0.8218252
0002c0 da 80 17 3f 33 69 95 3f 2b 2d fa 3e e7 33 dc 3b
       0.59180987 1.1672729 0.48862585 0.0067200544
0002d0 7a fa 54 3d a8 d5 b5 40 d9 69 3d 40 55 ea c5 3f
       0.051996686 5.682331 2.9595854 1.5462137
0002e0 04 57 30 40 e0 62 07 bd ae 93 f9 3f 12 de 23 40
       2.755311 -0.03305328 1.9498193 2.560429
0002f0 ad 8d a2 bc 74 45 ad 3f c0 36 56 3c 42 62 ce 3f
       -0.019842947 1.353682 0.013074577 1.6123736
000300 50 08 e6 3e 78 a1 4b 3f 63 13 b2 3f 2d 39 83 40
       0.44928217 0.79543257 1.3912166 4.1007295
000310 9a 5e 08 40 20 14 2d 40 e3 6e 61 bd 8a 6f ab 3f
       2.130774 2.7043533 -0.05503739 1.3393414
000320 8b d4 84 bd c5 8a c7 bd 40 4f 2c bd f5 43 a2 bd
       -0.06485852 -0.09743265 -0.042067766 -0.07923118
000330 e2 c5 b1 3d 3f f6 b2 bd 1a 3b 26 3c 9a 33 b6 bb
       0.08680321 -0.08738374 0.010145927 -0.0055603506
000340 1a 99 be 3c 67 cc 2f bb 08 f2 9f bd d4 9a ff be
       0.023266364 -0.0026824714 -0.07809836 -0.49922812
000350 36 3a 37 40 33 26 cd 3e ba 91 ab bc 3b e7 16 3f
       2.862928 0.40068206 -0.020943511 0.5894658
000360 1a af 82 3f d8 d8 88 3f 0b 03 72 3f ea c1 75 3f
       1.0209687 1.0691175 0.94535893 0.95999014
000370 03 fe 71 bd 63 63 1f 3f 21 17 00 40 0f 5a 82 3f
       -0.059080135 0.6226103 2.0014117 1.0183734
000380 ad 18 f2 3e 69 1e 83 3f 77 67 37 3f 71 b0 97 3f
       0.4728445 1.0243655 0.7164225 1.1850721
000390 52 13 06 40 00 b7 85 3b 27 b6 11 3c 39 41 e0 3f
       2.0949292 0.004080653 0.008893526 1.7519904
0003a0 d2 5c 49 3f e8 a5 5b 3f ed 3a 00 3f 40 37 4c 3f
       0.7865726 0.8580003 0.50089914 0.79771805
0003b0 c9 d7 72 3e 60 78 0c 40 79 ad a0 3e 0a 31 0d 3e
       0.23715128 2.194847 0.3138235 0.13788238
0003c0 ab 9b b2 3d 8f de 0b 3f a0 25 b8 be a6 d2 cd bf
       0.087210976 0.5463647 -0.35966206 -1.607991
0003d0 3c 1e ad be 94 17 6b 3e c1 48 e4 3e d5 66 f2 be
       -0.3381213 0.22958213 0.44586757 -0.4734408
0003e0 22 a5 0f 3e 98 cc f9 3f 37 15 83 bd 66 4c 12 3f
       0.14027837 1.9515562 -0.06400531 0.57147825
0003f0 46 ac 3c 40 53 38 bc be 78 e2 a9 3e c5 f6 10 3f
       2.9480147 -0.36761722 0.33180594 0.5662654

fc1.bias f4 [50]
000000 d2 3c 5f c0 e5 a0 b3 bf bb b4 a5 bf 5b 5e 40 c0
       -3.4880872 -1.4033476 -1.294578 -3.005759
000010 7c 6e d8 bf eb 88 95 be 0d 9e 10 bf aa 18 9c bf
       -1.6908717 -0.29206023 -0.56491166 -1.2195027
000020 f6 ce 54 bf e1 0a 8b bf 28 6c 0e bf 3d 3e a2 be
       -0.831283 -1.0862695 -0.55633783 -0.3168811
000030 9a 7d 61 3d 4e 36 a1 bf 87 06 b8 be d6 b5 56 3e
       0.055051424 -1.2594697 -0.3594248 0.20967802
000040 71 98 29 c0 2a 78 df bf 1c 2a 84 be 6a eb e0 bf
       -2.6499293 -1.7458546 -0.25813377 -1.7571843
000050 6d d0 87 c0 0d 6e 91 bf b4 ed b1 bf e9 da 96 3e
       -4.2441926 -1.136171 -1.3900666 0.2946389
000060 a5 1f 98 3f 0e 55 69 3f e6 db dd 3e cd 5c bd be
       1.1884657 0.9114541 0.43331832 -0.36984864
000070 44 40 58 bf b2 bc 95 bf 7b 1f 1b c0 15 95 e6 bf
       -0.8447306 -1.169821 -2.4237964 -1.8014246
000080 2b e3 77 3f a3 30 83 c0 8d 7a d8 be b8 df b5 bf
       0.96831006 -4.099687 -0.42281 -1.4208899
000090 4f d7 54 bf e9 d0 24 bf 81 66 10 c0 38 f3 b7 bf
       -0.83141035 -0.6438127 -2.2562563 -1.43711
0000a0 8f 03 13 3e dc 16 22 c0 0b ad 9f bf 10 09 cc bf
       0.14356826 -2.5326452 -1.2474684 -1.5940266
0000b0 7c 23 76 bf 19 0b 2a c0 ca 2f 19 3b 84 6c a5 bf
       -0.96147895 -2.6569273 0.0023374432 -1.2923741
0000c0 d9 22 f1 be 34 76 c4 bd
       -0.470969 -0.09592858

fc2.weight f4 [64, 50]
000000 75 b8 13 bf 9f 1f 10 3d c7 3d b3 bf 15 4e dd be
       -0.57703334 0.035186406 -1.4003228 -0.43223634
000010 de fc 3c bf 1a 3a c4 bf ee c5 0f 3d 7d 0c 1d 3f
       -0.73823345 -1.5330231 0.03510087 0.6134718
000020 cc 1f 5a c0 b5 fa cc 3e 57 0d 80 be cc c5 87 be
       -3.4081907 0.40035024 -0.25010177 -0.26518095
000030 9e 0a b9 bf f9 b2 4c bf 5e c1 30 3d 80 e5 8b 3e
       -1.4456365 -0.7996059 0.04315316 0.27323532
000040 75 8e ba 3e 39 83 fb bf f8 92 55 bd cb 1b 9b 3c
       0.3643681 -1.9649421 -0.052142113 0.018934151
000050 19 82 52 be 85 ff 19 bf f2 75 42 bf 17 65 a9 be
       -0.20557441 -0.60155517 -0.7596122 -0.33084938
000060 3a 49 cd c0 79 5f 98 c0 0a f4 f2 bf 0f 69 6f 3d
       -6.415189 -4.7616544 -1.8980725 0.0584498
000070 c8 11 8b 3e 85 bb ca bf 1b f7 4a 3f 66 bb 23 3f
       0.27162004 -1.5838476 0.79283303 0.6395782
000080 a7 92 fe bf 11 bc 33 be e5 64 ec be 67 27 2d c0
       -1.9888505 -0.1755221 -0.46170726 -2.70553
000090 30 ed 9f bf bf 9a 72 3f 99 cf 42 be 58 30 4e bf
       -1.2494259 0.94767374 -0.19024505 -0.80542517
0000a0 ab d5 84 3d ff ef db be f4 a5 69 be 8a 81 2a bf
       0.064860664 -0.4295654 -0.22817212 -0.6660391
0000b0 93 10 bd be b3 7d 96 3e fc 15 d1 be 95 f8 af be
       -0.36926708 0.29392776 -0.40837085 -0.3436934
0000c0 e1 87 a0 3d 93 ba 3f 3f d1 4a 99 3d f0 cf fb bd
       0.07838417 0.74894065 0.07484973 -0.1229552
0000d0 f5 75 10 be fa cb 35 be 85 7c f8 bd 9e b0 8e be
       -0.14107497 -0.17753592 -0.12133125 -0.27869123
0000e0 2b d8 e7 3c b4 1c 6d bd 9b d8 c8 be 8b 21 4d 3c
       0.02830132 -0.0578887 -0.39227757 0.012520204
0000f0 1f 7b 23 bd 40 8f 26 be 61 fd 28 be 71 14 44 be
       -0.03991234 -0.16265583 -0.16502906 -0.19148423
000100 8d 76 2c be 76 84 f7 bc 27 54 0c 3e eb 30 30 bd
       -0.16842099 -0.03021453 0.13703977 -0.0430154
000110 25 63 21 3d b3 13 3c be 4f 14 c0 be 74 8e b9 3b
       0.039401192 -0.1836689 -0.37515494 0.0056627337
000120 3b 28 37 3d 32 b6 33 be 2a de 61 bc 86 bf b6 be
       0.0447161 -0.17549971 -0.013785878 -0.35692996
000130 cf 8c 1f be eb 57 70 be df 89 ac 3d d8 22 fe bd
       -0.15581058 -0.23471038 0.08424734 -0.1240899
000140 43 0d a5 3b ea 7a bf 3d cf ad fd bd 29 94 72 3d
       0.0050369813 0.09349616 -0.12386667 0.059223328
000150 55 cf 55 bd 0b c0 13 be 06 0f 27 be 22 3a 99 be
       -0.05219968 -0.14428727 -0.16314325 -0.29927164
000160 50 f3 ac bc 94 a7 2b be 81 e4 01 be 0e 9c 19 be
       -0.021112114 -0.16763145 -0.12684824 -0.15000936
000170 2a 6b 54 be 3b dd ab bd 79 a2 53 bc 50 9f 03 be
       -0.20744005 -0.08391806 -0.0129171545 -0.12853742
000180 d2 d0 4f be d1 13 c9 bc a0 1a 05 be e0 7f f0 bd
       -0.20294502 -0.024545582 -0.12998438 -0.1174314
000190 09 f0 0c be f4 07 73 bd 3e 65 11 be be ff 2c bd
       -0.13763441 -0.059333757 -0.14198777 -0.042236082
0001a0 f2 64 e6 bd e5 1f 06 3d 05 bd 29 3d d7 e5 e1 bd
       -0.112497225 0.03274526 0.04144003 -0.110301666
0001b0 4c 46 af bc 76 0e b9 3b cf 8b 47 bd a3 d9 21 be
       -0.021395825 0.005647476 -0.048717316 -0.15805678
0001c0 25 e6 c6 bc b6 47 e2 bd b1 9c ae bd fe af 1d 3c
       -0.024279663 -0.11048834 -0.0852598 0.009624479
0001d0 81 96 02 3e cc 8f 06 be 19 fe b1 bb d4 14 91 bd
       0.12752725 -0.13140792 -0.005431902 -0.07084051
0001e0 be 36 9e bd ad 46 2c be 93 11 34 3d 67 40 14 bc
       -0.07725285 -0.16823836 0.043962073 -0.009048558
0001f0 2d f1 99 bd a7 71 d3 bd 88 79 91 3c 25 80 3a bc
       -0.07516704 -0.10324412 0.017758146 -0.011383091
000200 4e a9 fa 3a ac fc 34 be 34 2e 37 be 06 44 ff bd
       0.0019123943 -0.17674512 -0.17888719 -0.12464146
000210 43 db 09 be 4b 28 b2 3d 1d 5d 0a bd 8d 1b f4 3c
       -0.13462548 0.086990915 -0.033780206 0.029798293
000220 d9 78 a9 bc fe 01 fd bb ca 6f ff bd 8b 17 05 be
       -0.020687507 -0.0077211848 -0.12472494 -0.12997262
000230 87 b8 f0 bd 84 dc 47 be 2f a0 c3 bd d8 69 07 be
       -0.11753946 -0.19517714 -0.09552037 -0.1322397
000240 ee 67 5b 3d 58 84 24 be ee a5 eb bc 3c 3c e1 3b
       0.053565912 -0.1606611 -0.028765645 0.0068736356
000250 83 dd cd bd 5b 7b 9f bd 99 a5 a8 3d a3 98 89 bf
       -0.10052016 -0.077872 0.0823471 -1.0749706
000260 28 07 5a bf 5c 2f e4 3d f2 9e 2b be e7 1f 8b bf
       -0.8516717 0.111418456 -0.16759852 -1.0869111
000270 c1 2d b9 be 81 8f 6e bf b1 f3 9c bd 08 a0 c2 3e
       -0.3616772 -0.9318772 -0.07663668 0.3801272
000280 48 7c af bf f6 62 83 bf 56 f3 ec be 3f 66 13 3f
       -1.3709803 -1.0264575 -0.462794 0.5757789
000290 b3 1f 78 bf 50 19 bd bf f7 ee d4 be 76 ea 43 bf
       -0.9692337 -1.477335 -0.41588566 -0.76529634
0002a0 d8 71 7e 3f 2e b3 a3 bf a9 4d a2 3e 74 8f 8f bf
       0.9939246 -1.2789056 0.31699875 -1.1215653
0002b0 6b 47 bb bf 42 2c e2 bf 63 c5 fe be 13 99 a3 bf
       -1.463117 -1.7669756 -0.4975997 -1.278109
0002c0 b3 6d 1f bf 20 ca b3 bf 50 fa db be 71 d6 da be
       -0.6227676 -1.4046059 -0.4296441 -0.4274173
0002d0 25 23 e3 3e 28 c0 b6 bc 99 3e bf be 99 7d 61 bd
       0.4436275 -0.022308424 -0.37352446 -0.05505142
0002e0 a3 98 a9 bf d2 12 42 bf ba 05 04 bf 7d fe a6 bf
       -1.3249706 -0.7580997 -0.5157124 -1.3046414
0002f0 87 55 0a 3f 39 65 44 be c5 5f 75 bf 17 aa 2d 3d
       0.54036754 -0.19179238 -0.9584926 0.04239854
000300 23 9c 50 bf 5f dd f8 be b1 87 13 3e 46 0e 05 3e
       -0.81488246 -0.48606393 0.14407231 0.12993726
000310 fc dc 8b bf b8 a8 e2 3e c6 43 4b bf d1 9f 9f be
       -1.0926814 0.44269347 -0.7940029 -0.31176618
000320 a1 0f 59 be 07 e9 10 c0 24 bb 24 c0 f7 29 be be
       -0.21197368 -2.2642229 -2.5739222 -0.37141392
000330 c8 e8 07 c0 c2 31 2f be 81 4e ca 3e 8b f8 4d bf
       -2.1235828 -0.17108825 0.3951302 -0.8045737
000340 58 3f 2c bf 14 c3 98 bf 42 93 85 bd 9a f1 64 c0
       -0.67284155 -1.1934533 -0.06522228 -3.5772462
000350 f2 39 61 c0 17 ff 14 c0 7e 52 fa bf 0f 2f b1 3e
       -3.5191617 -2.3280694 -1.9556425 0.34606215
000360 18 20 b5 bf 6a 4f b8 bf e5 bf ad bf 69 cd 93 bf
       -1.4150419 -1.4399235 -1.3574187 -1.1547061
000370 b2 e0 b5 3e 4b 4e 47 bf fc 1e b7 bf d9 11 8b bf
       0.3552299 -0.7785384 -1.4306331 -1.0864822
000380 db 6a bc 3e 6e 21 c9 bd 78 9c 80 be 4d 93 b8 bf
       0.36800274 -0.09820829 -0.25119376 -1.4419953
000390 33 a4 e4 bf 1e c7 cf bd de 4d 01 c0 8a b9 5f 3d
       -1.786261 -0.101454005 -2.0203776 0.054620303
0003a0 0f 26 7a 3e 2a 17 bd 3f 99 2f 33 be 78 04 24 c0
       0.2442858 1.4772694 -0.17498626 -2.5627728
0003b0 04 6b f0 bf ea fe e7 bf a0 05 b4 bf 67 23 1b bf
       -1.8782659 -1.8124669 -1.4064217 -0.60600895
0003c0 8b d6 bb bf cd 31 cf bf 01 76 46 bf 75 a1 0d c0
       -1.4674848 -1.6187073 -0.7752381 -2.2129796
0003d0 91 0d b2 bf 85 44 a4 bf 29 f6 9c bf d4 80 8f bf
       -1.391039 -1.283341 -1.2262622 -1.121119
0003e0 54 6f 08 c0 fb 85 d5 bf 56 28 0f bd 8e d8 f3 bf
       -2.131795 -1.6681513 -0.034950577 -1.9050462
0003f0 4c 2a 99 3f 81 e0 21 be 5a d6 bc 3f fe bd 94 bf
       1.1966033 -0.15808298 1.4752915 -1.1620481

fc2.bias f4 [64]
000000 a4 4e ab be 8c f0 13 bf 6f 8e 4a be 72 7e 87 bf
       -0.33458436 -0.5778892 -0.19780897 -1.0585463
000010 be 6f 7b be 45 e7 0b c0 c8 06 57 bf 55 91 17 c0
       -0.24554345 -2.1859906 -0.8399472 -2.3682454
000020 4a e7 03 bf b7 20 bf be ad 7f 3f bf 5f 70 cc bf
       -0.51524794 -0.37329647 -0.7480419 -1.5971793
000030 04 4a 27 bf 2e 56 0e bf d5 2c 74 bf 94 03 0f be
       -0.65347314 -0.5560025 -0.9538091 -0.13966209
000040 bb d3 a7 bf 4b 67 b9 3d fb ed b9 bf 81 3b cc be
       -1.311149 0.09052905 -1.4525751 -0.39889148
000050 a6 e3 e7 be aa 6f 5e bd 21 d2 52 bf e3 59 1e bf
       -0.4529087 -0.05430571 -0.8235188 -0.61855906
000060 13 86 8b be de 76 c0 bf eb b8 1e 40 17 8a 14 bf
       -0.27250728 -1.5036275 2.4800365 -0.5802321
000070 86 bb 95 be 3d 3b 25 bf b3 82 f4 be ef 93 2b bf
       -0.29244632 -0.64543515 -0.47755966 -0.67022604
000080 75 83 a0 bf 94 59 c0 be 60 7a 4b bf bc a6 44 bf
       -1.2540118 -0.37568343 -0.79483604 -0.76816916
000090 e8 74 9c bd fa 20 c1 be 13 77 82 bf 36 fc 62 3f
       -0.076394856 -0.37720472 -1.0192589 0.88666093
0000a0 ff 6c e7 be 16 d3 8a be da 66 50 be 8d b6 c3 bf
       -0.45200345 -0.2711417 -0.20351735 -1.5290085
0000b0 44 e6 f6 be 8f 87 b6 be 8e 2b 74 bf 2a c9 aa be
       -0.48222554 -0.35650298 -0.9537896 -0.333566
0000c0 d4 d4 99 bf 8e bf d6 be c2 dc 15 bf b4 59 bd bf
       -1.2018075 -0.4194302 -0.58539975 -1.4793
0000d0 5f 1e 85 bf 4f 4b 1d bf 1e b2 cf 3d 85 1a ab be
       -1.0399894 -0.61443037 0.10141395 -0.3341867
0000e0 2f 16 1e bf cf 56 ed be 24 80 58 be 2a 71 49 be
       -0.617526 -0.46355292 -0.21142632 -0.19672075
0000f0 6c 8f 22 bf 51 7d 08 3e 04 38 e8 3e 1e ae 28 bf
       -0.63500094 0.13329054 0.45355237 -0.6589068

fc3.weight f4 [64, 64]
000000 32 51 19 3e 4e 81 d7 bc b4 d3 ab bc 51 89 29 3e
       0.1497238 -0.026306774 -0.020974971 0.16556288
000010 c4 82 46 bf 71 65 09 be ba 04 b6 be 03 d3 2e bf
       -0.7754328 -0.13417603 -0.3555048 -0.6829073
000020 46 05 e4 bd 97 11 b5 be 51 5a 04 3e 00 f8 db 3c
       -0.11133818 -0.35364982 0.12925078 0.026851654
000030 2d 3a 77 bf c2 68 a7 3f 4b 70 d6 bd 8b 68 00 bd
       -0.96573144 1.3078845 -0.10470637 -0.0313497
000040 97 fd bb bf 5e e3 ec be 3e a4 6c 3e f6 48 43 40
       -1.4686764 -0.46267217 0.23109528 3.0513282
000050 a8 3e 3e be 70 ae d0 3e 61 94 c0 3e 9d 8f cc bd
       -0.18578589 0.40758085 0.37613204 -0.099883296
000060 21 d3 00 3e 3d 00 e0 be 62 70 11 c0 46 41 85 3e
       0.1258054 -0.43750182 -2.2724843 0.26026362
000070 3d e9 18 3e b9 2a 1e bf 5a f7 0c 3c a0 92 3a 3f
       0.14932723 -0.6178394 0.008603895 0.7287998
000080 8c d2 a2 bf fc 60 ae 3b d9 c5 02 bf 9b 07 de bd
       -1.2720504 0.00532162 -0.5108314 -0.108412944
000090 d8 69 b8 bd 81 63 20 be 6e 0f 2a be 0a db fe 3e
       -0.09004563 -0.15662958 -0.16607448 0.4977649
0000a0 d1 b4 5e bf a9 57 ef bc b7 9c 67 3e 4e 85 0f 3f
       -0.86994654 -0.029216604 0.22618376 0.5606278
0000b0 fb 69 a3 bd 8b c8 47 3b 3e 4b cb bd 38 73 97 3e
       -0.079791985 0.0030484523 -0.09926461 0.29580092
0000c0 ab 3d f3 be 82 cf 58 bb 15 cc c0 3e 9c 19 53 bf
       -0.47507986 -0.0033082669 0.37655702 -0.8246095
0000d0 93 8a 10 be 36 f7 75 bc dd 91 e2 bd 8d fa 34 bd
       -0.14115362 -0.015012553 -0.110629775 -0.044184256
0000e0 45 04 d2 bd b5 e8 c2 3b da e8 af be 27 f6 1d 3e
       -0.102547206 0.005948151 -0.3435734 0.15425931
0000f0 8a 91 db be d9 10 0a 3e 31 ab e8 3e 98 ec c5 be
       -0.42884475 0.1348299 0.4544311 -0.3865707
000100 e0 9c cd be 01 89 cf 3e 70 82 fe 3c 67 20 13 bf
       -0.4015875 0.40534213 0.031068057 -0.5747132
000110 41 23 75 bd 92 f8 07 bf e5 a0 47 3a 3c 1b f3 be
       -0.059848074 -0.53113663 0.0007615223 -0.47481716
000120 7b 47 91 be 42 d1 1e bd b5 0d 18 bf 50 b8 4e bd
       -0.28374848 -0.038773783 -0.59395915 -0.050468743
000130 24 2d cf 3d ce 75 b4 bd 56 2e 97 3e c6 e5 cf be
       0.10116032 -0.08811532 0.2952754 -0.4060499
000140 14 fc 07 bf f9 a5 a2 be b0 ac 04 be 49 7e d7 be
       -0.53119016 -0.31767252 -0.129565 -0.42088535
000150 aa c9 93 be d3 74 1a 3e e8 98 c7 3c d8 5f 22 bf
       -0.28864795 0.15083627 0.024364904 -0.63427496
000160 56 d0 48 be e6 82 51 bc 6d 39 02 bf 4a ed 4b 3e
       -0.19610724 -0.012787556 -0.50868875 0.19914737
000170 29 3c c0 3e 05 71 65 3c 3c 72 f4 bd 0a 5a 6e bf
       0.375459 0.014003997 -0.11935851 -0.9310614
000180 8e c1 2a bf 0f 6f cc 3e c6 c4 04 bf e6 33 79 3c
       -0.6670159 0.3992848 -0.5186275 0.015210127
000190 da 68 02 bf ef 63 d0 3e 9e 55 8d bf 73 e3 15 bf
       -0.5094124 0.40701243 -1.1041753 -0.58550185
0001a0 72 b1 be be 3d aa d1 be e8 00 98 be 4e 54 2c bf
       -0.37244755 -0.40950194 -0.2968819 -0.6731614
0001b0 ca 7c c1 be f6 c8 2f bf a8 7f cb 3e a4 db e7 be
       -0.3779052 -0.6866602 0.3974583 -0.4528476
0001c0 04 3f 72 bf 74 de 11 bd 68 ed 1e 3e ac 05 ed bc
       -0.94627404 -0.03561254 0.15520251 -0.028933369
0001d0 11 5c 6d ba b3 3c 3f 3f 3e 50 14 be e4 f4 1b be
       -0.00090545515 0.74701995 -0.14483735 -0.15230137
0001e0 31 25 ff 3e 92 60 3b bd 66 98 05 3e bc 8f 8a 3d
       0.49833062 -0.045746394 0.13046417 0.067656964
0001f0 79 81 07 be 8c 86 84 bd 28 04 26 3d 06 6d 1a bd
       -0.13232984 -0.06470975 0.040531307 -0.03770163
000200 4a 74 5a bf c2 55 c8 3d d0 bb 19 bc dd 22 8c 3f
       -0.85333693 0.09781982 -0.009383157 1.094814
000210 d2 88 90 3d 75 69 0d 3f c2 92 18 3f bf 67 c5 be
       0.070573464 0.5523904 0.59598935 -0.38555714
000220 78 86 f1 be 08 04 13 be fe 51 13 3e d6 36 ab 3d
       -0.47172904 -0.14357007 0.14386746 0.083600685
000230 ae ad c2 3e 6e 9d b9 bd b8 42 db be 0a 89 a3 3d
       0.38023132 -0.090632305 -0.4282434 0.079851225
000240 56 33 af 3e 9f 60 00 bf 6a 28 08 3f 89 89 6b bf
       0.34218854 -0.5014743 0.53186667 -0.92006737
000250 df 42 a2 3d eb 4d b4 be e6 0c 05 3d 84 7f 9b 3e
       0.07922911 -0.35215697 0.032483004 0.30370724
000260 68 ef 84 3e b9 8c 5c bd f3 d7 ca bf 33 44 7a 3e
       0.25963902 -0.05384514 -1.5847152 0.24440078
000270 93 99 86 bd f8 39 16 be d0 8a 12 3c 05 01 1d be
       -0.06572261 -0.14670551 0.008944228 -0.1533242
000280 27 88 57 bf 08 f9 9a bd be ac 94 be 9f 3e 0b bf
       -0.84192127 -0.0756703 -0.29038042 -0.5439243
000290 71 b6 46 3e 39 71 89 3c da 79 dd 3e f2 b7 bb bf
       0.19405533 0.016777622 0.43257028 -1.4665511
0002a0 cd 06 e6 3d eb fa 47 bf d9 13 f9 3d 8c 9a 54 3d
       0.11231766 -0.78117245 0.12161989 0.0519052
0002b0 7c ed 00 bd 15 4e 56 be b5 2b b2 bc dc b5 d1 3d
       -0.031476483 -0.20928223 -0.021749357 0.10239765
0002c0 f1 11 41 3f 50 d2 9a bc cd 33 02 be 46 18 f5 bd
       0.75418 -0.018899113 -0.12715073 -0.119675204
0002d0 b4 ee 03 3d 75 07 82 bf 9e 67 fd bf 7d 46 c5 be
       0.032210067 -1.0158526 -1.9797246 -0.3853034
0002e0 a0 4c fa 3e b1 ee 3d bd be 81 40 3d 51 9d 85 bf
       0.48886585 -0.046370212 0.04699873 -1.0438634
0002f0 bc 05 e2 be 13 29 87 bf bd 9e c9 bf b6 a6 ab bd
       -0.44145 -1.055941 -1.5751568 -0.08381407
000300 bd 96 09 3f 1c 52 96 be 98 20 d8 3c 32 1c 1f 3f
       0.53745633 -0.2935952 0.02638273 0.621524
000310 61 cd 76 c0 06 3a c6 3e f8 65 4b bc 16 92 27 bf
       -3.8562853 0.38716143 -0.012414448 -0.65457284
000320 06 bc 0e 3e 01 db a9 be 86 66 b9 3c c1 a3 3f 3d
       0.13938913 -0.331749 0.022631895 0.046787027
000330 84 54 f2 3e 87 d4 f7 bd e2 d2 f2 be b7 76 bf bd
       0.47330105 -0.12101083 -0.47426516 -0.09348815
000340 56 e7 b1 bf 2c 3f 57 be 46 ce d8 bb 32 f4 0c bf
       -1.3898723 -0.21020192 -0.0066163866 -0.5506011
000350 ac d4 a4 bc a7 1f cd bd a9 7c ac 3e af b9 16 bc
       -0.020120941 -0.10015803 0.33688858 -0.009199544
000360 16 ae 2c 3e 33 91 a0 3f cf 4a aa bf 16 f3 da bc
       0.16863284 1.2544311 -1.330408 -0.02672724
000370 dc e7 0e bd 67 18 d5 3c 94 b9 bf be 4e 96 50 3d
       -0.034889087 0.026012613 -0.37446272 0.05092459
000380 53 f5 bd 3f 14 b2 ea bd 89 dd c0 bf fb 0b 0b 3e
       1.4840492 -0.11459747 -1.5067607 0.13578789
000390 46 b8 e8 3e 5f 7e b3 3e 29 60 0e bf 63 75 ff bf
       0.4545309 0.3505735 -0.5561548 -1.9957699
0003a0 a7 38 e4 be 5a f7 83 bd 18 ac cc 3e 88 21 3f 3d
       -0.44574472 -0.06443663 0.39975047 0.046662837
0003b0 1a b8 4f 3c f4 2f a2 bd 88 6c b7 be 7f e8 3f b9
       0.012678171 -0.079193026 -0.3582499 -0.00018301791
0003c0 d9 5c a4 be c0 48 f1 3d dc 6e 5d bf 72 10 c6 3f
       -0.32102087 0.11781454 -0.86497283 1.5473769
0003d0 59 91 f9 be 54 80 22 bd c9 6b 2a bf 0c 79 fe 3e
       -0.48743704 -0.039673164 -0.6657072 0.49701726
0003e0 9c c0 30 bd 31 ca 04 3b 6f 9b f7 3e 1d 99 3b c0
       -0.043152437 0.0020262117 0.48360774 -2.9312203
0003f0 d2 82 fe 3e a5 f9 2e be 00 d8 26 bf b0 19 2c 3f
       0.49709183 -0.1708742 -0.6517334 0.67226696

fc3.bias f4 [64]
000000 1f 5e 2a c0 50 74 ea be ed 6d 83 c0 47 8a b1 bf
       -2.6619947 -0.45791864 -4.1071687 -1.3870324
000010 07 66 dc bf c5 16 91 c0 7a f2 b5 bf 8e ba 6f bf
       -1.7218636 -4.5340295 -1.4214623 -0.93644035
000020 28 77 da bf 21 80 37 c0 d6 b2 9f bf 43 57 27 c0
       -1.7067614 -2.8671954 -1.2476451 -2.614701
000030 08 5a 86 3e ec 2d d6 bf 7b 87 c4 bd 76 88 e1 bf
       0.26240563 -1.6732764 -0.09596153 -1.761977
000040 6f b1 02 bf 06 0d 92 bf ed 0b 7a c0 fa 9e a3 bf
       -0.5105199 -1.1410224 -3.906978 -1.2782891
000050 5f e8 92 bf 05 c8 57 bf 7e d6 84 c0 73 fc 9a be
       -1.1477164 -0.8428958 -4.151183 -0.30270728
000060 5f 8b 54 c0 c3 05 af bf d2 14 6c bf 84 ee df bf
       -3.3210065 -1.3673633 -0.9221927 -1.7494664
000070 67 be d9 bf ba 81 26 c0 4a c4 33 bf c4 5e 2f 3f
       -1.7011231 -2.601668 -0.7022139 0.68503976
000080 8b 60 82 bf cc 41 e7 bf 4a 9d 48 bf a6 7e 73 c0
       -1.0185713 -1.8066955 -0.78365004 -3.804605
000090 ab 23 af bf 21 27 18 bf f0 30 1b bf a6 2f 03 c0
       -1.368276 -0.59434706 -0.6062155 -2.0497832
0000a0 62 db 12 bf fb 2d 7e be d7 8d 15 bf 19 ad 1b c0
       -0.57366 -0.24822228 -0.58419555 -2.43244
0000b0 95 b8 c8 bf c3 3b 83 c0 10 b9 e8 bf 5e e9 c6 bf
       -1.568133 -4.101045 -1.8181477 -1.5539968
0000c0 ed 4f 19 bf a5 5c b2 bf 96 49 22 bf 46 37 a7 bf
       -0.5988758 -1.3934523 -0.63393533 -1.3063743
0000d0 ff 62 2a c0 67 06 ae bf cd 2b 32 bf d7 78 ed 3e
       -2.6622922 -1.3595704 -0.69598085 0.46381256
0000e0 c6 f3 47 bf 2d e3 1d c0 f6 6d 75 be ac 68 b7 bf
       -0.78106344 -2.4669907 -0.23967728 -1.4328818
0000f0 77 a4 ca be f1 5f 19 bf 46 e7 98 bf 08 b4 28 c0
       -0.39578602 -0.5991202 -1.1945579 -2.6359882

fc4.weight f4 [4, 64]
000000 8c 2b d7 be 94 81 cc bf 1c d0 b4 bf ac be 3f bf
       -0.4202541 -1.5977044 -1.412601 -0.7490032
000010 c0 10 c3 3c 82 5c c3 bf 84 46 b2 be 31 16 36 be
       0.023811698 -1.5262606 -0.34819424 -0.17781903
000020 09 2c 55 bf b3 52 96 bf 71 79 72 c0 ca a9 54 3e
       -0.8327032 -1.1743988 -3.7886622 0.20767894
000030 3e 35 2a c0 11 78 9f 3e 56 30 63 c0 b2 9f 1a 3e
       -2.6594996 0.3114629 -3.5498252 0.15099981
000040 d1 b6 d0 c0 13 da 97 3d 58 e8 ff bf bb 5f 29 bf
       -6.5223165 0.07414641 -1.9992781 -0.661617
000050 13 b5 54 bf 8f c3 f4 c0 3f f2 8d bf 24 cd 57 bf
       -0.830888 -7.648872 -1.1089553 -0.84297395
000060 e8 38 9f c0 54 04 90 be 45 16 69 be b5 e2 c0 bd
       -4.9756966 -0.28128302 -0.22762401 -0.09418241
000070 c2 67 01 c0 f9 3b 17 c0 b5 c3 ce bf 46 a0 5b c0
       -2.0219579 -2.3630354 -1.6153475 -3.4316573
000080 4a 52 16 bf 79 d2 21 bd b6 35 45 be 49 e7 96 bf
       -0.58719313 -0.039507363 -0.1925877 -1.1789333
000090 4b b5 bc c0 56 6a 2a 3e 5c 05 ad bf eb 03 1b c0
       -5.8971305 0.16642126 -1.351726 -2.4221141
0000a0 53 96 31 3e 5a c5 4b bf 8f be 5c bf bf 9a 72 c0
       0.173425 -0.7959801 -0.8622827 -3.790695
0000b0 3a 3e 0f be b3 02 2c be a5 43 c2 be 8d 65 13 3e
       -0.13988581 -0.16797905 -0.37942234 0.14394207
0000c0 c7 6c a4 be 74 92 a6 be 82 0a 3b 3d ae 83 0c 3e
       -0.3211424 -0.3253361 0.045664318 0.13722107
0000d0 f5 5a 8a 3f 9a bc 52 40 8a 63 62 be 24 a1 63 c1
       1.0809008 3.2927613 -0.22108284 -14.226841
0000e0 22 eb 9e bf 98 93 af bf c3 c1 9f bf 4c 0e d6 3e
       -1.2415507 -1.3716917 -1.2481006 0.41807783
0000f0 cb 58 78 c1 59 42 42 c1 94 b1 b8 c0 75 d5 01 bf
       -15.521678 -12.141198 -5.771677 -0.50716335
000100 90 c9 9b 3e e6 f2 ac be 07 0f 01 bf 5b ab d5 bf
       0.30427217 -0.33779067 -0.50413555 -1.6692919
000110 7c 08 9d 3e 86 be 4f 3f c9 d0 0c bf 38 94 89 be
       0.30670536 0.8115009 -0.5500608 -0.26870894
000120 48 67 2b 3d 0f 07 85 bf b2 f0 be bf d4 95 a7 be
       0.041846544 -1.0392779 -1.4917204 -0.32731497
000130 fd e6 d5 c0 38 10 fc be 59 b8 79 bf 14 0f 19 3f
       -6.684447 -0.49231124 -0.9754692 0.5978863
000140 c4 8a d6 c0 16 ba 08 3e 8c 7a 72 bf a7 a8 5f bd
       -6.704439 0.13352236 -0.9471824 -0.0546042
000150 60 5c ba be a0 45 34 bf c2 7f bc 3e fe d7 37 c0
       -0.36398602 -0.7041874 0.3681622 -2.872558
000160 86 d5 b8 3e a1 d4 52 bf 51 a9 6d be 6e 1d 9d be
       0.36100405 -0.82355696 -0.2320912 -0.30686516
000170 7c 12 fe be 65 ea 5e 3f 6b 27 8c bf 16 09 07 c0
       -0.49623477 0.8707641 -1.094953 -2.1099296
000180 9b c2 48 3d d1 30 0b bf c6 d9 98 3d 3e 2e a2 3e
       0.049013715 -0.5437136 0.07463412 0.31675905
000190 c5 e7 1d 3f 34 9b 71 bd 3a a4 bd be 45 b2 24 bf
       0.6168178 -0.058985904 -0.37039357 -0.6433452
0001a0 de 5b 2e be c7 18 a8 bd da cc b7 bd e0 8b 85 3d
       -0.17027232 -0.08207851 -0.08974619 0.0652082
0001b0 4d b9 c3 3e 90 58 95 3e 9d 9a 2a be b3 ad 29 be
       0.3822731 0.2916913 -0.16660543 -0.16570167
0001c0 d6 18 ce 3b ca e1 f7 bd 67 7a e7 bd 5f ab 88 3e
       0.006289582 -0.12103613 -0.11302643 0.26693246
0001d0 9e 23 33 bf 04 71 95 bf 10 4b 05 bf 71 25 eb bf
       -0.6997622 -1.1675115 -0.5206766 -1.8370801
0001e0 dc 55 37 be b2 e5 b3 3e f2 51 43 bd d8 dc 03 c0
       -0.17903847 0.3513618 -0.04768557 -2.0603542
0001f0 b5 5b e2 bf ad ec 97 bd c6 9b 04 bf f5 63 5c 3b
       -1.7684237 -0.07418189 -0.5180019 0.0033628915
000200 2b 25 f6 be 4c 9f 8b 3e e9 e9 1d 3e be 22 f5 bd
       -0.48075232 0.2726997 0.15421261 -0.11969517
000210 be da 00 be fa d0 4d 3d e0 5a af 3e bc 51 8b be
       -0.12583444 0.050248124 0.3424902 -0.27210796
000220 05 54 a6 bc d1 9e 4f 3f c3 ee ce 3e a8 5c f0 bd
       -0.020303736 0.8110171 0.40416536 -0.11736423
000230 89 c1 fc be c1 0e f2 be 8d 6d e4 be 52 41 60 bf
       -0.49366406 -0.4727688 -0.4461483 -0.8759967
000240 94 7a 2a bf 73 28 9e be f2 0f 3c 3f a9 a2 38 be
       -0.6659329 -0.30890235 0.7346183 -0.180308
000250 5c fb 1e 3e 84 0a cd be 8e c1 11 bd f2 4c bb 3e
       0.15525573 -0.40047085 -0.03558498 0.36582142
000260 53 02 9c bd 82 5b 77 3e 1e 88 4f 3e 53 55 83 3e
       -0.07617631 0.24156001 0.20266768 0.25651035
000270 53 66 cd be a1 f9 60 be 0e 49 32 3f d6 e6 f5 be
       -0.4011713 -0.21970226 0.6964272 -0.48027676
000280 b5 4c 61 bb 80 26 20 be 17 fc c0 3d 3c 20 b8 bd
       -0.0034377996 -0.15639687 0.09423082 -0.08990523
000290 ee ac 0c bf 26 a8 03 3e 8d f2 db be 8a a1 18 be
       -0.5495137 0.12857112 -0.4295849 -0.14905372
0002a0 4a e3 3e 3d 47 c2 42 3e 50 ed df 3e fe 6e 0d bf
       0.04660348 0.19019423 0.43735743 -0.55247486
0002b0 b2 2e 1c be 20 bb 4a 3e 08 b7 b9 3e 3e af 1b 3f
       -0.15252188 0.19797945 0.36272454 0.60814273
0002c0 4e 3d 84 3e 95 d6 e6 be f8 ab 1c 3e ab 59 b0 bd
       0.25828022 -0.45085588 0.15299976 -0.08610853
0002d0 bf 54 91 bf 18 01 c4 be 97 f8 40 3e 57 8e 8d be
       -1.1353987 -0.38282084 0.1884483 -0.2764766
0002e0 a8 b1 7d bd d5 8c 06 3f 23 0d 6f 3f 6c 5b 6e bf
       -0.061937004 0.5255864 0.9337942 -0.9310825
0002f0 04 07 0d 3e 3b be 8a be 0d d3 b4 3e b7 81 22 bf
       0.13772207 -0.2709826 0.3531727 -0.6347918
000300 0a 20 f1 bd 42 69 b1 be b9 7b 97 be 9c 1a 4f be
       -0.11773689 -0.34650618 -0.2958658 -0.20224994
000310 1e e6 6b 3d 18 5f 8b bf 97 6d b4 bd 93 11 8a 3e
       0.057592504 -1.0888395 -0.08809965 0.26966533
000320 cf 22 18 3e 59 ef 2f bf f3 5d 5f 3e 12 d7 39 bf
       0.14857028 -0.6872459 0.21813183 -0.72593796
000330 0d ee 3b 3f 0b 29 2b be bd c0 11 3f a6 bc 6b bf
       0.7341011 -0.16714875 0.5693472 -0.9208473
000340 65 82 68 bf 61 5e 93 3e 13 21 2e bf 6a 65 99 3e
       -0.90823966 0.28782943 -0.6801922 0.29960185
000350 17 6f c3 bf c7 c0 bb be 88 4f d4 be 37 7c 96 bf
       -1.5268277 -0.36670515 -0.41466928 -1.1756657
000360 7d b9 ab 3d 6e 93 6c 3e 9c 79 db be 1b 54 03 3e
       0.083849885 0.23103115 -0.42866218 0.12825052
000370 3e f5 5c 3e 56 fc c2 be 3f 2f 84 3c 6f e7 9e 3e
       0.21577927 -0.38083142 0.01613581 0.31035945
000380 dd d2 09 3e 9d d0 c5 3b 8f e7 5c be 4c 06 7d bf
       0.13459344 0.0060368315 -0.21572708 -0.98837733
000390 5b 15 60 bf f1 f1 0e be 5a 19 01 3f 7f 4e 85 3e
       -0.87532586 -0.13959481 0.5042931 0.2603645
0003a0 a9 2a 77 be a9 b5 e8 bd 15 f7 bc be a7 f9 67 3d
       -0.24137367 -0.11362774 -0.3690726 0.05663457
0003b0 e8 5c 1d be f7 66 10 bf b2 65 4a bc b3 77 03 3d
       -0.15367472 -0.5640711 -0.012353348 0.032096576
0003c0 e6 8d e9 bd 32 27 f1 3e 43 ca cc bd f1 e7 b7 bd
       -0.11404018 0.47100216 -0.09999516 -0.08979786
0003d0 6a 6e 2e bf e5 58 2b bf 7c 2a 35 be 71 7d d4 3e
       -0.6813723 -0.6693252 -0.17691988 0.41501954
0003e0 0c 6b cf 3e 39 ce 91 bf 94 f1 cd bf 9a 4a 88 bf
       0.40511358 -1.1391059 -1.6089349 -1.0647767
0003f0 08 6b d5 3e 2b 96 8f bd ed 4c 4b bf d8 5a 57 be
       0.4168322 -0.07011064 -0.79414254 -0.21030748

fc4.bias f4 [4]
000000 02 be 9e c0 b7 1a de be 3d d9 d6 3f ad 4c b2 bf
       -4.9606943 -0.43379757 1.6785046 -1.392965
