10by10recording/src/3layerMLPparameter/3layermlp2.npz (npz, 105860 bytes, 10 tensors)

mean f8 [100]
000000 00 00 00 00 00 00 00 00 00 00 00 00 00 00 00 00
       0.0 0.0
000010 00 00 00 00 00 00 00 00 00 00 00 00 00 00 00 00
       0.0 0.0
000020 00 00 00 00 00 00 00 00 00 00 00 00 00 00 00 00
       0.0 0.0
000030 00 00 00 00 00 00 00 00 00 00 00 00 00 00 00 00
       0.0 0.0
000040 00 00 00 00 00 00 00 00 00 00 00 00 00 00 00 00
       0.0 0.0
000050 00 00 00 00 00 00 00 00 02 33 8e e4 1d a9 af 3f
       0.0 0.0618371335504886
000060 67 e4 6e 47 f4 9a 6c 3f c2 23 70 3a f8 6a 9b 3f
       0.00349185667752443 0.026775244299674268
000070 00 00 00 00 00 00 00 00 4a b9 57 0e 56 04 9a 3f
       0.0 0.025407166123778503
000080 cc 02 1b 79 7a 4f 9a 3f 86 35 ef e2 32 ac 9d 3f
       0.02569381107491857 0.028977198697068406
000090 eb 79 04 77 59 db a9 3f 8d 3a b1 df 5c b2 99 3f
       0.05050162866449511 0.025094462540716612
0000a0 00 00 00 00 00 00 00 00 a1 f8 06 5d 61 7b 87 3f
       0.0 0.011465798045602606
0000b0 6f 0a 7c f2 85 c7 8d 3f 2b 89 22 21 7f 19 7e 3f
       0.01454071661237785 0.007348534201954397
0000c0 de 9a 07 94 de 9d 49 3f 4e 4c de e3 9e 9a 9a 3f
       0.0007817589576547231 0.025980456026058633
0000d0 2a 42 6e 10 77 78 6a 3f 86 35 ef e2 32 ac 6d 3f
       0.003231270358306189 0.0036221498371335507
0000e0 b1 44 21 b3 84 d4 59 3f 00 00 00 00 00 00 00 00
       0.0015765472312703583 0.0
0000f0 00 00 00 00 00 00 00 00 40 6d e1 00 24 5d 7a 3f
       0.0 0.0064364820846905535
000100 6b 5b c8 22 0e 5f 91 3f 02 c6 c2 15 6e e6 8e 3f
       0.01696416938110749 0.015087947882736156
000110 1b 3d 08 cb 5b c0 5b 3f 47 4c 3a 9b ad e8 57 3f
       0.0016938110749185667 0.00145928338762215
000120 e3 32 ac 1d 60 88 73 3f ce 4e ed 3d bb 44 77 3f
       0.004768729641693811 0.005680781758957655
000130 8a cd 93 6c b4 96 77 3f 49 98 0c 60 ee dd 74 3f
       0.005758957654723127 0.005094462540716612
000140 00 00 00 00 00 00 00 00 3e 05 e2 41 b4 95 a1 3f
       0.0 0.03434527687296417
000150 93 14 ec c5 ad e9 8d 3f cc 95 4f aa ca 8c a9 3f
       0.01460586319218241 0.04990228013029316
000160 08 3d 45 43 04 57 a4 3f a4 86 6f 7e 71 bd 8e 3f
       0.039726384364820844 0.015009771986970684
000170 a5 6a 42 84 42 eb a2 3f a2 fd 24 11 9a cf a0 3f
       0.03695114006514658 0.03283387622149837
000180 6a 35 5f c0 6d e4 72 3f 22 1c 61 65 e5 4b 69 3f
       0.004612377850162866 0.0030879478827361565
000190 00 00 00 00 00 00 00 00 03 ec 2b 78 0e 61 ad 3f
       0.0 0.057381107491856674
0001a0 a0 d2 9d fa c0 00 89 3f 77 5b e7 61 74 16 a6 3f
       0.012208469055374593 0.0431400651465798
0001b0 72 0f c3 f8 3a c8 a7 3f 3c da 5a 2b db c6 a9 3f
       0.04644951140065147 0.05034527687296417
0001c0 75 ee c9 ee cb fa a3 3f db 0c 9f 72 ce 5b a2 3f
       0.0390228013029316 0.03585667752442997
0001d0 fb 16 bd a1 fd 24 a1 3f 47 4c 3a 9b ad e8 77 3f
       0.03348534201954397 0.0058371335504886
0001e0 00 00 00 00 00 00 00 00 2a 42 6e 10 77 78 4a 3f
       0.0 0.0008078175895765473
0001f0 10 89 92 fe b9 51 73 3f e4 74 42 7a 2f d5 ad 3f
       0.004716612377850163 0.0582671009771987
000200 72 c8 37 3a af d3 a4 3f 87 a7 01 b8 97 6f a8 3f
       0.04067752442996743 0.047726384364820844
000210 ad d2 e5 8b a3 64 8e 3f 06 59 49 eb b6 7c 6f 3f
       0.014840390879478827 0.0038436482084690552
000220 f2 79 a8 bf 4a 8d 9c 3f 30 21 c7 aa 00 04 78 3f
       0.02788273615635179 0.005863192182410423
000230 00 00 00 00 00 00 00 00 54 0a ec cf c0 ff 62 3f
       0.0 0.0023192182410423454
000240 de 9a 07 94 de 9d 39 3f b4 95 11 2c fe 1d 80 3f
       0.00039087947882736156 0.007869706840390879
000250 67 e4 6e 47 f4 9a 5c 3f a2 3f bb 6d 69 1c 6b 3f
       0.001745928338762215 0.003309446254071661
000260 17 aa 81 f5 12 2a 8b 3f 37 42 b6 a1 59 dc 7f 3f
       0.013263843648208469 0.007778501628664495
000270 18 af 9f a9 4b 7e 14 3f 00 00 00 00 00 00 00 00
       7.817589576547231e-05 0.0
000280 00 00 00 00 00 00 00 00 7c 56 44 a4 b0 c7 9e 3f
       0.0 0.030058631921824105
000290 81 60 d2 b0 1a c9 32 3f 87 5b 58 45 d3 26 9c 3f
       0.00028664495114006516 0.02749185667752443
0002a0 e2 2d 8e 69 27 34 9a 3f 00 00 00 00 00 00 00 00
       0.02558957654723127 0.0
0002b0 7f 35 4b 9a 41 fa 9a 3f e8 11 dc 65 6d 67 a0 3f
       0.02634527687296417 0.03203908794788274
0002c0 00 00 00 00 00 00 00 00 4a b9 57 0e 56 04 aa 3f
       0.0 0.050814332247557006
0002d0 00 00 00 00 00 00 00 00 ee 53 ed b8 b1 b9 ac 3f
       0.0 0.0561042345276873
0002e0 4a b9 57 0e 56 04 9a 3f 8b ee de 1a 1c bd 9c 3f
       0.025407166123778503 0.02806514657980456
0002f0 77 30 89 9d 17 f4 9e 3f 0b 5e b9 43 e8 29 9a 3f
       0.03022801302931596 0.025550488599348536
000300 06 38 fe 3c 4f 56 9a 3f 4a b9 57 0e 56 04 9a 3f
       0.02571986970684039 0.025407166123778503
000310 00 00 00 00 00 00 00 00 6b 30 6a 5e b1 3c ca 3f
       0.0 0.2049771986970684

std f8 [100]
000000 3a 8c 30 e2 8e 79 45 3e 3a 8c 30 e2 8e 79 45 3e
       1e-08 1e-08
000010 3a 8c 30 e2 8e 79 45 3e 3a 8c 30 e2 8e 79 45 3e
       1e-08 1e-08
000020 3a 8c 30 e2 8e 79 45 3e 3a 8c 30 e2 8e 79 45 3e
       1e-08 1e-08
000030 3a 8c 30 e2 8e 79 45 3e 3a 8c 30 e2 8e 79 45 3e
       1e-08 1e-08
000040 3a 8c 30 e2 8e 79 45 3e 3a 8c 30 e2 8e 79 45 3e
       1e-08 1e-08
000050 3a 8c 30 e2 8e 79 45 3e 71 30 cb 13 7c d4 ce 3f
       1e-08 0.2408595177315678
000060 3a 86 e4 c5 c3 33 ae 3f 50 b6 9f ec 9a a9 c4 3f
       0.05898868361169858 0.16142593912029435
000070 3a 8c 30 e2 8e 79 45 3e e4 c3 77 60 51 24 c4 3f
       1e-08 0.15735833368628882
000080 c9 52 61 84 8f 40 c4 3f 37 75 16 85 95 78 c5 3f
       0.15822023357272588 0.1677424335329449
000090 6c 4e ad ce 75 07 cc 3f ca 8f c9 7c 4f 05 c4 3f
       0.21897766677522001 0.1564120635331377
0000a0 3a 8c 30 e2 8e 79 45 3e 84 3f e9 02 26 41 bb 3f
       1e-08 0.10646283694336317
0000b0 ea ed f2 9b fc a4 be 3f 07 60 51 4c 4d dd b5 3f
       0.11970499808642612 0.08540804970959935
0000c0 73 63 61 c3 ab 9e 9c 3f d1 34 c3 26 a2 5c c4 3f
       0.02794903163917035 0.15907694714261436
0000d0 9e 3e d4 35 a5 0e ad 3f 7c 24 b4 9b 2d c2 ae 3f
       0.056752360173161195 0.06007521176986416
0000e0 9f 2d 04 dd 35 50 a4 3f 3a 8c 30 e2 8e 79 45 3e
       0.0396744568152727 1e-08
0000f0 3a 8c 30 e2 8e 79 45 3e 8e 69 f7 b2 da 78 b4 3f
       1e-08 0.0799690901689358
000100 c9 82 ab 74 90 87 c0 3f dc 74 e8 65 06 35 bf 3f
       0.1291370935132561 0.1219028471754941
000110 6d 4c 3c 5a d2 0d a5 3f 62 e8 31 19 5f 8b a3 3f
       0.04112107612140723 0.03817269499354904
000120 d5 75 88 aa d9 a2 b1 3f be 8b 6b 3a 76 3d b3 3f
       0.06889114774136058 0.07515658308288573
000130 6e 97 31 b7 0a 5f b3 3f 2e 6e bd 40 bc 39 b2 3f
       0.07566897366049627 0.0711934717232274
000140 3a 8c 30 e2 8e 79 45 3e 4d b3 e1 f3 86 4f c7 3f
       1e-08 0.18211447628291424
000150 a4 34 39 f7 47 b6 be 3f c7 53 13 4e 01 df cb 3f
       0.11996888910035125 0.21774307548790103
000160 35 68 f1 69 1a 00 c9 3f f9 71 2e 0d 9e 20 bf 3f
       0.19531564877508037 0.12159145185291455
000170 1e f8 5b be 6a 25 c8 3f c4 05 e5 82 4f cf c6 3f
       0.18864187521825299 0.1782016171583064
000180 4c d1 4e 7a 91 58 b1 3f a5 5d 40 c1 53 68 ac 3f
       0.06775769458801512 0.05548345312143547
000190 3a 8c 30 e2 8e 79 45 3e 02 c8 a7 6f d5 c4 cd 3f
       1e-08 0.23256938888476958
0001a0 21 54 a9 df dc 1c bc 3f af aa 53 34 8d 01 ca 3f
       0.10981541119083761 0.2031723504545275
0001b0 b5 e1 f4 7a 3d f0 ca 3f 2c 17 c5 13 ef fc cb 3f
       0.2104565477727768 0.21865642991377265
0001c0 03 9d 44 85 7f c9 c8 3f 84 2e 59 c8 a4 cc c7 3f
       0.19364923484065608 0.18593272955546436
0001d0 5f a8 13 27 f8 06 c7 3f 12 d7 4c 09 64 80 b3 3f
       0.17990018756910595 0.07617783762983901
0001e0 3a 8c 30 e2 8e 79 45 3e 1e dd 44 1a af 17 9d 3f
       1e-08 0.028410659769375284
0001f0 15 88 68 8e 3a 8a b1 3f 82 8c 42 4e d5 fb cd 3f
       0.06851545311704428 0.2342478401306814
000200 1d 4f 11 f2 0e 49 c9 3f 1c 75 b0 e3 b3 49 cb 3f
       0.1975420648546952 0.21318672769204106
000210 4c 08 a6 91 35 f4 be 3f d4 52 58 24 76 ae af 3f
       0.12091383748887202 0.06187791055359573
000220 10 37 db ff d1 12 c5 3f 9f 38 d1 dd 74 8b b3 3f
       0.1646368502901443 0.07634668746433924
000230 3a 8c 30 e2 8e 79 45 3e 71 92 02 8d e0 a0 a8 3f
       1e-08 0.04810239526094485
000240 ac 26 9f b0 c0 3d 94 3f 13 29 a4 06 de 9e b6 3f
       0.019766817836887426 0.08836162244930205
000250 7a da b9 8f f8 5f a5 3f 27 50 38 c4 cb 67 ad 3f
       0.04174782518832827 0.05743252535117476
000260 b1 81 e7 4e 7a 49 bd 3f dc 88 2f 4f 7a 7d b6 3f
       0.11440243173956934 0.08785213883632842
000270 5d f1 79 a3 6d 1b 82 3f 3a 8c 30 e2 8e 79 45 3e
       0.00884137778415866 1e-08
000280 3a 8c 30 e2 8e 79 45 3e 28 32 71 cc 17 db c5 3f
       1e-08 0.17074868662383946
000290 7c 6e e9 9f 9e 55 91 3f d6 b0 03 16 f3 ed c4 3f
       0.016928175459141034 0.16351164412424762
0002a0 ca 65 41 72 4f 36 c4 3f 3a 8c 30 e2 8e 79 45 3e
       0.15790741995696883 1e-08
0002b0 df 59 c3 f4 1e 80 c4 3f 8d e6 5d b2 92 8a c6 3f
       0.16015994025538213 0.17610391339603773
0002c0 3a 8c 30 e2 8e 79 45 3e ac 43 3f a4 74 1c cc 3f
       1e-08 0.21961839694861618
0002d0 3a 8c 30 e2 8e 79 45 3e fe 4d 9d e3 aa 74 cd 3f
       1e-08 0.23012291063297136
0002e0 d0 bf 77 60 51 24 c4 3f 9f 44 cb 29 ee 23 c5 3f
       0.15735833368625984 0.1651590065071433
0002f0 5d 04 29 5a 58 ea c5 3f b9 16 ff ed 75 32 c4 3f
       0.1712141456828559 0.15778993721885629
000300 af a0 76 a2 1e 43 c4 3f fe c5 77 60 51 24 c4 3f
       0.15829832966597254 0.15735833368630375
000310 3a 8c 30 e2 8e 79 45 3e 37 aa b7 7b f9 d5 d9 3f
       1e-08 0.403684969728292

W1 f8 [50, 100]
000000 17 d7 bd 6b 8b f3 73 bf 13 d6 0d 5e 89 af 5e bf
       -0.0048709341170843 -0.0018729058722021282
000010 18 d1 b8 7a 97 41 54 bf 2f f3 fe e5 57 5b 77 3f
       -0.0012363414088101873 0.005702346184929748
000020 cc 74 79 dd 0d 0a 22 bf ff c4 29 51 98 a8 59 bf
       -0.00013762873890047487 -0.001566075083840268
000030 ec 72 91 4a 2c e9 5e 3f 5c 90 37 12 86 22 7c bf
       0.0018866474659013322 -0.006868861880750723
000040 03 5e b4 fc 23 d8 62 3f c0 a4 75 22 6d b7 67 3f
       0.002300329482419762 0.002895081666498628
000050 56 7d 4d 57 ea 63 81 3f 9c d0 d5 7c f3 cf e4 3f
       0.008491354741350914 0.6503846586406499
000060 48 06 e0 74 f2 12 4d 3f 23 e7 53 2c ed d8 da 3f
       0.0008872684354630034 0.41949014023667724
000070 33 92 8a 94 1c fc 76 bf c3 c6 78 62 0a d2 a9 3f
       -0.00561152614742304 0.05043060733841067
000080 a7 06 bb cb bc 46 b6 3f 39 60 55 ba f3 51 9f bf
       0.08701686834231258 -0.030586059806722885
000090 d0 d2 31 db 9a 39 af bf 4b f4 70 5a a8 fe 92 bf
       -0.060986365563541534 -0.018549566764921626
0000a0 73 ba 42 e0 e2 db 67 3f 39 85 1b 15 67 32 d3 bf
       0.002912467114661249 -0.29995133458404016
0000b0 fe fd f2 f6 33 9f bb bf c7 3b ba 99 8a 1c b6 3f
       -0.10789799479515946 0.08637300732719587
0000c0 57 81 f7 05 5f 41 8d bf d1 c4 6d d8 61 1f ae 3f
       -0.01428484188994676 0.05883317725136695
0000d0 a7 10 85 14 b6 d9 a7 3f af 5f 72 1e ff e8 5b 3f
       0.046582880024773225 0.0017034999271228026
0000e0 72 c1 14 e8 8f b8 b3 3f 00 96 0e 33 e5 ec 8a 3f
       0.07703494468728936 0.013147154446254028
0000f0 fb bc 4c 2e 33 63 38 3f a8 cd 46 54 aa a3 73 3f
       0.00037212371380497517 0.004794755314310541
000100 9f 2e 4e 8d 47 44 b3 bf a7 5c f0 af bf 8f 8d 3f
       -0.07526061248625603 0.014434335285882517
000110 1a ce c8 7c 8c 99 a7 bf dd 17 d8 eb d2 2d ad bf
       -0.046093359215231014 -0.05699023369747611
000120 11 29 75 93 ef ba ac 3f 90 f1 77 c1 e0 0d 97 bf
       0.056113707304193856 -0.02251387768591112
000130 05 1f 10 a5 68 b0 af 3f 31 9a 52 b1 9a f2 97 3f
       0.06189276709488748 0.023386399338642675
000140 bf ae 27 c4 b2 9a 71 bf 4c 2f b9 86 f5 5c c3 bf
       -0.004297922425830768 -0.15127438619890154
000150 80 2f 93 c4 18 a5 a7 bf 3e 03 4c ef c3 c3 af 3f
       -0.04618146323772887 0.062040446244287825
000160 9a 23 c7 5c c1 dc b1 bf 07 2d 9a 19 94 87 a2 3f
       -0.0697747088917268 0.03619063198592625
000170 b2 70 9c 3a 33 15 b2 bf a5 43 05 f5 6a b7 b6 3f
       -0.07063598805365492 0.08873623353907918
000180 ca 1c 60 4d 08 6c c2 3f 6e 23 02 24 de 14 81 bf
       0.14392188814256307 -0.008340583299529771
000190 d0 97 28 9b 8f 27 54 3f 17 b1 4a 61 3b e7 cb 3f
       0.0012301351931767075 0.21799413919996688
0001a0 34 6c 2f 42 a3 2e c1 bf 93 49 4d 23 39 3f 98 bf
       -0.13423577052785307 -0.023678677348763676
0001b0 c5 40 0d b0 b7 83 87 3f 38 f3 fd 19 3b e9 97 3f
       0.011481700000928527 0.023350642644334146
0001c0 09 52 bb 52 9b 8f aa bf 17 33 03 05 ec bf c2 3f
       -0.05187688240917871 0.1464819931483354
0001d0 5c 49 a5 b9 46 61 d2 3f 3b 3f ac ec 9c 8e ca 3f
       0.2871872723527724 0.20747720295229918
0001e0 ce 8a 4f 82 0c 0e 7d bf f5 a3 06 94 f1 bc a1 bf
       -0.0070934761651837 -0.034644650764057795
0001f0 cf 6e 45 44 2f ff b9 bf 49 71 1e 42 d2 83 a3 bf
       -0.10155005852487452 -0.03811509186855006
000200 53 33 5a 81 65 2d 9b bf b2 d6 dd d2 69 2c 7c bf
       -0.026540361423531177 -0.006878293393915479
000210 b3 29 a7 3d 4d 68 66 3f 95 97 5a c0 84 1e ac 3f
       0.0027352818117140853 0.05492033813543099
000220 01 ad 78 44 e5 6a c4 3f b2 ad cf 23 43 b2 b7 bf
       0.15951219409303266 -0.09256381630227997
000230 3c 03 a1 1a f3 5a 90 bf ac 76 af 95 a9 e2 94 bf
       -0.015971945286085573 -0.02039589859111028
000240 58 34 ec 79 30 6f 64 bf 61 a3 56 d1 56 97 a7 3f
       -0.002494425468631916 0.046076500944144845
000250 99 e8 9e de 8c 33 92 bf ed 73 b9 d4 b9 00 91 bf
       -0.017774773681346365 -0.016604331597012068
000260 1d 9e ea 78 db 7f 71 3f 32 ad a6 ae 41 01 9c 3f
       0.0042723248613252525 0.027348543438774083
000270 f0 61 8c 9c 4d af 36 bf 4d 1e bc 97 ff 88 7a 3f
       -0.00034614224255016725 0.006478308114089848
000280 0f d1 95 96 10 b9 61 3f dd 0c 29 cb 1a c0 bd bf
       0.002163441084741653 -0.1162125345227198
000290 c3 be 06 5d 2c 07 ad bf 7a 89 54 66 1c 98 b0 bf
       -0.056695352893596083 -0.06482102869316533
0002a0 25 43 be c4 b6 b7 9f bf 43 3f 44 68 70 aa 4d bf
       -0.03097425056290883 -0.0009053276885726342
0002b0 e7 1c 4b 23 b8 73 a9 bf ea 05 6d 8d d8 c3 a2 bf
       -0.04971099310710674 -0.036650435699367837
0002c0 cc 2d 11 0d 0d 9a 73 bf 8f eb 58 9b 6d 1b a5 bf
       -0.0047855863386518475 -0.041224885190295095
0002d0 6c bc 0c bd c1 3b 7b bf 8c 69 eb fb 9f 11 c8 3f
       -0.006648785391731509 0.18803787041435915
0002e0 f6 ca f0 99 c0 b5 bf 3f c8 8d 85 16 c4 f9 91 3f
       0.12386707075419764 0.017554344057669785
0002f0 9a 2f 70 be 0e 3e b7 3f e5 ba f5 77 e1 ad a4 bf
       0.09079067372675667 -0.04038910474161187
000300 31 46 81 3d 5c 7d 9b bf 60 d4 a6 c6 d1 3d 9d bf
       -0.02684539914509382 -0.028556134938942157
000310 23 a3 ca 50 c3 6c 58 bf 06 78 42 29 6b 24 c2 bf
       -0.001490774858362972 -0.14173640741950083
000320 c1 0b 3f a8 d8 30 70 3f 5d fa a4 8f 30 17 91 bf
       0.003952833478197471 -0.01669002415405384
000330 93 ed ca 98 f4 78 7c 3f 81 0c 80 39 16 50 37 bf
       0.006951289612227812 -0.0003557256945898105
000340 ee aa e7 37 70 93 87 bf 7d 11 db 58 50 2c 92 3f
       -0.011511685091098536 0.017747168944667536
000350 ff 6d 4d 5d f7 62 76 bf 85 1f 00 0b ff 63 69 bf
       -0.005465475337441016 -0.0030994397457141964
000360 a8 e2 a6 50 0e 6a 84 3f b2 df f1 80 40 b9 5c 3f
       0.009967910610485589 0.0017531518858770853
000370 60 d6 eb 4a bf 5c 7f 3f 39 41 df 5e d4 19 b5 3f
       0.007656810032803912 0.08242537800038442
000380 ba 17 e2 8b ff 85 ab 3f a0 4b bb d7 1c 49 b5 3f
       0.053756700349409894 0.08314686076054878
000390 9f 6b 63 59 22 81 6c 3f ef bc 71 d5 07 5b 62 3f
       0.003479544723729202 0.00224067239792413
0003a0 0d 06 f5 eb be 65 6d 3f 01 c2 09 22 59 8f 4f bf
       0.0035885552348708994 -0.0009631333560503054
0003b0 3b 1a 4b 59 17 60 8b bf 54 60 ec a9 21 9a 65 bf
       -0.013366873180882801 -0.0026369721885082607
0003c0 ad 14 ae 4e 36 8a 7c 3f 76 bc ec 86 bf b2 a3 bf
       0.006967746866284913 -0.03847311517744682
0003d0 1e 4b 74 f8 9e 49 6a bf d7 95 2b d0 3b 8c 9b 3f
       -0.003208933343225153 0.02690213640280156
0003e0 dd 45 5f cf eb a0 76 3f 6e 37 b7 39 2b 14 89 bf
       0.005524560101507228 -0.01224550027736956
0003f0 24 ca 14 99 fd 72 a1 3f 06 d9 01 ed 4a dc 66 3f
       0.03408043378512485 0.0027905906100002013
000400 ed e0 d2 31 eb 0a 66 bf 24 0d e1 82 d9 7f 88 3f
       -0.0026907533307075544 0.011962603861440053
000410 5a fa 9f e1 74 21 79 bf d2 27 40 3c 43 40 93 3f
       -0.006135422294390647 0.018799830009846925
000420 d8 e3 85 e4 e8 75 7c 3f 10 ab 6c 08 c1 ca 82 3f
       0.006948384987816213 0.00917578513106812
000430 75 50 cc 57 12 3b 9d bf a9 44 81 82 48 06 8b 3f
       -0.028545652970095554 0.013195578081793906
000440 e8 03 ef ef 5d 3c ab 3f b4 cf ab 9a 63 74 3b bf
       0.05319493821981053 -0.0004189246343877476
000450 54 25 c7 65 93 7e 8f bf 4d 1d 47 cd fd 47 8c 3f
       -0.015378142875209257 0.01380918772419073
000460 6e f7 2d 6e 95 8a 91 3f 91 2e 55 d7 f2 d8 8b 3f
       0.01713021740896841 0.013597390362199565
000470 85 2f e4 05 c2 5f 98 bf 08 b4 29 da c4 0a a1 bf
       -0.02380278740842769 -0.03328528559800509
000480 cc 96 35 11 3d 4a 8f bf a8 b0 dc 14 56 8d 9a 3f
       -0.015278317535102025 0.025929780028648125
000490 77 13 6d 78 a5 5a 71 bf ad cb 04 86 cc 98 99 bf
       -0.004236837738805891 -0.024996944122175502
0004a0 0f e0 46 8e 37 5c 98 3f 30 f7 3d aa 63 6f ae 3f
       0.023789279993906173 0.059443583041668524
0004b0 98 05 72 16 94 28 93 bf 72 8e 80 c5 63 ec a8 3f
       -0.018709482068975797 0.048678510531570476
0004c0 7c 66 47 eb d0 ae 9f bf 47 bb 41 12 eb 2b 94 3f
       -0.03094030796078194 0.01969878481798595
0004d0 a1 42 ac db df 4e a4 bf 85 84 46 3d e9 0d 75 bf
       -0.03966426426462034 -0.005140219775428116
0004e0 88 92 5f c6 a1 a8 78 3f ec f3 f0 5b 00 d2 42 3f
       0.006020194943606179 0.0005743505242957725
0004f0 fa 6e 48 42 4c 7f 91 3f c7 31 5b f1 c1 41 77 bf
       0.0170871653991602 -0.005677945698789383
000500 d7 15 a4 06 ae f5 63 bf de eb 7f db 66 44 57 bf
       -0.0024364851898350626 -0.0014201168505667476
000510 a4 fd c5 50 13 58 a2 3f b4 e2 4e 7f b6 74 a1 3f
       0.0358282123661369 0.03409357360891843
000520 82 16 ec e6 4e 9e 8d 3f 88 be 22 26 b0 22 31 3f
       0.01446210519999203 0.00026146698486238145
000530 db 74 cc b9 37 1b 87 bf 4e 18 ea 2a bb 6c 91 3f
       -0.011282382352471412 0.017016338819779535
000540 40 ca 00 67 6c 19 98 bf 59 38 f5 62 7f 41 90 bf
       -0.02353448275261827 -0.01587485352984461
000550 97 ad 4b 68 24 99 61 bf 75 32 77 75 f9 e6 83 3f
       -0.002148219211780943 0.009717892548814814
000560 81 51 89 63 29 d7 8c 3f f4 77 6d 94 96 c4 60 3f
       0.014082263326749668 0.002046865559733208
000570 8a b7 11 0a 74 8f 91 3f 36 6f 87 9d bf 91 82 bf
       0.01714879332978784 -0.009067055697350317
000580 68 44 32 9f 39 38 63 bf af 0a 74 16 f9 cc a7 3f
       -0.002346146147438822 0.04648569487655629
000590 25 2f ff a2 03 60 70 bf fb d7 45 b2 fe ff 8e bf
       -0.003997816282161702 -0.015136709037260934
0005a0 d8 82 09 df 88 7b 76 bf 72 61 5d 7b fc 88 a7 3f
       -0.005488905576016299 0.045966997203040885
0005b0 fe dc c5 c3 fe 69 93 bf cb db d2 87 2c 90 8d bf
       -0.018959027003316635 -0.01443514623166022
0005c0 dd 71 60 69 3d cc 61 bf 2c 59 8a 38 58 92 6f 3f
       -0.0021725844808442155 0.003853962236756511
0005d0 bc 34 57 ab d7 bf 51 3f ee 56 87 3c fc 45 91 3f
       0.0010833364625455885 0.016868535227181285
0005e0 3e 60 43 b0 f0 36 66 bf 19 cb 03 dc 71 ed 84 bf
       -0.002711744398862264 -0.01021851494485797
0005f0 68 65 1a 70 ac b3 81 bf c0 bb cf 1c de 56 89 3f
       -0.00864348141776601 0.012372718099838198
000600 32 84 29 35 18 7b 9e bf 7d 34 f5 17 e4 cf 98 bf
       -0.02976644348598629 -0.024230541193265943
000610 9b e1 cb e1 45 f8 60 bf 88 0e 97 d4 c6 00 8c bf
       -0.0020715107806347894 -0.013673356402143413
000620 00 75 12 da e9 4f 83 bf e2 93 2a 15 84 26 8d bf
       -0.009429766624004632 -0.014233619590706629
000630 80 ec 8f 6d 77 6e 8c 3f ed 6b 9b 12 dc b7 a2 bf
       0.013882573157380174 -0.03655898787629739
000640 9e 28 a1 3b 13 15 6a bf a8 67 62 06 c7 ee 85 3f
       -0.003183877529442005 0.010709338075958488
000650 d5 51 88 23 55 07 6c 3f b4 23 a3 b0 01 31 92 3f
       0.0034214651934780607 0.01776507034881876
000660 c5 16 99 26 e1 f7 7b bf e9 94 7a fe ac 34 96 3f
       -0.006828193183144375 0.02168531707015556
000670 83 01 bf cd 73 73 85 3f 6c 73 1f 87 3a 8b 85 bf
       0.010474114147542185 -0.01051946377622822
000680 e8 7e ef 01 ba e8 80 3f a0 59 ae f5 23 9a 81 bf
       0.00825639074713487 -0.00859478086003379
000690 e4 d5 60 8e 06 87 85 3f a9 e8 4a e3 b5 7c aa bf
       0.010511447162666117 -0.05173271560256982
0006a0 27 37 9f e9 78 2d 7d bf 50 ec aa d8 16 9b a1 bf
       -0.007123443903720695 -0.03438636202687262
0006b0 88 54 2b 7d a6 7e 6b bf 46 53 c3 19 c7 22 a7 bf
       -0.0033562900292545862 -0.045187208075424354
0006c0 a9 5a b0 d3 db 0b a5 3f 4c 37 5b ba 12 64 a3 bf
       0.04110609969227614 -0.037872872589658074
0006d0 e7 a9 c3 cb b2 c7 92 bf e2 99 4a ad f9 8a a1 bf
       -0.018339914023195816 -0.03426342239736237
0006e0 75 58 be dd 00 1b 92 3f d7 ce 00 ef c8 9d 92 bf
       0.0176811347333445 -0.018180026614756564
0006f0 8a 7b dd 2a c9 46 b7 bf 04 05 15 0d a2 6f 91 bf
       -0.09092385574829911 -0.017027408646076672
000700 e0 d7 3a dc da 47 9d bf 10 fb 6b d3 e5 f0 99 3f
       -0.028594417278064443 0.025333014516031815
000710 b8 26 d2 9e 09 0d 6d 3f 80 7f 62 b9 3f 4f 7b bf
       0.0035462558649371444 -0.00666737453698818
000720 0b 61 bf 07 e5 55 b9 3f 60 80 18 b5 43 8b 68 3f
       0.09896689833783882 0.0029960939798599345
000730 77 87 01 63 8c fb 61 3f f3 fe 69 8a 51 09 8e bf
       0.002195142929893142 -0.014666211163102605
000740 d4 e4 ee 24 ad 5b b0 bf 96 f8 96 53 c3 ea b6 bf
       -0.06389887000740951 -0.08951969900860698
000750 b8 82 4b 8e 02 05 a7 3f 65 65 c3 9e 43 03 84 bf
       0.04496009814261498 -0.009771850855417605
000760 42 3a 6b 84 56 d9 a5 3f ee 08 91 70 59 2d 5b bf
       0.042673782028590526 -0.0016587613520334071
000770 87 36 c9 c5 08 e0 7e bf e4 0d 77 b0 75 f1 8c bf
       -0.007537874477362322 -0.014132422874246715
000780 33 9a 81 cf d4 f7 7d 3f 86 df 17 a3 e9 c5 98 bf
       0.00731642846230911 -0.024192476825163144
000790 ad 1a fc 77 fe 9c b7 bf f9 ba 22 fa 77 c9 c5 3f
       -0.09223928860965698 0.17021083558707753
0007a0 98 7e cf 3f 0c eb 9c 3f 95 1f bf 48 a0 b8 b8 3f
       0.028240386385617627 0.0965671708682961
0007b0 40 40 50 16 38 a4 aa 3f 07 fe 2d f6 a4 e2 aa bf
       0.05203414223080971 -0.052510409404018125
0007c0 d4 4b 31 14 b9 ab 8c bf b2 a6 05 19 d8 29 a1 bf
       -0.013999410561302307 -0.033522370390369885
0007d0 b2 99 58 08 d6 37 76 bf ea 97 9f 28 a6 26 a9 bf
       -0.0054243431709778845 -0.04912299390689141
0007e0 38 43 5d 6b 43 6d a2 bf ab 68 12 7e 26 53 c3 3f
       -0.03598986325835657 0.15097504764418565
0007f0 c9 e5 b8 5d f3 39 96 3f 8b e8 db ef 75 7d c0 3f
       0.02170543918166404 0.1288287564455611

b1 f8 [50]
000000 25 a1 92 8f 4c b2 c3 3f 63 7a 2c 7c ca 0d 97 3f
       0.1538787556685374 0.02251354582687738
000010 11 cb ec 1f bb b8 c2 3f ed c6 38 33 b9 08 c4 3f
       0.14626254137837028 0.1565162181955694
000020 ed 5b 0c 64 92 e7 b8 3f f3 05 3f 5b f3 a3 ba 3f
       0.0972835058458796 0.1040641877907758
000030 ac 6b b2 22 68 0c a1 3f d4 78 fc 61 a9 04 b6 3f
       0.033297781215160555 0.08600863115541141
000040 3b 38 9f ef 1d cb a5 3f a4 e4 eb 47 46 db a4 3f
       0.042565284252859624 0.04073543193767051
000050 20 8e b0 6c 07 bc c2 3f 0c c3 d2 5a 32 76 c0 3f
       0.14636318976509788 0.12860707697611706
000060 0a 9a 15 28 85 bb a3 3f 2e 48 c2 27 b9 a1 d3 3f
       0.03854004015265751 0.3067458046217578
000070 8e 23 87 fb 22 12 aa 3f 27 71 7c 03 7e ce a7 3f
       0.05091962166222351 0.046497285771893986
000080 3d 52 f6 4b 34 73 b4 3f 23 b7 47 62 72 c8 b7 3f
       0.07988287787004196 0.09290232562463223
000090 46 e1 ba 48 71 84 c4 3f b1 ea 08 22 c8 b2 ad 3f
       0.16029182482976462 0.058004621653215856
0000a0 9b 60 4a 89 ef 05 d4 3f c9 92 ae db 79 bf cf 3f
       0.3128622856834313 0.2480308840432797
0000b0 c2 4e fa 6c 89 c0 86 3f 62 47 8a 8f e3 26 a3 3f
       0.011109422338712153 0.037406073829642464
0000c0 d5 b4 b4 52 08 7b 9e 3f d7 43 88 ab 1f 59 d7 3f
       0.029766206787077493 0.3648146796340916
0000d0 90 bb 66 54 56 a2 d9 3f 5f d4 74 b0 cd dc bd 3f
       0.40053327791513826 0.11665044363037812
0000e0 51 4b b4 29 76 c2 b0 3f 3a e4 f0 78 10 44 bb 3f
       0.06546724813624151 0.1065073294893332
0000f0 9e 23 64 af 01 4c d6 3f e2 57 2d bc 30 c3 bb 3f
       0.3483890736393337 0.10844711870353721
000100 d6 35 87 ed 54 ca d3 3f 44 55 ef 4d 55 be bf 3f
       0.3092243499384869 0.12399800446231263
000110 7d 8e 69 30 85 04 a2 3f d0 ae 76 52 ca 1b ca 3f
       0.03519073692293959 0.20397309328597268
000120 5b 81 4b f0 e7 b0 a4 3f 86 1a 20 09 cb 3b c0 3f
       0.04041218574798463 0.12682474084450152
000130 5c d4 f5 42 29 e0 c4 3f 5a f7 f6 3c 0e 88 aa 3f
       0.16309085626167785 0.05181927198598997
000140 83 86 68 17 d2 4d c6 3f 03 4e e5 71 cc bd c0 3f
       0.17424989836677093 0.1307921939975217
000150 b7 03 58 f2 f4 d9 93 3f 5f a0 aa 75 0c 83 b7 3f
       0.019386126796238048 0.09184339401929396
000160 1b 27 3b 1a 78 a8 ca 3f 05 18 c1 19 6f 08 c0 3f
       0.2082662704545378 0.12525738484890794
000170 a5 7c 46 aa a2 83 b9 3f de 29 21 8b 6c 12 be 3f
       0.09966484696495799 0.11746862789838228
000180 56 e4 18 4e cb 85 d9 3f 2a 36 65 db cd 0c d0 3f
       0.3987911474865248 0.25078150201156524

W2 f8 [64, 50]
000000 33 9e 60 69 59 f6 83 bf fb 65 a1 72 81 25 7e bf
       -0.00974721768223139 -0.0073599869302483035
000010 e5 75 67 01 18 e2 5f 3f a1 79 fc 7a 6c 95 72 bf
       0.0019459947994769852 -0.004537032844181972
000020 9b 1c d6 14 46 77 88 3f 2c eb 61 87 ea 01 82 bf
       0.011946246634364768 -0.008792717224641665
000030 1b 68 c5 89 75 92 4e bf 9c 55 4b 59 e3 08 82 bf
       -0.000932986632999236 -0.008806015169663443
000040 63 91 4f e0 5c cb 5b 3f 72 1a 33 71 37 c7 63 3f
       0.0016964346880224627 0.002414329801101283
000050 f1 9c e9 d4 75 0d 85 bf 37 51 2f 5e e9 ae 91 bf
       -0.010279579696727189 -0.01726879727705574
000060 28 5f 37 51 64 b8 87 bf 75 d6 bb e6 db 73 85 bf
       -0.011582168320202493 -0.010474889735159846
000070 d8 a3 ae 52 cd b5 6f 3f 47 8b ab e4 3e 9b 93 3f
       0.00387086965698245 0.019146902758517183
000080 62 59 4f 47 be 7a 93 bf 02 53 95 2f df 63 6d bf
       -0.019022915937818914 -0.003587661657244446
000090 e6 2a a1 72 44 f3 85 bf 85 b6 fd 8f af 59 82 3f
       -0.010717901943413332 0.008960124570616354
0000a0 0b a7 e3 be fe f2 8c bf 55 9e d6 60 37 ca 7d bf
       -0.014135351372221125 -0.007272926637063988
0000b0 a8 d5 b3 93 ab 4c 87 3f 78 53 21 57 1a 20 6b bf
       0.011376705594083728 -0.0033112062892918757
0000c0 f4 a2 ef 9a a5 ac 86 bf c1 4c 25 d2 10 19 89 3f
       -0.011071485319875653 0.012254840291154758
0000d0 b0 83 0c 6e db 05 51 3f e4 2f 28 29 d2 03 82 3f
       0.0010389941091448578 0.008796350365649581
0000e0 81 01 46 fd af 98 81 bf 79 aa 41 28 78 5d 6d 3f
       -0.008592009465019814 0.0035846087285354403
0000f0 a9 40 83 63 f1 22 76 bf 45 13 7d cd ea a8 82 bf
       -0.005404417919820195 -0.009111246486676836
000100 20 93 02 f9 2c c8 88 3f 29 ed 83 73 04 e7 7e bf
       0.012100554799255259 -0.007544534099220437
000110 f2 44 f7 a4 7d e9 84 3f 92 5c f8 d8 6c 19 9d bf
       0.01021097335515939 -0.02841730188637521
000120 64 8e c0 ad 32 f6 66 3f d4 2c 05 ea 33 62 7e bf
       0.0028029432123888743 -0.007417872228255368
000130 46 72 13 50 33 f7 89 bf 1a 72 0c 8f d1 68 70 3f
       -0.012678528672432365 0.004006212796209963
000140 42 29 a1 91 e9 18 7b bf 29 81 6b 2e a7 81 92 bf
       -0.006615555170421951 -0.0180727121431811
000150 35 e4 c4 b3 e2 46 87 bf 47 22 3e 2e b4 a5 8c 3f
       -0.011365672217481396 0.013987929974761516
000160 8e c8 5d 15 86 ed 89 3f 33 19 a5 be 97 d0 81 3f
       0.01266007187561893 0.008698640351792441
000170 9e dd cd f1 28 76 69 3f 7d b8 bd 71 3d e1 82 bf
       0.003108100862330778 -0.009218673738100808
000180 12 5c e1 f4 88 5f 6a bf 4a d9 e9 cf 42 86 77 3f
       -0.0032193827565083566 0.005743275628097353
000190 b3 44 84 db 5b 3f 9f bf 55 29 2a 4c e9 ce 77 bf
       -0.030515132210955098 -0.005812560385161388
0001a0 f3 57 3d 99 33 2f 98 3f b3 80 cc e1 39 e3 8c bf
       0.02361755965042529 -0.014105274394353584
0001b0 cb 20 12 a1 4c d8 49 3f 6b eb 03 13 61 4e 9b bf
       0.000788724342911906 -0.026666180406191325
0001c0 4d bf e5 c7 9f 57 9a 3f 69 a4 7d c4 c8 fd 8f 3f
       0.0257248845823022 0.015620773788855584
0001d0 90 39 ba 85 73 25 77 3f a2 62 69 11 bd c5 63 3f
       0.005650950679081737 0.0024136250242857296
0001e0 ae d0 20 6b e8 20 aa 3f 27 1d 62 e9 20 06 a9 3f
       0.051032317235155986 0.04887488221089092
0001f0 4c ef a4 11 63 d6 3f bf eb b5 ac ea 37 20 a2 bf
       -0.0004858009212005312 -0.035402057072456326
000200 fe 63 41 8b 70 16 93 3f 85 60 a5 3c e6 72 82 bf
       0.018640287875630428 -0.009008215642708936
000210 d4 de 25 33 49 c5 8a 3f d8 82 1d 29 ef 4b 4a bf
       0.01307160556164836 -0.0008025090958022297
000220 6e ef 1b 8c c9 e8 99 3f 7f 89 71 95 00 db 95 3f
       0.025302075554449237 0.021343239899928697
000230 12 43 ce fb db ea b4 3f 6f 0d 46 3c 2f 5c b0 3f
       0.08170866868591656 0.06390662404560542
000240 46 4f 57 7e 61 20 83 bf a4 41 b3 11 ad fd 8d bf
       -0.009339105289576499 -0.014644004919689042
000250 14 2c d3 ff 61 ea 69 bf 64 72 84 70 3c 5e 91 bf
       -0.0031635202454700726 -0.016961044662013328
000260 2d cb b3 32 e2 dd a1 bf 81 d3 5a 46 d6 a7 a1 3f
       -0.03489596241879265 0.03448361977408521
000270 60 8f bf f4 3e 4b 8b 3f f3 89 17 83 6f 3b 9c 3f
       0.013327113956570436 0.02757047879812009
000280 a7 c7 2b 63 3c f4 91 3f 8b 8a 2d ae b3 03 94 bf
       0.017533248474996956 -0.01954537153813844
000290 28 7a 4d 18 3f c0 24 3f 9c 9f 80 2d ed 6a 9f 3f
       0.00015831728174027612 0.030681329633949525
0002a0 f3 6d 9c 21 c6 e8 92 3f d6 03 87 31 7a da 95 bf
       0.01846608715196214 -0.021341237328446137
0002b0 23 f9 89 73 67 ef 3a bf af 66 30 9a be f1 9d bf
       -0.00041099811236468465 -0.029242494736627375
0002c0 75 57 5d 67 c6 eb 8b bf 1f de 4d db 16 28 86 bf
       -0.01363329890197538 -0.01081865174067703
0002d0 38 0d b9 a3 57 c3 6c bf 95 1a 90 20 4c 89 a6 3f
       -0.0035111152372181674 0.04401624581810385
0002e0 4a ab 42 d4 1b 98 7c bf 5f bf 56 61 fb 79 92 bf
       -0.006980999667727536 -0.018043449226467497
0002f0 46 4d ed 38 16 b5 86 3f 59 fb 88 9a e9 b3 98 bf
       0.011087583172104797 -0.024123811776230884
000300 c7 f7 b3 55 ab 2f 8b 3f 78 58 7c ae eb bb 8e 3f
       0.01327451567930983 0.01500686765897917
000310 f1 e0 ee 5a ea 2b a2 bf b8 8c c5 3d e9 88 9f bf
       -0.03549129829429088 -0.03079571189426808
000320 1a 63 1a 8f 0d 1a a0 bf d4 e6 2a 77 87 43 92 3f
       -0.03144876834739403 0.017835728310024404
000330 3a 34 11 f8 4d c7 c6 3f 2a 0a 39 b2 ec a1 c0 bf
       0.17795729267746357 -0.12994154646192274
000340 f4 84 86 ff c7 b1 9b bf 2a 96 d6 1a 89 c3 b8 3f
       -0.027045369120632892 0.09673363595228382
000350 f4 98 6f cf 72 23 a1 3f 97 74 ab cf fa 5b ae 3f
       0.03347357542206622 0.059295499658881194
000360 9b 93 af 6c 4e 98 7f bf 98 a7 f1 9a c2 84 97 3f
       -0.007713610025324248 0.022967377383259796
000370 4d 9e e7 1e 47 67 bc 3f 5b de 67 c3 0d d9 aa 3f
       0.11095089439879154 0.052437238791694006
000380 a4 f4 e5 7c 06 2c 8a bf cb bd ea fa 50 3c d0 3f
       -0.012779284178345236 0.25368141654595594
000390 a9 d0 6a c6 da 30 9f 3f b2 9b 69 42 24 9b 75 bf
       0.030459802971294057 -0.005274907720923249
0003a0 0d 17 34 99 cc fd a7 3f 01 60 69 bd 35 53 9e 3f
       0.04685820932540539 0.029614295659797566
0003b0 a3 44 f9 70 3c 21 c1 3f 2f 0c 44 98 d8 7a a1 3f
       0.13382678524297828 0.03414036616052162
0003c0 6b 20 e2 e3 a9 51 c8 3f 8a f2 2a 23 ce 46 cf 3f
       0.18999217631449325 0.24434830395866342
0003d0 6c ac 76 bd 33 1c 70 3f a8 64 50 45 25 8a 93 3f
       0.0039331456277223835 0.01908167110022832
0003e0 16 53 dd d8 63 dc 89 3f f5 67 e2 1d 36 d0 be bf
       0.012627391868286913 -0.12036455373382167
0003f0 c1 0b 0a ca fa 68 d3 bf 5c c4 20 7a 44 8f b5 3f
       -0.3032824490584823 0.08421733838692219
000400 c7 a2 49 3f 6d 56 83 3f d4 0c d4 58 aa 86 b2 3f
       0.009442189687619685 0.07236733120594191
000410 54 4b f3 b3 a0 6f c7 3f b8 40 d5 88 95 0c 49 bf
       0.18309410845412322 -0.0007644395970292294
000420 df 28 b4 3b de 25 a2 bf 9d 53 00 40 9d 2f b2 3f
       -0.03544516066365743 0.07103903591662548
000430 ee eb 26 88 c2 d6 af 3f d3 75 b8 ac eb a7 ca bf
       0.062185362930413976 -0.2082495301591921
000440 71 bf a7 56 b1 03 8f 3f dc bb 30 ca 11 a5 c4 bf
       0.015143762070664231 -0.1612875211007737
000450 4f f2 f1 fb 17 eb ce 3f b9 07 9e bd 30 42 a4 bf
       0.24154948999411593 -0.039567492624896734
000460 28 ce 1b 80 dc b2 be bf 10 5f a6 59 ee f0 af 3f
       -0.11991670730258674 0.06238503307684884
000470 28 87 0e da 13 80 45 3f 02 2a e8 58 62 e0 85 bf
       0.0006561371738948761 -0.01068188508817958
000480 8f ea 1e df ef be a6 bf 7e 9f e7 4e 4f d6 c0 bf
       -0.04442548369066401 -0.13154021599552473
000490 0a 29 dd 2d c0 fe a9 bf 51 8d 43 d3 67 4a 91 3f
       -0.050771718596097484 0.01688539721443522
0004a0 bd 10 f5 e8 b4 fa cc bf 19 fe b2 a4 d3 3f d0 bf
       -0.22640096068255913 -0.25389567455201384
0004b0 59 21 80 5a 4f 6f 89 bf eb 32 4e 35 18 7b 87 3f
       -0.01241933817802081 0.011465252997163463
0004c0 c2 16 05 18 ee d2 66 3f aa e6 95 d5 83 73 83 bf
       0.002786126162535791 -0.009497671084989296
0004d0 03 04 40 24 88 65 8a bf 13 0d a7 4a dd a6 8b 3f
       -0.01288896904589088 0.013501862374033757
0004e0 99 81 79 5a 35 d3 6a 3f f9 27 07 32 5e 8d 6f bf
       0.003274540143863369 -0.003851589179451939
0004f0 39 88 40 17 68 93 88 3f 73 9a 4c 7f 87 f7 98 bf
       0.01199990578613007 -0.024381749291161058
000500 bc 53 fb b2 5e d0 66 3f 6d df 89 ac 4d d1 8c bf
       0.0027849053948138785 -0.014071089580496932
000510 f4 b6 a1 22 55 64 9a bf c1 c1 0c 30 e0 2c 75 3f
       -0.025773363341094105 0.0051697499591658045
000520 40 ca 64 37 dd 89 9d 3f 7c a1 df cd 33 66 60 3f
       0.028846222406352817 0.00200185888296661
000530 ec 4c 40 bf 15 b9 84 3f cf a9 4f 55 18 ef 99 3f
       0.010118646525404583 0.025326137740117546
000540 b6 00 b5 59 32 2a 79 3f 7d 2b f3 f7 06 2a 88 3f
       0.006143757516213258 0.011798910562353044
000550 3f 5a fa f7 c7 a3 8f bf 00 40 72 36 a2 24 6a bf
       -0.015449106459795135 -0.0031912964073583794
000560 98 77 96 7a ff 25 87 3f c6 a7 7a 47 e9 e8 86 bf
       0.01130294411523973 -0.011186430448407846
000570 7b ce da d7 ed 96 91 bf 24 1c da f6 59 0a ac 3f
       -0.01717731122944464 0.054766475089359085
000580 c1 3d a4 e3 28 c6 81 bf 8d 24 05 8b ce b2 7f bf
       -0.008678740927762331 -0.007738882836130345
000590 a2 09 07 c7 9e f7 93 bf b9 5d 7b 68 bd 57 8d 3f
       -0.019499283693002696 0.014327506781610976
0005a0 24 e0 a3 0b 18 03 c1 3f 37 de 79 51 e8 8c 8e 3f
       0.13290691917768627 0.014917197214557294
0005b0 a0 86 89 68 aa f5 aa 3f 10 81 34 ac 05 80 5b bf
       0.05265553022469516 -0.0016784720799663568
0005c0 c9 97 7b 8a c5 d3 74 3f 32 f3 1d b3 04 3f a4 3f
       0.005084773678140261 0.03954329191672058
0005d0 bc 1d 9d 6c 71 a2 78 bf 15 ac 0f 85 71 fc 91 bf
       -0.0060142927775994025 -0.01756455778733475
0005e0 ba cf c5 82 54 17 88 3f ee e2 c2 c7 cd 0f 82 bf
       0.011763248673311345 -0.008819205912332841
0005f0 4f 6e 2a 17 ac 24 81 bf a2 30 43 f7 22 ec 63 bf
       -0.008370727974855855 -0.002431934635842196
000600 76 3f 69 2f f1 69 50 bf 84 31 41 39 bb ff 88 3f
       -0.0010018210720268129 0.012206518826268782
000610 12 3b f9 51 34 1f 73 3f fb 38 75 e8 a1 f2 75 bf
       0.004668430686776375 -0.00535834546401603
000620 96 5b 44 9d f3 5c 27 3f 9e 08 84 31 23 be 92 bf
       0.00017824624831838377 -0.018303441903306898
000630 4c 6a 0d 1f 7c 06 a0 3f 23 b0 27 ae 05 82 89 3f
       0.03129947547013909 0.012455028893747116
000640 66 1b bd 6b 03 ad 64 bf d4 44 70 80 29 90 70 3f
       -0.002523905450206798 0.004043733707491632
000650 a1 1c 7c b6 5d 18 85 bf f2 4a 10 40 9b 6f 8a 3f
       -0.010300380832190039 0.012908184902732132
000660 d4 c0 b0 09 14 d1 28 bf ca 8c 5e e1 0e 53 84 bf
       -0.00018933648684216783 -0.009924045803762733
000670 25 03 cf b3 79 6f 83 bf eb 82 31 49 f2 9b 89 bf
       -0.009489966201614639 -0.01250447545879881
000680 11 25 22 91 80 21 80 3f 45 11 3c be 9a 4b 98 bf
       0.007876400403136448 -0.02372590814685906
000690 ec e1 ff 70 f1 f6 82 3f 05 3f 3b 75 78 b7 77 3f
       0.009260069142315218 0.005790205515679996
0006a0 50 5d 2c 1a a2 ca a1 bf 50 57 2c ea 2b 1b b1 bf
       -0.034749093718512314 -0.06682085482711142
0006b0 92 c4 1f 58 df d8 80 bf 12 79 47 d0 f5 a1 9b 3f
       -0.008226151348909281 0.02698501666770265
0006c0 a7 6b d9 ee 74 91 93 bf ef 31 87 72 72 6b 73 bf
       -0.01910956104107311 -0.0047411413765527785
0006d0 20 8d 17 f1 d3 60 64 bf cc 5a 90 2a 11 4a 94 bf
       -0.00248757738948914 -0.019813793394940757
0006e0 15 09 82 50 3a 8e 8e 3f 42 d4 2d d8 d0 da 97 3f
       0.014919715482623755 0.023295653528709666
0006f0 6c 8f 23 6b 97 fb 8e bf 14 0b 8b 53 82 f2 6e bf
       -0.015128310162658663 -0.0037777467190108858
000700 d0 ed 15 d0 03 7c 68 3f c0 6f e6 29 3a cf 9d 3f
       0.0029888224095750773 0.029110821540242915
000710 16 f1 04 9e 3e ed aa 3f 41 bc a7 73 e8 34 75 bf
       0.05259128264376238 -0.005177410139807271
000720 f5 25 d2 de d4 ba 16 bf dc 28 bc c7 dc 76 6d bf
       -8.670734651352443e-05 -0.0035967170823641825
000730 05 e2 f3 6b f9 17 a5 bf a1 83 db 07 f5 ab 84 bf
       -0.04119853441983782 -0.01009360723713987
000740 2f 5b 02 9b 70 85 a1 3f 1c e3 fa 56 ad d7 94 3f
       0.034221190378210024 0.02035399287589988
000750 26 9f a0 94 c0 e6 7d bf 51 7d c8 88 0c cb 68 3f
       -0.007300140636324481 0.0030265087900855155
000760 58 22 f8 cc 4a 8e 84 bf be 3a 0f 17 70 7c ae bf
       -0.010037025814214548 -0.05954313546646038
000770 9b 2b b9 c2 38 6a 95 bf b8 41 04 fe 9f ec 78 bf
       -0.020913016209572182 -0.006085038156257765
000780 11 53 5a cb 12 5c 77 3f b0 1b 66 11 e9 ec 86 3f
       0.005703042426507891 0.011194058268996304
000790 a4 da 3b 53 db f5 2c 3f 9f 2b a9 05 b9 09 96 bf
       0.00022095014866581775 -0.021521464319714686
0007a0 fa de 58 bc 54 77 90 bf 2e 48 07 07 a0 d1 57 3f
       -0.016080211635396836 0.0014537871139634994
0007b0 25 fc 96 6c 87 04 91 3f a4 e9 29 fc f1 a4 9b 3f
       0.01661883926658105 0.026996403709270603
0007c0 21 24 63 9b 31 04 9d bf a3 f7 53 79 85 05 8e 3f
       -0.028336310490690523 0.014658968701492919
0007d0 49 48 d9 22 57 65 7b 3f 22 eb 53 6b ab 3c 92 3f
       0.006688442588329188 0.01780956118180222
0007e0 c9 85 e5 6a 7f c3 95 bf 5d 2f ff ae cc 0a 8b 3f
       -0.021253577136467947 0.013204192247847574
0007f0 84 0c 55 1f b9 99 89 3f e2 86 de df 92 c7 51 3f
       0.012500234860118427 0.001085179741018676

b2 f8 [64]
000000 36 07 28 3a 68 df 65 3f 80 cb ed 39 c6 db a5 3f
       0.0026700053870180275 0.04269237000598647
000010 a8 40 3f d7 c1 be b4 3f 13 28 ea b9 41 72 90 bf
       0.08103572373443291 -0.016060854885417152
000020 79 f6 c0 70 7a 50 9d 3f 32 ca 63 0f 54 84 8d 3f
       0.02862731278604833 0.014412552566203638
000030 44 a1 e5 5c f6 70 51 bf 8a 8c f0 54 1d 94 b1 3f
       -0.0010645299804200184 0.06866629909250058
000040 2c 2d 9b ed 09 5c c0 3f 61 d8 15 53 f8 f4 cd 3f
       0.12780880071509537 0.23403839165593168
000050 4a 0a 5d cb 40 fc 71 bf 02 7e 77 36 b9 f2 54 bf
       -0.0043909579306409905 -0.0012785729139678241
000060 df 7e 90 f4 bb 57 c6 3f d4 30 3f 59 4d ca a2 3f
       0.17455243531821105 0.036699692863835814
000070 cc fa a7 64 08 e0 a7 3f 9d 5b 67 f7 b1 c8 94 3f
       0.0466311095114996 0.020296841359449414
000080 50 ce 59 27 a3 cc 76 3f 76 47 ee 3c f1 35 c0 3f
       0.005566251105495093 0.12664618945251122
000090 50 85 16 db 55 ff 6d bf 66 b3 14 d7 a0 71 a5 3f
       -0.0036617924567542773 0.0418825399923211
0000a0 f3 c0 b6 f1 92 11 ac 3f 35 2b b7 3f 3d 38 8e 3f
       0.05482157898529918 0.01475570536321911
0000b0 d8 25 80 aa 21 06 a7 3f 0c a3 20 ca 1c 49 c3 3f
       0.04496865469270589 0.15066871518617864
0000c0 ec 61 4f d8 0a 69 9e 3f 34 b1 25 05 b5 fc 61 bf
       0.029697579815406813 -0.002195695452590263
0000d0 ad 8c bc 66 81 60 d0 3f de d3 8e a7 d8 05 7d bf
       0.25589022667754585 -0.007085653597575152
0000e0 3b 63 bc 8b 90 6c c0 3f 43 a3 a0 49 d9 cd b8 3f
       0.12831312964478933 0.09689100310846492
0000f0 ec ec 59 b5 79 7e 7d bf 28 b3 6b 07 e1 b5 74 3f
       -0.007200694488001629 0.005056265849572118
000100 0a 0e 3c 7f 7f 86 ad bf 84 94 22 24 4c 5e 65 bf
       -0.05766676357418639 -0.002608441079319736
000110 41 3c 43 1b b8 af ba 3f 97 b5 43 e7 2a ee 6a 3f
       0.10424376168815376 0.0032873952824192354
000120 c0 37 f3 df 37 19 b2 3f 9a b8 ef 32 ab 5d d6 3f
       0.07069730012446396 0.3494670865465054
000130 01 b9 18 8f db dd 76 3f 91 17 91 f2 b2 26 bb 3f
       0.005582673694830343 0.10605925008812124
000140 3f ba 5f e5 94 29 c0 3f 13 70 c4 e0 ae cf 7a bf
       0.12626897048854066 -0.006545718304803233
000150 ec d8 57 df ab 93 94 3f 50 0e ae 89 48 90 a0 3f
       0.020094571596893582 0.03235079460776247
000160 59 ef 26 8a eb 0f c9 3f e1 a9 1e a7 f5 15 cb 3f
       0.19579834218699935 0.21160765323777667
000170 e1 4f c7 5a 47 b4 97 3f 6e b6 f4 0c 89 25 db 3f
       0.023148646274265054 0.4241659761927171
000180 da 35 33 e4 98 d7 a5 bf ed c4 ef 52 0e e7 6c 3f
       -0.04266050134320283 0.003528144814020187
000190 68 b7 2a 83 9b ac a7 3f 11 dd 12 6d 1c ce b0 3f
       0.046238765489177436 0.06564500487262516
0001a0 86 bb f2 54 78 a2 a3 3f 8a 37 96 7f 44 7d c7 3f
       0.038348923082018024 0.18351036290954098
0001b0 29 e3 74 1d d5 2d 98 3f 3a 9c 41 7a dd 08 ca 3f
       0.023612337038886686 0.20339554280801214
0001c0 68 68 f0 c4 e8 22 e4 3f 9b 6d cf a7 43 ff 82 bf
       0.6292613836733496 -0.009275940474188718
0001d0 8e e2 6f 15 3b 32 97 3f a8 b2 d3 69 52 00 b7 3f
       0.022652552779592265 0.08984866222062726
0001e0 d0 05 36 6f ca d0 a1 3f 25 7d 22 47 e2 aa c6 3f
       0.03479607207828972 0.17708996270537472
0001f0 32 a0 a6 45 a2 a8 42 bf 06 a4 ac bf 17 34 9c 3f
       -0.0005694191307172912 0.027542468141437147
