10by10recording/src/CNNparameter/tactile_cnn_model_trial_01.npz (npz, 1266 bytes, 3 tensors)

conv_weight f4 [1, 1, 3, 3]
-0.33004236 -0.29650474 0.15141134 -0.08765706 0.23022482 -0.26599175 0.183901 -0.04022976
0.035571855
00000000: 50fb a8be 78cf 97be 930b 1b3e 8b85 b3bd
00000010: 0ec0 6b3e 1230 88be 8b50 3c3e f6c7 24bd
00000020: cbb3 113d

fc_weight f4 [3, 16]
0.24789363 0.24438637 0.018202245 0.1556926 0.17811361 0.2264916 0.006279528 -0.07108176
-0.20217702 0.11983043 0.06048104 0.2300803 -0.24265167 0.007523656 0.22050217 0.23013651
0.17280996 0.17001939 -0.22104496 -0.12253064 -0.22729203 -0.07527262 -0.19685835 0.101805896
0.077420294 0.17273095 -0.21946904 0.007609457 0.2263118 -0.01730141 -0.15767124 -0.12845859
-0.07971519 -0.11182585 -0.042117923 0.18000588 -0.22463605 -0.1840589 0.20464748 0.0031876862
-0.20570943 0.23104036 -0.05999887 0.23418781 0.016331792 -0.13192561 -0.08497381 -0.22762746
00000000: d4d7 7d3e 6c40 7a3e e01c 953c e26d 1f3e
00000010: 6a63 363e 6aed 673e 80c4 cd3b 5093 91bd
00000020: 7e07 4fbe a869 f53d f8ba 773d 2c9a 6b3e
00000030: ae79 78be 0089 f63b 52cb 613e e8a8 6b3e
00000040: 18f5 303e 9019 2e3e 9c59 62be 58f1 fabd
00000050: 3ebf 68be 8828 9abd 3c95 49be 9c7f d03d
00000060: 888e 9e3d 62e0 303e 7ebc 60be c058 f93b
00000070: 48be 673e b0bb 8dbc 9274 21be a68a 03be
00000080: b841 a3bd f404 e5bd d883 2cbd 7653 383e
00000090: fe06 66be f079 3cbe 1c8f 513e 80e8 503b
000000a0: 7ea5 52be d895 6c3e 60c1 75bd eece 6f3e
000000b0: 40ca 853c 8217 07be c006 aebd 2c17 69be

fc_bias f4 [3]
-0.018345773 -0.12873372 -0.015645623
00000000: e049 96bc c6d2 03be 402b 80bc
