10by10recording/src/CNNparameter/tactile_cnn_model_trial_04.npz (npz, 96006 bytes, 8 tensors)

conv1_weight f4 [16, 1, 3, 3]
000000 69 dc 95 bf c3 36 8e 3e c9 02 93 bf a2 1f d1 bf
       -1.1707889 0.27776155 -1.1485225 -1.6337779
000010 77 3c 59 3f 56 e6 6d bf c4 d2 88 3f 6c 23 b3 bf
       0.8485789 -0.9292959 1.068932 -1.3995185
000020 24 c7 62 bc 4c 86 c0 be a5 ee 89 be 87 d9 c8 be
       -0.013841424 -0.3760246 -0.26939884 -0.3922846
000030 e5 d5 99 bc c4 80 13 be 28 e2 ae be e5 a1 8b bf
       -0.01877875 -0.14404589 -0.3415692 -1.0908781
000040 0a be d3 3e a7 4c 89 bf 49 fb 52 bf 5b 1b 6b be
       0.41355926 -1.0726517 -0.8241468 -0.22959654
000050 71 2f 23 bf a4 cb 09 3f 02 6d e5 3e c5 d6 1c be
       -0.63744265 0.53826356 0.4480973 -0.15316303
000060 57 c1 df bd 23 d9 41 be ec f2 39 3f 9c 96 44 be
       -0.109255485 -0.18930487 0.72636294 -0.19198078
000070 83 1c 43 bf df 10 3d bf f3 f5 38 bf fe ee 74 bf
       -0.7621538 -0.7385387 -0.7225029 -0.95677173
000080 39 63 0c 3f 3e b3 26 bf d5 e2 02 3f e9 8b 68 bf
       0.548389 -0.6511725 0.5112737 -0.90838486
000090 6f 1a 41 3e 1d 1a 39 3e 9e 80 58 bf 28 1a 01 bf
       0.1885774 0.18076368 -0.84571254 -0.50430536
0000a0 37 fa 5d bf 65 4a b4 be 8a 58 8e 3d d3 44 ad be
       -0.8670992 -0.3521301 0.06950481 -0.3384157
0000b0 01 52 ad 3e de 21 16 3f 42 e5 8c bf bd db 3b bf
       0.33851627 0.5864543 -1.1007464 -0.7338217
0000c0 55 01 c4 be 68 44 85 be 63 f0 a4 3f aa be ed 3c
       -0.38282266 -0.26028752 1.288586 0.02902158
0000d0 09 b3 16 3e 11 4d be bf 49 24 c4 bf 51 aa b8 3f
       0.14716734 -1.4867269 -1.5323573 1.4426976
0000e0 55 2f 33 3a 77 9d 83 be 89 3a 93 bf 1e 07 6d 3f
       0.0006835361 -0.25706074 -1.1502239 0.92588985
0000f0 8b 67 aa 3f 66 ab 0a bd f5 48 9b 3f 4f a4 af 3c
       1.3312849 -0.033854865 1.213164 0.021440653
000100 d4 2b 82 be ab 16 fa bd d2 26 00 be 17 2f 0c 3e
       -0.25424063 -0.12211355 -0.12514809 0.13689838
000110 f6 4c 55 3c e6 bf 33 be e7 ad aa bd 10 55 1c be
       0.013018837 -0.17553672 -0.083339505 -0.15266824
000120 a4 a2 a9 be d6 da 11 3d 6b c3 41 3e 62 df 85 be
       -0.33131897 0.03560909 0.18922202 -0.2614699
000130 08 45 aa be aa 88 a7 be be 03 43 3e 7b 1b 32 be
       -0.33255792 -0.32721454 0.19044396 -0.17393295
000140 7e 38 50 3d 93 b8 f2 3c 61 48 18 bf c7 b8 d4 3d
       0.050835125 0.029629027 -0.5948544 0.10386806
000150 b1 1a 1d bf 95 aa e2 bd 90 72 d1 be 49 03 cc be
       -0.6136885 -0.11067692 -0.40907717 -0.39846256
000160 56 eb a7 3c 7d d5 1c bf b0 49 66 bf a5 5b 5b 3e
       0.02049796 -0.6126326 -0.8995619 0.21421678
000170 8e fb 18 3f 33 95 fe be f7 30 f4 3e e5 51 60 bf
       0.5975884 -0.49723205 0.47693607 -0.8762496
000180 aa 5a 88 3d 38 a4 56 bf 09 2f c7 be 4e 24 1c 3f
       0.06657918 -0.8384433 -0.38903072 0.60992897
000190 92 23 05 be 7c 12 50 be b6 6b 9c be 80 06 90 bf
       -0.1300185 -0.20319551 -0.30550927 -1.1251984
0001a0 6b 6d 50 bf 1c fd a2 3e dc 92 9e bf 05 af 1f 3f
       -0.8141696 0.31833732 -1.2388568 0.62376434
0001b0 f9 00 ac bd 7b a1 2d be 6f 46 09 bf 92 e4 d1 be
       -0.08398623 -0.16956131 -0.536231 -0.40994698
0001c0 2e 6e 7f be aa 72 29 3e 76 16 20 3e 0c 09 a9 be
       -0.24944374 0.16547647 0.15633568 -0.33014715
0001d0 2a 44 aa 3d 94 18 10 bc 94 f5 db be 1b c0 25 bf
       0.083137825 -0.008794922 -0.429608 -0.64746255
0001e0 9d 48 a7 be 55 32 f4 3e 43 cf 0b bf 02 a5 50 be
       -0.32672587 0.4769465 -0.5461313 -0.20375445
0001f0 a2 c3 5a bf ec d8 a9 bd 69 e3 58 bf e2 62 87 be
       -0.8545476 -0.08293328 -0.84722 -0.2644263
000200 95 0e 0c bf 0a 2f a8 3e 3c ef 93 bf fa 01 a3 be
       -0.5470975 0.32848388 -1.1557384 -0.31837445
000210 c2 36 ca 3e 0a cb 79 3c 61 f0 00 bf f4 b2 0b 3f
       0.39494902 0.015246162 -0.5036679 0.54569936
000220 a3 ed 42 be 8d 0c 3d 3d 2b 5e 78 3e de f3 91 bf
       -0.19035964 0.046154547 0.24254672 -1.1402547
000230 e9 1a 81 bf 52 2b 8a be b2 97 4c bf e4 b0 44 3f
       -1.0086337 -0.26986176 -0.7991897 0.76832414

conv1_bias f4 [16]
000000 d0 d8 b2 bf 79 6e fb be 42 a9 c0 bf f6 33 93 bf
       -1.3972416 -0.4910772 -1.5051653 -1.1500232
000010 9d 19 47 bf 37 c7 38 bf 21 6b e6 bf 95 48 b6 be
       -0.7777346 -0.7217898 -1.8001443 -0.3560225
000020 fc ee aa be bc 74 f4 be a4 df aa bf 1f 9e 90 bf
       -0.33385456 -0.4774531 -1.33495 -1.1298255
000030 95 f8 d3 be 62 06 15 bf a5 53 90 bf 3b b6 4e bf
       -0.4140059 -0.58212864 -1.1275526 -0.8074681

conv2_weight f4 [32, 16, 3, 3]
000000 97 41 ee bc 83 26 9d be 6a 68 8d bd 55 27 a7 bd
       -0.02908401 -0.30693445 -0.06904681 -0.08161799
000010 72 75 0f bc 82 9c e5 bd 07 c9 a5 bd 78 0a fe bd
       -0.0087560285 -0.11211492 -0.080949835 -0.124043405
000020 4f 9e 83 3c b4 13 f6 bc c5 41 1b bd 4c ed fd bd
       0.016066698 -0.030038692 -0.03790452 -0.123987764
000030 da 66 91 bd 70 32 3e bd fd 3d d1 bd 9d 0f 10 bc
       -0.070996955 -0.04643482 -0.102169015 -0.008792785
000040 24 e6 c4 3b d2 86 78 bd 3e 71 0a be 77 9e e2 3d
       0.00600888 -0.06067545 -0.13519761 0.11065381
000050 57 c0 c4 bd 83 9d 12 3c 4e 87 01 be a9 be dc bd
       -0.096069984 0.0089486865 -0.12649271 -0.10778553
000060 f7 52 85 bd bd c2 06 be 6f da ce bd 63 b4 a9 bd
       -0.06509965 -0.13160224 -0.10100257 -0.08286359
000070 3e 2f ea bb 5c 48 8f bd b7 19 a5 bd ea f1 16 bb
       -0.007146745 -0.06996223 -0.08061545 -0.0023032376
000080 08 dc f7 bd 4b d6 96 bd da 07 48 bc 43 10 ef bd
       -0.121025145 -0.07365092 -0.012208903 -0.116730236
000090 ad d1 d6 bd 42 24 da bd a7 cc 54 3c 61 66 2b 3c
       -0.10489211 -0.10651447 0.012988246 0.010461421
0000a0 82 8e 3f bd be 8d 18 bd b9 6a 2c bc a2 8f 03 be
       -0.046766765 -0.03724455 -0.010523492 -0.1284776
0000b0 04 7f 1b 3c c9 ab 08 be cd 09 a2 be 0e 81 39 bd
       0.009490732 -0.13346781 -0.31648102 -0.04528909
0000c0 3d 33 da bd 99 0d b7 bd 73 32 b8 bd b5 8d 08 be
       -0.10654304 -0.089381404 -0.089939974 -0.13335307
0000d0 64 e9 5e 3c e4 11 b7 bd 77 98 05 be 04 29 8a be
       0.013605449 -0.08938959 -0.13046442 -0.26984417
0000e0 cc be 90 bd 05 79 4b bc 66 1c 51 bd cd 98 6b bd
       -0.070676416 -0.01241899 -0.051052473 -0.05751877
0000f0 a8 39 2b bd e0 46 1a 3c d5 f1 26 bd 98 d6 8a 3d
       -0.041803032 0.009416312 -0.040757973 0.06779212
000100 12 79 50 bc 5b df 96 bc 22 5f a6 bd 32 23 50 bd
       -0.012724178 -0.018417051 -0.08123614 -0.050814815
000110 14 42 84 bd 3e 25 54 bd c5 4e a9 3d 76 9b ef bd
       -0.06457916 -0.05179333 0.08266977 -0.11699574
000120 cb b9 98 bd 80 38 6c 3c eb 39 dc 3b 30 ea 63 bd
       -0.07457312 0.0144177675 0.0067207715 -0.05564326
000130 27 69 8f 3d 48 7f 45 bd af 79 88 3d 40 94 f3 3c
       0.07002478 -0.048217088 0.06663834 0.029733777
000140 26 b3 80 3c 21 b3 2a bb d5 ad 11 be 6f 0e 87 bd
       0.015710425 -0.002604671 -0.14226468 -0.0659455
000150 58 91 01 be f8 7e 9d bd 62 10 84 bd ab 1b 42 bd
       -0.126531 -0.07690233 -0.06448437 -0.047389667
000160 e0 0c 0b be 48 6c 53 3c e4 63 5e be fd 23 43 bd
       -0.1357913 0.012904234 -0.21717793 -0.047641743
000170 88 8f 09 3d 60 a9 1d be 38 64 87 be 78 c5 3f bd
       0.033584148 -0.15396643 -0.26443648 -0.04681918
000180 64 4d 80 bd 86 5b 4b bd d0 a0 7f bd ff c8 07 bd
       -0.06264761 -0.04964783 -0.062409222 -0.03315067
000190 f7 18 bc bd 55 52 11 bd 7d 44 99 bd a3 da 0c be
       -0.09184449 -0.03547891 -0.07483766 -0.13755278
0001a0 42 09 0b be a5 5e 5e bc 3d 9a 7e bd 22 05 d0 bd
       -0.1357775 -0.01357237 -0.06215881 -0.10157229
0001b0 ed d3 ed bd 33 de 0f be 28 4e 99 bd 62 e8 c4 bb
       -0.11612687 -0.14049606 -0.0748561 -0.0060091475
0001c0 16 e2 2f 3b fd af b0 bc 6b 53 1c bd 8c 73 e5 bd
       0.0026837639 -0.021568293 -0.03816549 -0.112036794
0001d0 69 62 e1 bb d0 67 ec 3b fb 3e c3 bd 45 16 7e 3c
       -0.0068781865 0.007214524 -0.09533497 0.015508239
0001e0 0d 9b a5 bd ad d3 ed bb 10 7e a3 bb 73 05 c5 bd
       -0.08086214 -0.0072578997 -0.004989393 -0.0962018
0001f0 62 28 d5 bd 94 79 f9 bc cd 8e d4 bd 04 aa 29 bd
       -0.10408093 -0.03045348 -0.103787996 -0.041421905
000200 18 48 aa be f0 84 26 bd 54 24 3e bd 7a 20 7c bd
       -0.33258128 -0.040654123 -0.046421364 -0.06155441
000210 bb 06 01 be fd 18 e5 bd 0e db bb 3c e6 8b 55 3c
       -0.12600224 -0.11186407 0.022931602 0.013033843
000220 63 d9 80 bd 1a 7a aa be c0 0c 7d bd f0 48 09 be
       -0.06291463 -0.3329628 -0.061779737 -0.1340673
000230 c4 50 b9 bd 6b 74 d5 bd 11 6e 31 bd 41 4f ad bd
       -0.09048608 -0.104225956 -0.043317858 -0.08462382
000240 7b d1 8d bd 3d 81 24 bf 43 8b e4 be 97 c2 e6 bd
       -0.06924721 -0.642597 -0.44637498 -0.11267584
000250 f5 c4 3b bf 80 9d 87 3f f8 ea bf bd 7d 1d 86 be
       -0.7334741 1.059494 -0.093709886 -0.26194373
000260 17 73 02 be ae 47 c8 be 01 ec 8b be dc 45 ae 3e
       -0.12739216 -0.39117187 -0.27328494 0.34037673
000270 f5 fd 99 3d 5f c0 00 be fc 53 14 3f 2e 7d 69 3d
       0.075191416 -0.12573384 0.5794065 0.057004146
000280 ab 2e 36 3d 20 8c 01 3f b9 cc 7c 3e 38 76 76 3e
       0.0444781 0.5060444 0.2468747 0.24068534
000290 5a e0 8e be 54 99 7f be a3 66 5d be b6 35 62 3f
       -0.27905542 -0.24960834 -0.21621184 0.88363206
0002a0 6e e6 af be eb ca 09 bd b7 1c ec 3e 5e cb 4d be
       -0.3435549 -0.033640783 0.46115658 -0.2009711
0002b0 95 2c c1 be 00 d5 4e be 46 69 8a be e8 67 d5 be
       -0.37729326 -0.2019844 -0.27033442 -0.41680837
0002c0 e9 c9 f7 3e d2 c6 86 be f1 a6 35 be fd 77 93 be
       0.48396233 -0.26323563 -0.17739464 -0.2880248
0002d0 20 dc 6d be 4a 63 5b be 5e 20 5c bd 94 75 62 be
       -0.23228502 -0.21424595 -0.053741805 -0.22115165
0002e0 5b 1c e6 be b6 3e 03 bd 8d 50 0c bd 8e 12 bc be
       -0.44943509 -0.032042228 -0.034256507 -0.36732906
0002f0 24 22 5e be dc 27 6d be aa 6a 54 be 27 6a 95 be
       -0.21692711 -0.23159736 -0.20743814 -0.2918255
000300 a3 e2 25 bf 05 ce 43 bf a8 c8 8f be e2 53 1c bf
       -0.64798945 -0.76486236 -0.28082776 -0.61065495
000310 e9 e5 b5 be 8f 3e f8 be 57 bc 91 3e 96 0f f4 3c
       -0.3552697 -0.48485228 0.28464004 0.029792588
000320 c1 ea 03 3e 73 2c ab be df 66 72 bf 3c ba 7e bf
       0.1288252 -0.3343235 -0.9468822 -0.9950292
000330 44 a7 61 bd e8 3f 0f bf 3a 91 c7 3e 00 8c c5 3c
       -0.055091158 -0.5595689 0.38977987 0.024114609
000340 1d fc ff 3d a3 b4 6d 3d 64 ec 87 3d 96 3f c4 bc
       0.12499259 0.058033597 0.06636885 -0.023956101
000350 6f aa 88 bd 7b 0c 33 bd 78 5b 50 ba 67 69 89 3c
       -0.06673133 -0.043713074 -0.00079482 0.016773893
000360 ab 42 cd b9 68 2d 94 3d 43 5d 8f bd 36 09 2e bc
       -0.00039150318 0.07235223 -0.0700021 -0.010622313
000370 2b fd e9 3b 54 75 94 3d 10 2f b6 bc 93 16 2d bd
       0.0071407757 0.07248941 -0.022239238 -0.042257857
000380 67 07 cf 3c cb 1e 9a bd 24 75 99 be bf 4d 66 be
       0.025272084 -0.075254045 -0.29972184 -0.22490595
000390 51 f2 67 be e6 42 bb bd fe 89 99 3e 96 28 45 be
       -0.2265103 -0.09143619 0.29988092 -0.19253764
0003a0 21 cc 70 be 70 37 7e 3e 62 85 d1 bd 3d ff 69 be
       -0.23515369 0.24825835 -0.10230519 -0.22851272
0003b0 30 ec 25 bf 64 ab cb be 93 6a 6a 3d cd cc 96 3f
       -0.6481352 -0.39779198 0.057230543 1.178125
0003c0 e4 fa e2 bd 7a b1 07 bf 0d 2d 56 bf 5f 2f bd be
       -0.1108301 -0.5300518 -0.8366249 -0.36950204
0003d0 58 f0 62 be d1 ae 70 bc d4 7f 09 3d bb 1c 98 be
       -0.22161996 -0.014690117 0.033569172 -0.2970942
0003e0 0d ea be bd de 01 c8 3a 48 64 64 be f1 12 39 bf
       -0.093219854 0.0015259346 -0.2230388 -0.7229453
0003f0 7b 4d 25 bd d4 97 7f be eb ae 92 be 4a 48 61 be
       -0.040357094 -0.24960262 -0.28649077 -0.22000232

conv2_bias f4 [32]
000000 9c c7 b9 be a9 9c b8 bf d8 40 b0 bf b1 c1 06 c0
       -0.36285102 -1.4422809 -1.3769789 -2.105572
000010 91 c2 f5 bf 32 77 97 bd 3e 53 66 bf 08 6f d9 be
       -1.9200002 -0.073957816 -0.8997077 -0.42467523
000020 ec fe b8 bf 05 dc ba bf 9e ec ab bf cb d6 8a bf
       -1.4452796 -1.4598395 -1.3431585 -1.08468
000030 fa b5 ae be fb 7d bf bf 83 c2 98 be df f0 8b bf
       -0.34123212 -1.4960321 -0.298359 -1.0932883
000040 80 8f 6a bf a6 28 3f bf 71 79 f6 bd 41 b5 9e bf
       -0.91625214 -0.746714 -0.12034882 -1.2399064
000050 76 e5 1f bf 6a d9 41 bf 14 0b c7 bf c2 a0 3a bf
       -0.62459505 -0.7572237 -1.5550256 -0.72901547
000060 05 2f 5f be 1b 4e e2 be a7 ec 01 bf b8 c2 af bf
       -0.2179528 -0.44200215 -0.5075173 -1.3731298
000070 98 42 ad be 63 77 83 bf 6f 92 05 c0 88 ea 04 c0
       -0.3383987 -1.0270809 -2.0870626 -2.0768147

conv3_weight f4 [64, 32, 3, 3]
000000 d5 e9 bc bc ee e7 40 bd 99 ac 1b bd 5b cf dd bd
       -0.023060719 -0.047096185 -0.0380064 -0.108305655
000010 bf ff 91 bd f8 ec dc bc eb f3 1e bc 00 aa ef bd
       -0.07128858 -0.026968464 -0.009701709 -0.11702347
000020 ec ed f4 3c 82 bf 97 bc 3f 54 e3 bc 58 20 b6 bc
       0.029898606 -0.018523935 -0.027750133 -0.02223222
000030 3e 5a 86 bd a7 a2 e2 bc 4c 05 cf bd 27 56 9a bd
       -0.06560181 -0.02766545 -0.10108432 -0.075359635
000040 2e 82 11 bd 21 13 5a bd 86 9d 82 bd b6 88 49 bd
       -0.03552454 -0.0532409 -0.063777015 -0.049202643
000050 c1 96 57 bd 67 5e 42 bd 34 65 52 bd 41 fb a6 bd
       -0.052634005 -0.04745331 -0.051366046 -0.08153392
000060 3f b1 72 bd 21 a3 c5 bc e0 22 e4 bb ea 40 34 bc
       -0.059251066 -0.024125637 -0.0069621652 -0.011001805
000070 e3 bd 56 bc d6 21 94 bd 5d fc 73 bd 18 6c b8 bd
       -0.013106796 -0.07233016 -0.059566844 -0.09004992
000080 fa 30 e4 bd 04 a5 1d bb 5c 86 df bd 64 b6 ff bb
       -0.11142154 -0.0024054656 -0.10914299 -0.007803725
000090 86 d5 5b bb 81 72 2b bd 55 39 f0 bd b2 ba c4 bd
       -0.0033544018 -0.041857246 -0.11729685 -0.09605922
0000a0 d4 84 c1 bd e9 cc dc bc 6d 69 f8 bc 5f 06 eb bd
       -0.09449163 -0.026953178 -0.030323708 -0.114758246
0000b0 69 1a d5 ba 2a 7f aa bc 50 7e d9 bd e5 03 bc bc
       -0.0016258481 -0.02081259 -0.10619795 -0.022951076
0000c0 5b d3 9a bd 7b a7 a0 bd 45 29 03 bc 97 15 95 bd
       -0.07559844 -0.07844444 -0.008005445 -0.072795086
0000d0 ab a6 f2 bd 6d 32 98 bd 0d 4d ce bd 5e c0 e1 bc
       -0.11848196 -0.07431493 -0.1007329 -0.027557548
0000e0 dc 66 93 bd 25 56 25 bd c3 51 83 bd 4a 2d 05 be
       -0.07197353 -0.040365357 -0.06412079 -0.13005558
0000f0 31 52 3e bd af 8c c8 bc 06 8e b5 bd 40 19 1e bd
       -0.046465103 -0.024481146 -0.088649794 -0.0385983
000100 6a 49 1b bd 23 5e a8 bc c2 75 c7 bd ca ba 1b 3d
       -0.03791181 -0.0205527 -0.097392574 0.038019933
000110 38 90 87 3c d2 69 95 bc b7 e4 50 bb 62 84 0b 3c
       0.016548261 -0.018238936 -0.0031874606 0.008515449
000120 fb b6 ca bd 73 e2 98 bc d5 50 4f bc 45 75 43 bd
       -0.09898182 -0.018662667 -0.012653549 -0.04771926
000130 6a 52 ae bd e2 c7 55 bd b6 40 d7 bd a0 c3 ec bd
       -0.08511813 -0.052192576 -0.105103895 -0.1156075
000140 0b 40 91 bb c5 c4 10 bd 2d a8 6c bc b8 81 ad 3c
       -0.0044326833 -0.035343904 -0.014444393 0.021180019
000150 2a 07 c3 bd 66 e5 26 bd bd da 94 ba ad ea d2 bd
       -0.09522851 -0.040746115 -0.0011356693 -0.10298667
000160 78 8d 10 bc 4a 1b b8 3c 41 a0 e9 bb ef 51 e8 bd
       -0.008822791 0.02247395 -0.0071296995 -0.113437526
000170 bf 6a 33 3d c5 54 55 bd b5 24 1c bd f4 47 1d bd
       0.043802973 -0.052082796 -0.038120944 -0.038398698
000180 7e f5 30 bd 91 ff c2 bd 3f 28 14 bd 93 ad 90 bb
       -0.04320287 -0.09521402 -0.036171194 -0.004415223
000190 d5 c7 78 bc ec 10 b0 bd 68 1b c1 ba 1e 55 5d bd
       -0.015184362 -0.085969776 -0.0014732899 -0.054036252
0001a0 3d 17 25 bc df 97 3f bd 6e c5 36 bd 53 8f 68 bd
       -0.010076341 -0.046775695 -0.044621877 -0.05677731
0001b0 c3 a9 94 bd cf 85 53 bd 09 b0 8b bc dc 60 12 bd
       -0.07258942 -0.05164128 -0.017051714 -0.035736904
0001c0 0d 7e 3f bd c9 01 53 3d 20 96 d3 bb f6 de e0 bc
       -0.04675107 0.051515374 -0.0064571053 -0.027450066
0001d0 d5 ff 5f 3d 9a 52 aa bd b1 8d 62 bd 0b 10 bd bd
       0.05468734 -0.08316536 -0.05531091 -0.092315756
0001e0 74 ed db bd e0 83 86 bd b9 05 af bd 68 b6 ae bd
       -0.1073865 -0.06568122 -0.085460134 -0.08530885
0001f0 d2 1e ce bd 74 39 b0 bc 7a e8 08 bd 0b 73 ab bd
       -0.10064472 -0.02151177 -0.033424832 -0.08371552
000200 0d ba d4 3c 2b 2a bc bd 02 18 2f bc e0 3f 1b be
       0.025967622 -0.091877304 -0.010686876 -0.15161085
000210 09 5b be bd 85 bf 71 bd 66 c1 41 bd dc f8 c0 bd
       -0.09294707 -0.059020538 -0.04730358 -0.09422466
000220 40 92 9d bd b8 9e c1 bc a3 a8 ac bd 8d 9f 76 bd
       -0.076939106 -0.023635253 -0.084306024 -0.060210753
000230 25 b9 cf bd 1a 1f c4 bd 4a e0 b3 bd 66 f8 c4 3b
       -0.101427354 -0.09576245 -0.08783014 0.0060110567
000240 59 ba 7c bc 09 2c 5f bd da 7f b7 bd e9 d9 a2 bc
       -0.015425288 -0.054485355 -0.089599326 -0.019879298
000250 9f 1b b2 bd 56 e5 84 bc e2 a3 4f bd 3f 96 3f bc
       -0.086966746 -0.016222637 -0.0506934 -0.011693536
000260 76 07 e8 bc 0d 77 e5 bd 79 07 b9 bc 08 28 75 bd
       -0.02832387 -0.11204348 -0.022586571 -0.05985263
000270 f2 a3 d6 bd 70 81 68 bd 6a 18 eb bd c3 5a 84 bd
       -0.10480489 -0.056764066 -0.11479266 -0.06462624
000280 75 78 87 bc 0c 64 b5 bb 01 62 70 bc 54 3d 6a bc
       -0.01653693 -0.005535608 -0.014671803 -0.014296848
000290 58 e8 9e bd 09 ee 4d bd b7 5f 9c bd ed ab df bd
       -0.0775916 -0.050275836 -0.07635444 -0.10921464
0002a0 f5 ef c4 bd 3d e0 dc bb 3e da 8f 3c 70 ad e1 bd
       -0.09616081 -0.0067405985 0.01756012 -0.11019409
0002b0 d3 7c b1 bd 72 8f a2 bc c7 17 2a bd 0f 1c 7e bd
       -0.086663865 -0.01984379 -0.041526582 -0.062038478
0002c0 81 cd cf bd 43 d7 57 bd ec d9 c5 bd af f3 08 bd
       -0.10146619 -0.052695524 -0.09660706 -0.03343552
0002d0 03 4f 77 bc 84 4a 7e bd 5f 81 37 bd 0e ea 9f ba
       -0.015094521 -0.062082782 -0.044801112 -0.0012200491
0002e0 d9 28 8b bd d3 fb a7 bc 03 ed e3 bd 00 cb 61 bd
       -0.067949004 -0.020505821 -0.11129191 -0.055125237
0002f0 cf 6f d2 bd 36 dc 7d bd 23 54 f3 bd 4b 3d 27 bc
       -0.10275232 -0.061977588 -0.11881282 -0.0102074845
000300 2f 8c 49 bc 97 13 f3 bd 87 6f ef bc 7d 22 c6 bb
       -0.012301489 -0.11868971 -0.029227985 -0.006046592
000310 b7 74 1b bc b7 9b a5 bd 0d fd b0 3b 21 6c b7 bd
       -0.009488276 -0.08086341 0.0054012598 -0.08956171
000320 fe 3a 21 bd 5e 06 54 bd 3f 93 d3 bd 7f 31 95 bd
       -0.0393629 -0.051763885 -0.10330819 -0.07284831
000330 a6 74 ef bd 15 5f bb bd 07 6c 6b bd 80 08 da bd
       -0.11692171 -0.09148995 -0.05747607 -0.106461525
000340 b5 c6 b6 bd 05 70 30 bd 36 c2 3b bd b6 fe cf bc
       -0.08924619 -0.04307558 -0.04583951 -0.02539001
000350 25 a1 eb bd 22 b3 c9 bb 9c 66 8d bd e2 e4 6c bd
       -0.11505345 -0.0061553875 -0.06904337 -0.057835467
000360 71 bf 5e bc b5 4e 9e bd 86 d0 63 bc e0 85 9c bc
       -0.013595448 -0.07729856 -0.013904696 -0.019106805
000370 00 ba 93 bd 6b a4 ae bd 91 ca 00 bb f5 c0 24 bd
       -0.07213211 -0.08527454 -0.001965199 -0.04022308
000380 be 0d af 3c 75 cb 6b 3b bc 7b 9c bd 5e a1 39 bd
       0.021368857 0.0035979424 -0.07640788 -0.045319907
000390 2f 3c 89 bd 1c c1 53 bd 3f c0 57 bd d9 67 d3 bd
       -0.06700932 -0.051697835 -0.052673575 -0.10322542
0003a0 f7 7a b9 bd b9 62 41 bd 55 75 45 bb 63 e4 e8 bd
       -0.09056657 -0.04721329 -0.003012975 -0.11371686
0003b0 01 b9 3d bd de 85 a9 bd 0a cc ad bc 08 87 05 bd
       -0.04631901 -0.08277486 -0.021215457 -0.03259948
0003c0 18 ac 85 bb 88 4e e2 bd 3e 7e bd bc 48 a6 bc bd
       -0.004079353 -0.11050135 -0.023131486 -0.09211403
0003d0 44 b5 85 bd 18 78 68 bd c6 ff 2d bd bb cf 55 bd
       -0.06528714 -0.056755155 -0.042480253 -0.05220006
0003e0 90 27 e1 bd 6d 20 1e bd c3 96 dc bd 8c bb cb bd
       -0.10993874 -0.038605142 -0.10770943 -0.09947881
0003f0 d3 ee aa bd c6 f4 13 bd 21 76 c0 bd 11 40 ff bc
       -0.08346333 -0.036122106 -0.09397531 -0.031158479

conv3_bias f4 [64]
000000 03 27 34 bd a1 32 62 bf 92 10 a7 bd 73 28 90 be
       -0.043982517 -0.88358504 -0.081574574 -0.2815586
000010 01 4e d2 3d 7a 06 59 c0 7b ed 9b bc 2e 8c 04 c0
       0.10268784 -3.3910203 -0.019034138 -2.071056
000020 43 f7 bb 3e 35 73 fa 3d 82 ae 5b bf bd 41 d1 bc
       0.36712083 0.12229005 -0.8581315 -0.025544042
000030 f8 54 d1 bd d7 08 0c c0 c2 20 8c bf 78 02 ae be
       -0.10221285 -2.1880395 -1.0947497 -0.33986259
000040 ef 94 dd bf 11 87 b5 bf b6 3e 35 bf e3 5f 54 c0
       -1.7311076 -1.4181844 -0.70798814 -3.3183525
000050 2f 73 57 bf 7a a5 41 bf c5 10 86 bf fe 6e e3 3e
       -0.8416013 -0.7564312 -1.0473868 0.44420618
000060 53 88 7e 3e 0d f6 fb bd 4e c4 ac be dc ce d6 3d
       0.24856691 -0.1230279 -0.3374352 0.10488674
000070 9d b4 83 bf 94 bc 56 bf fd aa 0b be ee d0 a4 bf
       -1.0289494 -0.838815 -0.13639446 -1.287626
000080 c9 60 4b be 0c 57 34 c0 b3 cf 01 c0 8e c9 e0 be
       -0.1986114 -2.817813 -2.028302 -0.43903774
000090 95 42 f6 bf 3e 2e 4f 3f 18 21 8d be dc f0 47 c0
       -1.9239069 0.80929935 -0.2756431 -3.124076
0000a0 31 f2 0e bf d5 b8 dc bf a1 b1 1e c0 22 7e 05 3e
       -0.55838305 -1.7243906 -2.4795916 0.13036397
0000b0 ca 1f c5 bf c4 10 2d bf b2 7c 0f c0 bf e9 ef be
       -1.5400326 -0.6760371 -2.2419858 -0.46858022
0000c0 b1 6e 50 c0 25 16 f4 bf 79 af d0 3d 0e 86 6a bf
       -3.256756 -1.9069258 0.10189719 -0.916108
0000d0 ba 42 08 c0 92 59 f5 bd d9 9f 83 3d a8 26 29 3f
       -2.1290727 -0.11979975 0.06426973 0.6607461
0000e0 73 70 82 be 02 52 bf be de b7 45 c0 02 cd 5d bf
       -0.25476417 -0.37367254 -3.0893474 -0.8664094
0000f0 42 97 8f bf f4 20 af bf 3f bb 88 bd ab 2b 21 be
       -1.1218035 -1.3681931 -0.06676339 -0.15739314

fc_weight f4 [3, 64]
000000 f9 0f 64 bd b6 f6 23 c0 3c 4e 9c bd d3 60 9c bc
       -0.055679295 -2.561933 -0.076321095 -0.019089138
000010 de 65 85 bf 2a 47 a2 c0 50 ee c0 c0 c6 b2 23 c0
       -1.0421712 -5.071187 -6.029091 -2.5577865
000020 4a 6d 5e bf d0 dc 0b c0 3c 63 3e be 51 a9 7f 3d
       -0.8688551 -2.1853523 -0.18592542 0.062417332
000030 86 50 64 3d 5d e9 9c bd e4 92 92 bd cb 56 2f bf
       0.055740856 -0.07661698 -0.071569234 -0.6849181
000040 10 18 4e c0 a9 83 76 c1 b0 d9 0d c1 ba 0d 96 c0
       -3.2202187 -15.407144 -8.865646 -4.6891756
000050 1e fb 90 c0 a0 93 9a be 14 f1 03 c1 73 d1 88 bf
       -4.530654 -0.30190754 -8.246357 -1.0688919
000060 77 00 04 c0 ba 30 b1 be df b1 fc be 5d 59 0d c0
       -2.0625284 -0.34607488 -0.49354455 -2.2085793
000070 a9 e1 c8 c0 c9 e2 c3 3d 2b 08 43 3d 11 69 f1 3c
       -6.2775464 0.0956474 0.04761521 0.029469045
000080 7f ee 6d bd f5 35 91 c1 02 1e e5 be 93 01 d1 c1
       -0.058088776 -18.151346 -0.44749457 -26.125769
000090 64 b4 c2 be 0e 46 99 3f 56 5a a0 bf 81 e8 49 c0
       -0.38028252 1.1974504 -1.2527568 -3.154816
0000a0 70 8d 79 3c 56 0b 07 c1 f8 5e 66 c1 f6 be ca bf
       0.015231475 -8.440268 -14.398186 -1.5839527
0000b0 d8 c2 66 3e 19 0d 00 bf e9 13 f6 bf f9 6b 4c 3e
       0.22535264 -0.50019985 -1.9224826 0.19963063
0000c0 be af a2 c1 46 06 5a bf 6e 72 f1 bf f1 dc 69 3e
       -20.335812 -0.8516582 -1.8863046 0.22838189
0000d0 4b 8f 92 c0 55 17 c3 bd 06 f3 0c c0 82 30 15 3f
       -4.579992 -0.095259346 -2.202333 0.5827714
0000e0 c3 a4 8b bd 8c fa 6b bf 08 5d 46 c1 3e ee 18 c0
       -0.06818535 -0.9217918 -12.397713 -2.3895411
0000f0 d8 34 38 3c a4 62 b5 be 6f 57 c5 3c bb 45 3f bd
       0.011243068 -0.3542682 0.024089543 -0.04669736
000100 2c 00 a3 bc e4 97 6d 3f 88 45 09 bd 13 46 86 3d
       -0.019897543 0.9280989 -0.033513576 0.06556334
000110 e0 ba 8c 3f ce fe 04 bc a7 29 18 3d 24 70 52 bd
       1.099453 -0.008117391 0.037149098 -0.051376477
000120 5d 40 da 3f cc 24 04 40 7e 43 95 be 7a 4c 09 3e
       1.7050892 2.064746 -0.29153055 0.1340808
000130 7f db f1 3d c4 16 a1 be 17 c6 3e be 1f 03 aa 3e
       0.11809444 -0.3146268 -0.18630253 0.33205506
000140 79 b6 70 3e 2b 28 88 3e b1 86 dc 3e 27 06 e0 be
       0.23507108 0.26593146 0.4307151 -0.43754694
000150 1a 5a 8e 3f dc 36 aa c0 af 0e 33 bd 38 8d 9c 3f
       1.1121247 -5.3191967 -0.043715175 1.2230597
000160 70 91 05 40 06 14 f2 be 8f 23 72 3f b0 73 07 40
       2.0870018 -0.47280902 0.9458551 2.116436
000170 26 82 60 3f 35 02 17 be 16 b9 37 be da e6 42 3e
       0.8769859 -0.14746936 -0.17941698 0.19033375
000180 eb f8 55 3c 81 b3 a2 3e c2 47 62 bf 81 73 3c be
       0.013059835 0.31777576 -0.88390744 -0.18403436
000190 15 1f 97 bf b6 85 d3 3f f3 a7 aa 3f eb 8f af be
       -1.180636 1.652518 1.3332504 -0.34289488
0001a0 81 51 46 be 50 1a a6 be d7 50 1b be 52 a4 a4 3f
       -0.19367029 -0.3244195 -0.15167557 1.2862647
0001b0 87 93 15 3e a7 1f 1e c0 27 b3 2f 3d 8b b4 96 be
       0.14607058 -2.470682 0.042895462 -0.29434618
0001c0 37 78 05 3f ca 4e 3b 3e e3 e6 b5 3f b8 58 b3 bd
       0.5213656 0.18291774 1.4211086 -0.08757156
0001d0 c1 10 3e bf 75 f0 71 bc 74 c5 c0 3f 97 cd 63 3f
       -0.74244314 -0.014766802 1.5060258 0.8898558
0001e0 b2 75 cf 3d a1 08 51 bd 74 8f 97 3d 40 0e 15 bf
       0.101298705 -0.05103362 0.074004084 -0.5822487
0001f0 24 87 df bd e9 50 b8 bd 67 76 c4 3c b9 c0 8b 3d
       -0.10914448 -0.089998074 0.02398224 0.06823868
000200 1e 3a 30 bd f3 10 3c bf 89 b1 17 be 0f 4f 29 be
       -0.043024175 -0.7346336 -0.14813818 -0.16534065
000210 22 16 5d bf c8 97 83 be 18 21 4a 3d ce d3 49 3d
       -0.86361897 -0.25701737 0.049347967 0.04927426
000220 be 5b a4 bf 04 45 dc bf d6 2b 96 3e 70 5c 1b 3b
       -1.2840497 -1.7208562 0.2933032 0.002370622
000230 09 0c 00 3e bd ba 9f be e1 84 01 3e 25 f6 a4 3e
       0.12504591 -0.31197158 0.12648346 0.32219043
000240 78 38 9d be 55 7a b3 be e7 aa b6 be 32 17 ac 3d
       -0.30707145 -0.3505427 -0.35677263 0.08402862
000250 d0 c7 b3 bf 50 ac c7 be c8 cd 75 be 22 43 8c bf
       -1.4045353 -0.38998652 -0.2400428 -1.0957987
000260 a7 78 fd bf e1 27 29 3f ed 27 81 bf 1c 89 f4 bf
       -1.9802445 0.66076475 -1.0090309 -1.9104342
000270 61 75 3d bf d7 44 80 3e 92 39 76 3e b4 1d 2a be
       -0.7400723 0.2505252 0.24045399 -0.16612893
000280 2c 90 2b 3d 06 bd 59 be c5 6a 04 bf fa 49 31 3e
       0.04188554 -0.21263513 -0.5172542 0.17313376
000290 03 12 12 bf 62 95 fd bf ae ab b5 bf 46 b3 a3 3d
       -0.57058734 -1.9811213 -1.4193017 0.07993178
0002a0 a0 4e a3 3e 6a 4d 61 bd 87 9d 16 3e ef fa 83 bf
       0.31895924 -0.05500547 0.1470853 -1.0310954
0002b0 2e df d4 be f0 59 d2 be c1 40 5b 3d 62 9c 62 be
       -0.41576523 -0.41084242 0.05352855 -0.22129968
0002c0 34 0a 08 bf 2b ef 80 be 5a 62 af bf 05 5d 8d be
       -0.5314057 -0.2518247 -1.370189 -0.2761003
0002d0 e6 f9 d9 bd ee 94 93 3d e8 dc 93 bf e0 71 52 bf
       -0.106433675 0.072061405 -1.155179 -0.8220501
0002e0 cc 5b 58 3d 28 75 8c bd aa 0a 08 be ad 9d b8 3f
       0.05282192 -0.06858283 -0.13285318 1.4423119
0002f0 73 47 02 3e 8b 4b be 3e fa 45 01 be 6f a4 2d 3c
       0.12722568 0.3716701 -0.1262435 0.010598286

fc_bias f4 [3]
000000 66 f9 63 3e af e2 59 c1 f3 65 48 3f
       0.22263107 -13.617843 0.7828056
