10by10recording/src/CNNparameter/tactile_cnn_model_trial_02.npz (npz, 1266 bytes, 3 tensors)

conv_weight f4 [1, 1, 3, 3]
00000000: 880d 8cbf 3c73 123f bf43 0a40 2f95 1cbd
00000010: 2aa0 7340 75e2 4f3e deb1 bc3e e6b7 c23c
00000020: 9240 cb3d
-1.094163 0.57207084 2.160385 -0.03822821 3.8066506 0.2030123 0.36854452 0.02376933
0.09924425

fc_weight f4 [3, 16]
00000000: 0f43 86be f667 dfbe 6329 92bf ac0f 16bf
00000010: 9863 ecbe 17a3 19bf dc66 38bf e906 2bbf
00000020: 6a0e 40bf aa9a 05bf ac2c 38bf 3375 1bbf
00000030: 7b9d 46bf 624e d4be cf23 5fbf eeef 56bf
00000040: 444b 99bf 2073 6440 cf74 c6bf b0f4 c73f
00000050: 8a1c bebf 37ee 00bf 0ee4 3ebf 9dc5 16bf
00000060: f2a7 b13f 0ffd 673f 7ceb a63f 1bd9 a83f
00000070: 5f13 0e3f 292a 12c0 1582 693f f28a ae3e
00000080: f6e1 9e3f 8f41 9bc0 5cc5 0e40 14eb 25c0
00000090: 402e c83f dafa ac3f e698 793f c1e7 4140
000000a0: 11b5 26c0 b355 babf a06a 99bf 4aa2 f9bf
000000b0: 80c2 773e a5d6 8940 4510 5f3e d1d1 2bbd
-0.26223037 -0.43634003 -1.141888 -0.58617663 -0.46169734 -0.6001448 -0.7203195 -0.6680742
-0.75021994 -0.52189124 -0.71943164 -0.60725707 -0.77584046 -0.4146605 -0.87164015 -0.83959854
-1.1976094 3.5695267 -1.5504397 1.5621548 -1.485246 -0.50363487 -0.74566734 -0.58895284
1.3879378 0.9062051 1.3040614 1.3191255 0.5549831 -2.2838233 0.91214114 0.34090382
1.2412708 -4.8517528 2.2307959 -2.592473 1.5639114 1.3514054 0.9749893 3.0297701
-2.6048014 -1.4557403 -1.1985664 -1.9502652 0.2419529 4.3074517 0.2178355 -0.041948143

fc_bias f4 [3]
00000000: 90b9 3d40 0424 37c0 da58 9cbf
2.9644508 -2.8615732 -1.2214615
