10by10recording/src/CNNparameter/tactile_cnn_model_trial_03.npz (npz, 1266 bytes, 3 tensors)

conv_weight f4 [1, 1, 3, 3]
00000000: abed b13e 63c8 8a3e d795 d33c ef6e a83e
00000010: 6068 b03e ac14 173e 2e59 5cbf f27b 993f
00000020: 3722 173f
0.3475164 0.27106008 0.025828285 0.32897136 0.34454632 0.1475398 -0.8607358 1.199095
0.5903658

fc_weight f4 [3, 16]
00000000: f9a7 01bf 04ea 1ebf 3ab7 d8be adfd 2dbf
00000010: 9a0a 19bf dbdc cebd fdaa ffbe 0b87 e6be
00000020: 615c 1dbf e530 07bf 19b5 54be 82f3 12be
00000030: 77e4 17bf 609b e5bd c9ee 2dbe 4a34 31bf
00000040: 4e7a a7bf 0545 1e3f 540d 133f 2a68 063f
00000050: 7f93 0c3f 5db7 1a3f 8d5a 6d3e d6ea 58bf
00000060: 5a81 65bf e82c ab3e 779d 12bf bbbc 193f
00000070: d824 063f d49b 013f dc01 133f 1cc1 fa3e
00000080: 5525 833f 6b07 023f 6c06 173f 8c2c dc3e
00000090: e3da 4ebe d488 a1be ed4b a53e e00f 753f
000000a0: 6aa4 563f d65d 4c3e 0187 483f 110f 9cbf
000000b0: 3710 6c3e d32a b93e e097 dc3e f530 693e
-0.5064693 -0.6207583 -0.4232729 -0.67965204 -0.597818 -0.101007186 -0.4993514 -0.45024905
-0.61469084 -0.5280898 -0.20772208 -0.14350703 -0.59332985 -0.11211276 -0.1698562 -0.6922041
-1.30842 0.61824065 0.5744221 0.5250269 0.5491256 0.6043604 0.23179074 -0.8473333
-0.896505 0.33432698 -0.5727152 0.60053605 0.5239997 0.506284 0.5742471 0.48975456
1.0245768 0.5079257 0.58994174 0.43002737 -0.20200686 -0.31549704 0.3228449 0.9572735
0.83844626 0.1995767 0.78331 -1.2192098 0.2305306 0.36165485 0.4308462 0.22772582

fc_bias f4 [3]
00000000: 97ed 243f 350e 59be 680f 2cbf
0.64425033 -0.21196826 -0.6721101
