10by10recording/src/tactile_gcn_03(1).pth (torch, 51183 bytes, 8 tensors)

layers.0.linear.weight f4 [64, 50]
0	0x3ef2c7a8	0.4741795
1	0x3efbafa2	0.49157435
2	0x3ec4c5e9	0.38432243
3	0x3ea0bc1f	0.31393525
4	0x3f50bd09	0.81538445
5	0x3e8d3a5a	0.2758358
6	0x3cad92d7	0.021188183
7	0x3b54edd2	0.0032490385
8	0xbd89f64b	-0.0673643
9	0x3f005d07	0.5014195
10	0x3e32bc73	0.174547
11	0xbdfc02fb	-0.12305256
12	0xbcde6623	-0.027148312
13	0x3e13268b	0.14370172
14	0x3f56907c	0.83814216
15	0x3b7f4bc9	0.0038955084
16	0xbe6f5b40	-0.23374653
17	0x3e691951	0.22763564
18	0x3e7c3afb	0.24631874
19	0x3ea38504	0.3193742
20	0xbdc782ff	-0.097417824
21	0xbe0dacc8	-0.13835442
22	0xbe5d8f93	-0.216368
23	0x3d55b177	0.052171197
24	0x3f5944c4	0.84870553
25	0x3eb7cb12	0.35897118
26	0x3ec7abd8	0.38998294
27	0x3dcd0f6b	0.10012706
28	0x3e49bfe3	0.19702105
29	0x3e87347f	0.2640724
30	0x3e57ae95	0.21062692
31	0x3e507c71	0.2035997
32	0xbdc4628a	-0.09589107
33	0x3e033bbe	0.12815759
34	0x3df1ce1e	0.11806892
35	0xbd90df93	-0.070738934
36	0x3ca24566	0.019808482
37	0xbddabef7	-0.10680955
38	0x3dbcdb36	0.09221499
39	0x3f15cd89	0.58516747
40	0x3e0cb477	0.13740717
41	0x3e805f7f	0.25072858
42	0x3f01b78a	0.50670683
43	0x3ee705e1	0.45121673
44	0x3efbc343	0.4917241
45	0x3e2494e0	0.16072416
46	0x3e8ba06f	0.2727084
47	0x3d4b1138	0.049576968
48	0x3f250e75	0.64475185
49	0x3eac5e45	0.33665672
50	0xbde98442	-0.11402179
51	0xbe693d8c	-0.22777385
52	0x3c6702a3	0.01409975
53	0xbdd1c153	-0.10241952
54	0xbdca0bce	-0.09865533
55	0xbd1bd662	-0.03804625
56	0xbd29f2af	-0.041491207
57	0xbd81ff4f	-0.063475244
58	0xbd550b24	-0.052012578
59	0xbe2123f0	-0.15736365
60	0xbe112fe8	-0.14178431
61	0xbe0a55bf	-0.13509272
62	0xbaf127f3	-0.0018398747
63	0xbb9e10dd	-0.0048237876
64	0xbe0e22f5	-0.13880523
65	0xbe0f874f	-0.1401646
66	0xbe166db9	-0.14690293
67	0xbd4d25e2	-0.050084956
68	0xbe3e0b73	-0.18559055
69	0xbd7501c2	-0.05981613
70	0xbe216eae	-0.15764877
71	0xbc906157	-0.01762454
72	0x3c1cf709	0.009580382
73	0xbe4ac807	-0.19802867
74	0xbe347031	-0.17620923
75	0x3adfa64b	0.0017063109
76	0xbe0c7f2a	-0.13720384
77	0xbd8f05cc	-0.069835275
78	0xbdae3d96	-0.0850784
79	0xbd0e2bef	-0.034709867
80	0xbe2fa510	-0.1715281
81	0xbdb72380	-0.08942318
82	0xbd9470ed	-0.072481014
83	0xbdfb9f1c	-0.12286207
84	0xbe47df2c	-0.19518727
85	0xbc95e3c0	-0.018297076
86	0xbd7c260b	-0.061559718
87	0xbdaf97f7	-0.08573907
88	0xbe1256e1	-0.14290954
89	0xbcf16862	-0.029468719
90	0xbe0387e4	-0.12844807
91	0xbe10a939	-0.14127053
92	0x3c9d11b2	0.019173477
93	0xbe3f0e69	-0.18657841
94	0xbd9ea350	-0.07745993
95	0xbda4c3c3	-0.08045151
96	0xbdb35449	-0.087563105
97	0xbe276e6a	-0.16350713
98	0x3ae983d3	0.0017815776
99	0xbdef34dd	-0.11680005
100	0x3d5d8649	0.054083142
101	0xbc6788b2	-0.014131712
102	0xbcba7e93	-0.022765433
103	0xbea86f54	-0.32897437
104	0x3f87ae14	1.06
105	0xbe2453b8	-0.16047561
106	0xbe1de3ac	-0.15418881
107	0xbe36d11e	-0.1785321
108	0xbefd41e3	-0.4946433
109	0x3f4230f5	0.7585595
110	0xbdfa57ad	-0.12223754
111	0xbeb58ce8	-0.35459065
112	0xbd4e9093	-0.050430845
113	0xbd8f0865	-0.06984023
114	0x3f6bcd71	0.92110354
115	0xbe9c3e85	-0.3051645
116	0xbee2d955	-0.44306436
117	0xbdbde8b4	-0.092729
118	0xbcb3feb0	-0.02197203
119	0x3f7f0bbb	0.99627274
120	0xbeb21da3	-0.34788236
121	0xbeaaff57	-0.33397934
122	0xbf0adf24	-0.54246736
123	0xbe9d6ce7	-0.30747148
124	0x3f6b5884	0.9193194
125	0x3e851a1a	0.25996476
126	0x3e81c695	0.2534682
127	0x3d8061c0	0.06268644
128	0xbd8a297f	-0.06746196
129	0x3edbded2	0.42943436
130	0x3d095109	0.033524547
131	0x3a8970c0	0.0010485873
132	0xbe1a9654	-0.15096408
133	0xbdca5bb9	-0.09880776
134	0xbdc46994	-0.0959045
135	0xbe0253e7	-0.12727319
136	0xbe23ee22	-0.16008809
137	0xbe011c51	-0.12608458
138	0x3c59fefe	0.013305424
139	0x3ed327f2	0.41241413
140	0x3cdff7b9	0.027339803
141	0xbd4b0dec	-0.049573824
142	0x3e847e97	0.2587783
143	0x3e6be7ea	0.23037687
144	0x3e1a38d7	0.15060745
145	0xbe17b92f	-0.14816736
146	0x3dd3bd8b	0.10338887
147	0x3e2b9b69	0.16758503
148	0x3f15e250	0.5854845
149	0x3e9d8a85	0.30769745
150	0xbe314b90	-0.17313981
151	0xbcf80f4e	-0.030280735
152	0x3bd39400	0.006456852
153	0xbdb14dfa	-0.08657451
154	0x3d8e07f2	0.06935109
155	0x3c401404	0.011723522
156	0x3bfa8fc4	0.0076465327
157	0xbe267200	-0.16254425
158	0xbe1e015b	-0.15430205
159	0xbd2e16a4	-0.04250206
160	0xbca634d0	-0.020288855
161	0xbd1f5fc8	-0.038909703
162	0x3d427400	0.047473907
163	0x3d874e77	0.06606763
164	0xbd442035	-0.047882278
165	0xbd6b94ed	-0.057515074
166	0xbe1c6235	-0.15271838
167	0xbe05a2d6	-0.13050398
168	0xbe04e2d5	-0.12977155
169	0x3cccb74e	0.02498975
170	0xbe0a324d	-0.1349575
171	0x3d4f6e43	0.050642263
172	0xba395a60	-0.0007070657
173	0xbdcfc581	-0.10145093
174	0xbbb4c683	-0.0055168285
175	0xbca6d53d	-0.020365352
176	0xbddb8fcb	-0.10720786
177	0xbe1eeb41	-0.1551943
178	0xbda13a8a	-0.078724936
179	0x3c13250d	0.008981002
180	0xbde6fe5e	-0.112789854
181	0x3c749cce	0.014929963
182	0xbce4e399	-0.027940558
183	0x3d751a68	0.059839636
184	0x3c9368cd	0.017994309
185	0x3d7945f7	0.06085774
186	0xbe1c7eae	-0.152827
187	0x3cfc2d6a	0.030783374
188	0xbe1cb1f6	-0.15302262
189	0xbe30f143	-0.17279534
190	0xbe49712e	-0.19672081
191	0xbdc2ae27	-0.09505873
192	0xbe276aca	-0.1634933
193	0xbd7b55d4	-0.06136115
194	0x3cf9e654	0.030505337
195	0x3d9188f2	0.07106198
196	0xbd7f2393	-0.062289786
197	0xbe0a9782	-0.13534358
198	0xbdb87a4f	-0.090077035
199	0x3d914967	0.070940785
200	0xbb89a815	-0.004200945
201	0x3da1a856	0.07893436
202	0xbca5cded	-0.020239795
203	0xbd8cf617	-0.068828754
204	0xbdac0469	-0.08399279
205	0x3d949d38	0.072565496
206	0x3cf314e6	0.029673051
207	0x3cbc6a83	0.023000007
208	0x3d6e0076	0.05810591
209	0x3d340422	0.043949254
210	0x3a927fd0	0.0011177007
211	0xbd8752ee	-0.066076145
212	0x3ceee414	0.02916149
213	0xbe091f2f	-0.13390802
214	0xbe0dec12	-0.13859585
215	0xbcee1138	-0.029060945
216	0xbc25a2dd	-0.01010963
217	0xbda14cf8	-0.07876009
218	0x3acd068f	0.0015642213
219	0xbe109fd1	-0.14123465
220	0xbd43b81b	-0.047783
221	0x3d43b9db	0.047784667
222	0xbd5f963a	-0.054586627
223	0x3e0c4ce5	0.13701208
224	0xbdb16b93	-0.08663096
225	0x3df58fdf	0.11990332
226	0xbd947574	-0.07248965
227	0xbda0cccc	-0.07851562
228	0xbda092e0	-0.07840514
229	0xbc0d3730	-0.008619115
230	0x3dbaaf87	0.091155104
231	0xbc86801b	-0.016418507
232	0xbdfa3ae9	-0.122182675
233	0x3c8facf9	0.017538534
234	0xbcb4d6f4	-0.022075154
235	0x3c428721	0.011873038
236	0x3e0338c0	0.12814617
237	0x3e07dd7b	0.13268082
238	0xbdebf182	-0.11520673
239	0x3c86398a	0.016384859
240	0xbc5b8508	-0.013398416
241	0xbd31eb82	-0.04343749
242	0xbe02c428	-0.1277014
243	0xbd8c56ad	-0.068524696
244	0x3d2043ee	0.039127283
245	0xbba5efba	-0.005063978
246	0xbd8deb6c	-0.06929669
247	0x3d974c55	0.07387606
248	0xbda0f356	-0.07858913
249	0xbe02285e	-0.12710711
250	0x3e86ff73	0.26366767
251	0x3e2849bd	0.16434379
252	0x3e8a541c	0.27017295
253	0xbb5431a8	-0.003237823
254	0x3fbbec0d	1.4681412
255	0x3d30b6df	0.04314315

layers.0.linear.bias f4 [64]
0	0xbc8d0e67	-0.017218782
1	0xbd5eb248	-0.05436924
2	0xbc007db6	-0.007842472
3	0xbe25f602	-0.16207126
4	0xbdd6cd8f	-0.10488426
5	0xbd1c072b	-0.038092773
6	0xbd37e8f1	-0.044899885
7	0xbc817068	-0.01580067
8	0xbd3aae6b	-0.045576494
9	0xbc63de38	-0.013907962
10	0xbe346447	-0.17616378
11	0xbd932a96	-0.07185857
12	0xbde8530b	-0.11343964
13	0xbd65d148	-0.05610779
14	0xbd7d52cc	-0.06184654
15	0xbdebe7bf	-0.115188114
16	0xbe3f5c52	-0.18687561
17	0xbe004e84	-0.12529951
18	0xbe076c2b	-0.13224857
19	0xbcef1834	-0.029186346
20	0xbc46b121	-0.012127192
21	0xbbecf7f6	-0.0072317077
22	0xbda5b3d5	-0.08090941
23	0xbc627586	-0.013821965
24	0x3e78db3f	0.24302386
25	0xbe18a898	-0.14908063
26	0xbcb1402c	-0.021637045
27	0xbd09af7a	-0.033614613
28	0xbe3ca96c	-0.18424004
29	0xbc8294e7	-0.015940143
30	0xbe18f117	-0.14935718
31	0xc017f927	-2.374582
32	0xbc9d950d	-0.019236112
33	0xbd31fd71	-0.04345459
34	0xbc926d06	-0.017874252
35	0xbd660a1a	-0.056161977
36	0xbd07b544	-0.033131853
37	0xbdaa0db8	-0.08303398
38	0xbdd2472f	-0.102674834
39	0xbe4b7c06	-0.1987153
40	0xbc85f02f	-0.01634988
41	0xbe2d69bd	-0.16934867
42	0xc0119486	-2.2746902
43	0xbbd05e6d	-0.0063589127
44	0x3e4db8fc	0.20090097
45	0xbd915cdb	-0.07097789
46	0xbdc00f58	-0.093779266
47	0x3d20e1e0	0.03927791
48	0xbe131a91	-0.14365603
49	0xbe009486	-0.12556657
50	0xbc12123b	-0.008915479
51	0xbced73f1	-0.02898595
52	0xbdad1450	-0.0845114
53	0xbcbb100e	-0.022834804
54	0xbe043749	-0.12911715
55	0xbda1cef3	-0.079008006
56	0xbba12cd8	-0.004918676
57	0xbd488a33	-0.048959922
58	0xbde8fb80	-0.11376095
59	0xbdd512e0	-0.10403991
60	0xbdeb8982	-0.11500837
61	0xbdb9219e	-0.09039615
62	0xbcd1dc30	-0.025617689
63	0xbdc7473b	-0.09730383

layers.1.linear.weight f4 [64, 64]
0	0xbe188536	-0.14894566
1	0x3c6f74e0	0.0146152675
2	0xbe4170db	-0.18890707
3	0xbd706568	-0.05869046
4	0x3d5aedd4	0.053449467
5	0xbe346530	-0.17616725
6	0xbe200116	-0.15625414
7	0xbd7d0de4	-0.061780825
8	0xbe1dd363	-0.15412669
9	0x3d277aed	0.040888716
10	0x3df54204	0.11975482
11	0x3dfd326c	0.12363133
12	0xbdc00ed2	-0.09377827
13	0xbca459a8	-0.020062283
14	0xbe31b650	-0.17354703
15	0xbdbdc476	-0.092659876
16	0xbd63d6f4	-0.055624917
17	0xbdfbad1a	-0.12288876
18	0xbd01a580	-0.031651974
19	0xbd3e6af9	-0.046488736
20	0xbe3a7a4e	-0.18210718
21	0xbca6911f	-0.020332871
22	0xbd2394f1	-0.039936963
23	0x3cdd5c06	0.02702142
24	0xbe514bd5	-0.20439084
25	0xbb84e6e0	-0.0040558428
26	0xbd958741	-0.07301188
27	0xbe30aa64	-0.17252499
28	0xbdc83909	-0.097765036
29	0xbdf26735	-0.118360914
30	0xbda2042a	-0.079109505
31	0xbdf29bb1	-0.11846102
32	0x3cd7e6e7	0.02635522
33	0x3d20e46f	0.03928035
34	0x3bc79e5b	0.0060918755
35	0x3e19d728	0.15023482
36	0xbd215eb0	-0.03939694
37	0xbd0886f8	-0.03333184
38	0xbdfa9f28	-0.12237388
39	0xbd283e40	-0.04107499
40	0xbe2b8e43	-0.16753487
41	0x3d0cb6c9	0.034354005
42	0x3e2ef314	0.17084914
43	0x3d626708	0.05527404
44	0xbca12eac	-0.019675575
45	0xbddf336a	-0.10898478
46	0xbdc2f51e	-0.09519409
47	0x3c85918a	0.01630475
48	0xbdddf99f	-0.10838627
49	0xbcbb0718	-0.022830531
50	0x3d31b8e2	0.04338921
51	0xbd6f89bf	-0.058480974
52	0xbda1e2b1	-0.07904566
53	0xbda82617	-0.0821039
54	0x3df09a3e	0.11748169
55	0x3ce255f8	0.027628884
56	0xbd5795b2	-0.052632995
57	0x3dcbd46a	0.09952624
58	0xbdca001b	-0.09863301
59	0xbdbe5c11	-0.09294904
60	0xbda7ee92	-0.081998006
61	0xbd9c786a	-0.07640155
62	0xbc1ffd16	-0.00976493
63	0x3d480b19	0.04883871
64	0xbeb10058	-0.34570575
65	0x3d6c2ec0	0.05766177
66	0xbe85e878	-0.26153922
67	0xbdd881cc	-0.10571632
68	0xbdec25dc	-0.115306586
69	0xbc2a3226	-0.010387933
70	0xbd508418	-0.050907224
71	0x3d12a360	0.035800338
72	0xbe2ad87a	-0.16684142
73	0xbe90ac82	-0.28256613
74	0x3d08b3ec	0.033374712
75	0xbdbe7ee4	-0.09301546
76	0x3de63760	0.11241031
77	0x3d351d9c	0.04421769
78	0xbd954c20	-0.0728991
79	0x3da36de8	0.07979947
80	0xbd81b66c	-0.06333622
81	0x3c0b3500	0.008496523
82	0xbe2c0212	-0.16797665
83	0x3c65fb68	0.014036991
84	0xbeed7da0	-0.46384907
85	0x3c510f79	0.012760037
86	0xbcc84e66	-0.024451446
87	0xbe4b2c18	-0.19841039
88	0xbcd5ca30	-0.026097387
89	0x39a27800	0.00030988455
90	0xbd89137c	-0.066931695
91	0xbda3a6ca	-0.07990797
92	0xbee350db	-0.44397625
93	0xbe86284d	-0.26202622
94	0xbed7d0f2	-0.421516
95	0xbe82660c	-0.2546848
96	0xbd7da34f	-0.06192332
97	0xbe78f541	-0.24312307
98	0xbe9394cd	-0.28824463
99	0x3e221769	0.15829243
100	0xbddc89de	-0.107684836
101	0xbdfb51f8	-0.12271494
102	0x3df31526	0.11869268
103	0x3de9ac6e	0.114098415
104	0x3a9635cd	0.0011460126
105	0xbee87b2e	-0.4540648
106	0x3e16255d	0.1466269
107	0xbcaeb960	-0.021328628
108	0xbe8261bf	-0.254652
109	0xbbb78c20	-0.005601421
110	0x3d126764	0.035743132
111	0x3dcccfce	0.10000573
112	0xbe220127	-0.15820752
113	0x3d853ec4	0.06506112
114	0xbe3467f2	-0.17617777
115	0xbe9e41bc	-0.30909526
116	0xbe236550	-0.15956616
117	0xbec69d0b	-0.3879169
118	0x3d6dcd4c	0.058057114
119	0xbc90c3c8	-0.01767148
120	0xbde00b5a	-0.10939665
121	0xbeb8921b	-0.3604897
122	0x3bdfbd91	0.006828018
123	0x3d381f61	0.0449518
124	0xbeb1fb1b	-0.3476189
125	0x3c4596e0	0.012059897
126	0xbef2b8fe	-0.47406763
127	0x3d325670	0.043539464
128	0xbe1e39c9	-0.15451731
129	0xbd9a50db	-0.07534953
130	0xbdf95eb0	-0.12176263
131	0x3dda265d	0.106518485
132	0xbd028eb4	-0.031874374
133	0x3da27fa8	0.07934505
134	0xbc9814f0	-0.018564671
135	0xbdf6b00e	-0.120452985
136	0xbd2a529a	-0.04158268
137	0xbe1b1851	-0.15145995
138	0x3d0c42e5	0.034243483
139	0xbc7ae042	-0.015312256
140	0x3d9b4b47	0.075827174
141	0x3bff8e0c	0.0077989157
142	0xbe381ac2	-0.17978957
143	0xbcd7614c	-0.026291512
144	0x3bdff9cb	0.0068351976
145	0xbdacb806	-0.08433537
146	0x3d6085e5	0.05481519
147	0xbd2709f5	-0.04078098
148	0xbd4ceb57	-0.050029125
149	0xbdb8fb77	-0.09032338
150	0x3cb22bc8	0.021749392
151	0x3d0240dd	0.03180014
152	0xbdc9f7f0	-0.098617435
153	0x3df30f67	0.11868172
154	0xbe0d88f0	-0.13821769
155	0xbd38084a	-0.04492978
156	0x3d8f8df6	0.07009499
157	0x3d2a1ea9	0.041533146
158	0xbdf484c1	-0.11939383
159	0x3cb1ad8c	0.021689199
160	0xbd630dab	-0.055432957
161	0xbda44512	-0.080209866
162	0xbd48a73b	-0.04898761
163	0xbdd55432	-0.104164496
164	0xbb973b97	-0.004615258
165	0x3c391d73	0.011298525
166	0x3e257740	0.16158772
167	0x3ccc3cb9	0.024931299
168	0xbd0a6edd	-0.033797134
169	0xbd17d327	-0.037066605
170	0xbd60a85c	-0.05484806
171	0xbda7d480	-0.08194828
172	0xbd0c2917	-0.034218874
173	0x3e395b3c	0.1810121
174	0xbd9e926f	-0.07742774
175	0x3d2df9e9	0.04247466
176	0x3d44a2cd	0.04800682
177	0xbd48d520	-0.049031377
178	0x3d5baf3b	0.05363391
179	0xbd6ed75f	-0.058310863
180	0xbd08a51f	-0.033360597
181	0xbe0c33c0	-0.13691616
182	0xbdb9c19a	-0.0907013
183	0x3c82d7d7	0.015972061
184	0xbe172c08	-0.1476289
185	0xbe8087d9	-0.25103644
186	0xbd14d8ca	-0.03633956
187	0xbe21acd4	-0.15788585
188	0xbc7459bd	-0.014913973
189	0x3c41bd0d	0.011824858
190	0xbe10f5b3	-0.14156227
191	0xbddb4e20	-0.107082605
192	0x3d6ab218	0.05729875
193	0x3c8e7fc8	0.017394915
194	0xbd69e3a5	-0.057101864
195	0x3d33e238	0.04391691
196	0x3cc7f6e0	0.024409711
197	0x3e9923c9	0.29910114
198	0xbd0815fe	-0.0332241
199	0xbc9b7720	-0.018977702
200	0xbe0c46c2	-0.13698867
201	0x3d42dc71	0.04757351
202	0xbdac721c	-0.08420202
203	0xbd0ec694	-0.034857348
204	0x3b5e75c0	0.0033944696
205	0xbd7bc628	-0.061468273
206	0xc05c4ea6	-3.4423003
207	0x3de3180e	0.110885724
208	0xbdc3b3fa	-0.09555812
209	0x3da99a8a	0.08281429
210	0xbe0a54ca	-0.13508907
211	0x3d0aecb8	0.03391716
212	0xbd13c09e	-0.036072366
213	0xbef57883	-0.47943506
214	0x3e6b41ed	0.22974367
215	0xbcb3d786	-0.021953356
216	0x3e7130fe	0.23553845
217	0xbd21ecc8	-0.039532453
218	0x3d9fb01c	0.07797262
219	0xbe417c12	-0.18894985
220	0xbf14b505	-0.58088714
221	0xbde8aa3b	-0.11360594
222	0xc012a628	-2.2913914
223	0x3d168f5b	0.03675781
224	0xbe0b9a5b	-0.136331
225	0xbe41c51b	-0.18922846
226	0x3dc77868	0.097397625
227	0xbce1d2a0	-0.027566254
228	0x3da9f6f2	0.08299054
229	0x3cdafef0	0.026732892
230	0x3d5760b4	0.052582458
231	0x3b89d1c0	0.0042059124
232	0x3e285331	0.16437985
233	0xbfa33485	-1.2750403
234	0xbea7c29e	-0.3276567
235	0x3c142b11	0.009043471
236	0x3e308c56	0.17241034
237	0xbcbe9e08	-0.023268715
238	0xbd555231	-0.052080337
239	0x3d3861a7	0.045015004
240	0x3e0fae48	0.14031327
241	0x3db28038	0.08715862
242	0x3d814c21	0.063133486
243	0xbe494087	-0.19653521
244	0xbe83438d	-0.25637475
245	0xbea7585a	-0.32684594
246	0xbd866c62	-0.06563641
247	0xbb9647c0	-0.00458619
248	0xbe4f02e2	-0.20215943
249	0xbf30825e	-0.68948925
250	0xbd8b8572	-0.06812562
251	0xbce0acb4	-0.027426101
252	0xbfbce7e2	-1.4758265
253	0xbd944812	-0.07240309
254	0xbf93d324	-1.154881
255	0xbe2110c8	-0.15729058

layers.1.linear.bias f4 [64]
0	0xbe02d53a	-0.12776652
1	0xbee31707	-0.44353506
2	0xbc51239b	-0.012764837
3	0x3ed0dc5b	0.40793118
4	0x3f207521	0.62678725
5	0xbe55a38a	-0.20863166
6	0x3d27bec9	0.04095343
7	0xbded9cf6	-0.116022035
8	0xbe39b3c1	-0.18134977
9	0xbdf9ac3a	-0.12191053
10	0xbe821fb2	-0.25414807
11	0xbd5977af	-0.053092655
12	0xbdce876f	-0.10084426
13	0xbe329997	-0.17441402
14	0xbe44cbd2	-0.19218376
15	0xbd583af5	-0.0527906
16	0xbdb2648b	-0.08710583
17	0x3f03a6b6	0.51426256
18	0x3da99678	0.08280653
19	0x3ea30156	0.31836957
20	0x3cbaf76e	0.022823062
21	0x3e04e301	0.1297722
22	0xbed74196	-0.42042226
23	0x3ed302d1	0.41213086
24	0xbe746048	-0.23864853
25	0xbd50774e	-0.050895028
26	0x3ce384a5	0.02777321
27	0x3e90dacf	0.28291938
28	0xbd84b665	-0.064801015
29	0x3e243be0	0.16038465
30	0x3dc207e3	0.094741605
31	0xbd38fdfb	-0.04516409
32	0x3f62457b	0.8838727
33	0x3e47a524	0.1949659
34	0xbe800fe7	-0.25012133
35	0xbdd524ae	-0.10407387
36	0xbe82b2c3	-0.2552701
37	0x3c562751	0.013070897
38	0x3ec783ec	0.38967836
39	0xbde47e75	-0.11156932
40	0xbdfd85f0	-0.12379062
41	0xbe859c5c	-0.26095855
42	0xbd1b163d	-0.037863005
43	0xbe99df97	-0.30053398
44	0xbcdab54a	-0.026697773
45	0xbe5a7af9	-0.21335973
46	0x3f213de4	0.6298506
47	0x3e7b149a	0.24519578
48	0x3d04d953	0.03243382
49	0x3f1f1ccc	0.62153316
50	0x3e0791eb	0.13239257
51	0x3f4ad1ef	0.79226583
52	0xbd9ace41	-0.07558871
53	0xbe6d1072	-0.23150805
54	0x3eb54912	0.3540731
55	0x3c82064c	0.015872143
56	0x3c4c558b	0.012471567
57	0x3be42f7b	0.006963668
58	0xbe3d4902	-0.18484882
59	0x3f44228d	0.7661522
60	0xbdc08168	-0.09399682
61	0xbe5636e2	-0.20919374
62	0xbd19c7f4	-0.037544206
63	0x3deca2cd	0.11554489

layers.2.linear.weight f4 [64, 64]
0	0xbd90e576	-0.07075016
1	0x3d35ab70	0.04435295
2	0x3c817841	0.015804412
3	0x3dd41a9e	0.10356639
4	0xbd7d2d9f	-0.061811086
5	0x3d189104	0.037247673
6	0x3ca37d1e	0.019957121
7	0x3cf27338	0.029595956
8	0x3d916792	0.070998326
9	0xbd641bcc	-0.05569057
10	0x3a867080	0.0010256916
11	0x3dadb17e	0.084811196
12	0xbde14838	-0.11000103
13	0x3dce1d36	0.10064165
14	0x3d2123a4	0.03934063
15	0x3df9baea	0.12193854
16	0x3dd14ccc	0.10219726
17	0xbe00e477	-0.12587152
18	0xbe1c0b3a	-0.15238658
19	0xbdaadd78	-0.08343023
20	0x3da9aa82	0.08284475
21	0xbdfaf478	-0.1225366
22	0xbd503dd4	-0.050840214
23	0xbe27a2ec	-0.16370744
24	0xbdf5222a	-0.11969407
25	0x3d8eb322	0.069677606
26	0x3d980486	0.07422738
27	0xbd8b7160	-0.06808734
28	0x3da79f8c	0.08184728
29	0x3d03c06b	0.032165926
30	0x3d051396	0.03248938
31	0x3debe58c	0.11518392
32	0xbe3023bc	-0.17201132
33	0x3d224c53	0.03962357
34	0xbd1cd3e4	-0.038288012
35	0xbd522ac0	-0.0513103
36	0x3d121ad0	0.0356701
37	0xbdffb1f4	-0.12485114
38	0xbdd5cde2	-0.1043966
39	0x3df84206	0.12121968
40	0x3d515416	0.05110558
41	0xbd88c2aa	-0.06677754
42	0xbdb024d0	-0.086007714
43	0xbc661610	-0.014043346
44	0x3dd58090	0.10424912
45	0x3dfd8880	0.12379551
46	0x3df24846	0.11830191
47	0x3cf67cb8	0.030088767
48	0xbe2e0346	-0.16993436
49	0xbe31ce92	-0.17363957
50	0xbd570c61	-0.05250204
51	0x3d71facb	0.059077065
52	0xbdd38e07	-0.10329824
53	0x3b1584c0	0.002281472
54	0xbd5acb36	-0.053416453
55	0xbdff9524	-0.12479618
56	0x3be32360	0.0069317073
57	0x3bf25fe0	0.007396683
58	0x3cf36e48	0.029715672
59	0xbe143c51	-0.14476134
60	0x3d680438	0.05664465
61	0x3d8cbee2	0.068723455
62	0xbd8d10e6	-0.06887989
63	0x3d8f1b17	0.06987589
64	0x3d5667f5	0.052345235
65	0xbd35f184	-0.04441978
66	0xbda01d10	-0.07818043
67	0xbd488d98	-0.04896316
68	0x3da60543	0.08106472
69	0xbcafdfd0	-0.021469027
70	0xbe0cda27	-0.13755094
71	0x3db7bee8	0.08971959
72	0xbd81f841	-0.06346179
73	0x3d90e608	0.07075125
74	0x3a1290e4	0.00055910484
75	0xbda65bde	-0.08122991
76	0xbc9b431c	-0.018952899
77	0xbdde6ca2	-0.10860564
78	0xbc310d0a	-0.010806331
79	0x3d8461d9	0.064639755
80	0x3d0f480c	0.03498082
81	0xbb826861	-0.003979728
82	0x3d7934c8	0.06084135
83	0xbcab7e0a	-0.020934124
84	0x3c28216c	0.010261875
85	0xbe06c86d	-0.13162394
86	0x3df93e63	0.121701024
87	0xbd1d9879	-0.038475487
88	0x3da60d00	0.08107948
89	0x3e2f223c	0.17102903
90	0xbce9521e	-0.02848154
91	0x3d2241ef	0.03961366
92	0xbd1616a7	-0.036642697
93	0xbde3d6ee	-0.11124979
94	0x3cf82ce5	0.030294845
95	0xbd2bd795	-0.041953642
96	0xbd8518c1	-0.06498862
97	0xbde52a17	-0.111896686
98	0xbccb01e8	-0.024781182
99	0x3d7a266e	0.061071806
100	0xbdbea8f4	-0.09309569
101	0xbd5b9f5e	-0.05361878
102	0xbd4e86d6	-0.05042156
103	0x3e06d55d	0.13167329
104	0x3c8271f8	0.015923485
105	0x3d610f80	0.054946423
106	0x3d1088e0	0.035286784
107	0x3d4b662e	0.049657993
108	0x3de057b8	0.10954231
109	0xbc686b40	-0.014185727
110	0xbe49787c	-0.19674867
111	0xbe1a4693	-0.15065984
112	0x3d432d20	0.047650456
113	0xbc03ab62	-0.008036466
114	0xbdbda877	-0.09260648
115	0x3d1050e0	0.03523338
116	0x3ca2ad88	0.019858137
117	0x3dc4796c	0.09593472
118	0x3d601c6d	0.05471461
119	0x3de07581	0.10959912
120	0xbba67e8a	-0.0050810026
121	0xbda979e0	-0.08275199
122	0xbe28aa39	-0.16471185
123	0x3c8e7223	0.017388409
124	0xbd88c2c9	-0.06677777
125	0xbd82e7c1	-0.0639186
126	0xbc7489c6	-0.014925426
127	0xbd1f372e	-0.038870983
128	0xbd11271c	-0.03543769
129	0xbd9b92d0	-0.07596362
130	0x3d8a503b	0.06753584
131	0xbe196cd1	-0.14982916
132	0xbe720d1a	-0.2363781
133	0xbdfab6b4	-0.12241879
134	0xbcab1168	-0.020882323
135	0xbdd6db34	-0.104910284
136	0x3cbe5630	0.023234457
137	0xbdf9d588	-0.12198931
138	0xbd677190	-0.056504786
139	0xbddd960a	-0.10819633
140	0x3dcaa2ea	0.09894355
141	0xbda0ed44	-0.07857755
142	0x3df28900	0.11842537
143	0xbca77530	-0.020441622
144	0x3dd67ef8	0.10473436
145	0xbd824ce1	-0.0636232
146	0xbe5dabda	-0.21647587
147	0x3d0098db	0.031395774
148	0x3d04e750	0.03244716
149	0xbb0eca44	-0.002178804
150	0xbdf7cc74	-0.12099543
151	0xbc7d9476	-0.01547729
152	0x3d520338	0.0512726
153	0x3d7197c0	0.05898261
154	0x3daca012	0.084289685
155	0xbe6eb83d	-0.23312469
156	0xbd36bfac	-0.044616386
157	0xbdb0c2bf	-0.08630895
158	0xbe1d7115	-0.15375169
159	0x3dba0cd0	0.09084475
160	0xbdfd840f	-0.12378704
161	0xbe25a52c	-0.1617629
162	0x3d936e2c	0.07198748
163	0x3d651d24	0.055935994
164	0x3c627d10	0.013823763
165	0x3d1591e8	0.0365161
166	0xbde51024	-0.11184719
167	0xbdd72b76	-0.105063364
168	0xbdea69e6	-0.1144598
169	0x3c7415b0	0.014897749
170	0x3dd1ea10	0.10249722
171	0x3de30d0c	0.11086473
172	0x3dc74ce0	0.097314596
173	0xbcfe61b8	-0.031052455
174	0x3d22c5d2	0.039739437
175	0xbe11277b	-0.14175217
176	0xbdb7c0c7	-0.08972316
177	0xbd323f6f	-0.043517526
178	0xbe7e4a8d	-0.24833126
179	0xbe395b46	-0.18101224
180	0x3de91c56	0.11382358
181	0x3d5a3ee4	0.053282633
182	0xbe004bbb	-0.12528889
183	0xbd53b574	-0.05168672
184	0xbc84e340	-0.016221642
185	0x3dd7f6c4	0.10545114
186	0x3dcec498	0.10096091
187	0xbe002c86	-0.12516984
188	0xbdfe6bea	-0.12422927
189	0x3d503370	0.050830305
190	0xbcdebe60	-0.027190387
191	0xbe05a633	-0.13051681
192	0x3df77c1a	0.12084217
193	0xbd3f3434	-0.046680644
194	0xbcecf274	-0.028924204
195	0xbe3dc666	-0.18532714
196	0xbe825d6d	-0.25461903
197	0x3cbe61e8	0.023240045
198	0xbe81e6f1	-0.25371507
199	0x3d803752	0.062605515
200	0x3c9c18da	0.019054819
201	0xbdf10b35	-0.11769716
202	0xbd6b76c0	-0.057486296
203	0xbd80460e	-0.06263362
204	0x3d81424b	0.063114725
205	0x3c8c8df0	0.017157525
206	0xbcd62fe7	-0.026145888
207	0xbdc6bbb2	-0.09703769
208	0xbe31a10d	-0.17346592
209	0xbea7c136	-0.32764596
210	0xbe8d250f	-0.27567336
211	0xbec8dadc	-0.39229476
212	0x3cf18016	0.029480021
213	0xbe86b731	-0.2631164
214	0xbe151244	-0.14557749
215	0xbeb54b1c	-0.35408866
216	0x3d9224d6	0.07135932
217	0xbddf31be	-0.108981594
218	0xbce564c8	-0.028002158
219	0xbec8f935	-0.3925263
220	0xbdbd448b	-0.09241589
221	0xbe3ea780	-0.18618584
222	0xbe388343	-0.18018822
223	0xbdc69e27	-0.09698134
224	0xbe1db902	-0.15402606
225	0xbee8bda7	-0.45457193
226	0xbd646478	-0.055759877
227	0xbdfd8520	-0.12378907
228	0x3ce9c190	0.02853468
229	0xbdce87bc	-0.10084483
230	0xbef7ea47	-0.48420927
231	0x3d237d8d	0.039914656
232	0xbedcfaee	-0.43160194
233	0x3dd43106	0.10360913
234	0xbda429c0	-0.08015776
235	0x3c4ea4d0	0.012612537
236	0xbe3ba25e	-0.18323657
237	0x3dec44da	0.1153657
238	0xbec071c0	-0.37586784
239	0xbedc203d	-0.42993346
240	0xbe160dfe	-0.14653775
241	0xbedb8bab	-0.42879996
242	0xbe6aecf3	-0.22941951
243	0xbec4242e	-0.38308853
244	0x3dc6b99e	0.097033724
245	0x3d5afcc0	0.053463697
246	0xbe7a8eb7	-0.24468504
247	0xbe37d3b6	-0.17951855
248	0x3c12ac8c	0.008952271
249	0xbd68e7f8	-0.056861848
250	0x3da3f37c	0.08005425
251	0xbe413364	-0.1886726
252	0xbdaf1b5a	-0.08550139
253	0xbd320d4b	-0.04346971
254	0x3d754c68	0.05988732
255	0xbe85200c	-0.26001012

layers.2.linear.bias f4 [64]
0	0xbe0e2e13	-0.13884763
1	0x3cff8af9	0.031194197
2	0xbd8594aa	-0.06522496
3	0xbec657cc	-0.3873886
4	0x3f53502e	0.8254422
5	0x3eff88e5	0.4990913
6	0xbd9272aa	-0.07150777
7	0xbd9e783d	-0.077377774
8	0xbc95b41b	-0.018274358
9	0x3d735ab0	0.05941266
10	0x3f0cd283	0.55008715
11	0xbd144821	-0.0362016
12	0xbdb1e24e	-0.08685742
13	0xbd6fa865	-0.058510203
14	0x3e618c58	0.22026193
15	0x3e9459a0	0.28974628
16	0xbe19df7f	-0.15026663
17	0xbd0123e7	-0.03152838
18	0xbd66bfad	-0.05633514
19	0x3f21efdd	0.6325663
20	0xbd8a3546	-0.06748442
21	0xbcef1e82	-0.029189352
22	0xbdde1d6e	-0.10845457
23	0xbef3788b	-0.47552904
24	0x3f4eb468	0.8074403
25	0x3c8cbd20	0.017180026
26	0xbdcbda7c	-0.09953782
27	0xbe421944	-0.1895495
28	0x3cdf3834	0.02724848
29	0xbcb74ff0	-0.022376984
30	0x3e0cd7ab	0.13754146
31	0x3e2647fb	0.16238396
32	0x3e3c76a6	0.18404636
33	0x3f322188	0.69582415
34	0xbe6ecb63	-0.23319773
35	0x3e6173cb	0.22016828
36	0x3f30a055	0.6899465
37	0xbd731cdc	-0.059353694
38	0x3ee35ad9	0.4440525
39	0x3f2d30ed	0.6765278
40	0xbe1e061c	-0.15432018
41	0x3d3c4d41	0.045972113
42	0x3eab6de6	0.33482283
43	0xbd663fcc	-0.056213185
44	0xbe3852b5	-0.180003
45	0x3d573ca2	0.05254806
46	0xbe4c8aa0	-0.19974756
47	0x3ccef669	0.025263982
48	0x3f30fdbe	0.6913718
49	0xbdd204ac	-0.10254797
50	0xbdd02c60	-0.10164714
51	0xbd63482f	-0.05548876
52	0xbcbc22fa	-0.022965897
53	0x3ef9aa96	0.4876296
54	0xbe85c478	-0.26126456
55	0x3f3fc90c	0.7491615
56	0xbe840eb7	-0.25792477
57	0x3e1603ff	0.14649962
58	0x3f33f884	0.7030108
59	0x3f39e777	0.7261881
60	0x3f409102	0.75221264
61	0x3f2bcd2c	0.6710994
62	0x3e221d53	0.15831499
63	0x3f64b253	0.893346

classifier.weight f4 [4, 64]
0	0x3cd4daaa	0.025983173
1	0x3d0aec6d	0.03391688
2	0xbe350c15	-0.1768039
3	0x3db77f99	0.08959884
4	0xbfcf9b4d	-1.6219269
5	0x3f237d31	0.638629
6	0x3d87695e	0.06611894
7	0x3d7ecb36	0.062205516
8	0xbc80abe5	-0.015706966
9	0x3d58e7ed	0.052955557
10	0x3f6129ca	0.8795439
11	0x3d334e4e	0.04377585
12	0x3d63bb94	0.05559881
13	0x3ba0cced	0.0049072416
14	0xbfc7c45f	-1.5606803
15	0xbfe3eada	-1.7806046
16	0xbd366047	-0.04452541
17	0xbc94d6af	-0.018168775
18	0xbd874ffb	-0.06607052
19	0xc002789f	-2.0386121
20	0xbcf34a90	-0.02969864
21	0xbe18b170	-0.14911437
22	0xbf186f9b	-0.59545296
23	0xbf80db84	-1.0066991
24	0x3f9d4e80	1.2289581
25	0xbdf05c6f	-0.1173638
26	0xbe1567eb	-0.14590423
27	0xbca37ad0	-0.019956023
28	0xbca7c360	-0.020478904
29	0x3b44ba24	0.0030018175
30	0xbda73cb5	-0.08165876
31	0x3e1fc5bd	0.15602775
32	0x3e27f2b9	0.16401185
33	0xbfcaa349	-1.5831081
34	0x3d98eebf	0.07467412
35	0x3e1d4e91	0.15362002
36	0x3f694eeb	0.91136044
37	0x3cb02dfb	0.0215063
38	0x3f486bdb	0.78289574
39	0xc003949a	-2.055945
40	0xbe11e0f4	-0.14245969
41	0xbe218595	-0.15773614
42	0x3e725d55	0.23668416
43	0x3d725dd5	0.059171516
44	0xbd2f40ac	-0.042786285
45	0xbd391ffd	-0.045196522
46	0x3e48c65a	0.19606915
47	0x3d14c378	0.036319226
48	0x3f84bf65	1.0370909
49	0xbd5268f2	-0.051369615
50	0x3c2c107e	0.010501979
51	0x3a2ea43a	0.0006662045
52	0xbccf9e6a	-0.025344092
53	0xc002bf2c	-2.0429182
54	0x3c028f10	0.007968679
55	0x3f8f1044	1.1176839
56	0x3ddf89bc	0.109149426
57	0x3e1e57cc	0.1546318
58	0x3f93bbab	1.1541647
59	0x3f8ce0e7	1.1006135
60	0xbfea500b	-1.8305677
61	0x3f93dfa7	1.1552628
62	0x3db4c37b	0.088263474
63	0x3f9e4043	1.2363361
64	0x3c729958	0.014807068
65	0xbc9d175d	-0.01917618
66	0x3c55d589	0.013051399
67	0xbeab968c	-0.33513296
68	0x3f1a6c83	0.60321826
69	0xbe0ae2b2	-0.1356304
70	0xbc8e95eb	-0.01740547
71	0x3d83f586	0.06443314
72	0xbd047e62	-0.03234709
73	0x3de30519	0.11084957
74	0xbe31b4c2	-0.1735411
75	0x3c3252a3	0.01088396
76	0xbaff0557	-0.0019456547
77	0x3de55509	0.1119786
78	0xbdde683d	-0.108597256
79	0xbda14a08	-0.078754485
80	0x3d89ded3	0.067319535
81	0xbd7566d4	-0.059912518
82	0x3db03f94	0.086058766
83	0x3e1502cf	0.14551853
84	0x3e09ed64	0.13469464
85	0xbd344de3	-0.04401959
86	0xbf88dc27	-1.0692185
87	0x3ee3dbbe	0.44503587
88	0xbe08c132	-0.13354948
89	0xbd49016f	-0.049073633
90	0xbde0692d	-0.10957561
91	0x3db3ef26	0.08785848
92	0x3d94af8f	0.07260048
93	0x3bfbd947	0.0076858136
94	0x3dcab5d4	0.09897962
95	0x3d0965b2	0.03354425
96	0xbcee36fe	-0.029078957
97	0x3f1bacf1	0.6081076
98	0x3d839819	0.06425495
99	0x3d97ccb8	0.07412094
100	0xbe4a1251	-0.1973355
101	0x3e0bc48e	0.13649198
102	0xbdc0166f	-0.09379279
103	0x3d4a671d	0.049414743
104	0x3cc9b1e5	0.02462096
105	0xbca98543	-0.020693427
106	0xbcdeb7ea	-0.027187306
107	0xbc44610c	-0.011986028
108	0xbccb5a97	-0.02482347
109	0xbd41226c	-0.047151968
110	0x3dd48c8b	0.10378369
111	0xbc440d15	-0.01196601
112	0xbe093b23	-0.13401465
113	0x3e274627	0.16335355
114	0x3db14259	0.08655233
115	0x3cade9e2	0.021229688
116	0x3d89534d	0.067053415
117	0xbe19c19f	-0.15015267
118	0xbd5ed4b0	-0.054402053
119	0xbddada70	-0.10686195
120	0x3ccd01e7	0.025025321
121	0x3d7e9e67	0.062162783
122	0xbe003d96	-0.12523493
123	0xbe039279	-0.12848844
124	0x3ecad4e5	0.3961555
125	0xbdea1a5c	-0.11430809
126	0x3c8f64b5	0.017504076
127	0xbe1091c2	-0.14118102
128	0xbd1c3aab	-0.038141888
129	0xbcfc05db	-0.03076451
130	0x3dec3036	0.11532633
131	0x3e169cf8	0.14708316
132	0x3e61f2a1	0.22065212
133	0xbeaa7635	-0.3329331
134	0xbd66a914	-0.05631359
135	0x3dda1c46	0.10649924
136	0xbdb64fe9	-0.089019604
137	0xbdb153ab	-0.086585365
138	0xbec3f9b2	-0.3827644
139	0xbd6ee0c5	-0.058319826
140	0x3c81d0d9	0.015846657
141	0xbd117cd3	-0.035519432
142	0x3ec05bde	0.3757009
143	0x3ec06b9e	0.37582105
144	0x3c2a73ff	0.010403632
145	0xbccdb317	-0.02510981
146	0xbced9cb6	-0.02900539
147	0x3ef028ef	0.4690623
148	0xbab363d0	-0.0013686363
149	0xbda10090	-0.078614354
150	0x3dc6f949	0.09715516
151	0xbf61bc5e	-0.8817805
152	0xbefc1dbf	-0.49241444
153	0xbe1bc88c	-0.15213221
154	0x3c8d3217	0.017235799
155	0x3cffdf97	0.031234546
156	0xbe1bdd60	-0.15221167
157	0x3d17b003	0.037033092
158	0x3d96eefb	0.07369801
159	0x3a29322b	0.0006454314
160	0xbdcf5fa1	-0.10125662
161	0x3e53bc8a	0.2067739
162	0xbda598b7	-0.08085769
163	0x3d1f6943	0.038918745
164	0xbeda520c	-0.42640722
165	0xbde1d0e9	-0.110261746
166	0xbeaf6a54	-0.3426081
167	0x3edf16c6	0.43572062
168	0x3d0e7109	0.034775767
169	0xbe0f8fbb	-0.14019673
170	0xbd860343	-0.06543591
171	0x3dcb6952	0.09932198
172	0x3d20c5dc	0.039251193
173	0x3c0fcbc1	0.008776606
174	0xbddea6d8	-0.10871667
175	0xbd117246	-0.03550937
176	0xbeb505f1	-0.35356095
177	0x3bf0ab27	0.0073446217
178	0x3cf2d24d	0.029641295
179	0xbcd7886e	-0.026310172
180	0xbdeebd69	-0.11657221
181	0x3f05a545	0.52205306
182	0x3d9bba92	0.07603945
183	0xbea8223e	-0.32838625
184	0xbd7ec92a	-0.062203564
185	0x3d17f1ce	0.037095837
186	0xbecb2b52	-0.39681488
187	0xbebf33c9	-0.37344196
188	0x3e8ecaa1	0.2788897
189	0xbebf059b	-0.37308964
190	0x3c4f838a	0.012665639
191	0xbecb8f1e	-0.39757627
192	0x3d022cc3	0.03178097
193	0xbd15db8d	-0.036586333
194	0x3e363697	0.17794262
195	0xbec1cdb3	-0.3785225
196	0xbf9458b4	-1.158957
197	0xbe9d89f1	-0.30769303
198	0xbd25fccc	-0.04052429
199	0x3d5b5bb1	0.05355424
200	0xbe3329b2	-0.17496374
201	0xbda16cdf	-0.07882094
202	0xbeadb22d	-0.33925
203	0xbd89e15e	-0.067324385
204	0xbe36a545	-0.17836483
205	0xbc9891e6	-0.018624257
206	0x3ee322e5	0.4436256
207	0x3ed24896	0.41071004
208	0xbd7e0ca6	-0.06202378
209	0xbe36bfb0	-0.1784656
210	0x3b208f51	0.0024499486
211	0x3ea9b4d0	0.3314576
212	0xb9a71e55	-0.0003187532
213	0xbd37bd09	-0.044858012
214	0x3f8b89a9	1.0901386
215	0x4026756d	2.600917
216	0xbeadc898	-0.33942103
217	0xbe0e7c09	-0.13914503
218	0xbd0792d0	-0.033098996
219	0x3be9d4cf	0.0071359645
220	0xbd8df31d	-0.06931136
221	0x3d0c577b	0.034263115
222	0x3e023e6e	0.12719128
223	0x3c945f99	0.01811199
224	0xbde1e86b	-0.11030658
225	0xbf8474a5	-1.0348097
226	0x3d8d8571	0.069102176
227	0x3ce6dfed	0.028182948
228	0xbecf480d	-0.40484658
229	0x3cfafd4c	0.03063836
230	0xbe8bfdeb	-0.27342162
231	0x3eb999b4	0.3625008
232	0xbb156de2	-0.002280109
233	0xbe41a9f3	-0.18912487
234	0xbd2a1675	-0.041525323
235	0xbd2f4375	-0.04278894
236	0x3da62bc5	0.08113817
237	0x3d745a86	0.059656642
238	0x3da136cb	0.07871779
239	0xbd19de44	-0.037565485
240	0xbe9749d5	-0.29548517
241	0xbb8a5ff0	-0.0042228624
242	0x3d84d5b4	0.06486073
243	0x3e2fef2c	0.1718108
244	0xbc7e8cad	-0.015536469
245	0x3f1739ac	0.59072375
246	0xbd53017b	-0.051515084
247	0xbeaa3508	-0.33243585
248	0x3c2b9495	0.010472436
249	0x3d141a40	0.036157846
250	0xbe982499	-0.29715422
251	0xbea8124e	-0.32826465
252	0xbe3c39d4	-0.18381435
253	0xbe95b881	-0.29242328
254	0x3b5a8454	0.0033343034
255	0xbebd24ea	-0.36942226

classifier.bias f4 [4]
0	0x3eb5a3ac	0.35476434
1	0x3d91f219	0.071262546
2	0x3e4ae5b8	0.19814193
3	0xbf1680c5	-0.58790237
