10by10recording/src/tactile_mlp_model_trial_random_test.npz (npz, 16380 bytes, 6 tensors)

mean f8 [100]
00000000: 0000 0000 0000 0000 0000 0000 0000 0000
00000010: 0000 0000 0000 0000 0000 0000 0000 0000
00000020: 0000 0000 0000 0000 0000 0000 0000 0000
00000030: 0000 0000 0000 0000 0000 0000 0000 0000
00000040: 0000 0000 0000 0000 0000 0000 0000 0000
00000050: 0000 0000 0000 0000 99a3 7a1e 8fcc a63f
00000060: 5b79 fee9 3bf4 523f a0dd e7be 62d3 903f
00000070: 0000 0000 0000 0000 e82f 118c a04e 963f
00000080: 1414 1414 1414 943f 71cd 5c1f 153e 9a3f
00000090: 8e6f eafe acf4 a53f 09cc c1ea 46d6 983f
000000a0: 0000 0000 0000 0000 594e 77d3 6225 7b3f
000000b0: e012 4679 acdf 723f 6fdf 1c27 fea1 623f
000000c0: 8b4d 436c c857 4a3f 46fe 1ca2 8ddf 973f
000000d0: 2e80 3857 dcc7 793f a9e6 f0c7 6bdc 793f
000000e0: f67a 66b8 708f 643f 04b2 f9da 556a 783f
000000f0: 0000 0000 0000 0000 02b0 f7d8 5368 763f
00000100: 79e9 2631 08ac 7c3f 3ab5 c977 bfa0 7b3f
00000110: 5b79 fee9 3bf4 723f 1111 1111 1111 813f
00000120: c352 150b 3490 7f3f ceae 293e ec33 753f
00000130: 6fdf 1c27 fea1 623f ab11 78de 44ab 513f
00000140: 0000 0000 0000 0000 8f65 097a b7c1 983f
00000150: ee49 d99b 91ba 763f 9d9c 9c9c 9c9c 9c3f
00000160: 0bb9 00e2 5c71 9f3f fd81 6dbf 7796 8b3f
00000170: 584d 76d2 6124 9a3f 4b18 e5b1 7e4b 983f
00000180: 30ab bf6d b596 713f 36b1 c573 bb9c 673f
00000190: 0000 0000 0000 0000 1a2e dc23 0580 a43f
000001a0: 00ae f5d6 5166 643f 8e64 0879 b6c0 973f
000001b0: cd85 a429 1567 9f3f 6c9f d205 396c 9f3f
000001c0: 6497 cafd 3064 973f abfc b4d3 5844 963f
000001d0: 0be2 85f6 333e 953f e843 d395 8bb4 303f
000001e0: 0000 0000 0000 0000 04b2 f9da 556a 483f
000001f0: 4f44 6dc9 581b 713f 2356 89bc ef22 a63f
00000200: fb7f 6bbd 7594 993f dee7 be62 d310 9b3f
00000210: 0ee5 88f9 3641 683f 4613 e0ac 7946 433f
00000220: 71e1 1e29 00a4 943f 0000 0000 0000 0000
00000230: 0000 0000 0000 0000 34af c371 b99a 753f
00000240: ccac 273c ea31 733f 3082 3a59 dec9 6b3f
00000250: 1818 1818 1818 583f 77e7 242f 06aa 6a3f
00000260: b948 0b01 2a86 653f e843 d395 8bb4 603f
00000270: a5e2 ecc3 67d8 453f 3ab5 c977 bfa0 4b3f
00000280: 0000 0000 0000 0000 c467 d815 20f7 9a3f
00000290: 3082 3a59 dec9 6b3f 3096 fc62 c92f 963f
000002a0: b32d 42f0 3719 943f 3ab5 c977 bfa0 6b3f
000002b0: a0c8 24b4 766c 953f 73e3 202b 02a6 963f
000002c0: fa7e 6abc 7493 683f 9fc7 23b3 756b a43f
000002d0: 0000 0000 0000 0000 2562 6c43 e757 a53f
000002e0: 1414 1414 1414 943f b948 0b01 2a86 953f
000002f0: 5761 38dc 4c8a 943f 224b a736 f9ee 973f
00000300: b847 0a00 2985 943f 6295 c8fb 2e62 953f
00000310: caaa 253a e82f 713f 4137 60bc 4b0e e03f
0.0 0.0 0.0 0.0 0.0 0.0 0.0 0.0
0.0 0.0 0.0 0.04452941176470588 0.0011568627450980393 0.016431372549019607 0.0 0.021784313725490195
0.0196078431372549 0.025627450980392156 0.04288235294117647 0.024254901960784312 0.0 0.006627450980392157 0.004607843137254902 0.0022745098039215687
0.000803921568627451 0.02331372549019608 0.006294117647058823 0.006313725490196078 0.0025098039215686275 0.00596078431372549 0.0 0.005470588235294118
0.007 0.006745098039215686 0.004627450980392157 0.008333333333333333 0.007705882352941176 0.0051764705882352945 0.0022745098039215687 0.0010784313725490195
0.0 0.024176470588235296 0.0055490196078431375 0.027941176470588237 0.030705882352941177 0.013470588235294118 0.025529411764705884 0.02372549019607843
0.004294117647058823 0.0028823529411764704 0.0 0.04003921568627451 0.0024901960784313726 0.02319607843137255 0.030666666666666665 0.03068627450980392
0.02284313725490196 0.021745098039215687 0.020745098039215686 0.00025490196078431374 0.0 0.0007450980392156863 0.0041764705882352945 0.04323529411764706
0.024980392156862746 0.02643137254901961 0.00296078431372549 0.000588235294117647 0.02015686274509804 0.0 0.0 0.005274509803921568
0.004686274509803922 0.003392156862745098 0.0014705882352941176 0.003254901960784314 0.0026274509803921567 0.00203921568627451 0.0006666666666666666 0.0008431372549019607
0.0 0.026333333333333334 0.003392156862745098 0.021666666666666667 0.019627450980392157 0.003372549019607843 0.02092156862745098 0.02211764705882353
0.003 0.03988235294117647 0.0 0.041686274509803924 0.0196078431372549 0.021019607843137254 0.020058823529411764 0.023372549019607843
0.02003921568627451 0.02088235294117647 0.0041960784313725494 0.5017450980392156

std f8 [100]
00000000: 3a8c 30e2 8e79 453e 3a8c 30e2 8e79 453e
00000010: 3a8c 30e2 8e79 453e 3a8c 30e2 8e79 453e
00000020: 3a8c 30e2 8e79 453e 3a8c 30e2 8e79 453e
00000030: 3a8c 30e2 8e79 453e 3a8c 30e2 8e79 453e
00000040: 3a8c 30e2 8e79 453e 3a8c 30e2 8e79 453e
00000050: 3a8c 30e2 8e79 453e cd28 1e9b fe66 ca3f
00000060: b416 9052 8867 a13f 0f1b e63a b645 c03f
00000070: 3a8c 30e2 8e79 453e 3ee0 2c80 6daf c23f
00000080: 1b07 8810 3bbf c13f 174f 2e97 093a c43f
00000090: 8b42 97ad 87ee c93f 386b 759d 03b1 c33f
000000a0: 3a8c 30e2 8e79 453e 0783 58b8 85c5 b43f
000000b0: de3d 4e1b 6556 b13f 3bb6 135a f363 a83f
000000c0: 6896 1692 b705 9d3f 5213 c8f4 9f50 c33f
000000d0: 0af2 2023 f13e b43f 2b68 1c23 f546 b43f
000000e0: 7142 968a 319e a93f 100f cf90 adb4 b33f
000000f0: 3a8c 30e2 8e79 453e 96a7 7ca4 fde1 b23f
00000100: 4f36 d03f e957 b53f 27d6 83a9 31f4 b43f
00000110: 195a 72d5 c85f b13f ee48 bba9 9c45 b73f
00000120: 316d 92b4 bf62 b63f d1f6 27e5 f15e b23f
00000130: 46bd 135a f363 a83f b6d3 9b11 04ce a03f
00000140: 3a8c 30e2 8e79 453e a3b2 2635 0fa9 c33f
00000150: 7077 bae7 5304 b33f 9afc e200 4f18 c53f
00000160: 3514 2ed6 1f15 c63f 7323 5e62 e482 bd3f
00000170: 617a 6f2f 6230 c43f 3adf 3e40 0c7b c33f
00000180: 0f4e 5203 50bd b03f 881f 7977 c972 ab3f
00000190: 3a8c 30e2 8e79 453e a424 dad4 3418 c93f
000001a0: 1ff5 29ed 9684 a93f eef2 791f 6e44 c33f
000001b0: b39e f6a8 a011 c63f 5898 b053 6013 c63f
000001c0: bbbf dc4d a51f c33f 3b67 ca50 37ab c23f
000001d0: 56e4 198f 6a3e c23f da68 77b3 c458 903f
000001e0: 3a8c 30e2 8e79 453e 8430 d120 f2f0 9b3f
000001f0: ac3c 4b9e 7382 b03f d058 b45d 9008 ca3f
00000200: 6d1f 088e f2f9 c33f b7d1 7ef5 7488 c43f
00000210: 7368 94be 77d1 ab3f 5329 f0e9 0ed4 983f
00000220: 229a 7a5b 1bfd c13f 3a8c 30e2 8e79 453e
00000230: 3a8c 30e2 8e79 453e 678b 229c 098b b23f
00000240: 7eb5 6f31 d57b b13f ca15 25b4 f7c4 ad3f
00000250: 2307 bf92 af9e a33f a415 2a4e b529 ad3f
00000260: 4a0d c7c4 be35 aa3f 0ee3 5dc2 de18 a73f
00000270: 4672 4e69 466e 9a3f ed65 e169 9fb8 9d3f
00000280: 3a8c 30e2 8e79 453e 7220 c39e f67e c43f
00000290: af17 25b4 f7c4 ad3f e61c f8d2 c7a2 c23f
000002a0: 3761 f3d0 74c1 c13f a617 c908 fcae ad3f
000002b0: 02e7 d9f6 d051 c23f db13 f67c 10d3 c23f
000002c0: 25b0 036b 5500 ac3f d797 553a 220c c93f
000002d0: 3a8c 30e2 8e79 453e 055c 71e9 6195 c93f
000002e0: 2206 8810 3bbf c13f f307 436f 8e5c c23f
000002f0: 0bce 20b4 1ff2 c13f 2006 72b3 b556 c33f
00000300: 0e2e 317f ecef c13f c3e1 ea40 834d c23f
00000310: 14db 68ce 518c b03f 0cfd c944 f3ff df3f
1e-08 1e-08 1e-08 1e-08 1e-08 1e-08 1e-08 1e-08
1e-08 1e-08 1e-08 0.20626814436065502 0.033993015364143814 0.12712743640823773 1e-08 0.14597862967070968
0.13864839846797214 0.15802116281394582 0.20259185768238228 0.15383954227839935 1e-08 0.0811389517844071 0.06772453228608508 0.04763756250927683
0.0283421214022809 0.15089797451232784 0.07908541782030212 0.07920772654725343 0.050035045783379035 0.07697567735072774 1e-08 0.07376084581178896
0.08337266738836856 0.0818511046271274 0.06786780558682216 0.09090594428861085 0.08744428785796711 0.07176124424583043 0.04763756250928934 0.032821776532649435
1e-08 0.15359678359290738 0.07428478629523538 0.16480433982176096 0.17251966436393365 0.11527850534015531 0.15772654834923386 0.15219262253753546
0.06538868027774235 0.053610130151866164 1e-08 0.1960512198750496 0.04983970303599449 0.15052582299167433 0.1724129509941484 0.17246631704728332
0.14940325071211 0.14585009999137263 0.14252979266510363 0.015963624433290892 1e-08 0.02728632283496825 0.06449053396794352 0.20338635039724418
0.1560652917398743 0.16041433322028606 0.05433248711979468 0.024246438053560592 0.1405367085146319 1e-08 1e-08 0.07243404447448896
0.0682957883543249 0.05814336847337705 0.038320051825861755 0.056958833495666356 0.05119129325933132 0.04511161921158734 0.025811290910143357 0.029024592244558823
1e-08 0.16012461425839636 0.05814336847338041 0.14559266854505565 0.13871631815596583 0.057975650856448 0.14312183430939035 0.1470661745226199
0.05469004565551953 0.19568279121739238 1e-08 0.199871291146991 0.13864839846796523 0.14344959671694787 0.14020153327292947 0.15108367216093743
0.1401343937926502 0.1429905001621262 0.06464110650345517 0.4999969646232365

W1 f8 [16, 100]
00000000: 7fe1 1f7f 5607 83bf 61fc 7273 cc98 62bf
00000010: 2c5d bd2b 78e0 63bf 632f b367 f7c3 85bf
00000020: f2d0 83d9 651e 603f 24ce 6aa7 71a9 80bf
00000030: 892a cc2b 8c3e 4abf 5b9d 36b9 b238 923f
00000040: 08cc 1da1 9c08 8cbf 6a90 e358 838c 93bf
00000050: e7e3 14f7 00fb 813f eae0 639b 8220 c53f
00000060: 4751 def7 357e 8fbf 3136 7555 e850 95bf
00000070: ba98 e7d0 4275 8f3f 73bc 1706 589f c03f
00000080: 4d06 e53d 1892 b23f 09d5 70ad eaa3 ab3f
00000090: 00f6 9320 0a84 b63f 331d 333d 02e7 b23f
000000a0: b267 f492 1033 86bf d225 f2b6 26ff a2bf
000000b0: 2d32 4e59 426c 52bf 47f8 b215 742f 8fbf
000000c0: 0175 586a 9c5e 73bf 4fba d586 680b b43f
000000d0: b18d f9ce 2ce5 92bf b74a 4015 f8b1 92bf
000000e0: 34f8 8376 a873 90bf f936 96bd f7b4 a1bf
000000f0: aa0b 16e4 319c 713f 155d 3c18 4be7 91bf
00000100: d657 0aee ae24 94bf e4ad 05fc 9a22 8ebf
00000110: 75c7 2cb0 1a97 8ebf 0d12 b648 6af4 95bf
00000120: d7c7 6774 6c5c 93bf ae82 5dc6 2b5d 88bf
00000130: 1705 bf6a 9387 85bf e28e 670a b307 73bf
00000140: 5b5d 1fe8 a184 8cbf 8064 26c5 7d48 343f
00000150: 4165 9fcc e9e7 86bf 61a2 5e7d 9e59 9abf
00000160: b590 8fbf 393b 9cbf 0391 f258 67ec 9fbf
00000170: 56b6 3606 a6bf b63f fe17 3b75 b1b9 96bf
00000180: f8d1 c44c fa88 67bf eaa0 67e5 44eb 7cbf
00000190: aec3 4610 bb63 61bf 10f5 3f90 aad6 b93f
000001a0: 5fb1 dc87 d382 80bf 8c35 6988 dc13 a4bf
000001b0: d96d e74d 7cf3 96bf 7ad6 c505 84e6 9ebf
000001c0: 1eb6 1477 a0e3 b63f 268f c940 af6d 9bbf
000001d0: 4fe9 eb68 b2af 8abf ec42 6694 85fd 5b3f
000001e0: aa7b 0da3 2a97 8e3f 903a fe63 4e30 50bf
000001f0: 7480 059d 5ff2 76bf fb92 a992 e408 92bf
00000200: 1177 3d02 5933 8dbf 1c31 8482 6c3d 93bf
00000210: 8da0 cdbd 0806 83bf 13dc c0d0 f0db 75bf
00000220: 8378 9b62 6c5b 98bf fc25 85d6 d7d5 893f
00000230: 9beb dc3e df63 5bbf 8cd4 2e0b f04e 85bf
00000240: fcb8 455c 951b 86bf 2158 6598 1981 7cbf
00000250: a7b0 251e 4a36 8bbf 7968 3b76 e481 86bf
00000260: d6cc 025a 9f35 89bf 0f76 3851 e774 90bf
00000270: 8c0a b968 289b 5e3f f9d6 781c e817 95bf
00000280: 1ace e8cd df92 7abf bdff 63ff 098e 9bbf
00000290: 3dec c65b 5580 71bf 4b22 d626 66d3 93bf
000002a0: 8c0c e19e 4ba5 b83f b0ed 860e 4c4e 94bf
000002b0: 0b3e 5b5c d18a b73f 5844 6177 f208 94bf
000002c0: 61fe 9803 e1ab 81bf c531 65b9 6908 cc3f
000002d0: 9432 3ee6 4594 513f fe1a 4604 43f2 a4bf
000002e0: 6faa 3e25 2ac3 91bf 1bf4 1421 0911 9dbf
000002f0: 3da2 082f 824a b73f 6a92 6bc0 63fc b43f
00000300: 4d05 d928 a9b8 b33f 7d08 4325 bd0d 8ebf
00000310: 4a3a 1109 e495 8cbf f229 1077 fb28 acbf
00000320: c11f 9796 7107 84bf e71b 5401 a98f 68bf
00000330: 479d 22ff 4e6c 78bf dea8 1594 e20a 753f
00000340: 9c0c ecfb 58f1 84bf 2d55 fff3 5622 39bf
00000350: 612b b238 a204 953f 8c22 51df 1e90 8a3f
00000360: 4eac 2706 c63e 89bf 1622 e47c f5d1 763f
00000370: a5b4 14c4 4ad0 87bf e43b 4a82 5b83 96bf
00000380: 2c85 0ef8 e89e a53f a785 a72c 44bd 82bf
00000390: 6f58 20b3 2a7b 80bf 7652 f85e 038a 8c3f
000003a0: 4830 922a 612a 9dbf e270 65c0 4a2f a13f
000003b0: abb6 598f 8070 903f 202e 8468 aeee 96bf
000003c0: 2ea1 f440 a5a9 863f 0e31 ad58 3344 a83f
000003d0: e6a0 5a3b 0637 a93f 8c9b b285 596b ad3f
000003e0: 8d22 ebd8 86aa a13f fd94 4a40 b530 953f
000003f0: 79cd b39c e430 be3f 00a6 5dba 170f be3f
00000400: 2ad0 cfa7 6383 9a3f 7565 bb95 833a 9fbf
00000410: c14c c02c 6f5c 703f b6b2 af7e 51c2 b03f
00000420: 83fd e4b2 4c45 ad3f d3cd a9cc b90b b53f
00000430: 75cd 7788 b8d7 b03f 6448 2447 973a c23f
00000440: a763 b6ee 0d64 c13f 24fd 769f 7245 b83f
00000450: eb20 2690 8ba6 a83f d2a2 fd24 e1a5 8b3f
00000460: 0ec3 ce9f 849d 91bf 830a 90fd b43a 9b3f
00000470: 55ca c82d 0ffe b23f 0d1d 59bc 4c4d 9d3f
00000480: 4715 dfad aef6 90bf 29db e3e6 776a c63f
00000490: 443c 867a 4a52 943f b0fe 1254 a4d1 a33f
000004a0: c96d 6cf0 0a15 b43f 50f2 4bfa 8bc9 b03f
000004b0: 1a6e 4bbf 20a8 713f 2598 ebdb 08f0 7cbf
000004c0: 5b62 2305 73c1 b43f 4614 dc2a a9f1 60bf
000004d0: 618f 94f9 e39d 88bf 7eef 264e f434 b13f
000004e0: f35c eb55 9d98 913f 2b02 f30c c45e 53bf
000004f0: fdd0 37bb 2bfe 733f fb87 9c79 87fc 863f
00000500: 8fce f51a 28ae 553f b80f d2a4 e9fd a33f
00000510: d4a1 b25a 3be3 bb3f 8878 43ec 55ee 72bf
00000520: ea84 ff6c e0d8 86bf 7500 590a 9c8f a03f
00000530: f8e5 f780 6b4f aa3f 3da7 e5d3 e4bc 3b3f
00000540: 2aa7 125b e387 94bf d876 7a8a 0bad 91bf
00000550: c4d3 ca3b 53ea 77bf 2ff3 f081 805e a53f
00000560: 9449 d6bb ac9d b93f 36a2 e300 eb3a b53f
00000570: 38c3 dc77 bfb6 ac3f 030a 62a3 1216 b63f
00000580: 51d8 04b6 2c24 933f 352e fa44 a9f7 80bf
00000590: c8ae 81fa b542 54bf 67ee 8ebd 9b9a 8dbf
000005a0: 6ad6 49f2 528b 7cbf e016 2149 f263 9f3f
000005b0: fc3c ed8f 8f02 b43f c421 0564 b5e0 763f
000005c0: 49d6 8700 0755 8bbf 733f 881d d9b5 b83f
000005d0: dae1 cdc1 eff1 643f e416 86c9 c9a9 80bf
000005e0: 2c7a a6ec e472 b13f 6668 cb86 7fd8 99bf
000005f0: 67bb b156 6055 8b3f 6ba3 69f5 f38a 83bf
00000600: 9272 ffcb 7906 89bf ea31 1d6a 7667 95bf
00000610: 6661 1a44 1a40 95bf 3da7 fc9c a445 a43f
00000620: 5a10 4ae8 8e8c a0bf 604d 7c34 fe6c 8bbf
00000630: d343 464a 78a0 b53f 63fd 93e3 285f b73f
00000640: e880 7ddc 3696 89bf ecfb fe41 f995 7f3f
00000650: fe33 c383 dcd1 603f df9b 8e30 7bc3 64bf
00000660: 856b 8a93 d006 773f 75b3 dcc2 af58 85bf
00000670: 8343 47a1 c09c 5ebf cefd 269d 3419 8a3f
00000680: ec1b fd99 4d46 8f3f 88a2 10e0 4671 803f
00000690: 816f 5dde 209f 893f 3431 c4e0 25f7 833f
000006a0: 0b77 4c5d 2c0e 933f 769e e258 2105 57bf
000006b0: c3d9 5249 8c19 8dbf e707 c2f5 4193 91bf
000006c0: 15a9 d126 6176 3a3f 93f2 fdb6 b8b9 863f
000006d0: 2114 b7f3 43d7 913f 244b e688 e853 8cbf
000006e0: 2d49 257b 4be4 90bf e383 3362 e745 923f
000006f0: eb7a 408d 1405 ab3f 87eb 8c83 46aa a23f
00000700: eca8 0805 aa4c 823f 2558 90e1 a543 733f
00000710: 9aaf b032 4feb ad3f feeb 706f 2b37 a93f
00000720: c7e2 6de9 95fd a43f d49a 6659 e615 85bf
00000730: 0748 6e3c 8ba0 823f 0a6d 4b1c 882c a23f
00000740: 44a8 49b5 8b56 ab3f 6db0 b8ac cae9 a43f
00000750: cded e08f b72b a33f 753f ce9f 530c b33f
00000760: dd63 8609 cc85 9e3f 41d2 ee3f 9c84 953f
00000770: 609a 7e73 2e2f 9d3f 1712 97e3 8368 9c3f
00000780: 686f 879c 624d 783f a883 f149 c309 8e3f
00000790: 83a7 a90a d60e 9c3f 52b7 0d44 bea2 a13f
000007a0: 80c8 ad84 8e83 853f 8845 6f1b 0ee8 ae3f
000007b0: 912b 6cb3 f0b4 49bf dad6 d810 f896 6d3f
000007c0: a4d0 deef cf1d a53f 531f 3f1f 65fa 993f
000007d0: b554 36db 3b6e 8fbf da5d 16c3 9d48 57bf
000007e0: 0601 faa2 7e7c 983f 366e 0b31 db50 58bf
000007f0: ec67 5ec7 dc39 913f 1a2e c680 0150 a33f
-0.009291339640171923 -0.0022701256926605383 -0.0024263712966036324 -0.010627682544871403 0.00196761982453541 -0.0081356887070348 -0.0008009132794496036 0.017794411234402712
-0.01368830076873985 -0.019090702343320144 0.008779532947857006 0.1650546320668192 -0.015377446772426707 -0.020816450324949002 0.015360376358284678 0.12986278817649896
0.07254172812556554 0.053984960243193277 0.08795226378784804 0.07383741373188428 -0.010839585766507873 -0.037102899391424096 -0.0011244438112242392 -0.015227229034618385
-0.004728899953559963 0.07829907695643466 -0.018452358372440695 -0.018257023140970854 -0.01606620047913783 -0.03458379926006034 0.004299349676673817 -0.01748387656615787
-0.019671185759385278 -0.014714442077738484 -0.014936645986015165 -0.021440182388248675 -0.018907255749532084 -0.01189645957100657 -0.01051249665749991 -0.004646014573584019
-0.01392485131866177 0.00030949659881113895 -0.011184526974761357 -0.025732494737584214 -0.02756967765516612 -0.031175246051717852 0.08886182452871458 -0.02219273832340462
-0.0028729332608696777 -0.007060307622374954 -0.002122750624231582 0.1009317972347683 -0.00806203134887856 -0.0392140308873464 -0.022413198714145686 -0.03017622266039275
0.08941080958603506 -0.026785600976281597 -0.013030427767706824 0.0017083935250392047 0.01493676481339697 -0.0009880795987304049 -0.005602239122112097 -0.017612048579752387
-0.014258094197141998 -0.018789000955664922 -0.009288852970442707 -0.00533670490772577 -0.023786252516281536 0.012614904626974337 -0.0016717605717093467 -0.010404467908168756
-0.010794798735073823 -0.006959056836725736 -0.013287142796535823 -0.010989937647014824 -0.012309307989517054 -0.016070951778706596 0.0018680472011431163 -0.02059900926379663
-0.006487726436307928 -0.026909023487860163 -0.004272778922707107 -0.019361110802068187 0.09627220753559323 -0.019829929720555917 0.09196194176478671 -0.019565380607961508
-0.008628614351550103 0.21900674393181255 0.001072948704833686 -0.040910810729704025 -0.017346056483499014 -0.028385298389583462 0.0909806599453384 0.08197616050490245
0.07703644988307197 -0.014674642276421896 -0.013957768942558197 -0.055000170024943076 -0.009779822738792522 -0.002998190010319746 -0.005962666111521137 0.0051373339386861765
-0.01022595900349748 -0.0003835165298345541 0.020525488577315957 0.012970200719921075 -0.012326762259325854 0.005571326195657386 -0.011627754315293901 -0.02198546393134028
0.04222801235233428 -0.009150059330695749 -0.008047422019483911 0.013935114227060934 -0.02848197767575325 0.03356393431269723 0.016054161786476822 -0.022394871834917507
0.01106576065520012 0.047395329069873524 0.04924792742287014 0.05745963818599539 0.03450414083414897 0.020693618821174365 0.11793354821911874 0.11741779613443981
0.025891835324685676 -0.03049665070907311 0.0039944021955477535 0.06546506255080939 0.05716933902521772 0.08221017119085809 0.06579163867700351 0.14241305326192155
0.13586591869241468 0.09480968850310895 0.048145638796144606 0.013499983731621343 -0.01720244622601102 0.0265911369097105 0.07418913715154336 0.02861518764100617
-0.016566018450040045 0.17512415670327044 0.019845164993565825 0.038708815825427734 0.0784460865947302 0.06557535992392016 0.004310729903149313 -0.007064852338521309
0.08107680201954663 -0.00206835785400242 -0.012019902280890173 0.06721426876077705 0.01718374096784898 -0.0011822619015192752 0.004881068063230962 0.011223848723208354
0.0013232604649972312 0.03904657494516023 0.10893603290845216 -0.004621825825067323 -0.01115584690700407 0.032345653784887775 0.05138717603035653 0.0004232462560113009
-0.02004962199558872 -0.017261677100228606 -0.005838704234226225 0.041736617910350986 0.1000621756159375 0.0829302670641788 0.05608175600207804 0.08627430428354192
0.018692682847550938 -0.008284876267928268 -0.0012366082319443129 -0.014455048296319007 -0.006968807229545607 0.03065470286698868 0.07816407455287683 0.005585392529902259
-0.013345770553296126 0.09652478190423412 0.002556770587428964 -0.008136345350759418 0.06815939691157585 -0.02523993740292276 0.01334643616266158 -0.00954237549486133
-0.012219382799167709 -0.020902490832030475 -0.020752344519310205 0.039593834079211444 -0.03232237420618907 -0.013391481377346082 0.08447982610074627 0.09129577213388056
-0.01249354229338491 0.007711385405797504 0.002053194706695737 -0.002534618954502118 0.005621733428280322 -0.01042306245252587 -0.0018684273865014762 0.012743388219745546
0.015270811330664068 0.008028558457298787 0.012510544572869044 0.009748741075349267 0.018608754343509875 -0.0014050317436530547 -0.014208885181102532 -0.01716330587851891
0.00040378448358659283 0.011096423229667784 0.017422734975998225 -0.013831917455524208 -0.01649587573167215 0.01784478699562787 0.05277313446298656 0.03645534854736981
0.00893528774129889 0.004703186009484416 0.058435892999425934 0.04924903617253305 0.0409972045371823 -0.01029567680673208 0.009095275670720339 0.03549599976914848
0.0533946665571681 0.040846189102325826 0.037442909539517545 0.07440683986192005 0.029807270127637387 0.021013680841593056 0.028500295447566493 0.027742443815229913
0.005933175278609905 0.014667058652948331 0.027400345230865774 0.034444757277795404 0.010504830764805684 0.060364189957577585 -0.0007845092103207931 0.0036120266948057424
0.04124307444672695 0.02536924365247668 -0.01534697306378017 -0.0014211216588132431 0.02391240949373332 -0.0014841213743953647 0.01682229010439322 0.03771977135610545

b1 f8 [16]
00000000: b23a 9e24 302c bb3f d622 2f96 a4cb b93f
00000010: e206 b1b1 978c a03f 0ef4 6030 124f da3f
00000020: a719 4fb3 a339 c23f 5ad1 f2be 13cf d23f
00000030: eeca b6c1 ceaa c33f c35a dcc5 54a6 c93f
00000040: 82d6 2fe0 c109 ae3f 6997 40a7 acb3 ca3f
00000050: e0db 9f53 6102 c33f 2728 a5e1 2ad3 b73f
00000060: d809 852b 3df2 bc3f b228 b87d 8d38 e53f
00000070: b7e1 d84a 8eb8 d13f b002 d588 60a2 b83f
0.10614300626751108 0.10076359430889723 0.03232263607107001 0.4110761139343716 0.14238401656457464 0.29388898513140804 0.15365013560002388 0.20038852368516843
0.05866819249778833 0.20860822836510387 0.1485101373980049 0.09306591042437216 0.11307127296917174 0.6631534057098831 0.27688939389511397 0.0962276777327229

W2 f8 [3, 16]
00000000: 2304 1be0 cf32 cabf 69a0 2e46 7c33 d3bf
00000010: 5634 c9b6 e5f5 b9bf d7ba b4f5 3806 ddbf
00000020: bc78 dcde c7b7 d0bf 208e 1054 6ce0 c93f
00000030: bc07 4243 e95a d2bf e03f 06ca c6e3 d6bf
00000040: 5033 97ab dcce c3bf bd20 4b6f ca9e d6bf
00000050: af4f 2f19 64dc d2bf bce9 c6ba 30f4 d0bf
00000060: 1c39 4a58 11e2 ccbf 7569 7590 eac1 e33f
00000070: f204 d2b5 edff af3f 148f 8a75 85e5 cebf
00000080: b882 e9ec b32b d83f a3f4 8bc2 22e5 b7bf
00000090: 200a 3458 6550 b9bf ebae 57da ce38 e5bf
000000a0: e5cc 6af0 4dea da3f 3ba3 f78c 0809 d9bf
000000b0: 3b8b 6701 7dc9 df3f f853 cd44 30cc e43f
000000c0: 962d e503 3ee2 bcbf 82cd aed5 7a4a e63f
000000d0: cae2 28dd 3b65 d2bf d5be d1c6 ef79 de3f
000000e0: dd2a 89c9 63f1 db3f 4474 0174 4ad8 e8bf
000000f0: b66f c716 6c45 dabf d218 03af 6e4a de3f
00000100: 0133 6055 c952 c6bf da4b e622 2159 da3f
00000110: e62b 3c40 6948 c53f 3b2b 1b88 87e5 f13f
00000120: 7544 6ac2 d890 c1bf fd98 5c55 36e7 c83f
00000130: ba31 e88e 3105 cdbf b542 33e4 1411 d2bf
00000140: 4245 d983 ffe8 d23f 52d3 dce1 157a d5bf
00000150: d772 abb0 3bad e23f 682a 4b8f e698 c8bf
00000160: 3704 1b45 023a cdbf bb19 34aa 0ef6 c33f
00000170: 659a e7d2 c31c d63f ff8a 50d9 0dfc cdbf
-0.20467565958645748 -0.3000174222347654 -0.10140834534213758 -0.4535047912094518 -0.26121708644667385 0.2021613512489333 -0.2867987782302597 -0.3576523754973078
-0.1547504270405633 -0.35344181889059795 -0.2947015996880919 -0.2649041961664371 -0.22564904032737665 0.6174214192827053 0.06249945492255361 -0.24137943496054304
0.3776674092860435 -0.09334008454966862 -0.09888299373054865 -0.6631845726492122 0.4205508086990462 -0.39117635504094367 0.49667287003665067 0.6499253600874217
-0.11282718272302925 0.6965917752735751 -0.287428823448448 0.4761924211115745 0.4366082637904308 -0.7764026895271248 -0.4104871962024349 0.4732929905989184
-0.17440144222964452 0.41169002922214093 0.1662723125121765 1.1185374561925545 -0.137232870988132 0.19455603759815424 -0.22672099569207466 -0.2822925785558639
0.2954710757813538 -0.3355765062035988 0.583646626527833 -0.19216615673788628 -0.2283327901296006 0.15594657240599283 0.34550567241823266 -0.23425458060327028

b2 f8 [3]
00000000: c707 567d 6f15 d73f 83cc 7141 f384 95bf
00000010: d1eb 3e49 20bd d5bf
0.3606833194718288 -0.021014977330605433 -0.33966834214123504
