10by10recording/src/tactile_mlp_model.npz (npz, 16380 bytes, 6 tensors)

mean f8 [100]
000000 00 00 00 00 00 00 00 00 00 00 00 00 00 00 00 00
       0.0 0.0
000010 00 00 00 00 00 00 00 00 00 00 00 00 00 00 00 00
       0.0 0.0
000020 00 00 00 00 00 00 00 00 00 00 00 00 00 00 00 00
       0.0 0.0
000030 00 00 00 00 00 00 00 00 00 00 00 00 00 00 00 00
       0.0 0.0
000040 00 00 00 00 00 00 00 00 00 00 00 00 00 00 00 00
       0.0 0.0
000050 00 00 00 00 00 00 00 00 e5 87 86 14 65 ab 7a 3f
       0.0 0.006511111111111111
000060 04 a0 64 85 35 a8 80 3f 09 8b d9 f4 dc 91 83 3f
       0.008133333333333333 0.009555555555555555
000070 77 09 b0 04 a1 1e 87 3f 7a a4 72 b1 2d b4 81 3f
       0.011288888888888888 0.008644444444444444
000080 00 00 00 00 00 00 00 00 b8 ae 49 55 9e f1 7b 3f
       0.0 0.006822222222222223
000090 65 3d 53 73 6a 05 81 3f 30 4e 1a 2e 23 93 77 3f
       0.008311111111111111 0.005755555555555555
0000a0 00 00 00 00 00 00 00 00 64 f2 42 89 f8 c3 7e 3f
       0.0 0.007511111111111111
0000b0 ae 48 9b 0c 03 e5 98 3f cb 7d d4 9b a0 af 95 3f
       0.02431111111111111 0.021177777777777778
0000c0 d5 0b dc 45 49 e6 8c 3f e9 92 84 57 a5 07 88 3f
       0.01411111111111111 0.011733333333333333
0000d0 8a d5 0c 96 d7 37 7d 3f bb b9 47 98 de 4d 89 3f
       0.0071333333333333335 0.012355555555555555
0000e0 5f 07 ce 19 51 da 8b 3f af b8 d6 a2 b6 ab 7b 3f
       0.0136 0.0067555555555555554
0000f0 00 00 00 00 00 00 00 00 13 61 c3 d3 2b 65 79 3f
       0.0 0.0062
000100 cc a5 2d fd ad d9 89 3f 11 11 11 11 11 11 91 3f
       0.012622222222222222 0.016666666666666666
000110 f0 a8 80 dd 25 c0 92 3f 0e 76 4e 64 84 7b 86 3f
       0.01831111111111111 0.010977777777777777
000120 b3 c3 d4 e5 f6 07 89 3f 4e ab ac 1e ce 87 88 3f
       0.012222222222222223 0.011977777777777778
000130 ca 55 7b 3a 93 85 91 3f c2 cf 43 1e 5f 06 54 3f
       0.01711111111111111 0.0012222222222222222
000140 00 00 00 00 00 00 00 00 3c 4f 8b 23 4b 35 75 3f
       0.0 0.005177777777777778
000150 04 a0 64 85 35 a8 a0 3f 21 42 ab f5 ba 94 9c 3f
       0.03253333333333333 0.027911111111111112
000160 30 4e 1a 2e 23 93 a7 3f 54 09 8b d9 f4 dc a1 3f
       0.04604444444444444 0.034888888888888886
000170 cd 85 a4 29 15 67 8f 3f fc 61 0f 9e a7 c5 91 3f
       0.015333333333333332 0.017355555555555555
000180 e3 7f b6 86 f0 f3 90 3f 59 3c e2 7d 42 63 73 3f
       0.016555555555555556 0.004733333333333333
000190 00 00 00 00 00 00 00 00 a1 67 b3 ea 73 b5 85 3f
       0.0 0.0106
0001a0 9b 55 9f ab ad d8 af 3f bf 7c 63 a6 78 0d 98 3f
       0.0622 0.02348888888888889
0001b0 07 f0 16 48 50 fc a8 3f b7 1a 9d a4 97 dc a9 3f
       0.0488 0.05051111111111111
0001c0 fc a9 f1 d2 4d 62 80 3f 4a a0 ae db 8d 2b 8b 3f
       0.008 0.013266666666666666
0001d0 41 3a 00 93 f2 1e 88 3f a0 f7 77 54 c0 ee 32 3f
       0.011777777777777778 0.0002888888888888889
0001e0 00 00 00 00 00 00 00 00 15 8c 4a ea 04 34 71 3f
       0.0 0.0042
0001f0 b9 b3 eb 2d 47 04 b2 3f 38 8c 6f 15 b1 75 96 3f
       0.07037777777777778 0.021933333333333332
000200 1d 7f 8f e7 20 d5 9d 3f 27 30 4e 1a 2e 23 a3 3f
       0.029133333333333334 0.03737777777777778
000210 ff 69 df 2b 1c 7d 6b 3f 94 f6 06 5f 98 4c 85 3f
       0.0033555555555555556 0.0104
000220 d6 7b 17 dc fc ac 6f 3f 00 00 00 00 00 00 00 00
       0.0038666666666666667 0.0
000230 00 00 00 00 00 00 00 00 70 83 78 e8 6c 9f 89 3f
       0.0 0.012511111111111112
000240 1b e7 fa ef 5f e4 a6 3f 81 df 99 e3 ef f1 8c 3f
       0.04471111111111111 0.014133333333333333
000250 4f 1b e8 b4 81 4e 5b 3f 53 06 5d 24 29 38 6e 3f
       0.0016666666666666668 0.0036888888888888887
000260 34 59 18 71 63 ef 74 3f 56 a1 1f d1 b5 cd 88 3f
       0.005111111111111111 0.01211111111111111
000270 32 2e 91 5a 8a 20 6d 3f 75 de 28 ee c7 4f 4f 3f
       0.0035555555555555557 0.0009555555555555555
000280 00 00 00 00 00 00 00 00 97 49 e7 d6 7e 45 91 3f
       0.0 0.016866666666666665
000290 9a 51 b7 64 f3 fc 9a 3f 51 46 6f cb 5a 1d 63 3f
       0.026355555555555556 0.0023333333333333335
0002a0 28 58 a7 7b 3b 4d f7 3e 75 de 28 ee c7 4f 6f 3f
       2.2222222222222223e-05 0.003822222222222222
0002b0 4a 30 73 45 da 64 58 3f 28 58 a7 7b 3b 4d 67 3f
       0.001488888888888889 0.0028444444444444446
0002c0 5f 07 ce 19 51 da 6b 3f aa cd 61 33 0f c2 48 3f
       0.0034 0.0007555555555555555
0002d0 00 00 00 00 00 00 00 00 75 6e ed 57 14 89 8c 3f
       0.0 0.013933333333333334
0002e0 c8 2a f4 23 ba b6 89 3f 2d 43 1c eb e2 36 5a 3f
       0.012555555555555556 0.0016
0002f0 5d 47 e0 c0 82 bf 40 3f 1e 82 bd 9c ec 79 71 3f
       0.0005111111111111112 0.004266666666666667
000300 00 00 00 00 00 00 00 00 88 f5 95 69 70 aa 57 3f
       0.0 0.0014444444444444444
000310 b1 e3 5d b9 8f 7a 73 3f 73 fb 83 0c 95 1d ee 3f
       0.004755555555555555 0.9411111111111111

std f8 [100]
000000 3a 8c 30 e2 8e 79 45 3e 3a 8c 30 e2 8e 79 45 3e
       1e-08 1e-08
000010 3a 8c 30 e2 8e 79 45 3e 3a 8c 30 e2 8e 79 45 3e
       1e-08 1e-08
000020 3a 8c 30 e2 8e 79 45 3e 3a 8c 30 e2 8e 79 45 3e
       1e-08 1e-08
000030 3a 8c 30 e2 8e 79 45 3e 3a 8c 30 e2 8e 79 45 3e
       1e-08 1e-08
000040 3a 8c 30 e2 8e 79 45 3e 3a 8c 30 e2 8e 79 45 3e
       1e-08 1e-08
000050 3a 8c 30 e2 8e 79 45 3e b2 87 5b a9 f3 96 b4 3f
       1e-08 0.0804283417196803
000060 91 d4 23 aa 47 fe b6 3f bb 57 43 e8 a0 e7 b8 3f
       0.08981750396545098 0.09728437109455872
000070 c6 91 f0 82 bb 0b bb 3f 58 cd 13 8d d9 b2 b7 3f
       0.10564777323504079 0.09257278150817194
000080 3a 8c 30 e2 8e 79 45 3e b4 27 29 94 90 12 b5 3f
       1e-08 0.08231452576833825
000090 e7 9f fc d6 ba 3d b7 3f 06 19 6a d9 95 5d b3 3f
       0.09078567265225922 0.07564674909562905
0000a0 3a 8c 30 e2 8e 79 45 3e 36 f5 b4 96 6a 1a b6 3f
       1e-08 0.08634058169714795
0000b0 ed 78 1d dc b4 b6 c3 3f 03 79 17 df d3 6d c2 3f
       0.15401325938996227 0.14397667306088388
0000c0 ea 6f dc 83 e9 31 be 3f cd ab 03 bf 1f 91 bb 3f
       0.11794909924759592 0.10768316663204232
0000d0 71 83 a4 24 55 8b b5 3f a5 e9 61 28 8c 47 bc 3f
       0.08415729660602068 0.11046672807598286
0000e0 47 a2 78 eb 98 a6 bd 3f 73 68 8b 89 52 f8 b4 3f
       0.11582332371529801 0.0819140992929606
0000f0 3a 8c 30 e2 8e 79 45 3e 09 b6 2f e3 49 18 b4 3f
       1e-08 0.07849561497251768
000100 56 13 91 63 44 94 bc 3f b8 1d 55 18 ee 62 c0 3f
       0.11163737707927388 0.12801910579785925
000110 52 77 a8 96 55 29 c1 3f 1b 76 d4 fa bb ac ba 3f
       0.13407392364836795 0.10419821618821638
000120 4f 8f be 80 dd 20 bc 3f e3 a1 39 f9 5f d9 bb 3f
       0.10987648385213088 0.10878562769506277
000130 66 06 83 a6 88 99 c0 3f cd 5d e7 13 84 e3 a1 3f
       0.12968547945461067 0.0349389337822533
000140 3a 8c 30 e2 8e 79 45 3e cc 20 db 1b 89 5f b2 3f
       1e-08 0.07177025728299496
000150 1e a0 f6 63 6d b5 c6 3f ee c4 aa 61 7c 15 c5 3f
       0.17741172200226257 0.16471819657230163
000160 45 81 7b 19 90 d3 ca 3f 08 79 47 09 e0 7c c7 3f
       0.2095813869882567 0.1834983868893192
000170 2c 5c e5 9e b9 74 bf 3f b3 06 cc 6b 3f b7 c0 3f
       0.12287483338637689 0.13059227717899588
000180 19 a7 5a e7 28 55 c0 3f f1 32 a2 a2 24 92 b1 3f
       0.12759887024486075 0.06863621683642031
000190 3a 8c 30 e2 8e 79 45 3e 89 2b c0 16 7d 37 ba 3f
       1e-08 0.10240918927608623
0001a0 63 62 06 a8 13 ea ce 3f ac 67 a0 62 b8 62 c3 3f
       0.24151845650046075 0.15145020309210844
0001b0 30 92 41 e7 da 93 cb 3f e5 b3 99 14 19 08 cc 3f
       0.21544967929652747 0.21899713045004812
0001c0 f3 89 8d 88 39 ce b6 3f dd 9c 0f ce 43 4a bd 3f
       0.08908423980532358 0.11441444187913725
0001d0 f8 ad 4c 72 51 9e bb 3f 7f 43 1b 42 f3 66 91 3f
       0.10788449326053484 0.016994286451168513
0001e0 3a 8c 30 e2 8e 79 45 3e 45 f2 7b 53 4a 8e b0 3f
       1e-08 0.06467117822826036
0001f0 0f 56 64 16 be 5e d0 3f 9e f2 02 2c 65 bf c2 3f
       0.2557826250716468 0.14646591805457815
000200 1e 7b 2c eb ed 86 c5 3f 5b 7b d1 63 9f 47 c8 3f
       0.1681802175816864 0.1896857488054263
000210 f6 7a 9d 56 e1 9b ad 3f 18 00 85 06 8b f8 b9 3f
       0.057829896758212415 0.10144871625107077
000220 40 88 7d e7 9d c6 af 3f 3a 8c 30 e2 8e 79 45 3e
       0.06206220103082716 1e-08
000230 3a 8c 30 e2 8e 79 45 3e a6 49 f1 66 67 74 bc 3f
       1e-08 0.11115118277783739
000240 32 46 a0 56 20 74 ca 3f af aa e1 bc e8 37 be 3f
       0.2066688940981734 0.1180406056534291
000250 7c ff c2 43 88 e2 a4 3f 3c 45 3e 6f 1f 0a af 3f
       0.040790804168408606 0.06062410576772456
000260 4b 29 b1 54 50 41 b2 3f c6 0b 7b 63 76 00 bc 3f
       0.07130910937954586 0.1093820565102269
000270 1e 73 b6 f2 b7 79 ae 3f 27 5e 66 a3 8a a3 9f 3f
       0.05952238881875459 0.030897299025666094
000280 3a 8c 30 e2 8e 79 45 3e c6 f4 37 6c 98 7b c0 3f
       1e-08 0.12877183231458939
000290 14 e0 22 ed 1d 81 c4 3f c3 8c b4 4f fd b3 a8 3f
       0.16019033507268488 0.04824821088757283
0002a0 93 aa c3 7f fd 4e 73 3f 94 d3 0c 55 e9 97 af 3f
       0.004714002829340774 0.061705867416470245
0002b0 21 d6 fd 8e cb bd a3 3f c0 d5 5d 10 8f 44 ab 3f
       0.0385573970842581 0.05325743746554279
0002c0 91 b3 56 2b be cd ad 3f 67 5b 80 e7 ed 22 9c 3f
       0.058210318365446 0.027476994757388875
0002d0 3a 8c 30 e2 8e 79 45 3e 19 f1 ee 0a c2 01 be 3f
       1e-08 0.11721432463577165
0002e0 63 98 b6 b1 2a 81 bc 3f 98 18 a2 71 af 76 a4 3f
       0.11134592856123642 0.03996799718974947
0002f0 b6 6b a2 6e fa 24 97 3f 4d 68 da f1 a6 af b0 3f
       0.022601998331633864 0.06518023876779573
000300 3a 8c 30 e2 8e 79 45 3e 05 fc 99 9a e7 71 a3 3f
       1e-08 0.03797839891648639
000310 65 43 7f b1 a3 9c b1 3f 51 1a a0 df 21 22 ce 3f
       0.06879637797761758 0.23541663569649754

W1 f8 [16, 100]
000000 33 50 f3 a5 de 1e 6a 3f be 4a 1e b7 90 55 88 3f
       0.0031885479544176087 0.01188195284683979
000010 0a bf 5a 29 b4 dd 6b bf 24 e6 74 f9 ea 3d 77 bf
       -0.003401615026483178 -0.005674283856302451
000020 4d 07 7e 4c c3 95 7d bf 95 39 15 04 ef b1 64 3f
       -0.0072229031428621806 0.0025262516288996986
000030 53 be c4 5e b7 a8 77 bf 2c 4a 18 f4 a3 09 8e bf
       -0.0057761347673444706 -0.014666825186428666
000040 5f ce bd 77 50 24 68 bf 3d 5c 02 ee 9a 04 92 3f
       -0.002947003520540822 0.01759569242184632
000050 9f 3c 7c e5 cf 66 7b 3f f8 ed 37 08 66 ef 9a bf
       0.006689846129815851 -0.026303858043304346
000060 99 c2 72 50 a6 96 9a 3f f4 23 16 09 7b 28 a8 3f
       0.025965307865308238 0.04718384252470989
000070 93 86 47 a4 67 e1 a1 3f 9f 9d 86 76 93 a3 8c 3f
       0.034922827533376076 0.013983871512052213
000080 6c f7 04 48 30 1a 7a bf b4 0a 4b b3 28 85 6f bf
       -0.0063726316441810975 -0.0038476748398762143
000090 76 e7 59 45 76 4b 59 bf 41 35 af 14 75 21 78 3f
       -0.0015438704480445742 0.005891282412404054
0000a0 63 9d 85 25 b9 a2 79 bf e9 a3 c6 d3 0a 3f 9c bf
       -0.006258700588979013 -0.027584237266328335
0000b0 bb 8c 91 99 0e bf bb 3f c4 67 cb 5d ec 5d bc 3f
       0.10838404893142954 0.11080815591722543
0000c0 0d bd e1 dd 39 71 aa 3f 9a 76 5e d2 25 cc 9e 3f
       0.05164509614484745 0.03007563683023893
0000d0 67 97 c5 d9 3e 4d 90 bf e4 c0 9f a7 e5 9b 61 bf
       -0.015919668237436648 -0.002149532837386047
0000e0 d3 91 3b 00 30 3b ad 3f fa 86 9d 04 ac 23 9e bf
       0.05709218981590749 -0.02943295267267041
0000f0 15 ef 0a cc 34 36 8c bf 38 11 f6 ac 4b 56 90 bf
       -0.01377526519478737 -0.015954191619600183
000100 3e 5e 98 6c 1e 25 99 bf da b0 3e c0 c7 bb ac 3f
       -0.02455565965473582 0.05612014981974918
000110 58 29 8f e6 17 45 a0 3f 73 83 63 ac 5e 5f a7 bf
       0.0317771405166975 -0.045649488967462036
000120 d7 2d f4 79 15 f1 8b bf c4 ec 42 c1 17 1e 87 bf
       -0.013643424782023779 -0.011287866196985859
000130 f2 84 db 74 e9 a3 b5 3f 67 75 9c ec d6 10 7f bf
       0.08453234770742649 -0.007584418819332007
000140 a9 49 d3 41 1d 9c 8e 3f 5e f0 26 cf 6b 21 91 bf
       0.014946201869325675 -0.016729053991852864
000150 8e 1a 90 2e c8 0b 97 3f 80 67 f8 ad 87 c9 a0 3f
       0.02250588211247844 0.03278755186711546
000160 74 9f 9f c8 33 e6 af 3f 1c ee d8 14 f8 41 b0 3f
       0.06230317901628171 0.06350660809487646
000170 bf c5 34 1e f4 3e 9a bf 10 5a 2b 29 8d ef 9b bf
       -0.02563077387202894 -0.027281003606583865
000180 81 9b b0 76 f6 b5 9a 3f 45 15 b7 1c 5e f7 67 3f
       0.02608475779939168 0.002925571263150547
000190 0c d6 30 54 20 0b 6c bf 50 45 77 c5 51 9a 84 3f
       -0.0034232741759534554 0.01005996593349559
0001a0 c2 a8 30 82 52 08 b3 3f c1 fe b3 29 f2 83 ae 3f
       0.07434573820561055 0.05960041770049208
0001b0 27 ba a4 fa 8f 6a b2 3f 08 61 7f d5 ed 77 b3 3f
       0.07193851346230727 0.07604872190802692
0001c0 a2 8e 55 a6 cf d8 9f bf 39 fe c1 d9 80 66 a0 bf
       -0.031100506331667284 -0.03203203828979579
0001d0 16 82 80 4d 3c e3 b5 3f a3 c0 aa f6 ea 0a 31 bf
       0.08549858944071106 -0.00026005016722320024
0001e0 49 8d 9a a9 00 ba 6a 3f 83 fe 28 57 90 71 72 bf
       0.003262521070455247 -0.004502834157903759
0001f0 6e fb b6 00 70 58 ba 3f 5b 01 1b 1f c2 6c 89 3f
       0.10291194932413614 0.012414471220268444
000200 7f ff 93 92 79 3e 9a 3f ad c0 47 af d6 58 b0 3f
       0.025628947802942555 0.06385556964210322
000210 e8 00 f2 5d 03 c7 6a bf 76 19 0b b8 0f 1c 62 bf
       -0.003268724990960082 -0.0022106463441985925
000220 5b 52 77 d1 c8 ff 76 bf 8e 57 a3 9d 84 35 91 3f
       -0.005615028806876222 0.01680571758409815
000230 77 b4 fd af 08 0e 96 3f 82 17 41 c9 59 9d 9b 3f
       0.021537910215034786 0.02696743288858939
000240 62 ce 29 06 70 c6 b7 3f 6f 88 cf 8f 6e da 75 bf
       0.09287166738959621 -0.005335266000630153
000250 9f 12 ec 17 d3 e0 86 bf 9b a1 68 dd d7 a3 85 bf
       -0.011171006362482415 -0.010566412395818505
000260 24 b1 10 c2 11 33 8d bf 5d 42 df 86 c7 bb 93 bf
       -0.01425756333818435 -0.019271009070339285
000270 22 af bc 9e e4 d4 8f bf 62 30 5b 5f 6c 72 82 bf
       -0.015542780012388461 -0.009007307682075975
000280 5f 9a 5f 1c 5f d7 6a 3f 1b 4e 1d 7f af 33 85 bf
       0.003276525271746863 -0.010352488581395971
000290 3c 34 b2 c0 9c 77 b1 3f b1 fd 01 1f d1 8c 8a bf
       0.06823138908858167 -0.0129638993823836
0002a0 32 15 cc 74 00 c4 86 bf 79 5c 50 ec da 38 86 bf
       -0.01111603123127711 -0.01085063012764763
0002b0 9f 79 54 a6 ca da 8d bf 2c 15 04 13 c6 c4 78 bf
       -0.014577468110073264 -0.006047033050213185
0002c0 a9 c8 46 c2 46 20 87 bf 4e fd 3d 10 c8 0c 60 3f
       -0.011292031101082083 0.0019592196931054523
0002d0 85 7d c4 14 3f b1 8e bf c5 6d ba e4 cc 83 9b 3f
       -0.01498650819900039 0.026869965992416107
0002e0 fb ed d5 e7 f3 ff b0 3f cb 98 a6 37 91 93 79 bf
       0.06640552911806445 -0.006244246726430268
0002f0 d4 ce 5e 2e 4f 6a 53 3f 4f 78 85 68 08 e0 85 bf
       0.001185014081312487 -0.01068121499036692
000300 36 cc 26 fc 48 4a 8c 3f ff 2e 85 75 2a bb 6c bf
       0.013813562579207166 -0.003507216384752598
000310 df d8 48 e6 a0 48 50 bf 08 a7 0a 82 1d a1 a0 3f
       -0.000993878487077597 0.03247921192571651
000320 68 a7 31 60 68 43 89 3f de ed 83 24 f0 e0 6d bf
       0.01233560126839324 -0.003647297886457442
000330 a5 ad dd 28 a5 cc 96 bf 96 6e f5 d7 85 05 80 3f
       -0.02226503431249473 0.007823033955609387
000340 ba 1c e7 56 49 86 88 3f ff 3c a7 3d 1b 96 88 bf
       0.011974881138384286 -0.01200505525494444
000350 63 b7 80 1d c7 f8 63 3f 10 8c 55 fd 73 38 79 3f
       0.0024379624337801816 0.006157353481600417
000360 09 75 93 d6 33 f4 85 bf 5c ec 42 a1 5f 1a 90 3f
       -0.01071968554100035 0.015725607125869664
000370 1c d7 3c 07 7e 85 60 3f 05 80 5f 37 5d 35 88 bf
       0.0020167790879907065 -0.011820533993102353
000380 53 cc 1a 0a 1a e7 60 bf c5 8f d3 92 e3 b5 8f 3f
       -0.002063322885840027 0.01548364440754558
000390 29 aa 7d 4f ce 84 6c bf 0b ce c9 99 72 ff 86 bf
       -0.003481295538155811 -0.011229415243383853
0003a0 ea 18 b2 46 5d 6c 8e 3f 21 aa 4a 7f 6b cd 94 bf
       0.014855126113854717 -0.02031486477305056
0003b0 aa e7 b5 8b 0c 93 8c 3f ad 70 6c 58 3e d4 8b 3f
       0.013952348722103231 0.013588416169618556
0003c0 f3 ad 4a 00 96 4a 84 3f b9 0e 93 0c e9 2b 80 3f
       0.009907886394407739 0.00789625234245449
0003d0 33 58 03 d1 c8 0d 96 3f df 4c 76 17 9b ba a6 3f
       0.021536958462853483 0.04439243947413173
0003e0 8e 0e 01 79 d0 d3 74 bf e5 db 8c a3 31 b8 7d bf
       -0.005084814401985617 -0.007255739118412462
0003f0 cc 0b 58 28 1a 27 26 bf 9f 32 f3 2a 90 04 82 3f
       -0.0001690120154052829 0.008797766028146468
000400 b1 33 29 a1 a3 30 a1 3f 69 5b 46 ed 0c ab 7f bf
       0.03357421247765247 -0.007731485839392296
000410 8e ca a2 a7 06 4d 6d 3f 33 15 bd 36 b3 d9 8d bf
       0.0035767679192642626 -0.014575386150350233
000420 19 0f c1 b4 2e 1c 87 3f 7e ec bf 93 1b 95 99 3f
       0.011284222499063955 0.024982863324094932
000430 a0 2e 26 86 0c e9 70 3f 41 a4 45 25 17 9f 73 3f
       0.004128502771333281 0.004790392315364989
000440 1d 60 c0 fd 5e aa 5d bf 23 74 b6 21 8e 9f a0 3f
       -0.0018106391571617371 0.03246730958492374
000450 70 43 0a 2d 2c d3 88 3f 2c 65 a3 7c f3 06 32 3f
       0.01212152969790889 0.0002750725221978996
000460 d6 0e 3b dc 58 a8 6a bf 91 91 2c 32 ab 20 5c 3f
       -0.0032541022827404604 0.0017167732082238078
000470 bd fb 04 ea 75 c2 71 bf 16 07 a8 75 c1 8a 8a 3f
       -0.004335842706779167 0.01295996799763403
000480 54 ad 87 9c 2b 7c 93 3f f0 36 43 54 f9 16 83 3f
       0.01902835982211333 0.009321163066853683
000490 b7 23 70 f7 7e 4f 89 bf a2 3d 9d f5 40 21 97 3f
       -0.012358657766542309 0.022587790480711363
0004a0 10 88 47 05 78 c5 63 bf c2 99 e5 e0 a9 9f 7b bf
       -0.0024134964134967588 -0.006744063938049329
0004b0 d3 88 be 5b 58 48 5a 3f d9 02 8b da 8d 45 82 bf
       0.0016041624903456078 -0.008921726447967003
0004c0 81 dd ec 2b 57 02 7b bf ec 32 91 de a7 f6 3e bf
       -0.006594028963085364 -0.00047246549963091025
0004d0 1a 26 12 de 72 11 a2 3f ac 7a 98 75 9a e8 9a 3f
       0.03528937302423803 0.026277936389414933
0004e0 f4 8d f1 a0 d1 f3 8e bf 06 0f bf e8 30 6c 8d 3f
       -0.015113485073192635 0.014366514304021926
0004f0 64 7d fc d8 f2 34 82 bf 51 d0 29 27 5d 84 7a bf
       -0.008890053984542852 -0.006473888281664912
000500 75 50 28 da a5 9c 85 3f 2c f4 78 76 9a 7f 89 bf
       0.010552688331735486 -0.012450415363781962
000510 be a0 ba a3 e1 32 7b bf 46 a0 15 ee 30 10 7c 3f
       -0.0066403211637082165 0.00685137856758195
000520 c7 7e 00 20 18 82 94 3f cb 26 4e 6c d6 c4 9c 3f
       0.020027520135157652 0.028094625816754964
000530 52 1a b0 26 11 63 78 bf ec d5 c3 69 cb ca 91 3f
       -0.005953852650242357 0.017375162439710864
000540 7f 63 2d f8 be 3f 91 3f 39 8b a6 7d 46 07 70 3f
       0.0168447340941813 0.003913188318992061
000550 63 79 0d 90 92 c8 60 bf c0 00 df fd 86 32 8d 3f
       -0.002048765425953268 0.014256529448062216
000560 55 2a 4a 47 fe 9d 5c 3f cf cf f5 0c 4b 6c 71 bf
       0.001746652907203346 -0.004253667036540023
000570 f7 e0 06 d0 39 5a 48 3f 9b d1 0c 40 a8 a3 41 3f
       0.0007431776321516194 0.0005383082899244497
000580 9c ee cd c5 13 e6 89 bf dc 25 0a 39 42 b2 80 3f
       -0.012645868753444582 0.00815250145503204
000590 43 c0 25 87 95 84 81 3f a8 e3 26 b6 2e 87 96 bf
       0.008553665339349098 -0.022000055186910977
0005a0 91 53 a0 01 85 0a 90 bf 12 dd c0 2c 85 6f 88 bf
       -0.015665128921756703 -0.011931457927956166
0005b0 8f a2 11 f4 9c 40 89 3f 4f 0b 74 06 e4 b9 81 3f
       0.012330270956412618 0.008655339667262089
0005c0 18 27 04 c3 92 34 72 3f 1e 81 07 1a 6d 69 6f bf
       0.004444669044696224 -0.003834450806820779
0005d0 45 d1 8a 10 fd 0b 48 bf 4f 70 8d 56 25 01 8f bf
       -0.0007338510195809353 -0.015138904289124037
0005e0 ee dc 27 2d 84 09 71 bf 32 08 94 00 2e 20 8d 3f
       -0.004159466089269188 0.01422153414978675
0005f0 5c 75 00 22 d3 18 81 3f 66 1e ed 28 f6 41 74 3f
       0.008348130679275804 0.004945718347535077
000600 ba 36 94 ce fa 1c 5b bf 7e 87 1f af 57 a9 82 3f
       -0.0016548585211383763 0.009112057716212037
000610 da d6 5b 78 b7 9d 7b bf f7 9d e8 2e 11 2b 48 3f
       -0.006742207222250685 0.0007375558760189239
000620 6e 15 49 fd 3c 94 7d bf a7 40 b8 73 c6 da 4a 3f
       -0.007221449127034913 0.0008195370677999317
000630 60 dd b8 88 16 ea 7f bf 90 0c 5f 62 ba 4a 97 bf
       -0.007791603110994444 -0.022746002439600732
000640 05 cd 90 c0 ab 98 6e 3f 55 97 19 94 70 e7 81 bf
       0.0037349085364667433 -0.008742217559482826
000650 8c 90 2c 50 3b ba 8a 3f e1 0b bb dc a5 d6 7b bf
       0.013050521263331193 -0.006796501063663891
000660 17 31 43 98 02 a9 81 bf 3f ba 11 f9 d3 50 8e bf
       -0.008623142501527554 -0.01480260471200012
000670 72 c9 d9 49 c0 2e 6f bf 15 60 44 83 0e 1c 6d bf
       -0.003806472361980778 -0.0035534175350555677
000680 27 69 98 e7 38 91 95 3f 27 3a 3f 03 7a 6c 6e bf
       0.021061791549166344 -0.0037138350544190404
000690 c8 49 b6 fc 68 49 84 bf 63 9f 7e 76 c0 83 bc 3f
       -0.009905643665466438 0.11138537304816291
0006a0 74 ba 8a 5d ea 6c 71 bf c3 20 2c b6 d3 46 87 bf
       -0.004254260530315624 -0.011365560528716739
0006b0 a2 0b 58 10 cc 00 95 bf 69 19 88 35 53 93 97 3f
       -0.020510853288225335 0.02302293791037738
0006c0 da c2 f7 f4 72 81 85 bf 1f ae 0a 53 25 03 c2 3f
       -0.010500810719322674 0.14072100214740232
0006d0 c2 c9 f9 d7 e0 13 80 bf dd 70 89 cd 06 c3 78 bf
       -0.007850414839798318 -0.00604536683439624
0006e0 ad 3f 08 2a 8f 05 9f bf a6 89 54 b9 ce 2d b6 3f
       -0.03029464429897615 0.08663646721519189
0006f0 08 8c 48 a1 39 4b 80 bf 5c 90 9f b4 34 65 90 bf
       -0.007955980524519304 -0.0160110697978698
000700 c2 87 17 1d 9b 35 9d bf e1 c4 6d 93 f2 c1 a1 3f
       -0.02852480282843551 0.03468282746951857
000710 92 a7 03 a7 43 69 c0 3f 55 57 13 6f 49 23 b3 3f
       0.1282124104976075 0.07475718461804821
000720 23 20 44 b6 ca f7 9c bf 66 cc 5c 8e bc d2 7c bf
       -0.02828900086845477 -0.007036911532668366
000730 cd 8e 49 ac 9c c4 88 3f 65 6c bf 7e fe 33 a7 3f
       0.012093757636825764 0.045318558666360066
000740 79 13 6b 81 94 e2 a6 3f ee 0e a3 cd e0 43 95 3f
       0.04469741897404495 0.020766747046549953
000750 7f 6a 35 88 dc b4 92 bf 09 86 d0 3a aa c9 c3 3f
       -0.018268056691662423 0.15459182617000547
000760 17 6d cf c0 8e 89 b1 3f a9 39 f3 e2 f8 19 aa 3f
       0.06850521285325716 0.05097940225970216
000770 2c 64 1c 14 67 40 95 bf 25 19 01 a1 a9 f1 ab 3f
       -0.020753489115211618 0.054578114417881
000780 a8 08 84 f7 81 3a 96 bf 5d 42 05 da 5b b2 c1 3f
       -0.021707564098513515 0.13825557847532624
000790 d4 1e a9 ea 43 e1 9b 3f d0 1d 7b 24 0a 22 a8 3f
       0.0272265064216118 0.047134701684224845
0007a0 03 6b f8 35 ca 3a 75 3f dd 7b 44 6d b7 25 aa 3f
       0.005183019529364288 0.05106900414306612
0007b0 c7 0d 5b 65 75 64 8a bf f6 95 fc 3d 0b e3 85 bf
       -0.012886922031049587 -0.01068695815008434
0007c0 56 fa ec 40 9f 4d a8 3f ae 13 82 e8 51 30 b3 3f
       0.04746720950651155 0.07495605398624036
0007d0 0e 93 02 a2 f5 a6 82 3f 15 a0 1e 9e d5 32 6e bf
       0.009107512480406334 -0.0036863491267986694
0007e0 bb cc d8 1b a5 29 a7 bf 61 90 a7 cf 6b c9 81 bf
       -0.04523960080077801 -0.008684961580861907
0007f0 2d 83 53 ca 29 74 a3 bf c8 bd 9f 00 51 17 92 bf
       -0.03799563021471495 -0.01766707006748705

b1 f8 [16]
000000 93 30 30 3b 56 02 b2 3f 7a 12 bf 9e f1 97 9b 3f
       0.07034815735841198 0.0269468072072123
000010 89 1c cd 9c 71 85 bb 3f fa a8 b7 03 ef d8 c4 3f
       0.10750494077830032 0.1628702896262622
000020 7b ac b0 d6 33 88 cd 3f 2e 83 f7 d4 ac 2d cc 3f
       0.23071907027165026 0.22014389418384311
000030 4a 9f 73 cf 1d 19 92 3f e7 f7 b4 b8 3e b1 b8 3f
       0.017673936640590505 0.09645454415746678
000040 f2 f6 55 e1 ac 5f bf 3f c3 9c 9a fe 34 f1 b5 3f
       0.12255363942491806 0.08571177688519342
000050 65 55 8e 53 cd 28 bc 3f b4 8f 90 d4 50 76 c7 3f
       0.10999758996907401 0.18329820994506252
000060 b5 5b fa 7b d5 e1 d1 3f 3e 99 6a 13 24 87 d8 3f
       0.27940880877707325 0.38324834724553003
000070 a4 3b 8a ea d5 34 d8 3f ae 69 d6 b4 40 ad b9 3f
       0.3782248297147197 0.1002998773096013

W2 f8 [3, 16]
000000 e0 39 44 48 ee 15 c7 bf 46 a1 4c 5e 52 de b4 bf
       -0.18035677460325328 -0.08151736070852164
000010 e8 22 12 6f 15 a3 c0 bf 4b c3 79 f5 52 59 d1 bf
       -0.1299769203508483 -0.2710769078467378
000020 ac a5 dc fc e1 02 e0 bf d1 3d 42 15 53 82 de bf
       -0.5003518999775927 -0.47670437885332456
000030 0c a2 be 4f 7c 17 b3 bf be 7d 67 52 11 88 d3 bf
       -0.0745771116913902 -0.30517991111079457
000040 4d 95 85 89 61 1c d5 bf 88 4a cf e1 29 e4 cd bf
       -0.32985723905433845 -0.2335255005442216
000050 17 a6 5a 05 ab ba d3 bf a1 08 88 1f 26 8b d1 bf
       -0.3082683136259176 -0.2741179759906434
000060 dc 5d 56 d7 f2 ad e0 bf 71 27 83 ac 79 18 df bf
       -0.5212339597518922 -0.48586885306268984
000070 77 8e 39 e0 81 2c e0 bf 77 5f 57 06 09 14 c6 bf
       -0.5054330233947003 -0.17248642739900408
000080 5a d0 64 03 d9 03 d2 3f d0 56 fe 19 26 58 b0 3f
       0.2814848454611415 0.06384504446608763
000090 5f 24 5c 40 3e 6a d0 bf d0 f2 c5 56 40 90 d4 bf
       -0.25648456845426 -0.3213044021029363
0000a0 13 3a cf 0c 56 c0 eb 3f 1f 51 f6 26 ee 63 e8 3f
       0.867228531855121 0.7621985207538592
0000b0 e1 45 5f 87 33 14 89 3f fd 09 7d 4c 2f 53 df 3f
       0.012245562142115087 0.48945219487737274
0000c0 74 3b db e1 53 16 e4 3f fc 1d 92 e6 52 93 da 3f
       0.6277255450494139 0.4152419330279995
0000d0 96 c3 73 84 b6 5b de 3f 6c 26 e2 d7 85 de d4 bf
       0.47434771475587334 -0.32608171541560327
0000e0 91 79 79 4d e8 52 ed 3f bf 7e f4 ee 53 6e e9 bf
       0.9163705361532256 -0.7947177569476124
0000f0 8a 6c 8c 13 6f f8 e4 bf 81 12 4a 63 75 6e c4 bf
       -0.6553264028365373 -0.15962092731583158
000100 95 fe 0d 1b a4 c8 c0 bf 15 77 54 db 5d f5 82 3f
       -0.13112307854679686 0.009257062202376024
000110 1a 42 cb 33 0e 46 d8 3f d4 74 14 57 3f 99 e2 3f
       0.3792758470345078 0.5812069607524344
000120 72 1a a1 47 dc 8f d7 bf 7e e1 dc 82 da 8a d3 bf
       -0.36815554614114554 -0.3053499486882386
000130 9f ef 90 6a b3 3d a5 3f 23 0e 37 8b f3 ba cb bf
       0.04148636508804703 -0.21664280221567464
000140 20 74 34 61 50 9a d2 bf 2c 0a ae 00 34 91 c8 bf
       -0.290668578077943 -0.19193124802775807
000150 3f 88 e6 80 4b ac c7 bf dc d7 34 de 04 5a e2 3f
       -0.18494552415819673 0.5734886493653408
000160 ca d7 f3 a7 c1 76 d9 bf e9 89 75 fa 2a 7f f4 3f
       -0.39787331964123196 1.281046846729277
000170 3c 83 ec 5e 48 4a f2 3f e3 f5 dd fd ae 00 d5 3f
       1.143135424419781 0.3281667212648626

b2 f8 [3]
000000 2a 65 a1 01 98 ae e5 3f bf cd af 09 55 c6 e6 bf
       0.6775627166599965 -0.7117104710763938
000010 3e 86 e6 80 d0 7b a1 3f
       0.03414775441639194
