10by10recording/src/tactile_gcn_04_no_adam.pth (torch, 51359 bytes, 8 tensors)

layers.0.linear.weight f4 [64, 50]
-0.021244504 -0.21834958 -0.08684997 -0.16146071 -0.22185609 -0.1178144 0.03275259 -0.06907427
-0.11120837 -0.05361476 -0.10853259 -0.10814937 -0.13964994 -0.1291579 -0.26830915 0.04650321
0.061561633 -0.06769754 0.0744561 -0.061735507 0.122108914 0.10446252 0.13144043 -0.12861167
-0.104908355 0.028797155 0.0015946093 -0.07019431 -0.13350193 -0.017424498 0.11180229 -0.104307435
0.008572637 0.110785745 -0.14577025 -0.022897277 -0.026357481 0.084842846 -0.06315626 -0.08802555
0.038931567 -0.11451875 -0.052496232 -0.15170746 -0.116846435 -0.17321506 -0.036671653 0.025342276
-0.038388662 -0.1187152 0.10605568 0.110006385 0.06770847 0.097893074 -0.052244436 -0.1623256
0.011951894 -0.0837139 -0.022213642 -0.018278005 -0.057064813 -0.13847408 0.051467787 -0.10985674
-0.0554892 -0.041264355 -0.012269332 -0.0040674102 -0.07039114 -0.11465847 -0.018658265 0.024149977
-0.0929583 -0.013230799 -0.10883208 0.046563387 -0.029962154 -0.089458294 -0.14472912 -0.12537767
-0.104011744 -0.060176678 -0.10071124 0.049118623 -0.03832982 0.114780165 0.09886743 -0.09215273
0.057253215 -0.07186299 -0.08801849 -0.13468821 0.047295783 0.02495027 0.013234629 0.029276254
0.09619218 0.09303623 0.053393077 -0.12457771 0.013358697 0.109396204 0.07707937 -0.0920993
-0.05621749 -0.13196376 0.025732579 -0.09029894 -0.010748391 0.030415094 0.042231716 0.043298304
-0.13555315 0.10576397 0.08815286 0.0667695 0.023693852 0.059748743 0.062051106 -0.12635075
-0.102119036 -0.088847265 -0.11060433 -0.06106492 0.09174532 0.08762204 -0.05124924 -0.050888665
0.060558718 -0.021190139 0.13585663 -0.08285287 -0.11628589 0.08428011 -0.008603369 -0.069580115
-0.013993057 -0.120192125 -0.03861894 0.05430583 0.11972553 0.04393718 0.05741261 -0.09580937
-0.096472755 -0.12678112 0.11455775 0.040403336 -0.012074348 -0.120782875 0.130373 0.22620943
0.2267886 0.061201096 -0.00021990135 0.15355614 0.076502636 0.056393467 -0.058938876 0.08306728
-0.041649155 -0.10145487 0.11706957 0.069398426 0.015510787 -0.015856516 -0.103884585 0.06998069
-0.10514333 0.08797491 -0.14198065 0.00052571687 0.11886126 0.004222765 0.047128115 0.09197605
0.10880553 0.02452816 0.0016970278 0.05005056 0.04289746 0.040591203 0.047187332 0.0033751817
-0.08230841 0.121936895 -0.119590126 -0.019706918 0.024512412 0.14886199 0.13457848 0.05543789
0.18385553 0.21750729 0.03818866 0.22712278 0.14838186 0.20994534 0.0026289944 -0.032372136
0.07402154 0.0033336084 0.11636763 0.144815 0.10242672 0.16777962 0.14046557 -0.10117635
0.07435943 -0.0891717 0.097785905 0.004225017 0.13957937 0.13527264 0.021310197 -0.06592913
0.09100198 -0.08071831 0.12266292 0.084401116 0.02230117 -0.02288088 0.1426383 -0.024623582
0.16509135 -0.08017317 0.056136254 0.06892365 0.024250483 -0.10822587 0.07464468 -0.1206453
0.1116038 -0.08941835 -0.08126023 0.08281975 -0.12759693 0.053451773 0.066859886 0.16886957
0.088123135 -0.03721281 0.035902992 0.1114805 0.1428862 -0.09998021 -0.08718047 0.023339877
0.08488935 -0.11039768 0.02389058 -0.13635978 0.07702391 -0.103778586 -0.09687666 -0.031110702
00000000: f408 aebc 0897 5fbe 66de b1bd f555 25be
00000010: 3e2e 63be ad48 f1bd 9427 063d d076 8dbd
00000020: 37c1 e3bd 279b 5bbd 5646 debd 6b7d ddbd
00000030: 6500 0fbe f841 04be d15f 89be 267a 3e3d
00000040: 0d28 7c3d 02a5 8abd 717c 983d 5fde 7cbd
00000050: 3d14 fa3d 72f0 d53d 5298 063e c7b2 03be
00000060: 31da d6bd 03e8 eb3c 3602 d13a 09c2 8fbd
00000070: bbb4 08be d2bd 8ebc 99f8 e43d 239f d5bd
00000080: 3f74 0c3c a3e3 e23d cc44 15be 1293 bbbc
00000090: a5eb d7bc 16c2 ad3d 1258 81bd bd46 b4bd
000000a0: b576 1f3d ce88 eabd 4a06 57bd 3359 1bbe
000000b0: 2f4d efbd 4a5f 31be 0435 16bd 9b9a cf3c
000000c0: 6e3d 1dbd f420 f3bd b833 d93d 074b e13d
000000d0: bdaa 8a3d 2a7c c83d 43fe 55bd af38 26be
000000e0: e0d1 433c 3172 abbd 62f9 b5bc c1bb 95bc
000000f0: cbbc 69bd 26cc 0dbe e3cf 523d 92fc e0bd
00000100: a548 63bd d004 29bd 4f05 49bc e947 85bb
00000110: 3b29 90bd 0fd2 eabd 38d9 98bc 2cd6 c53c
00000120: ec60 bebd fec5 58bc 5be3 debd 40b9 3e3d
00000130: 3173 f5bc e935 b7bd df33 14be 0163 00be
00000140: 1c04 d5bd d27b 76bd b241 cebd 9c30 493d
00000150: bbff 1cbd dd11 eb3d 027b ca3d 92ba bcbd
00000160: 5982 6a3d e72c 93bd 0a43 b4bd b5eb 09be
00000170: 39b9 413d 8264 cc3c 0fd6 583c c1d4 ef3c
00000180: 6800 c53d c789 be3d b3b2 5a3d 9922 ffbd
00000190: 70de 5a3c 1e0b e03d cadb 9d3d 8f9e bcbd
000001a0: 5044 66bd 8221 07be 21cd d23c a7ee b8bd
000001b0: 051a 30bc 1329 f93c 2afb 2c3d 9059 313d
000001c0: 72ce 0abe c89a d83d 7d89 b43d 73be 883d
000001d0: 9c19 c23c 19bb 743d 4d29 7e3d 1762 01be
000001e0: c923 d1bd 8ef5 b5bd 8684 e2bd 361f 7abd
000001f0: f8e4 bb3d 2f73 b33d b9ea 51bd a270 50bd
00000200: 6b0c 783d f196 adbc 001e 0b3e c4ae a9bd
00000210: 4c27 eebd 0d9b ac3d 25f5 0cbc 0580 8ebd
00000220: 2343 65bc 4a27 f6bd e52e 1ebd ca6f 5e3d
00000230: a932 f53d 79f7 333d 7c29 6b3d b437 c4bd
00000240: 8293 c5bd e9d2 01be 419d ea3d f87d 253d
00000250: 7cd3 45bc 035d f7bd 8080 053e 72a3 673e
00000260: 453b 683e 00ae 7a3d 5295 66b9 d23d 1d3e
00000270: 6aad 9c3d d6fc 663d e469 71bd 2e1f aa3d
00000280: 4e98 2abd 92c7 cfbd 2cc2 ef3d c320 8e3d
00000290: f520 7e3c 86e5 81bc 71c1 d4bd 0952 8f3d
000002a0: 6355 d7bd 312c b43d 6063 11be 43d0 093a
000002b0: 886d f33d 1f5f 8a3b 6909 413d f05d bc3d
000002c0: 6fd5 de3d 48ef c83c ce6e de3a d101 4d3d
000002d0: 3fb5 2f3d f642 263d 8147 413d 2732 5d3b
000002e0: 5091 a8bd 0dba f93d abeb f4bd 6770 a1bc
000002f0: 41ce c83c 476f 183e f1ce 093e d712 633d
00000300: a044 3c3e 3bba 5e3e b66b 1c3d e092 683e
00000310: 6af1 173e e9fb 563e 354b 2c3b a598 04bd
00000320: 9b98 973d ab78 5a3b 2752 ee3d 624a 143e
00000330: 1ac5 d13d 6cce 2b3e 35d6 0f3e 8c35 cfbd
00000340: c249 983d a79f b6bd fa43 c83d 0372 8a3b
00000350: e5ed 0e3e e984 0a3e b992 ae3c da05 87bd
00000360: 3f5f ba3d a44f a5bd b236 fb3d 7eda ac3d
00000370: f1b0 b63c af70 bbbc c60f 123e 65b7 c9bc
00000380: b50d 293e d531 a4bd 21ef 653d d827 8d3d
00000390: f3a8 c63c 86a5 ddbd 4fdf 983d e214 f7bd
000003a0: 8890 e43d f820 b7bd c36b a6bd 679d a93d
000003b0: c5a8 02be 3ff0 5a3d d6ed 883d 25ec 2c3e
000003c0: e779 b43d 766c 18bd 040f 133d e34f e43d
000003d0: c350 123e 6dc2 ccbd ad8b b2bd 4533 bf3c
000003e0: 78da ad3d 2e18 e2bd 2db6 c33c e6a1 0bbe
000003f0: b6be 9d3d de89 d4bd 4567 c6bd dfdb febc

layers.0.linear.bias f4 [64]
0.54445624 0.24136737 -0.12928821 0.0056612194 -0.001418152 -0.023636363 0.273163 0.46208125
0.066337906 0.33535665 0.066027634 0.13708998 0.48300374 -0.00041102807 -0.027470402 -0.0025266043
-0.0698863 -0.1145657 -0.032968085 -0.0024861821 -0.0982252 0.6390053 0.02033729 0.30469078
-0.23280635 -0.047774892 0.56374496 -0.00027251098 0.02122904 -0.10480888 -0.0007318359 -8.837409e-05
0.34142783 -0.09991206 0.21464342 0.4000729 0.69592136 0.28093287 0.118038625 -0.050052557
0.32330394 -0.1127863 -0.003245376 0.2161931 -0.0024543134 0.36291105 0.40844142 0.34295395
-0.03251535 -0.10159414 0.048372258 0.4249875 0.21820444 -0.05012173 0.32722965 0.5203651
-0.089079805 0.3849151 0.4187517 0.0031881034 -0.057511795 -0.060472593 -0.00023984848 0.48924395
00000000: 7c61 0b3f 0229 773e 2164 04be c081 b93b
00000010: 49e1 b9ba 0ca1 c1bc 05dc 8b3e ea95 ec3e
00000020: 2bdc 873d deb3 ab3e 7f39 873d 5161 0c3e
00000030: 444c f73e 417f d7b9 9c09 e1bc 6395 25bb
00000040: 8c20 8fbd 6ca1 eabd 8b09 07bd 37ef 22bb
00000050: 4b2a c9bd da95 233f 639a a63c 6e00 9c3e
00000060: ca64 6ebe 9baf 43bd 9751 103f cedf 8eb9
00000070: 86e8 ad3c 0aa6 d6bd add8 3fba 7a55 b9b8
00000080: a1cf ae3e b29e ccbd 7ccb 5b3e 5bd6 cc3e
00000090: e727 323f 6fd6 8f3e 3cbe f13d e903 4dbd
000000a0: 1888 a53e 81fc e6bd 60b0 54bb b961 5d3e
000000b0: 8cd8 20bb 7acf b93e 3c1f d13e a997 af3e
000000c0: d12e 05bd 9710 d0bd fd21 463d f697 d93e
000000d0: fc70 5f3e 714c 4dbd a58a a73e a636 053f
000000e0: 796f b6bd 9813 c53e 9f66 d63e 80ef 503b
000000f0: 7d91 6bbd 1cb2 77bd d67f 7bb9 2f7e fa3e

layers.1.linear.weight f4 [64, 64]
-0.010651393 -0.06962168 -0.12493959 -0.07235248 -0.082731195 0.10616761 0.10650293 -0.20163245
-0.055071898 0.15565138 0.05825313 0.1951824 0.12133226 0.06378142 0.010569254 -0.1009533
0.045572683 -0.024221424 -0.036675032 0.09453428 0.09462403 -0.09549767 0.19847208 0.023532962
0.02773218 -0.010461945 -0.1982171 0.10296465 0.07324836 -0.04796712 0.044314694 0.1001184
-0.018637907 -0.028845694 0.15765914 0.08757315 0.07506462 0.11755322 -0.003547279 0.006624043
-0.050328203 0.08431339 0.04621594 0.05040828 0.05353953 -0.11416345 0.09511226 -0.018224223
-0.05877392 0.012312934 -0.068743765 -0.056324806 0.11490171 0.006758663 0.11066015 0.016120434
-0.06648328 0.056947757 0.08023292 0.0099693965 -0.014184477 0.022793753 0.093521856 -0.17694396
-0.1723376 -0.021294245 -0.035849303 0.17269902 -0.0041256333 0.07501524 0.20315866 -0.17587091
-0.0012326946 0.0392527 0.09843675 0.3418435 0.17437816 0.0050411467 0.024745809 -0.0030826267
-0.0123303905 0.030659366 0.07452178 0.09461056 -0.06736519 -0.26721224 0.17763835 0.11684399
-0.06385575 0.2770259 -0.07078872 -0.027404567 0.1915065 0.005286485 0.08662785 -0.06948271
0.14628127 -0.02185877 0.13677654 0.017409129 -0.048758667 0.10666733 -0.038273916 -0.07407501
-0.0002173745 -0.090023294 0.2007932 0.17347172 0.23643814 -0.050011504 0.15304807 0.030835597
-0.092879735 0.07081342 0.002136993 -0.24135734 0.060753252 0.06205688 0.21333481 -0.082490675
-0.10149606 -0.111258045 0.20911105 0.20323814 0.0741901 -0.04362564 0.035202835 -0.0242978
0.0426802 0.059312522 -0.053933557 -0.065515265 0.054156926 0.11860711 -0.065013744 0.03625254
-0.091414705 -0.016994013 0.029023828 -0.05166517 -0.10437574 0.05543153 -0.0007380352 -0.030903611
-0.036931634 0.082165964 -0.12078416 0.077559486 -0.065011814 0.051880304 -0.15702324 0.045514077
-0.02389345 -0.034929894 -0.04052331 0.043558147 -0.20249936 0.02190189 -0.109861396 -0.07911853
0.006075164 0.06040996 0.04586902 0.060721852 -0.022667171 0.09460982 0.082998216 0.0074866577
0.07472743 0.12165609 -0.1080828 0.0018538991 -0.1557447 0.14841102 -0.13650271 -0.0036886022
0.0085536875 0.10889846 -0.11065663 0.0061566085 -0.020296361 0.01666997 0.06832292 0.06048505
0.052516337 -0.06321018 0.017067537 -0.040068705 0.0038358837 -0.041791767 1.4010575e-05 -0.019207388
0.022312144 0.081220634 0.055967808 0.005087403 0.07279624 0.007219275 0.027343526 -0.072845675
0.00795924 0.094328985 -0.15001439 -0.035247173 -0.08399414 -0.025451785 -0.085866764 0.07716414
-0.051227264 0.02301913 -0.10190212 0.10460518 0.09642207 0.14211988 -0.043485083 -0.12025341
-0.072976574 -0.024963763 0.022685979 0.015228139 -0.1219989 0.07089844 0.00453553 0.038848434
-0.09303801 -0.04947371 0.04666563 -0.03818711 0.008561176 0.11221479 0.07640737 0.12200525
-0.07826687 -0.019909695 0.038299724 -0.020652456 0.038027257 0.015665727 0.09949263 -0.06381713
0.033183407 -0.058231875 -0.10983061 -0.074858494 0.0146501865 0.087130055 -0.038956825 0.104585856
0.04326263 -0.00426712 -0.037133165 -0.11780601 -0.07729483 -0.006203791 0.11740022 0.088755734
00000000: 2e83 2ebc d095 8ebd 54e0 ffbd 892d 94bd
00000010: f96e a9bd 676e d93d 351e da3d bd78 4ebe
00000020: 1293 61bd 1363 1f3e d69a 6e3d e5dd 473e
00000030: 0c7d f83d d59f 823d aa2a 2d3c 9bc0 cebd
00000040: 6caa 3a3d 026c c6bc 8f38 16bd 309b c13d
00000050: 3eca c13d 4894 c3bd 443c 4b3e 33c8 c03c
00000060: 992e e33c 9468 2bbc 6cf9 4abe 21df d23d
00000070: 3c03 963d 2c79 44bd 5383 353d e00a cd3d
00000080: 86ae 98bc ce4d ecbc 6671 213e 8d59 b33d
00000090: 7bbb 993d bebf f03d 7779 68bb 800e d93b
000000a0: f224 4ebd 80ac ac3d ed4c 3d3d ea78 4e3d
000000b0: 444c 5b3d 87ce e9bd 37ca c23d f74a 95bc
000000c0: ecbc 70bd 30bc 493c 88c9 8cbd d7b4 66bd
000000d0: 9651 eb3d c677 dd3b caa1 e23d 000f 843c
000000e0: 6328 88bd 0d42 693d 2851 a43d ae56 233c
000000f0: 0266 68bc f7b9 ba3c 6388 bf3d cc30 35be
00000100: 4579 30be 4571 aebc b8d6 12bd 03d8 303e
00000110: 5230 87bb 97a1 993d d308 503e 8117 34be
00000120: 5e92 a1ba 70c7 203d 3599 c93d 1c06 af3e
00000130: 3090 323e 3430 a53b b9b7 ca3c e505 4abb
00000140: 6805 4abc 5a29 fb3c e09e 983d 2ec3 c13d
00000150: c3f6 89bd 0bd0 88be d4e6 353e e74b ef3d
00000160: cec6 82bd 57d6 8d3e adf9 90bd 8b7f e0bc
00000170: 481a 443e 403a ad3b f169 b13d f34c 8ebd
00000180: c2ca 153e 2a11 b3bc 260f 0c3e 979d 8e3c
00000190: 2bb7 47bd 6774 da3d 1cc5 1cbd a4b4 97bd
000001a0: 06ef 63b9 225e b8bd bc9c 4d3e 92a2 313e
000001b0: d71c 723e ddd8 4cbd a2b8 1c3e ef9a fc3c
000001c0: bb37 bebd a006 913d cb0c 0c3b 6126 77be
000001d0: 67d8 783d 5b2f 7e3d 7174 5a3e dff0 a8bd
000001e0: 2bdd cfbd 42db e3bd 3521 563e a91d 503e
000001f0: fbf0 973d cdb0 32bd d930 103d 2e0c c7bc
00000200: 6fd1 2e3d b0f1 723d 6fe9 5cbd de2c 86bd
00000210: a7d3 5d3d 49e8 f23d ed25 85bd 8b7d 143d
00000220: a237 bbbd 0737 8bbc 61c3 ed3c db9e 53bd
00000230: f3c2 d5bd 2c0c 633d b478 41ba 9229 fdbc
00000240: a045 17bd a146 a83d b05d f7bd 82d7 9e3d
00000250: ea24 85bd 7180 543d b3ca 20be f86c 3a3d
00000260: 32bc c3bc a612 0fbd c5fb 25bd 076a 323d
00000270: fe5b 4fbe 986b b33c 03ff e0bd e508 a2bd
00000280: 2b12 c73b 6f70 773d 27e1 3b3d 7ab7 783d
00000290: 81b0 b9bc cbc2 c13d f8fa a93d a352 f53b
000002a0: b20a 993d d426 f93d 845a ddbd 88fe f23a
000002b0: 8a7b 1fbe 0ff9 173e 5ec7 0bbe 7abc 71bb
000002c0: c424 0c3c 2806 df3d f19f e2bd 60bd c93b
000002d0: 8e44 a6bc 768f 883c e3ec 8b3d 2cbf 773d
000002e0: 5f1b 573d 5774 81bd 38d1 8b3c 151f 24bd
000002f0: 7363 7b3b d82d 2bbd f60e 6b37 d058 9dbc
00000300: f5c7 b63c 0157 a63d 803e 653d 3bb4 a63b
00000310: 3216 953d ab8f ec3b 88ff df3c 1d30 95bd
00000320: 7967 023c 8e2f c13d 5f9d 19be 575f 10bd
00000330: 1f05 acbd 4380 d0bc eada afbd 3c08 9e3d
00000340: aed3 51bd 9d92 bc3c 0fb2 d0bd 3e3b d63d
00000350: ef78 c53d e087 113e 6a1d 32bd 6b47 f6bd
00000360: be74 95bd ce80 ccbc f2d7 b93c 727f 793c
00000370: 8fda f9bd 3433 913d c99e 943b 891f 1f3d
00000380: b68a bebd f2a4 4abd 7624 3f3d 166a 1cbd
00000390: 2d44 0c3c ded0 e53d 787b 9c3d e3dd f93d
000003a0: 614a a0bd a819 a3bc 2ce0 1c3d 572f a9bc
000003b0: 78c2 1b3d 6955 803c cbc2 cb3d 8eb2 82bd
000003c0: 53eb 073d 8c84 6ebd dfee e0bd 694f 99bd
000003d0: 5607 703c 3e71 b23d 3191 1fbd 1c31 d63d
000003e0: 2834 313d 32d3 8bbb f218 18bd 4744 f1bd
000003f0: c04c 9ebd 2c49 cbbb 876f f03d 91c5 b53d

layers.1.linear.bias f4 [64]
-0.10423169 -0.10738749 0.11053991 0.06673097 -0.113046825 -0.08493617 0.41052154 -0.1786595
0.043565203 0.5221355 -0.05551055 0.19942994 0.43049616 0.6987396 0.5186318 -0.10038108
-0.07636457 -0.04825613 0.7410414 -0.12453522 0.34916103 -0.15129684 0.40286395 0.43647948
0.05324119 0.16563687 0.059864398 -0.084757715 -0.065627515 -0.011554771 0.18748347 -0.12349111
-0.21055847 -0.12038714 -0.12295476 0.6412775 -0.0012092441 0.53766453 0.72094905 0.19027407
-0.4332959 0.05866406 -0.09525223 -0.015239663 -0.09987376 -0.03809479 -0.015558407 -0.028808296
-0.026679734 -0.1630627 -0.040499236 0.33485028 0.0035621503 0.2787247 0.37224418 0.27653557
0.48734215 0.19339804 -0.10761521 -0.08225742 0.2589636 0.3948413 -0.008756555 0.35840574
00000000: 6d77 d5bd f9ed dbbd c062 e23d 3faa 883d
00000010: 1885 e7bd 04f3 adbd e12f d23e 84f2 36be
00000020: 6d71 323d acaa 053f 085f 63bd 5d37 4c3e
00000030: fe69 dc3e 99e0 323f 0ec5 043f 9894 cdbd
00000040: 0765 9cbd 38a8 45bd e4b4 3d3f 520c ffbd
00000050: 3cc5 b23e 8fed 1abe 2f44 ce3e 3d7a df3e
00000060: 6f13 5a3d b69c 293e 5f34 753d 7495 adbd
00000070: b867 86bd 3950 3dbc abfb 3f3e e8e8 fcbd
00000080: a49c 57be 888d f6bd b5cf fbbd c32a 243f
00000090: 807f 9eba 62a4 093f 1e90 383f 35d7 423e
000000a0: f6d8 ddbe ba49 703d 9a13 c3bd c8af 79bc
000000b0: 9d8a ccbd 4809 1cbd b0e8 7ebc 60ff ebbc
000000c0: 758f dabc e9f9 26be 87e2 25bd 7f71 ab3e
000000d0: f772 693b 01b5 8e3e ca96 be3e 1296 8d3e
000000e0: e984 f93e 230a 463e 5d65 dcbd 9476 a8bd
000000f0: e196 843e a428 ca3e a777 0fbc f580 b73e

layers.2.linear.weight f4 [64, 64]
0.054939393 -0.017644418 -0.101659514 -0.05527499 -0.08350873 -0.023481326 0.20812812 -0.019384732
-0.06360393 0.2016653 -0.119674146 -0.12732317 0.23267104 0.2724069 -0.1066346 -0.035219707
-0.10015714 0.08112611 0.31038892 0.012390039 -0.16755265 -0.055203743 0.22254188 -0.20786302
-0.018991027 0.16653448 -0.0022147968 0.027107075 -0.13943557 -0.029666103 -0.008518856 0.021800905
-0.04003706 -0.004337825 -0.033869907 0.3067001 -0.042926103 0.32669857 -0.17549507 -0.0010851278
-0.19980077 0.094643034 0.03750003 0.03056442 -0.0773305 0.09539409 -0.056823283 0.01679056
-0.12281155 -0.014982609 -0.15669377 0.09695501 0.033775643 -0.111058 0.18879677 0.05727412
-0.11960441 0.08428978 -0.010734756 0.11404191 0.014611933 0.10922917 0.1267095 0.0626415
-0.12498006 0.08482761 0.09569503 -0.034313336 -0.094305575 -0.020070275 0.07721808 0.074022435
0.10416062 -0.05874759 -0.026074499 -0.021108486 0.021407913 -0.005872349 -0.09360918 0.023415472
0.0599784 0.022608325 -0.06635602 0.08958137 -0.002441004 -0.03795279 -0.11488065 0.11520371
-0.06530422 -0.06268755 -0.084594786 -0.090834185 0.050312404 0.07698062 -0.08279162 -0.04473616
-0.119292945 -0.086715 0.08210343 0.0818587 -0.109071895 -0.11917118 -0.021849867 -0.031086128
-0.033637337 -0.049756743 0.08904292 0.0046578 -0.05588112 0.034898743 -0.04579699 0.02821068
-0.087619394 -0.05265314 -0.116445996 -0.08972847 0.12276746 0.012785751 0.020804096 0.10266639
0.03692511 -0.11590347 -0.0065330006 0.12367703 -0.008967686 -0.024052355 -0.05673939 -0.12208935
-0.19695704 -0.2813145 0.13611402 0.1151458 0.11964969 -0.13465315 0.105622575 -0.16462278
-0.10243589 -0.09129835 -0.09439756 0.08588554 -0.0059153554 -0.0270665 0.22963738 -0.17248341
-0.47621134 0.06514895 0.058176268 -0.012464762 0.17093597 0.12457107 0.03272785 0.11963052
-0.17064711 0.072652824 -0.22176623 -0.0052479208 -0.28224188 0.07264071 0.062344033 -0.0005578697
0.09575363 -0.0960716 0.03676772 -0.053592004 0.08243324 -0.047149308 0.3788961 0.047076017
0.020723732 -0.13335979 -0.34065917 -0.14952134 0.046472564 -0.12384266 0.07837285 -0.31565973
0.11247697 -0.22555391 -0.16828091 0.026925005 -0.06020076 0.1787213 0.0023017144 0.07548891
0.11815348 -0.16836502 0.023098335 0.05243264 -0.13604826 -0.14115717 0.01642427 0.10304381
-0.059397418 -0.115846224 -0.12278134 0.00891773 -0.0636286 -0.013617525 -0.013194098 0.04175856
-0.043822944 0.12000805 -0.037171617 -0.030739188 -0.07599049 -0.11589348 0.08307812 0.10126663
0.015867628 -0.0755658 -0.019535484 -0.05326833 -0.054013174 0.037503153 0.01327095 -0.07197252
0.10354503 0.067872696 -0.10328945 -0.034910873 -0.08436099 -0.069863304 -0.055076398 0.051974013
-0.082759395 -0.056165326 0.06709044 0.123565815 0.008169204 0.043507032 -0.065914 0.099422835
-0.05016072 -0.045017462 -0.1148277 0.07864806 0.04870826 -0.112473145 -0.057294548 0.014410328
-0.040863022 -0.09102134 0.004662888 0.084209695 0.09552728 0.016873939 -0.045005217 -0.07231616
-0.07052569 0.08971575 -0.0400033 0.0647473 0.024561564 0.07634773 0.086035125 0.022888035
00000000: 2108 613d 078b 90bc dd32 d0bd 0768 62bd
00000010: a006 abbd e95b c0bc 8a1f 553e bbcc 9ebc
00000020: c742 82bd 5981 4e3e b817 f5bd 0161 02be
00000030: 5141 6e3e eb78 8b3e 3e63 dabd 8a42 10bd
00000040: 301f cdbd 7225 a63d 4ceb 9e3e 97ff 4a3c
00000050: ec92 2bbe 521d 62bd 05e2 633e 0bda 54be
00000060: 1293 9bbc 0488 2a3e 2026 11bb a80f de3c
00000070: 33c8 0ebe 5406 f3bc ac92 0bbc d097 b23c
00000080: e6fd 23bd 5024 8ebb 2cbb 0abd cc07 9d3e
00000090: 48d3 2fbd 0945 a73e fbb4 33be d93a 8eba
000000a0: 9398 4cbe 35d4 c13d a299 193d 3c62 fa3c
000000b0: 745f 9ebd fa5d c33d 88bf 68bd 5b8c 893c
000000c0: 9f84 fbbd 9e79 75bc 5574 20be 5990 c63d
000000d0: 5458 0a3d 6072 e3bd f153 413e 4598 6a3d
000000e0: 28f3 f4bd 1fa0 ac3d d4e0 2fbc ce8e e93d
000000f0: e466 6f3c 8bb3 df3d 23c0 013e 304a 803d
00000100: 8cf5 ffbd 19ba ad3d c2fb c33d 248c 0cbd
00000110: 4823 c1bd 6b6a a4bc 8324 9e3d 1399 973d
00000120: 2a52 d53d 50a1 70bd 309a d5bc b4eb acbc
00000130: a65f af3c d56c c0bb 2bb6 bfbd ced1 bf3c
00000140: e9ab 753d 1835 b93c aae5 87bd 7076 b73d
00000150: 40f9 1fbb 6274 1bbd 8c46 ebbd ecef eb3d
00000160: 38be 85bd 5562 80bd 0840 adbd 4607 babd
00000170: 6114 4e3d 04a8 9d3d a78e a9bd 443d 37bd
00000180: dc4f f4bd a297 b1bd d825 a83d 89a5 a73d
00000190: 1661 dfbd 0510 f4bd 7efe b2bc 56a8 febc
000001a0: 4ec7 09bd bacd 4bbd 225c b63d 75a0 983b
000001b0: 9ae3 64bd fcf1 0e3d a095 3bbd 151a e73c
000001c0: cc71 b3bd d2aa 57bd 3d7b eebd 8fc3 b7bd
000001d0: 826d fb3d 547b 513c 5a6d aa3c c242 d23d
000001e0: c93e 173d cc5e edbd c812 d6bb 624a fd3d
000001f0: 34ed 12bc 7209 c5bc 9067 68bd fb09 fabd
00000200: 1baf 49be 7408 90be 7961 0b3e 90d1 eb3d
00000210: e60a f53d 84e2 09be a650 d83d e092 28be
00000220: e8c9 d1bd a1fa babd 8253 c1bd c2e4 af3d
00000230: 99d5 c1bb 91ba ddbc 1026 6b3e 7e9f 30be
00000240: f9d1 f3be d06c 853d 3d4a 6e3d 0039 4cbc
00000250: d709 2f3e 1e1f ff3d a30d 063d d900 f53d
00000260: 1ebe 2ebe 01cb 943d b016 63be c0f6 abbb
00000270: 0282 90be a7c4 943d 755c 7f3d 003e 12ba
00000280: 7b1a c43d 30c1 c4bd c099 163d 4a83 5bbd
00000290: c2d2 a83d a21f 41bd abfe c13e c8d2 403d
000002a0: d1c4 a93c 788f 08be e16a aebe 1f1c 19be
000002b0: 045a 3e3d 38a1 fdbd f281 a03d 279e a1be
000002c0: 535a e63d 9bf7 66be d551 2cbe d491 dc3c
000002d0: 1295 76bd b702 373e 5cd8 163b ee99 9a3d
000002e0: 74fa f13d e167 2cbe b838 bd3c 9cc3 563d
000002f0: 3c50 0bbe 818b 10be 318c 863c a208 d33d
00000300: b54a 73bd c940 edbd c874 fbbd ac1b 123c
00000310: b64f 82bd 0a1c 5fbc 0f2c 58bc 060b 2b3d
00000320: b07f 33bd c8c6 f53d 4441 18bd c0d0 fbbc
00000330: e7a0 9bbd 9059 edbd dd24 aa3d e164 cf3d
00000340: d4fc 813c 3ec2 9abd e108 a0bc e42f 5abd
00000350: eb3c 5dbd e89c 193d 666e 593c 5466 93bd
00000360: 6b0f d43d d700 8b3d 6b89 d3bd b4fe 0ebd
00000370: 74c5 acbd 7e14 8fbd ca97 61bd b4e2 543d
00000380: c27d a9bd 9d0d 66bd b666 893d 1310 fd3d
00000390: 20d8 053c 6e34 323d ebfd 86bd 339e cb3d
000003a0: 5475 4dbd 3b64 38bd c92a ebbd 3c12 a13d
000003b0: 5082 473d 5258 e6bd b0ad 6abd 4c19 6c3c
000003c0: fc5f 27bd 6569 babd 24cb 983b 2276 ac3d
000003d0: cea3 c33d 373b 8a3c 6457 38bd 7f1a 94bd
000003e0: c66f 90bd e4bc b73d 80da 23bd 3c9a 843d
000003f0: 5535 c93c 335c 9c3d 2f33 b03d b07f bb3c

layers.2.linear.bias f4 [64]
0.30713728 -0.1040319 0.43911645 -0.09369511 0.42423734 -0.04168646 -0.039135143 0.5238736
0.03473041 0.23102763 0.1262761 0.015296209 0.3069874 -0.046515476 0.068954825 -0.0056505203
-0.098947614 0.4279837 0.37023395 -0.09010267 0.040661797 -0.0059586912 -0.22620751 0.6771967
0.47459233 0.22702226 0.027192738 -0.12004617 0.030559815 -0.011701768 0.053768363 0.036640782
0.054994803 -0.0635791 0.18882747 0.057026103 -0.12303717 0.120650396 -0.12087123 0.103003815
0.2877296 -0.14198849 -0.09801986 -0.06887001 -0.067150176 0.27462906 0.50033844 -0.07265825
0.09941149 0.19247721 -0.10913492 -0.041326985 0.073281616 0.24094601 0.19824676 0.27246517
0.083162 0.24156146 0.14510593 -0.010628771 -0.6173255 -0.07463306 0.2181536 0.06177287
00000000: 1941 9d3e ad0e d5bd dfd3 e03e 39e3 bfbd
00000010: a335 d93e 6cbf 2abd 2c4c 20bd 951c 063f
00000020: 7941 0e3d 8292 6c3e 864e 013e f39c 7a3c
00000030: 742d 9d3e 0387 3ebd 3038 8d3d 0028 b9bb
00000040: 0ca5 cabd ae20 db3e 4e8f bd3e c087 b8bd
00000050: fc8c 263d 2041 c3bb f1a2 67be c35c 2d3f
00000060: c4fd f23e 8678 683e 4ec3 de3c c4da f5bd
00000070: 9458 fa3c c6b8 3fbc 373c 5c3d a514 163d
00000080: 3b42 613d c235 82bd fd5b 413e 3494 693d
00000090: e9fa fbbd 8e17 f73d 568b f7bd aaf3 d23d
000000a0: 4b51 933e 6e65 11be a3be c8bd b80b 8dbd
000000b0: 0886 89bd 2e9c 8c3e 2e16 003f d9cd 94bd
000000c0: 4098 cb3d bf18 453e 2182 dfbd 7c46 29bd
000000d0: ac14 963d 8dba 763e 3301 4b3e 8e80 8b3e
000000e0: d750 aa3d e35b 773e a696 143e 4c24 2ebc
000000f0: 0b09 1ebf 38d9 98bd a863 5f3e 8d05 7d3d

classifier.weight f4 [4, 64]
-0.69279903 0.07117144 0.8177406 -0.027291983 -0.42672533 -0.1188972 0.08571741 1.0791845
-0.009728872 -0.91376895 0.20727916 -0.061698455 0.7539275 0.084669 -0.22566871 0.08198547
-0.001692012 -1.7989364 -0.34367925 -0.09734395 0.021196634 -0.32279965 0.35239643 1.6782827
-1.05693 0.2909532 -0.2868272 -0.008582339 -0.07459537 -0.066620566 -1.0462148 -0.16521598
0.08016185 -0.021909773 -0.30118814 -0.48373243 -0.08540369 0.30798247 0.08067149 -0.9991335
0.7458766 -0.11120724 0.050394252 0.16130926 0.073773295 0.52808553 1.2147745 0.033321466
0.1713775 0.32807288 -0.06191614 -0.08985187 -0.23228818 -0.4398774 -1.1250597 0.67486125
-0.26047084 0.34618634 -0.87304074 0.114529476 0.6210851 0.08079699 -0.45144892 -0.14261068
-0.16431598 -0.09586525 0.22760098 -0.12228678 -0.30860388 -0.008093849 0.122378126 0.25741568
-0.015616893 0.28341413 0.10552106 -0.06197232 -0.08142235 0.03907693 0.36489302 0.08553778
-0.11862683 0.08481717 -0.19956252 0.010411456 0.038447738 0.09657266 0.2591865 0.32789084
-0.072545394 -0.15387575 0.24160141 -0.08671951 0.19719261 0.00045004033 0.46184805 -0.10479856
-0.050323676 0.008789986 -0.12584914 0.26922444 -0.07103018 0.19902663 0.04207255 0.32396823
0.16301242 -0.058426052 0.09447379 0.41071302 -0.057142198 0.1369537 0.2928763 0.22140233
0.16930778 0.08933851 0.123986766 0.007895477 0.1337093 -0.14042538 0.09790247 0.09553922
0.14963266 0.023173915 0.1570739 -0.079722695 0.67978686 -0.057473615 -0.08608214 -0.19110776
0.17582217 0.1169476 -0.31654364 0.09915329 0.30808473 0.0022932738 0.051933706 -0.49370942
-0.024774889 0.3638981 -0.1912814 0.028663022 -0.43343797 0.11056277 0.14301987 0.11423132
-0.017501265 0.84955704 0.24812426 -0.002635941 0.045371175 0.14679042 -0.1646868 -0.9291773
0.35863853 0.032384135 0.04992327 0.06717171 0.17416665 0.12150348 0.3399739 -0.054525975
0.14817886 0.08464675 0.21270822 0.052714016 -0.114876404 -0.21238203 0.083447695 0.4495395
-0.23249714 -0.088281184 0.100251436 0.048309494 -0.008600548 -0.2783567 -0.6538436 0.022560734
-0.14777617 0.04656181 -0.05284962 0.08931306 0.1588785 0.29582927 0.54197127 -0.31540588
0.1886395 -0.20381266 0.4416898 0.09534095 -0.48297513 -0.11359598 0.2953065 0.07587543
0.6437988 0.009074213 -0.68692213 -0.12470185 0.53511727 0.101763085 0.0046117455 -0.83942026
-0.13597883 0.05716227 -0.11731471 0.040524114 -0.37501353 0.118295945 -0.12454931 -0.031911746
-0.05862415 0.81658196 0.2992076 0.057733357 0.070804924 0.14616755 -0.28945234 -1.193782
0.74575204 -0.083851054 0.09120446 -0.014227271 -0.07046066 0.19235246 0.18465106 0.029712133
0.06276933 -0.01574102 0.23449531 0.072095394 0.04204936 -0.27090406 0.0838134 0.4004911
-0.46002823 0.09386029 -0.07677191 -0.4828519 0.09943569 -0.46377233 -0.83470684 -0.1784918
-0.14718832 -0.2970059 -0.07307833 -0.06610973 -0.053426716 0.458709 0.4578787 -0.31955457
0.027322268 -0.3692341 0.5072596 0.08759139 -0.8940933 -0.07570538 0.39336392 0.046038214
00000000: 475b 31bf 55c2 913d 7357 513f 7093 dfbc
00000010: be7b dabe 6080 f3bd 9c8c af3d b822 8a3f
00000020: d965 1fbc c3ec 69bf fd40 543e 85b7 7cbd
00000030: 6501 413f f166 ad3d b315 67be 00e8 a73d
00000040: 80c6 ddba 8c43 e6bf baf6 afbe 445c c7bd
00000050: 90a4 ad3c ff45 a5be 4e6d b43e f8d1 d63f
00000060: 7b49 87bf d1f7 943e 04db 92be f09c 0cbc
00000070: 75c5 98bd 5d70 88bd 5eea 85bf 612e 29be
00000080: e52b a43d 207c b3bc 5535 9abe c7ab f7be
00000090: 21e8 aebd e1af 9d3e 1837 a53d 37c7 7fbf
000000a0: c5f1 3e3f 9fc0 e3bd 346a 4e3d 412e 253e
000000b0: 7416 973d 9d30 073f bb7d 9b3f 177c 083d
000000c0: 957d 2f3e 2bf9 a73e c79b 7dbd 4204 b8bd
000000d0: f4dc 6dbe 9c37 e1be f501 90bf b5c3 2c3f
000000e0: 6f5c 85be 563f b13e 997f 5fbf 6e8e ea3d
000000f0: 6fff 1e3f e478 a53d 5024 e7be 8908 12be
00000100: 7342 28be 0055 c4bd 3b10 693e 7e71 fabd
00000110: 5401 9ebe 109c 04bc 62a1 fa3d fdcb 833e
00000120: ffdd 7fbc a81b 913e 6d1b d83d b0d6 7dbd
00000130: c3c0 a6bd 220f 203d 42d3 ba3e 6e2e af3d
00000140: a0f2 f2bd a0b4 ad3d 1e5a 4cbe d094 2a3c
00000150: 607b 1d3d e3c7 c53d 18b4 843e 4fe1 a73e
00000160: ae92 94bd 9b91 1dbe 5c66 773e 009a b1bd
00000170: dcec 493e 64f3 eb39 5977 ec3e a1a0 d6bd
00000180: 3320 4ebd e003 103c 99de 00be c9d7 893e
00000190: 4578 91bd a3cd 4b3e 4454 2c3d 2adf a53e
000001a0: baec 263e 2850 6fbd 797b c13d fa48 d23e
000001b0: f00d 6abd 973d 0c3e e2f3 953e 4bb7 623e
000001c0: 055f 2d3e 1cf7 b63d c6ec fd3d 085c 013c
000001d0: 17eb 083e accb 0fbe 1781 c83d 11aa c33d
000001e0: 4e39 193e 39d7 bd3c fbd7 203e a745 a3bd
000001f0: 8306 2e3f 7469 6bbd d54b b0bd c1b1 43be
00000200: ba0a 343e 3982 ef3d 0212 a2be e110 cb3d
00000210: 48bd 9d3e c04a 163b 70b8 543d 7bc7 fcbe
00000220: b5f4 cabc da50 ba3e 45df 43be b7ce ea3c
00000230: 95eb ddbe bc6e e23d cd73 123e 1cf2 e93d
00000240: d05e 8fbc 927c 593f 4914 7e3e c0bf 2cbb
00000250: 20d7 393d 3a50 163e a8a3 28be 90de 6dbf
00000260: 789f b73e 3aa5 043d 587c 4c3d 5291 893d
00000270: be58 323e d1d6 f83d 0f11 ae3e a156 5fbd
00000280: 33bc 173e 465b ad3d 2fd0 593e a7ea 573d
00000290: 5244 ebbd ad7a 59be a0e6 aa3d 0b2a e63e
000002a0: bb13 6ebe c4cc b4bd a050 cd3d 2de0 453d
000002b0: 50e9 0cbc c584 8ebe 4b62 27bf 4ad1 b83c
000002c0: a352 17be 99b7 3e3d d878 58bd c4e9 b63d
000002d0: 0cb1 223e ef76 973e a1be 0a3f e17c a1be
000002e0: b72a 413e 44b4 50be 2a25 e23e 1e42 c33d
000002f0: 8448 f7be 02a5 e8bd 6a32 973e 9464 9b3d
00000300: 00d0 243f 02ac 143c 21da 2fbf af63 ffbd
00000310: 72fd 083f 2a69 d03d 201e 973b 3fe4 56bf
00000320: 093e 0bbe fc22 6a3d b242 f0bd 9dfc 253d
00000330: c601 c0be 2545 f23d b513 ffbd e4b5 02bd
00000340: e01f 70bd 840b 513f bd31 993e d079 6c3d
00000350: 2c02 913d f2ac 153e 1933 94be d9cd 98bf
00000360: 9be9 3e3f 1aba abbd 67c9 ba3d 8019 69bc
00000370: ae4d 90bd 0bf8 443e 2b15 3d3e dc66 f33c
00000380: 358d 803d 50f3 80bc 8a1f 703e c0a6 933d
00000390: f33b 2c3d f0b3 8abe 5ca6 ab3d 2b0d cd3e
000003a0: d288 ebbe d339 c03d 973a 9dbd 5d38 f7be
000003b0: f0a4 cb3d 9173 edbe 59af 55bf 8ec6 36be
000003c0: 89b8 16be 2811 98be 17aa 95bd 8a64 87bd
000003d0: f9d5 5abd e8db ea3e 146f ea3e a89c a3be
000003e0: f3d2 df3c 410c bdbe c4db 013f 1d63 b33d
000003f0: 4ce3 64bf 6c0b 9bbd ff66 c93e 9192 3c3d

classifier.bias f4 [4]
0.39446056 -0.51544446 0.28275198 -0.057329196
00000000: bcf6 c93e 2bf4 03bf dec4 903e 05d2 6abd
