10by10recording/src/tactile_cnn_05.pth (torch, 284015 bytes, 8 tensors)

conv1.weight f4 [32, 50, 3, 3]
000000 2f ec af be 57 5d 13 be 32 ad c4 bd d3 c7 56 be
       -0.3435988 -0.14391075 -0.09603347 -0.20974664
000010 e5 00 12 3f 33 b2 50 be 2d 1d 38 be dd e6 08 bf
       0.57032615 -0.20380478 -0.1797988 -0.5347727
000020 86 be e8 3f 56 ba a9 be f3 97 7b be 97 99 65 bd
       1.8183143 -0.33149976 -0.24569683 -0.056054678
000030 9f 0d 25 be d6 9c 16 3f 7e ae 74 be 3e ad 0c be
       -0.16118477 0.5883306 -0.23894688 -0.13737962
000040 c4 92 0b bf 5b de ca 3f 5b 77 a8 be 39 63 5b be
       -0.5452082 1.5849108 -0.3290356 -0.21424569
000050 0e 1c 4e bd bd bf 09 be 72 a8 01 3f fd 5c 9e be
       -0.050319724 -0.13452049 0.5064765 -0.3093032
000060 37 ff 0e bf d3 63 10 bf 59 de d1 3f b9 1e c0 be
       -0.55858177 -0.5640232 1.639598 -0.3752344
000070 b0 92 8c be 9e 5d a1 be a1 17 23 be c3 1c 0f 3f
       -0.27455664 -0.31516737 -0.15926982 0.5590326
000080 0e e6 20 bf a0 a4 21 bf 12 6e 41 bf 48 83 a6 3f
       -0.62851036 -0.6314182 -0.7555858 1.3008814
000090 c6 21 bd be f4 bf 1a 40 97 a9 88 be 5c 45 25 be
       -0.3693983 2.417966 -0.26691887 -0.1613974
0000a0 7f 06 ed 3e d1 42 52 bf fa b2 bb be fe b4 cb be
       0.4629402 -0.82133204 -0.36659986 -0.39786524
0000b0 79 2d 04 3f 9c bd d4 be c8 36 77 be 2e f2 82 be
       0.51631886 -0.4155091 -0.24141991 -0.25575393
0000c0 74 8d 42 be 27 c2 8a 3e 1f a1 17 bf 99 23 c1 bd
       -0.18999273 0.2710125 -0.59230226 -0.09430618
0000d0 cf c6 03 bf f2 ae 84 3f 51 cc c5 be 57 40 ae be
       -0.5147523 1.0365889 -0.38632444 -0.34033462
0000e0 9d 12 b2 be b4 4e 23 be 4b a5 94 3e 2e 76 24 bf
       -0.34779826 -0.15947992 0.2903236 -0.6424283
0000f0 83 a5 b0 bd cc 0f 09 bf 07 3a 62 3f fc 6e da be
       -0.08625319 -0.5353973 0.8836979 -0.426628
000100 ee 61 a8 be 33 81 a6 be 46 95 6b be f7 b1 25 3e
       -0.32887214 -0.32520446 -0.23006162 0.1618117
000110 cb c6 22 bf 59 44 12 be 23 cd f1 be a1 a5 5b 3f
       -0.63584584 -0.14283885 -0.4722682 0.85799605
000120 0b d6 e5 be a6 b2 aa be d9 03 89 be 4f 13 55 be
       -0.44889864 -0.33339423 -0.26760748 -0.20808147
000130 db 8e 87 3e a1 c2 17 bf 19 f6 c4 bd 0d 3a 2a bf
       0.26476178 -0.59281355 -0.09617252 -0.6649483
000140 83 7d 81 3e 79 92 1a be bc dc 8d 3d 55 42 02 be
       0.2529107 -0.15094937 0.06926867 -0.12720616
000150 2a 76 04 be 80 93 f1 3d b6 e9 c2 be d8 a0 2e bc
       -0.12935701 0.117957115 -0.38068932 -0.010658465
000160 91 76 88 be 9c 55 90 be 01 80 d0 be 9b 4b ca be
       -0.2665296 -0.28190315 -0.4072266 -0.39510807
000170 28 88 a9 be 37 69 42 be ab 5a 5d 3e 6e e0 3d bf
       -0.3311169 -0.18985449 0.21616618 -0.7417058
000180 03 95 33 be 0a f4 2d bf bd a7 8d be 8c 27 f6 be
       -0.17537312 -0.679505 -0.27667037 -0.48077047
000190 11 ac 22 bf 3e 30 95 be 42 95 30 be 30 6f 5f 3e
       -0.635438 -0.29138368 -0.17244437 0.21819758
0001a0 37 8c f6 be e0 c2 60 be 01 e1 29 bf d4 ad 2d bf
       -0.4815385 -0.21949339 -0.66358954 -0.67843366
0001b0 c5 b4 ca be 97 e4 1e bf 1f b2 7b be 01 08 46 be
       -0.3959104 -0.6206755 -0.24579667 -0.19338991
0001c0 62 9b 20 be d1 45 e7 be c3 f5 67 be fb 87 22 bf
       -0.15684274 -0.45170453 -0.22652344 -0.6348874
0001d0 86 50 90 bf e0 77 db be b2 17 1d bf 8e 1e ad be
       -1.1274574 -0.42864895 -0.6136428 -0.33812374
0001e0 d5 3d 7d be 90 b5 6c 3e 99 46 6c bf f4 30 93 be
       -0.24730618 0.23116136 -0.92295223 -0.28748286
0001f0 00 e2 24 bf 8e 92 20 bf 21 71 ea be be 82 aa be
       -0.6440735 -0.62723625 -0.45789436 -0.33302873
000200 42 6f 4c 3f d5 35 c7 3a 64 ee 87 3e 61 78 29 40
       0.79857266 0.0015198538 0.26549065 2.6479723
000210 7c cc 47 be 81 82 d1 be c0 3c 2a 40 6b 49 f1 be
       -0.19511598 -0.4091988 2.659958 -0.47126326
000220 13 db 27 bf ca 9a b3 be 00 18 36 be 6d 8d b9 be
       -0.65568656 -0.35079032 -0.17782593 -0.36240712
000230 4a d7 57 bf 37 b4 8f bd 89 e9 34 bf 2e ff 4c 3e
       -0.8431288 -0.07016795 -0.70668846 0.20019218
000240 af 9e f1 be 02 11 21 bf 86 df b1 be de 39 7a be
       -0.47191378 -0.62916577 -0.34740847 -0.24436137
000250 c4 29 c8 be 45 7a 51 bf 92 92 80 be a5 1b 2d bf
       -0.39094365 -0.81827193 -0.25111824 -0.6762031
000260 48 5e 89 be 65 0e bc be a6 02 24 bf e8 9a 8b be
       -0.26829743 -0.36729732 -0.6406654 -0.27266622
000270 c0 e4 30 be 83 a5 bf 3c e7 6b 3d bf 9b e4 70 be
       -0.17274761 0.023394352 -0.7399277 -0.23524706
000280 08 75 25 bf f5 ae df 3d ea 7b da be 1f 97 2e bf
       -0.646317 0.10922042 -0.42672664 -0.6819934
000290 7f 31 a7 be 87 56 4a be 7f 04 24 3e 5c 4b 32 bf
       -0.3265495 -0.1975957 0.1601734 -0.6964624
0002a0 75 47 5f be 26 ee 2a bf 1e 92 00 3d 77 37 c0 be
       -0.21804602 -0.66769636 0.03138935 -0.37542316
0002b0 6d 21 20 bf d6 14 a2 be ec d2 5c be 4e e8 9d 3e
       -0.62551004 -0.31656522 -0.21564835 0.30841297
0002c0 90 bd ef be 04 89 54 be d4 7d 1b bf 2c 9e a7 bf
       -0.46824312 -0.20755392 -0.60738873 -1.3095145
0002d0 fe e7 9c bf eb 8f ff be 19 e3 73 bd c3 d5 32 be
       -1.2258298 -0.49914488 -0.05954275 -0.17464356
0002e0 84 23 a3 bd 08 25 72 bf 18 da 39 be d7 e6 1f bf
       -0.079657584 -0.94587755 -0.18149602 -0.6246161
0002f0 08 35 6c bf 07 24 a3 bf 61 99 fa be 1d 1f bf bd
       -0.9226842 -1.274537 -0.48945144 -0.09332106
000300 42 f0 6e be de 0b 98 bd 5a 2c 70 bf e5 53 53 be
       -0.23333839 -0.074241385 -0.93817675 -0.20637472
000310 2f 37 ea be 08 41 66 bf 28 67 9d bf 62 ba fe be
       -0.45745227 -0.8994298 -1.2297106 -0.49751574
000320 65 63 8f bd be 79 35 be ae 94 df bd 87 51 05 bf
       -0.0700138 -0.17722222 -0.1091703 -0.52077526
000330 e5 5e 82 be 67 2f 0a bf ed e4 5a bf d9 d8 a3 bf
       -0.25463024 -0.5397858 -0.85505563 -1.2800552
000340 f3 6c ec be d7 d6 08 be cf 4d 0e be e5 bf 9d be
       -0.46176872 -0.13363205 -0.13896869 -0.30810466
000350 a4 a7 f3 be 08 a4 9a be 74 38 f7 be c7 ee b0 be
       -0.47588837 -0.3020327 -0.48285258 -0.34557173
000360 bb ae 12 bd 68 7e 26 3d 67 9b 01 bd bd 7b 63 be
       -0.035811167 0.040647894 -0.031642344 -0.22215171
000370 1e 99 c6 3d b9 9d 5e bf aa 2d 0c 3d bb 47 f2 be
       0.096971735 -0.86959416 0.034223236 -0.4732035
000380 a2 a2 88 bf 2a e4 ef bc fb 1a f6 be 85 55 e4 bc
       -1.0674632 -0.029283602 -0.4806746 -0.02787281
000390 5d e1 62 be 59 bc cd be 30 0e 85 be d6 a2 86 bf
       -0.22156282 -0.4018276 -0.25987387 -1.0518444
0003a0 8b 3c 06 bf ff 23 ca be f1 09 21 be 2f a3 05 bf
       -0.5243613 -0.39480588 -0.15726449 -0.52202123
0003b0 59 94 42 bd f8 48 79 be 7e 31 f2 be 6d e7 2c bf
       -0.047504757 -0.24344242 -0.47303385 -0.6754063
0003c0 c9 60 04 bf 41 bd 01 bf 46 d5 a7 be 2d 47 e6 bd
       -0.5171018 -0.50679404 -0.32779902 -0.112440445
0003d0 09 51 fc be 13 4d 93 bd 23 1c 70 be 1a 72 40 bf
       -0.49280575 -0.07192435 -0.23448233 -0.75174105
0003e0 f5 67 24 bf 8a 85 25 bf 16 58 fb be 4d c1 ba be
       -0.64221126 -0.6465689 -0.49090642 -0.36475602
0003f0 a8 da 0c be 66 8d fa be 30 ef f7 bd 97 9f 49 be
       -0.13755286 -0.48936003 -0.12106168 -0.19689785

conv1.bias f4 [32]
000000 60 dd d0 be 9c 04 09 3f f9 c7 df be 63 9c bd bd
       -0.40793896 0.5352266 -0.43707255 -0.09258344
000010 96 03 4b bf 42 98 8b 3f c5 bf 1e bf 17 1e 64 be
       -0.79302347 1.090584 -0.6201137 -0.22277103
000020 fa f7 8d bf 9d 7e 01 bf 75 e2 94 bf 9f 2c 52 bf
       -1.1091301 -0.5058382 -1.1631609 -0.82099336
000030 43 8d 49 be 23 6d eb bf 2c b0 58 be 0a 50 91 be
       -0.19682793 -1.8392681 -0.21160954 -0.28381377
000040 88 46 66 be 37 d0 be bf 30 8f 55 be 7f 5a fd be
       -0.22487843 -1.4907292 -0.20855403 -0.49483106
000050 39 0a 9f bf c7 86 1e bf d0 30 90 be 48 ea 80 35
       -1.2424995 -0.61924404 -0.2816224 9.604928e-07
000060 55 49 93 bf 72 2b 0e bf 09 60 16 bf f6 b0 e8 bc
       -1.1506754 -0.5553504 -0.5874029 -0.028404694
000070 b4 85 1d be 1d b0 60 3e 47 a2 4a 3e b7 52 a5 be
       -0.15383035 0.21942182 0.19788466 -0.3228967

conv2.weight f4 [64, 32, 3, 3]
000000 94 f4 dc be b7 b5 6f 3c 9b 2d 80 bf f6 c5 67 3e
       -0.43155348 0.014630727 -1.0013918 0.2263411
000010 49 58 38 bf 92 a6 db be 6f ab 48 be 53 b2 88 bf
       -0.7200971 -0.4290052 -0.19596647 -1.067942
000020 01 e5 a8 be 03 ed 94 bf f5 35 36 3e 31 c3 b8 3e
       -0.32987216 -1.163483 0.1779402 0.3608642
000030 07 5a dc bd a5 a6 85 bf 5e 7a 01 bf d8 f7 04 bd
       -0.10759359 -1.0441481 -0.5057734 -0.032462925
000040 2d 65 95 3f db b2 4b bf 2d d6 e9 bd 4b 1d 24 bd
       1.1671501 -0.79569787 -0.11417804 -0.040067
000050 25 88 1c be 13 57 42 be 2b 4f 73 bd 1f 51 66 be
       -0.1528631 -0.18978529 -0.059401672 -0.22491883
000060 2c 49 a1 3d cf 21 92 3e 62 ad 80 3e 18 44 69 be
       0.078752846 0.2854142 0.2513228 -0.22779882
000070 55 2f e9 be 9c 0a 41 bf 0a 6d 86 be 45 18 c1 be
       -0.45543924 -0.75406814 -0.26255065 -0.3771383
000080 89 4d 41 bf 81 c3 ba be e8 19 90 3d 24 0a 30 be
       -0.75508934 -0.36477283 0.07036191 -0.17191368
000090 3c e0 68 3e fb cb 45 bf ac ed 84 be cc d0 27 3f
       0.22741789 -0.77264374 -0.2596258 0.65552974
0000a0 40 3e 2a 3f 42 ab 18 bf c4 73 2f bf e7 27 20 bf
       0.66501236 -0.5963632 -0.6853602 -0.62560886
0000b0 d3 c0 d4 bd 0d 62 56 bf 31 a4 e6 be 83 54 8d 3f
       -0.10388341 -0.83743364 -0.45047143 1.1041416
0000c0 51 6e bf be db 25 2a 3f 03 8c dd be fe e0 6a be
       -0.37388852 0.6646401 -0.43270883 -0.2293739
0000d0 11 19 00 bf 54 89 4c be 22 38 9e 3e 42 60 20 bf
       -0.5003825 -0.19974262 0.309022 -0.6264688
0000e0 75 ff b7 bf 50 cf 8a 3f 0e 68 01 bf a1 e1 83 bc
       -1.4374834 1.0844517 -0.505494 -0.0160988
0000f0 5c b8 27 be de 5a b3 bd 19 15 32 3f 79 ee 76 be
       -0.16378921 -0.08757566 0.6956344 -0.24114408
000100 ae d2 64 be 35 f9 7b 3d 37 12 00 bf d9 d1 10 bd
       -0.22345993 0.06151696 -0.50027794 -0.035356376
000110 1c 7e c4 bc d8 ff a8 3c ec a7 b4 3d df 1b 72 be
       -0.023985915 0.020629808 0.08821091 -0.23643444
000120 5f b7 bf be cc 75 31 bf e2 fd f0 be 4f 3b 5a bf
       -0.3744459 -0.6932037 -0.47068697 -0.8524675
000130 e0 1f 89 3d 22 67 7d 3d 58 14 4a bd e6 f0 3d be
       0.06695533 0.061865933 -0.049335808 -0.18548927
000140 f7 3b c1 be a1 41 82 be 45 29 9c 3d 06 5d 70 bf
       -0.37741062 -0.25440696 0.07625059 -0.9389194
000150 f7 a7 77 3e 7e e7 90 be 42 4a 16 bf 3b 13 84 3d
       0.24185167 -0.28301615 -0.5870706 0.064489804
000160 36 74 71 3e 0d a3 18 3f 6a ea a1 bd da 63 48 bf
       0.23579487 0.59623796 -0.07906039 -0.7827736
000170 f1 f0 68 bf 16 85 30 3d d4 a3 90 be 96 73 2e bf
       -0.9099265 0.04309567 -0.2824999 -0.6814512
000180 b7 44 c0 3e 8b 37 c2 3e 06 75 cb 3e 11 63 f0 3e
       0.37552425 0.37933 0.3973772 0.46950582
000190 af 0e ac bd 5c f2 ad be 6c 1a 90 3e 72 9f 1b be
       -0.08401238 -0.33973968 0.28145158 -0.15197542
0001a0 ee 62 06 3e 1f ae a9 be 11 e3 03 bf c0 0a 89 bf
       0.13123676 -0.33140656 -0.5151835 -1.0706406
0001b0 5f 52 8b bf 19 60 bf 3e bd ee 73 bf c5 4f 18 bf
       -1.0884513 0.37378004 -0.9528616 -0.5949672
0001c0 27 7c 6c bf 8e 2c ab 3e e7 31 50 3f bc a8 db bd
       -0.9237694 0.3343243 0.81326145 -0.10725543
0001d0 0d f0 ea be 31 f8 6b bc 98 48 4e bd 76 61 7a be
       -0.4588627 -0.014402435 -0.0503622 -0.24451241
0001e0 c9 45 02 bf bb bd 05 bd ae 1b 9f be 4e 9c 60 3e
       -0.50887734 -0.032651644 -0.31075805 0.21934626
0001f0 c9 cd 41 3e 6e b3 e9 bd 97 70 dc 3e bd 68 8a 3f
       0.18926157 -0.114111766 0.4305465 1.0813214
000200 7b a6 b6 be 34 df e0 be 71 e0 60 bf 8e fb 3c bf
       -0.3567389 -0.4392029 -0.8784247 -0.7382134
000210 c9 4f 96 3e 61 80 07 bf 1f 4a 75 bf 45 2b e1 3c
       0.29357746 -0.52930266 -0.95816225 0.027486453
000220 82 30 bd 3c e5 19 6b bd f0 82 80 bd 01 be 90 3e
       0.02309442 -0.05739774 -0.06274974 0.2826996
000230 37 a5 48 3e 04 f0 ab bd ef d8 23 bc a5 9f 5b bb
       0.19594274 -0.08395389 -0.0100004515 -0.0033511904
000240 d0 52 a7 3e 80 a5 94 bf 36 75 56 be 29 2b 48 bf
       0.32680368 -1.1613007 -0.2094315 -0.7819086
000250 b5 6f 98 bf 20 72 32 bd ff 36 14 bf f9 e7 b9 bf
       -1.190909 -0.04356587 -0.5789642 -1.4523917
000260 f3 4d e1 be e6 e6 28 3f 8f a9 fd be 6d fd 88 3e
       -0.44004783 0.65977323 -0.49543425 0.2675585
000270 d3 14 c2 bd 68 86 42 bf 18 87 ab bd e0 86 b1 bd
       -0.09476628 -0.7598634 -0.083753765 -0.086683035
000280 45 59 c7 3d 1e c9 94 3e 0a e0 3c 3f 66 60 67 bf
       0.09733824 0.2905969 0.73779356 -0.9038147
000290 25 2b 3e bf 7c 13 07 3f 1f ba 72 3c 6c d4 29 be
       -0.74284583 0.52764106 0.014814883 -0.16584939
0002a0 92 c5 3d 3f 59 08 60 bd 44 7b 18 3e 2d 0d 86 be
       0.74129593 -0.05469546 0.14890772 -0.26181927
0002b0 ca 98 23 bf d2 ad 1a 3f 76 a8 f5 3d fb 9c b3 bf
       -0.6390501 0.6042148 0.11995022 -1.4032282
0002c0 51 68 30 3c 47 30 2d be c6 61 b3 bf 5a fe dc bd
       0.0107670585 -0.16912948 -1.4014213 -0.10790701
0002d0 67 eb 7c bd dd d6 04 be 82 7c 67 bf da 33 97 3e
       -0.061747935 -0.12972589 -0.9042436 0.29531747
0002e0 15 93 9c 3e 36 0c 27 3f 64 c5 ad be d9 3b 5a bf
       0.30580965 0.6525301 -0.3393966 -0.8524757
0002f0 ab a6 b6 be 8a 6a 5d 3f 19 eb b7 3e a6 42 56 3e
       -0.35674033 0.8649069 0.35921553 0.20923862
000300 99 40 90 3e 41 8e 44 3e 12 72 1b 3f ca 69 9a be
       0.28174284 0.1919489 0.6072093 -0.30158836
000310 da 1d f0 3d fb b6 4c 3c 01 ed 39 3e 4d a1 96 3d
       0.11724444 0.012494798 0.18156816 0.073549844
000320 84 53 ae 3d 7a 48 bd 3d 8c 4a ab 3d 5f 4a 12 be
       0.08512023 0.092423394 0.08363828 -0.14286183
000330 c5 81 8b 3d 42 45 0a 3e 95 01 ca 3d 2c 20 44 3e
       0.06811861 0.13502982 0.09863583 0.19152898
000340 41 50 d6 be 39 21 20 be 14 20 9f be a9 6c 34 bf
       -0.41858104 -0.15637673 -0.3107916 -0.704783
000350 53 c3 44 bf 24 e1 8a bf 0d ab 18 3d b1 a9 79 bf
       -0.7686054 -1.0849957 0.0372725 -0.97524554
000360 40 c2 1e be 77 1c d7 bd 36 03 d8 be 80 3c 75 3e
       -0.15503788 -0.10503476 -0.4218995 0.2394886
000370 9d db ac bc 7d da 35 bf 99 6b d2 3e 55 7c 0b 3e
       -0.021100814 -0.7103651 0.41097715 0.13621648
000380 1c 66 aa bd 3f 75 d7 3a da 38 31 3e 4a 24 03 3f
       -0.08320257 0.001643814 0.17306843 0.5122725
000390 a2 4e 84 3e 37 06 49 bf b2 92 da be 67 a6 53 3e
       0.25841242 -0.7852511 -0.42690045 0.20668946
0003a0 16 15 68 bf ec a7 0d bf 41 2b 3e 3f ed c5 6f bf
       -0.90657175 -0.55334353 0.7428475 -0.93661386
0003b0 f7 58 94 be 6a d5 1c bf 30 20 90 be e2 36 b6 be
       -0.28974125 -0.61263144 -0.28149557 -0.35588747
0003c0 f1 29 0f bf b8 08 d8 be 48 94 26 3d ca 02 01 bf
       -0.5592337 -0.42194152 0.040668756 -0.5039488
0003d0 23 36 9d be 9e 19 0c bf 1e 28 a0 be 56 fd 3f bf
       -0.30705366 -0.5472659 -0.31280607 -0.74995935
0003e0 66 2a 9a bf 77 98 5e bf 74 00 cc bf 39 18 ab bf
       -1.2044189 -0.8695139 -1.5937638 -1.3366767
0003f0 a3 ba 2b be af 54 93 bb 78 86 37 bf 80 b6 91 3e
       -0.16770415 -0.004496179 -0.7168956 0.2845955

conv2.bias f4 [64]
000000 eb 7e 66 bf e9 6b f9 be b3 fa 95 be b3 10 9b bf
       -0.9003741 -0.4871514 -0.2929283 -1.2114471
000010 73 e7 5b bf f8 88 20 bf 43 86 cf bf a7 4b 93 3e
       -0.8590004 -0.62709 -1.6212848 0.28768656
000020 c8 20 f2 be 4e 19 12 bf a4 6c 08 c0 73 00 90 bf
       -0.47290635 -0.5706986 -2.131631 -1.1250137
000030 cd 0c a2 bf dc 64 6d bf ba c8 89 bf 40 59 8e bf
       -1.2660156 -0.92732024 -1.0764382 -1.1120987
000040 42 d6 cd bf 4c 08 95 bf 3d e2 a7 bf 83 73 6f bf
       -1.6081011 -1.1643157 -1.3115917 -0.9353563
000050 80 f3 79 bf 16 7a 97 bf 1f 71 dc bf fa 13 c8 bf
       -0.97637177 -1.1834133 -1.7222022 -1.5631096
000060 9b f1 c1 bf aa 5e b4 bf cb 5b e5 bf 10 13 75 bf
       -1.5151857 -1.4091389 -1.7918638 -0.9573221
000070 0c 98 84 bf d0 a6 08 bf c1 14 59 bf 17 ce 67 bf
       -1.0358901 -0.53379536 -0.8479729 -0.90548843
000080 52 47 2b bf 42 80 99 bf 12 1e 25 be 4c 6e d7 bf
       -0.669057 -1.1992266 -0.16124752 -1.6830535
000090 84 99 fe bf f8 49 67 bf ec 2e 4a bf 8f 16 88 bf
       -1.9890599 -0.9034724 -0.7897785 -1.0631884
0000a0 1e 65 8b bf 92 58 89 bf 2a 9a 20 bf 0e cc 84 bf
       -1.0890234 -1.0730155 -0.62735236 -1.0374773
0000b0 93 4a 8a 3e bf 17 39 bf d3 7f c1 3e 64 f0 e4 bf
       0.2701002 -0.7230186 0.37792835 -1.7885861
0000c0 ae 0a 4c 3f 87 b1 d5 3f ae 7c 88 3e b4 0b 9c bf
       0.79703796 1.6694802 0.26657623 -1.2191072
0000d0 fd af f3 bf 47 dd 82 bf f0 fc 4e c0 e4 98 60 bf
       -1.9038082 -1.0223778 -3.234188 -0.8773329
0000e0 f1 d9 75 bf fd 7c d6 bf 15 c9 e7 bf a3 ec 42 bf
       -0.9603568 -1.6756893 -1.810824 -0.7614233
0000f0 f6 b5 6c bf 22 6b 27 c0 9a 9e 47 bf 74 65 74 bf
       -0.9246515 -2.6159139 -0.7797638 -0.95467305

conv3.weight f4 [64, 64, 3, 3]
000000 67 fa 4f 3e 2e 86 c2 3e 91 7c a1 3e ab 16 52 3d
       0.20310365 0.37992996 0.3154035 0.05129115
000010 e1 66 9a be 0c de 1d 3e 66 26 67 bd da c9 08 be
       -0.30156615 0.15416735 -0.056433104 -0.1335825
000020 b6 ec 35 bc 8f a6 3d 3e 2e 04 2b 3e c7 1f a8 3e
       -0.0111038 0.18520568 0.16700813 0.32836744
000030 34 1b ce bd f7 53 15 be ab c9 e5 be 45 d4 05 3c
       -0.10063782 -0.14582811 -0.44880423 0.008168285
000040 6d cb c5 bd 81 be bf 3d be 70 4c bd 47 f5 e3 3d
       -0.09657941 0.093625076 -0.049912207 0.11130767
000050 c4 24 22 3e 9f 80 51 bd 30 5a 05 bf 3a 34 4d 3d
       0.15834337 -0.051148053 -0.5209074 0.050098635
000060 cc ae 95 bd 30 ae 41 be 10 2d 2b 3e 67 0b 5b 3e
       -0.073087305 -0.18914104 0.16716409 0.21391068
000070 56 27 67 3e d8 f4 a2 be 69 51 88 3d 5b 74 c7 3d
       0.22573599 -0.31827426 0.06656153 0.0973899
000080 7a cc c4 3d b0 24 95 bd 43 be 3d bd 2b 81 a2 be
       0.09609313 -0.07282388 -0.046324026 -0.31739172
000090 10 bb f4 bd b6 59 cf bd 36 6d ff be ba ea 9f be
       -0.11949742 -0.10124533 -0.4988801 -0.3123377
0000a0 dd 62 e5 bd a5 36 28 3c 1c 59 67 bc 3f 28 69 be
       -0.11200497 0.0102669345 -0.014120366 -0.22769259
0000b0 94 c1 bd 3e 2d ae c6 be 67 4c e3 3e 02 11 e3 be
       0.3706175 -0.3880476 0.44394228 -0.44348913
0000c0 b7 01 6f 3d 7e b5 74 3c 14 d1 f3 3d e0 50 dc bc
       0.058351245 0.014935849 0.11905113 -0.026894033
0000d0 f2 b8 93 bc 0c d2 96 bb 0d 3a 19 3d 18 b9 2e bf
       -0.018032525 -0.0046026763 0.037408877 -0.6825118
0000e0 98 3e d7 be da a4 71 bd 50 a1 f0 bc 11 da 88 3e
       -0.42039943 -0.058995105 -0.029373795 0.2672887
0000f0 05 1a 08 bd d5 e1 6f bb 6c a9 1f 3e 31 12 53 3d
       -0.03322794 -0.0036603112 0.15591973 0.05153102
000100 5b 45 34 bf 1d b2 de be 3c 56 c1 3a 30 98 0f bf
       -0.7041833 -0.43495265 0.0014750431 -0.56091595
000110 e3 88 da be e6 68 2f bd b0 0f e5 3b 70 70 e3 3b
       -0.4268256 -0.04282465 0.0069903955 0.006940894
000120 59 90 77 3d 38 e2 01 3e 04 6d 25 bf 63 a6 61 bd
       0.060440395 0.12683952 -0.6461947 -0.05509032
000130 4a bb 64 be 7b 7d a7 3e 04 1f 40 ba 89 ab 82 be
       -0.2233707 0.32712922 -0.00073288404 -0.25521496
000140 41 0f 93 3e 01 e6 89 3d b3 60 84 bc dc 12 aa 3e
       0.28722575 0.06733323 -0.016159391 0.33217514
000150 93 bf 70 3e a8 27 55 3e af 48 d2 be 5a 0c 81 bc
       0.2351058 0.20815909 -0.41071078 -0.01575296
000160 ec 3e 49 bd 9e 43 23 3f 53 b2 59 3d d8 b7 b2 be
       -0.049132273 0.6377505 0.05314858 -0.34905887
000170 42 3d 37 3f ed 72 27 3d 69 56 e0 be 59 ea 81 be
       0.71577847 0.040881086 -0.43815926 -0.25374106
000180 f8 cc cd bb 3d fc 86 bd 3a f2 1c 3e 96 b9 87 be
       -0.0062805377 -0.065910794 0.15326777 -0.26508778
000190 02 69 3f bd f7 67 14 3e 5f 26 58 bc a9 5d 3f 3e
       -0.046731003 0.14492784 -0.013192742 0.18688072
0001a0 cb 44 3e bf 54 88 19 be 40 11 b6 3c 04 7c bd bd
       -0.7432372 -0.14993411 0.022225022 -0.0925217
0001b0 62 90 ae 3e 0e 6b d2 3e d3 d1 b1 be 69 6d 50 be
       0.3409453 0.410973 -0.34730396 -0.20354237
0001c0 4f bb 78 3d fd 10 03 bf 5c 6a 58 bd 9d 6e d9 3c
       0.060725506 -0.511978 -0.052835807 0.026542002
0001d0 82 b3 06 bf ca 48 b4 be ad af 28 3c 8b 03 3f 3d
       -0.5261766 -0.35211784 0.010295791 0.04663424
0001e0 ef c2 0e be 80 2a 5e be b1 21 e4 3d 60 08 50 bd
       -0.13941549 -0.216959 0.111392386 -0.050789237
0001f0 c8 4d 12 bd 4c eb 55 bd 23 62 d9 bb 0d 20 b0 3d
       -0.03571871 -0.05222635 -0.0066340133 0.08599863
000200 f3 80 19 bf 85 86 f8 bd df d4 53 3c 1a 4a 6c 3e
       -0.59962386 -0.121350326 0.01292917 0.23075143
000210 bf ef 42 bc 76 d1 80 be 71 e5 94 3e ce aa 33 3e
       -0.01189798 -0.25159806 0.290813 0.17545626
000220 8e 8e 1b 3f de 39 34 3c 39 71 85 be 0d 36 c6 be
       0.60764396 0.011000125 -0.26062945 -0.38713112
000230 28 be 1a bf d7 49 54 be ff 1d 2c b9 18 e5 34 3d
       -0.60446405 -0.20731293 -0.00016414373 0.044163793
000240 ab 69 0c be 69 53 ec 3e 68 d8 4a be b0 ff cf bd
       -0.13712184 0.46157387 -0.19809115 -0.101561904
000250 25 7d 19 3e 72 14 67 be 7c d8 89 bd 7c d3 2c be
       0.14989145 -0.22566393 -0.06730744 -0.1687755
000260 df 2e 0d 3e 23 a0 1c 3e 84 00 a2 3e 81 e9 22 3e
       0.13787411 0.15295462 0.31641018 0.15909387
000270 58 8d 78 bd 25 bf 43 3e f9 54 8f be f4 2f d1 bd
       -0.06068167 0.19115885 -0.27994516 -0.102142245
000280 a1 bf 90 bd c5 38 38 3d b0 e6 f1 be 1d ca c3 be
       -0.070678 0.044976015 -0.47246313 -0.38240138
000290 8c cf eb be 65 66 32 bd 72 dd 82 bd 7c b2 b1 be
       -0.46056783 -0.043554682 -0.063898936 -0.34706485
0002a0 7f ce b5 bd 7d a8 6f bd 4a 56 fd bd e8 07 8b 3e
       -0.08877277 -0.058510292 -0.12369974 0.2715447
0002b0 2b a6 c1 3e 84 59 18 3f ad ee 0c be 22 81 32 3e
       0.3782209 0.5951159 -0.13762923 0.17432073
0002c0 eb e9 a1 be 0a ce c4 bd fd 9c 57 be d2 69 ba be
       -0.31623778 -0.09609611 -0.2105598 -0.3640886
0002d0 bc d5 e9 bd 2b dc 91 3e de e9 98 be 7b f4 82 be
       -0.1141772 0.28488287 -0.29865927 -0.2557715
0002e0 7d 2e ea bd 86 51 8f be a0 6a 77 bd 48 1c 91 be
       -0.11434648 -0.27991885 -0.06040442 -0.2834189
0002f0 06 a6 28 3e 8b e9 ef 3d cb 29 4f be df b1 5b bc
       0.16469583 0.11714467 -0.20230787 -0.013409107
000300 09 f5 b6 3d 09 98 0a be b8 c1 f6 be 73 52 58 bd
       0.089334555 -0.1353456 -0.4819467 -0.052813005
000310 f3 f3 18 be 6f 7b eb 3d a7 0e 17 3e d0 dc 1d 3e
       -0.14936809 0.114981525 0.14751683 0.15416265
000320 06 68 db 3d bc 08 b3 bd cd d8 60 3e f4 4c 09 3e
       0.107132 -0.087419 0.21957703 0.13408262
000330 68 99 c0 bb 35 17 44 be e7 da 1a bd 43 50 d6 3e
       -0.0058776625 -0.19149478 -0.037806418 0.4185811
000340 9a 5f 69 be c8 99 a8 3e 70 69 94 3e a2 7a 98 be
       -0.22790375 0.32929826 0.28986692 -0.2978106
000350 da a6 4c 3e 54 45 9b 3d 57 d2 bb 3d 29 f8 2d be
       0.19985524 0.07581583 0.091709785 -0.16989197
000360 89 17 9a 3e e8 4e a0 3d 67 7b 4e be 64 05 f1 bd
       0.3009608 0.0782755 -0.20164262 -0.11768606
000370 3e a0 a1 3e 2b bc d9 be fa b5 9a bd d4 3e 61 bd
       0.31567568 -0.42526373 -0.075542405 -0.05499156
000380 c4 67 0f be ea 44 db 3c d7 b1 59 be f4 5a a3 be
       -0.14004427 0.02676626 -0.21259247 -0.3190533
000390 96 41 81 bd e1 e3 48 3e a5 e0 87 be ed ce 7d bd
       -0.06311338 0.19618179 -0.26538578 -0.061964918
0003a0 d6 83 90 bd b2 39 df bb 71 7f 23 be 06 72 20 3e
       -0.07056396 -0.0068122977 -0.15966584 0.15668496
0003b0 6c 71 b3 3d f9 ff 04 3d f6 11 34 bd 9f a7 0a be
       0.08761868 0.032470677 -0.04396244 -0.13540505
0003c0 89 c1 1a bd 3e 2b 54 bd bb f5 55 be 92 a4 b0 bd
       -0.037782226 -0.05179905 -0.2089452 -0.08625139
0003d0 ca 9f 31 bf 21 78 ac 3c ce 74 1d 3d 2a 75 8c be
       -0.69384444 0.021053376 0.03844147 -0.2743314
0003e0 64 ae 44 be f5 18 91 bd c3 38 2b be e7 ed a4 bd
       -0.1920715 -0.07084838 -0.16720872 -0.08053189
0003f0 c4 43 34 be 73 08 95 bf 70 09 2a 3f 7a a9 69 bd
       -0.17603976 -1.1643203 0.6642065 -0.05704639

conv3.bias f4 [64]
000000 4f 4c 9e bf 22 62 89 bd 5f 27 fa be 03 27 08 bf
       -1.2367038 -0.067081705 -0.48858163 -0.5318453
000010 a1 a3 89 be a9 51 a9 be 9f 4f 95 bf da f9 3b bf
       -0.2688265 -0.33070114 -1.1664923 -0.7342812
000020 8f 48 4a be 32 bd bd bd 98 bc 06 bd fa 29 09 bf
       -0.19754241 -0.09264602 -0.0328947 -0.53579676
000030 84 35 9f 3e 07 08 16 be 91 8b f6 bf 1b 68 a4 be
       0.31095517 -0.146515 -1.9261342 -0.32110676
000040 87 51 55 bf f2 1e 29 be c1 30 94 be b6 9a 60 bf
       -0.83327526 -0.16515711 -0.28943446 -0.8773607
000050 66 83 79 bf 33 73 81 bf 96 b1 c5 bd 44 0b 4b be
       -0.97466123 -1.0113281 -0.096530125 -0.19828516
000060 76 53 97 bf 25 7d 8a be 29 a5 bd 3f 40 65 76 bf
       -1.1822345 -0.27048603 1.4816028 -0.96248245
000070 d2 cd 30 3e 9d b3 7a be ca 6e e8 be f7 f4 99 bd
       0.17266014 -0.2448258 -0.45397025 -0.075174265
000080 7e af 4c be 2f 8c 9e bf c2 ca f5 be a9 6a b3 bf
       -0.1998882 -1.2386531 -0.48006254 -1.4016925
000090 00 61 3a bd 88 18 bb be 7b 9e cd bd 34 4f 17 bf
       -0.045502663 -0.36542153 -0.100399934 -0.5910523
0000a0 10 52 40 bf 58 a7 a9 bf e6 42 11 bf 99 83 90 bf
       -0.7512522 -1.3254194 -0.56742704 -1.129016
0000b0 28 1f d8 be 4c 81 9e bd 6b 45 bf be 43 55 61 bf
       -0.4221127 -0.07739505 -0.3735765 -0.88020724
0000c0 4f f2 29 bd 10 64 a2 bf 5d 6e 11 bf 6a 92 06 be
       -0.04149085 -1.2686787 -0.56809026 -0.1314179
0000d0 52 1d 1c bf 87 41 40 3f 9e 74 c5 bd c7 9b a1 bf
       -0.6098224 0.75099987 -0.096413836 -1.2625664
0000e0 8f 31 49 bf ad d4 28 bf 57 99 ca be 48 8a 0a bf
       -0.78591245 -0.6594952 -0.39570114 -0.5411725
0000f0 1b f6 89 bd aa 05 c0 be 9e 5e 07 bf 5e ef 94 be
       -0.06736394 -0.3750432 -0.5287875 -0.29088873

fc.weight f4 [3, 64]
000000 07 7a 5e 3e 89 2f d0 bb 31 ce 0c bd c2 5e 10 bf
       0.21726237 -0.006353323 -0.034376327 -0.5639459
000010 50 65 bc bc 90 72 7b 3d 07 c7 62 bd cf 21 67 3d
       -0.022997528 0.061388552 -0.05536559 0.056428727
000020 29 6e 10 bf 76 aa 83 bd 99 07 56 3d 4a 43 4b 3d
       -0.5641809 -0.06428997 0.05225334 0.04962472
000030 c2 16 d3 bd e4 50 a1 bd c2 74 b3 bd 09 6b 0a be
       -0.10307075 -0.07876757 -0.08762504 -0.13517393
000040 65 b2 d2 be af 1a f6 3c b7 7a 3a be 6c d2 f2 3d
       -0.4115173 0.03004202 -0.18210874 0.11856541
000050 f0 26 e7 be 7a 7d 03 bf 20 33 bb bd 3b f7 d6 3a
       -0.45146894 -0.5136334 -0.09140611 0.0016400585
000060 f5 db 74 be cd 67 98 3b 93 6a 51 3f 52 e4 3d bf
       -0.23912032 0.004651046 0.81803244 -0.74176514
000070 98 8b 85 3d 4c 40 1b be 5f df eb be f5 f5 c3 3c
       0.06520766 -0.15161246 -0.46068856 0.023920992
000080 72 74 18 3d be 1e 63 be 53 dc 3b 3e 8a bd a0 be
       0.037220426 -0.22179696 0.18345766 -0.31394607
000090 5f c7 00 bc 4b 3e 53 3d 37 80 86 bc 17 47 ad bd
       -0.007860034 0.05157308 -0.01641856 -0.08460825
0000a0 1d 7b 31 bf 61 60 94 be 0c e5 d2 3d 7a 29 f3 bd
       -0.6932848 -0.2897978 0.102975935 -0.118731454
0000b0 fb c1 f2 bd fb 46 d2 3c d1 6f 91 3c 18 a6 14 be
       -0.11853405 0.025668612 0.017753514 -0.14516485
0000c0 47 97 52 3c 16 a8 65 be 72 ff 29 bf 5a fc d1 be
       0.01285345 -0.22427401 -0.66405404 -0.4101284
0000d0 16 10 90 3d 43 34 c3 3f 85 6e 83 bd e1 99 0f bf
       0.07034318 1.5250324 -0.06417564 -0.56094176
0000e0 ad 2d c7 be 59 87 45 3e f0 be 91 3d 7e f3 5b 3c
       -0.38902035 0.19289912 0.071164966 0.013424752
0000f0 b3 9a cf 3c 57 d4 48 bc e6 1b 4c 3d ad 07 92 be
       0.025342321 -0.012257657 0.049831294 -0.2852148
000100 f9 ce f8 3c db f6 ee bc 7a 8c a4 39 3b 5f e1 3d
       0.03037213 -0.029170444 0.0003138518 0.11004492
000110 fb 8f 5b bd 46 b8 ff 3d 94 eb d0 be 97 36 0b be
       -0.053604107 0.12486319 -0.40804732 -0.13595043
000120 83 3b 1b 3f 5a c4 ab 3c 41 f3 d9 3d 6c 02 92 bd
       0.6063768 0.020967651 0.106421 -0.07129368
000130 7e d9 af bf 7f 28 98 bd 23 ca 4d be 7f 1c 36 be
       -1.3738248 -0.07429599 -0.2009664 -0.17784308
000140 41 36 63 be 6e 95 a7 3c 80 ba 63 bd 33 3c 3d 3c
       -0.22188665 0.020456996 -0.055597782 0.011549997
000150 66 69 38 3f 3e 1a 61 3f 1f d7 75 bd 06 fc 04 3e
       0.72035825 0.8793067 -0.06001961 0.12986764
000160 ed 98 8b 3e 7f e6 af 3b 38 8f 91 be 1b 72 66 3d
       0.2726511 0.0053680534 -0.2842958 0.056261163
000170 b7 63 5f 3e ef 47 19 be ce 23 d9 3e 9b 12 8e 3c
       0.21815382 -0.14968847 0.4241013 0.017342856
000180 48 8a 0d 3e ee a1 1b 3e d3 ed 22 3f 08 09 8f bd
       0.13822281 0.1519849 0.6364414 -0.069841444
000190 f5 21 80 bd 4d ed 0a be c1 7b 7f bb 32 66 9d be
       -0.06256477 -0.13567086 -0.0038983675 -0.3074203
0001a0 55 ca e1 3e 5e 70 e7 3e d3 a8 d2 bb db 46 6a 3d
       0.4409968 0.45202917 -0.006428817 0.05719648
0001b0 5d ef df 3d 3a 7d 27 bd 89 1d d9 3d 2e c0 6e 3d
       0.10934327 -0.04089091 0.106013365 0.058288746
0001c0 de d8 e3 3d 92 68 4d bd 01 d9 90 3a 5b 94 0b 3f
       0.111253485 -0.050148554 0.0011051 0.5452325
0001d0 97 df 9f 3e d0 1d a0 3c 65 f4 e3 3c 77 58 42 3e
       0.31225273 0.019545466 0.027826497 0.18979059
0001e0 9a 56 2e 3f 2c 89 0a be b8 1c 20 3e 96 3e 8e 3c
       0.68100893 -0.1352889 0.15635955 0.017363828
0001f0 28 57 23 3d 07 53 5a be 53 3c b9 be 4b 68 19 bd
       0.03987804 -0.21320735 -0.36178836 -0.037452977
000200 e0 62 a9 bd 94 7d ad bd 4e 48 93 3d 6c 03 89 be
       -0.08270812 -0.08471218 0.071915254 -0.26760423
000210 e1 8c df 3d 32 1a 92 bd 25 cc 81 3e de 47 83 3e
       0.109155424 -0.071339026 0.25351062 0.25640768
000220 df 8b 16 3d 18 14 a7 3c 6a 88 67 bd ee de 94 3c
       0.036754485 0.020395324 -0.05652658 0.018172707
000230 ea a5 86 3d ef 36 8a bc 38 0e 87 3e f2 ee 1f 3e
       0.06574614 -0.016871898 0.26378036 0.15618494
000240 44 76 24 3e b3 65 59 3c 84 80 e8 3d 16 40 04 be
       0.1606074 0.013268876 0.113526374 -0.12915072
000250 00 97 34 bf b9 ef 69 bf 0b a2 33 bc 22 ff 62 bd
       -0.7054291 -0.9138141 -0.010963927 -0.055419095
000260 e4 56 71 be 7a 35 14 3d 04 1b 13 be 85 2d d9 bc
       -0.23568302 0.03618381 -0.14365774 -0.026510963
000270 dd e9 97 3c 3b 1d 2e bc 0b 20 a3 bd a0 c3 21 be
       0.018544132 -0.010627086 -0.07965096 -0.15797281
000280 8d fd 86 bc f3 75 cd bd af 6c e4 be d9 18 cd bd
       -0.016478324 -0.10032263 -0.4461417 -0.10014505
000290 ad 8e 9c bc 60 85 8c 3e e5 9a b2 3c 97 e1 53 3e
       -0.019111002 0.27445507 0.021802375 0.20691524
0002a0 9b 12 75 be 28 3e c6 be 31 09 d9 bc 3c 2d 15 be
       -0.23932879 -0.38719296 -0.02649364 -0.14568037
0002b0 ce 00 cb bd 84 ae 0b 3d 4c 39 1f be a1 24 e2 bc
       -0.09912263 0.034101978 -0.15549201 -0.027605357
0002c0 6b 51 15 3c 59 cc 16 3b 4e 58 a2 3d c5 4b b7 be
       0.00911365 0.0023009984 0.07926999 -0.35799995
0002d0 c5 aa 1f be af 35 d5 be f1 4a 3c bd d6 4a f3 3c
       -0.15592487 -0.4164252 -0.045969907 0.02969877
0002e0 ab da 09 bf 93 91 59 be d4 64 da bd e3 9d 70 3c
       -0.53849286 -0.21246938 -0.10663763 0.014686081
0002f0 78 e8 c8 3d c0 71 2b 3e c6 9a 1f 3e 9d 4d 9b 3e
       0.09809965 0.16742611 0.15586385 0.30332652

fc.bias f4 [3]
000000 3a a9 03 3f 2d e3 a9 c1 77 03 5d 3f
       0.51430094 -21.235926 0.8633341
