10by10recording/src/tactile_mlp_model_trial_03.npz (npz, 16380 bytes, 6 tensors)

mean f8 [100]
0.0 0.0 0.0 0.0 0.0 0.0 0.0 0.0
0.0 0.0 0.0 0.00586 0.00732 0.0086 0.01016 0.00778
0.0 0.00614 0.00748 0.00518 0.0 0.00676 0.02188 0.01906
0.0127 0.01056 0.00642 0.01112 0.01224 0.00608 0.0 0.00558
0.01136 0.015 0.01648 0.00988 0.011 0.01078 0.0154 0.0011
0.0 0.00466 0.02928 0.02512 0.04144 0.0314 0.0138 0.01562
0.0149 0.00426 0.0 0.00954 0.05598 0.02114 0.04392 0.04546
0.0072 0.01194 0.0106 0.00026 0.0 0.00378 0.06334 0.01974
0.02622 0.03364 0.00302 0.00936 0.00348 0.0 0.0 0.01126
0.04024 0.01272 0.0015 0.00332 0.0046 0.0109 0.0032 0.00086
0.0 0.01518 0.02372 0.0021 2e-05 0.00344 0.00134 0.00256
0.00306 0.00068 0.0 0.01254 0.0113 0.00144 0.00046 0.00384
0.0 0.0013 0.00428 0.86882
00000000: 0000 0000 0000 0000 0000 0000 0000 0000
00000010: 0000 0000 0000 0000 0000 0000 0000 0000
00000020: 0000 0000 0000 0000 0000 0000 0000 0000
00000030: 0000 0000 0000 0000 0000 0000 0000 0000
00000040: 0000 0000 0000 0000 0000 0000 0000 0000
00000050: 0000 0000 0000 0000 1b47 acc5 a700 783f
00000060: 0820 b589 93fb 7d3f 22fd f675 e09c 813f
00000070: 1fa2 d11d c4ce 843f 758e 01d9 ebdd 7f3f
00000080: 0000 0000 0000 0000 d8b6 28b3 4126 793f
00000090: 4f3b fc35 59a3 7e3f 2b13 7ea9 9f37 753f
000000a0: 0000 0000 0000 0000 8e40 bcae 5fb0 7b3f
000000b0: 9df4 bef1 b567 963f 6aa4 a5f2 7684 933f
000000c0: a60a 4625 7502 8a3f 3884 2a35 7ba0 853f
000000d0: 9626 a5a0 db4b 7a3f f5f3 a622 15c6 863f
000000e0: 6fd3 9ffd 4811 893f 9e0c 8e92 57e7 783f
000000f0: 0000 0000 0000 0000 5ed7 2fd8 0ddb 763f
00000100: 6b48 dc63 e943 873f b81e 85eb 51b8 8e3f
00000110: 72fe 2614 22e0 903f 406a 1327 f73b 843f
00000120: ba49 0c02 2b87 863f f966 9b1b d313 863f
00000130: d200 de02 098a 8f3f 2f6e a301 bc05 523f
00000140: 0000 0000 0000 0000 83fa 9639 5d16 733f
00000150: 0820 b589 93fb 9d3f b7ee e6a9 0eb9 993f
00000160: 2b13 7ea9 9f37 a53f 3255 302a a913 a03f
00000170: 6c78 7aa5 2c43 8c3f 93e3 4ee9 60fd 8f3f
00000180: 32e6 ae25 e483 8e3f 5036 e50a ef72 713f
00000190: 0000 0000 0000 0000 44dd 0720 b589 833f
000001a0: 0ccd 751a 69a9 ac3f 12bd 8c62 b9a5 953f
000001b0: 06d8 47a7 ae7c a63f d864 8d7a 8846 a73f
000001c0: 92cb 7f48 bf7d 7d3f dc29 1dac ff73 883f
000001d0: a167 b3ea 73b5 853f 43c5 387f 130a 313f
000001e0: 0000 0000 0000 0000 f3c8 1f0c 3cf7 6e3f
000001f0: f354 87dc 0c37 b03f 6631 b1f9 b836 943f
00000200: 9a25 016a 6ad9 9a3f f0c4 ac17 4339 a13f
00000210: cc45 7c27 66bd 683f ecdd 1fef 552b 833f
00000220: a722 15c6 1682 6c3f 0000 0000 0000 0000
00000230: 0000 0000 0000 0000 e40f 069e 7b0f 873f
00000240: 9869 fb57 569a a43f 5b7c 0a80 f10c 8a3f
00000250: fa7e 6abc 7493 583f 18ec 866d 8b32 6b3f
00000260: 4850 fc18 73d7 723f 3411 363c bd52 863f
00000270: 2d43 1ceb e236 6a3f 0395 f1ef 332e 4c3f
00000280: 0000 0000 0000 0000 111e 6d1c b116 8f3f
00000290: 0b63 0b41 0e4a 983f 158c 4aea 0434 613f
000002a0: f168 e388 b5f8 f43e 0395 f1ef 332e 6c3f
000002b0: dc11 4e0b 5ef4 553f f168 e388 b5f8 643f
000002c0: 6fd3 9ffd 4811 693f 809f 71e1 4048 463f
000002d0: 0000 0000 0000 0000 037d 224f 92ae 893f
000002e0: 4df3 8e53 7424 873f 0fd6 ff39 cc97 573f
000002f0: dae6 c6f4 8425 3e3f 691d 554d 1075 6f3f
00000300: 0000 0000 0000 0000 94f6 065f 984c 553f
00000310: b919 6ec0 e787 713f 058b c399 5fcd eb3f

std f8 [100]
1e-08 1e-08 1e-08 1e-08 1e-08 1e-08 1e-08 1e-08
1e-08 1e-08 1e-08 0.07632602391400739 0.08524329477961182 0.09233656830712861 0.10028348022321736 0.08786053355870649
1e-08 0.07811723217283463 0.08616293474143145 0.07178557679447457 1e-08 0.08194085695681581 0.14629172405103189 0.13673594675400927
0.11197639143840261 0.10221784797368154 0.07986729742108231 0.10486347170139279 0.10995537548983414 0.0777369613165766 1e-08 0.0744907047208928
0.10597618845533072 0.12155246781143413 0.1273122623560989 0.0989059531985655 0.10430245484191704 0.10326564610422027 0.1231374941386159 0.03314801144805447
1e-08 0.06810496136185988 0.16859028729972136 0.15648958025950363 0.19930562055823722 0.17439622555524778 0.11666002885817946 0.12400007290310694
0.12115276481806851 0.06512951483460595 1e-08 0.09720591722784386 0.22988310985734306 0.14385097593346735 0.20491714837557534 0.2083108076078184
0.08454680177831041 0.10861601434552581 0.1024091892760841 0.01612242917331359 1e-08 0.06136540415661633 0.2435734987053076 0.1391054822143427
0.15978896956854463 0.18030073212831835 0.05487149257518556 0.09629326209994839 0.058888800104774555 1e-08 1e-08 0.10551404887631598
0.19652161797218598 0.11206339206560488 0.038700785186017175 0.057523723371103334 0.06766713643519431 0.10383251936003711 0.05647797030308535 0.02931315380955678
1e-08 0.1222684343784809 0.1521754403426999 0.04577762461675944 0.004472101233417603 0.05855055568493605 0.03658148618672532 0.05053164761447655
0.05523257648028269 0.02606795199779187 1e-08 0.11127780832463673 0.10569915853015383 0.03792001000000021 0.021442687071669953 0.06184865105216315
1e-08 0.03603207904966794 0.06528156635399562 0.33759711840013934
00000000: 3a8c 30e2 8e79 453e 3a8c 30e2 8e79 453e
00000010: 3a8c 30e2 8e79 453e 3a8c 30e2 8e79 453e
00000020: 3a8c 30e2 8e79 453e 3a8c 30e2 8e79 453e
00000030: 3a8c 30e2 8e79 453e 3a8c 30e2 8e79 453e
00000040: 3a8c 30e2 8e79 453e 3a8c 30e2 8e79 453e
00000050: 3a8c 30e2 8e79 453e 345c 8b30 1a8a b33f
00000060: d21e 482b 81d2 b53f ec9e 1a8d 5ea3 b73f
00000070: a345 e39b 2dac b93f b866 3e26 077e b63f
00000080: 3a8c 30e2 8e79 453e 89b5 6fad 7dff b33f
00000090: 3182 d72a c60e b63f bd21 a820 8a60 b23f
000000a0: 3a8c 30e2 8e79 453e edf2 d574 13fa b43f
000000b0: f5c0 3ced afb9 c23f 217f bf41 9080 c13f
000000c0: adeb 261b 7caa bc3f 634d 1dea f22a ba3f
000000d0: 2e86 71e6 2e72 b43f 12a4 801d 55d8 ba3f
000000e0: 808c bf15 0926 bc3f 918c 8bca 91e6 b33f
000000f0: 3a8c 30e2 8e79 453e a7d9 a1a4 d211 b33f
00000100: 4e04 9267 4121 bb3f 2f8a ff01 101e bf3f
00000110: ef7f 99a9 c44b c03f 7517 5e8a e651 b93f
00000120: d944 70d0 90b3 ba3f 3f64 d10c 9e6f ba3f
00000130: 739b 3c56 f085 bf3f 6193 31b2 c6f8 a03f
00000140: 3a8c 30e2 8e79 453e a399 bea5 536f b13f
00000150: f011 30d5 5d94 c53f 0f8e b0be d907 c43f
00000160: 5572 1ab9 d882 c93f d71e a792 9d52 c63f
00000170: 8540 b280 6edd bd3f ac09 d201 78be bf3f
00000180: 6bad b61a de03 bf3f 090f 38f0 53ac b03f
00000190: 3a8c 30e2 8e79 453e 4ea5 78ab 7ce2 b83f
000001a0: 68ba 5e4b cf6c cd3f eee2 9072 b569 c23f
000001b0: 8ed2 54a1 b93a ca3f 501a 0ab5 eda9 ca3f
000001c0: 5f86 9ef4 dba4 b53f 2897 6f55 42ce bb3f
000001d0: ef2a c016 7d37 ba3f 9336 20e8 6582 903f
000001e0: 3a8c 30e2 8e79 453e 26bf ea47 496b af3f
000001f0: ba48 8e99 6a2d cf3f 5807 675c 35ce c13f
00000200: e97a 4707 f773 c43f 51ce f729 1814 c73f
00000210: 94ae 2fc4 1d18 ac3f 1160 8bdb aca6 b83f
00000220: caf3 193d ac26 ae3f 3a8c 30e2 8e79 453e
00000230: 3a8c 30e2 8e79 453e 0f3c 31fd f702 bb3f
00000240: bee2 12d1 9e27 c93f 3f27 00bc 2fb0 bc3f
00000250: 922c 68dd 96d0 a33f 0fff 3edd bf73 ad3f
00000260: 1acd 002a a252 b13f 2fa3 e99a c494 ba3f
00000270: 24dc ca36 aeea ac3f 7d93 d173 4404 9e3f
00000280: 3a8c 30e2 8e79 453e 481b fdee fb4c bf3f
00000290: a35d c31d 7c7a c33f 082f 3c31 2a70 a73f
000002a0: a7be ab88 5651 723f afaa a8a3 56fa ad3f
000002b0: 6343 9ffd ceba a23f ba97 d5bb 48df a93f
000002c0: 3132 50bb 7147 ac3f dc83 37a5 8eb1 9a3f
000002d0: 3a8c 30e2 8e79 453e f75d 86d3 b37c bc3f
000002e0: fc0a 1a9d 190f bb3f cec3 a065 406a a33f
000002f0: bd40 d85e 12f5 953f 3a3a 245b a0aa af3f
00000300: 3a8c 30e2 8e79 453e 991b 40f2 cb72 a23f
00000310: 10a6 85f0 4ab6 b03f f327 b0f1 309b d53f

W1 f8 [16, 100]
-0.006427116411386862 0.02044009646722335 -0.014297135768967892 0.0036779750766530246 0.0044346322303305645 0.009007798132182642 0.0037477131471463044 0.009620136965166028
-0.008325110730909288 -0.007699133183435739 -0.011022386621389048 -0.0207352251386619 0.02515263504540222 0.0928950679805608 0.1533020146774416 0.05539482679988347
0.006846555094795322 -0.021185206837595824 0.009541379353663343 -0.018700878648933442 0.019985219806974267 -0.011489876458184351 0.13034514324930094 0.1561368727866868
0.15507603735552866 0.059250155270011685 -0.018397920378060786 0.03770806575679056 0.10445474951358331 -0.019963734442837625 -0.0010087368006070473 -0.011100239843300209
-0.06562076620822972 0.08219380351068609 0.04402274390516784 -0.0028503353399877062 -0.032892950238443346 -0.00604935681228608 0.14444328974220166 -0.003875250377876895
0.0021567081576199312 -0.012868006951673203 0.010756231620558578 -0.05251466052603682 -0.04343857361017033 -0.021335740921630632 0.05167723973301653 -0.006417366350028401
0.022502273300948204 -0.004500089064710967 -0.005451550609348338 0.0006932481175866283 0.08925816593628716 -0.018552300343770714 -0.018721692831948196 -0.03126675848961764
-0.030555305174590725 -0.008165504166758005 0.06609336175878244 -0.0014230458225917358 0.021064298440991478 0.02488374973984539 0.04833374669478006 -0.02826515542774985
-0.009857416739462959 -0.022925627024751625 -0.014505778072410758 0.09236125664935894 0.033381248376338345 0.0106480201813892 0.008417758940332752 0.0009588952233316656
0.05321168862329016 -0.011247145803565128 -0.019704696819405128 -0.009181990065599898 0.023039455313741308 0.08826605899342609 0.053251593369282764 -0.015752419904755722
0.01549054316721552 -0.0034657574127419403 0.0942685928793139 -0.005954983595430822 -0.006819907827070683 -0.0029632288900289148 -0.015493621223464904 -0.025023194180138444
-0.0070203969114287215 -0.0036183307619275834 0.0014166636408245862 0.01296220234127651 0.08437551192700105 -0.0017627418275251222 0.000892516812440778 -0.003973284283942049
0.01724741780607552 -0.006656507925887306 -0.010632825694888645 0.05252811172570544 0.0007821786092898789 -0.003826996443604412 -0.013536641640390678 0.012580002043379017
-0.005660846612390318 0.001467034154260651 0.020908338621974925 0.009111048751834903 -0.0007168437751261411 0.008136040977505756 0.005857201586473916 0.11715887832670019
0.0166615321674547 -0.008981613984299072 -0.012887323422808945 0.029601086943199743 0.01312028845725847 0.1472743213619717 0.06956457338928641 0.12350124934884507
0.004159528034669923 0.09405365719567114 -0.0024713416827532022 -0.035321433742881186 -0.018822358162289637 -0.014191094536907449 0.16628385275743476 0.0935367973042478
-0.0008835832004168571 0.12751896469632162 -0.005440024107152871 0.10200766506867896 0.06984757679714929 0.033476752605859916 0.004667611505987553 0.10174625378089272
0.11535140214064608 0.06317172547359573 -0.02687354036763455 -0.0004988913505194385 0.013309643904222259 0.19628129723694418 0.04210669242484673 0.060101197122909726
-0.0319664287292112 -0.01123517928919563 -0.011687761457815582 -0.009640084692353723 -0.027999850090733063 -0.012614523072489314 -0.002043776482932363 0.0008627513299123161
-0.0592261207531462 -0.014217334362554016 -0.04190871758722152 -0.005563154991631667 -0.07952316510421407 -0.05201114386177686 -0.032217710529536495 0.022051761034899336
-0.00987943069532824 0.06607296303346122 -0.03744631173362673 0.06550133386790091 0.014565797370130095 0.016429539078635466 0.015804175425720806 -0.022002456739597585
-0.0009778445324573272 0.009617189446550975 -0.009567612185426351 -0.0020106034847002015 -0.02999071444536357 0.07854361714371913 -0.022527973651704218 0.11678424796537147
0.013755884113702137 0.0025063607831913776 -0.014956264132265602 0.028792437095663394 0.0010719294499432943 -0.025315139414071545 0.0031078684395183264 0.11370054779585527
0.020494839677484795 0.11555180467092156 0.09080701725281451 0.02204073138631843 0.008160095404708922 0.04856377949952197 0.0032391021944466725 -0.017393327884886466
0.0022434152683011763 0.09704133040999914 -0.012096702896068137 0.12292978155397633 -0.004579997173104453 -0.018012341385930965 -0.023680751913061383 0.0052153079746932
0.0031785693404430167 -0.001953463248387703 -0.0021510129796106932 -0.007390715859589947 -0.01769837058543999 -0.007779125147614898 0.010702724604193047 0.008455419562450864
-0.00701513787877347 -0.0010090391121427265 -0.014388425286424086 0.03862991034342275 0.0033154615188774627 0.009753770900534427 -0.016392178629972564 0.03167048989869101
-0.003027724999970699 0.054984012128247016 0.05939506827687358 -0.005137781194054097 -0.014086406294496479 0.002886082163766413 0.008016986355558364 -0.0004275831267583563
-0.0006174273729445237 0.02970727911209548 0.07320538705928861 0.02526848578322139 -0.00430168608752014 -0.01050968903759979 -0.004077318158434184 -0.003136293844096547
-0.0040919959762265885 0.02329477108330028 0.02462835687439718 0.04980134151247195 0.06055385932253026 -0.007205374056422983 -0.022363972060329026 -0.006330751400598216
0.010048947008780784 -0.015491235404006579 -0.004824488080363639 0.030560324343723265 0.05078861929733933 0.04637129752524774 0.08283880134068759 0.003882357771266353
-0.02047625740678739 -0.012773269396071716 -0.002246042526603462 -0.02492509232186845 0.009558409741049228 0.010120717948126922 0.049738376244331105 0.02366692463664508
00000000: ac3c b6ec 5153 7abf 054d 6aa7 3fee 943f
00000010: 98fa 6e14 d147 8dbf 1169 6ed5 4521 6e3f
00000020: ec89 6286 0c2a 723f 33f3 1733 ae72 823f
00000030: 3667 db2c 86b3 6e3f 6efb 2fed b8b3 833f
00000040: 9842 9972 c10c 81bf 04bd af53 2089 7fbf
00000050: a17a 80b0 e792 86bf 450c 6267 9d3b 95bf
00000060: e180 b6c3 9cc1 993f 28ab ef9e f8c7 b73f
00000070: c2aa b981 669f c33f 0c38 f2f2 b55c ac3f
00000080: c8fb 8e23 220b 7c3f dc1a 1b2a 93b1 95bf
00000090: 63ff 4242 6e8a 833f 6185 d0b8 5226 93bf
000000a0: b1b5 e565 0177 943f 0ade fb1c 0188 87bf
000000b0: 0d5e b94f 26af c03f aac5 2805 4bfc c33f
000000c0: 20ea 6a16 88d9 c33f 95d2 554e 0956 ae3f
000000d0: a74c 5a89 e7d6 92bf 0411 71ba 784e a33f
000000e0: 459d 12e5 8bbd ba3f c4ed 268a 5f71 94bf
000000f0: 3883 68e4 f286 50bf fa7c d6f8 b8bb 86bf
00000100: dd84 cdc4 85cc b0bf 9a22 0332 a70a b53f
00000110: 95ac b42a 268a a63f 2e13 2c22 9659 67bf
00000120: 370d 1643 58d7 a0bf c3ca bada 35c7 78bf
00000130: 60e2 c822 1e7d c23f 849b 6034 fdbe 6fbf
00000140: 10b8 20e0 f1aa 613f 3256 2da8 8a5a 8abf
00000150: 2ed9 4ef8 5c07 863f 712c 0a9b 33e3 aabf
00000160: 9fc5 14aa 943d a6bf 4a32 fa55 09d9 95bf
00000170: a1a3 336d 7075 aa3f dedf 98a9 1849 7abf
00000180: d924 a7ff d50a 973f 5bd6 ca75 af6e 72bf
00000190: 9334 4679 5d54 76bf 7f33 1cff 62b7 463f
000001a0: 4ce8 9887 9fd9 b63f d4df f7cc 5fff 92bf
000001b0: b282 c189 c72b 93bf a965 5452 3202 a0bf
000001c0: a5d3 c6d1 e349 9fbf cb07 d06a 13b9 80bf
000001d0: 4096 3c9b 7eeb b03f 210d 33d1 af50 57bf
000001e0: 8941 ab23 e191 953f 1883 562d 207b 993f
000001f0: edc7 b16a 33bf a83f d8d3 b678 8af1 9cbf
00000200: 89fc 2614 2030 84bf 9914 3fc9 d079 97bf
00000210: 1a6e 6493 34b5 8dbf 3bf9 b9c0 fca4 b73f
00000220: ebec 26d4 5817 a13f f6d8 9113 a1ce 853f
00000230: 9fb0 d57a 543d 813f b49e efcf cb6b 4f3f
00000240: 8ece cdfc 8f3e ab3f c67e 325b be08 87bf
00000250: 62f2 aad1 772d 94bf a601 5ad8 01ce 82bf
00000260: 2356 5cac a797 973f ff3b b9bc 9a98 b63f
00000270: 6140 f6f7 ca43 ab3f 5d8e 4b01 6721 90bf
00000280: 335b 6782 81b9 8f3f 468a cb57 3864 6cbf
00000290: 31e3 748b fc21 b83f ab43 a6bc 4064 78bf
000002a0: a898 4311 31ef 7bbf 6b27 8b65 5746 68bf
000002b0: 1374 9ca3 1ebb 8fbf c4a2 9422 ae9f 99bf
000002c0: 5f7f 3b72 6bc1 7cbf 8920 3c89 30a4 6dbf
000002d0: bffb 6e00 eb35 573f ee8c 1e59 ed8b 8a3f
000002e0: 4c4a 4f30 a299 b53f 1c62 08a0 79e1 5cbf
000002f0: 86d1 a142 f93e 4d3f 7676 ea60 4a46 70bf
00000300: 3e90 ab9d 4ea9 913f d356 8ebd da43 7bbf
00000310: f829 fdb4 a9c6 85bf 5a0f f7f3 f6e4 aa3f
00000320: 92b8 f4c5 63a1 493f 166a 2612 cb59 6fbf
00000330: b32b 2549 19b9 8bbf e920 e14a 8bc3 893f
00000340: 9212 16f1 d32f 77bf 3c10 bded 2f09 583f
00000350: 9b5b 61da fe68 953f 0c03 5f43 d0a8 823f
00000360: 9767 0649 527d 47bf 01a3 56ef a0a9 803f
00000370: cee5 2894 b8fd 773f 8466 d9ce 1ffe bd3f
00000380: a1b8 0a7f b80f 913f 7875 9fd2 f364 82bf
00000390: b74e 1245 ab64 8abf 016d 6351 bf4f 9e3f
000003a0: 553f b44e cfde 8a3f 5327 e58c e2d9 c23f
000003b0: 1dcc aadf fbce b13f 16eb f722 c79d bf3f
000003c0: 99e0 02ce 9409 713f 8f7f b985 e613 b83f
000003d0: fea0 8c76 c73e 64bf ec08 8ca5 a615 a2bf
000003e0: 6868 f612 2b46 93bf ef95 7177 3810 8dbf
000003f0: 8d18 b90e ca48 c53f 80f2 640d 07f2 b73f
00000400: 81a1 7b79 08f4 4cbf 0cc8 7e9b 8a52 c03f
00000410: 2f24 135a 4748 76bf cf4a 69a1 2c1d ba3f
00000420: 5a71 0ce2 87e1 b13f a0a5 3c6b dd23 a13f
00000430: c963 4c6c 581e 733f 46bd 7ae0 0a0c ba3f
00000440: dfe7 bd63 ab87 bd3f 50e4 f0ae 052c b03f
00000450: 3ce3 06c4 bc84 9bbf a74d 7204 0159 40bf
00000460: ae00 522a 1642 8b3f 1b7d 39dc be1f c93f
00000470: fa9c d025 028f a53f 1fcb 2f88 95c5 ae3f
00000480: 237b ec5b e75d a0bf 14f3 e43c 7802 87bf
00000490: c052 ccc9 c0ef 87bf 20e8 df43 2ebe 83bf
000004a0: cbfb ba21 feab 9cbf b367 68a0 a4d5 89bf
000004b0: 8ce5 f124 1cbe 60bf 0e14 8f5f 4845 4c3f
000004c0: a74c 68d7 e252 aebf 02dc fc50 fa1d 8dbf
000004d0: 46a9 e836 0f75 a5bf b1b4 060c 64c9 76bf
000004e0: 4fa2 6551 a15b b4bf 71e8 d363 34a1 aabf
000004f0: e217 27fa d67e a0bf f83c dba1 bc94 963f
00000500: 7390 eabd aa3b 84bf 88e7 605f 28ea b03f
00000510: 19e5 80b8 292c a3bf 5098 ce06 b2c4 b03f
00000520: 064c c23a acd4 8d3f ecd6 1fb4 e7d2 903f
00000530: 8bf7 5f42 f82e 903f c94d 83e0 cf87 96bf
00000540: 6204 6692 6005 50bf 380f 3851 2db2 833f
00000550: c46b 7f2b 2f98 83bf 4ccb c886 8a78 60bf
00000560: 95f2 e7c6 e2b5 9ebf 061b f13a 6f1b b43f
00000570: de1e 51b8 9211 97bf 6900 b38d 92e5 bd3f
00000580: 56d6 2a83 0b2c 8c3f 6da9 1033 3888 643f
00000590: 0a1f 8cca 63a1 8ebf 87c3 cabe c37b 9d3f
000005a0: 5390 977b ff8f 513f 312b 823f 36ec 99bf
000005b0: 8526 db29 ac75 693f 310b 52a6 7a1b bd3f
000005c0: a532 9b68 99fc 943f eb2d 0e96 cd94 bd3f
000005d0: 1a20 59f1 203f b73f 38c7 ef71 d891 963f
000005e0: 66e9 2977 3db6 803f c2f2 7009 5add a83f
000005f0: fb29 cbbf e388 6a3f e39c bc79 8ecf 91bf
00000600: ebac ad66 c860 623f 95a5 785c b3d7 b83f
00000610: 08d4 9ffa 27c6 88bf 848f 7a7f 5378 bf3f
00000620: 2427 30a1 79c2 72bf 3735 b5c4 d371 92bf
00000630: 1a8f 0b5c c43f 98bf acba 0993 a55c 753f
00000640: e84c b06b f109 6a3f a321 8198 b500 60bf
00000650: a387 d24c 009f 61bf 8052 932e ba45 7ebf
00000660: 1f85 6d8b 851f 92bf e9a2 9b01 01dd 7fbf
00000670: 6c8e 3961 4feb 853f 751d f533 1351 813f
00000680: da9c 42bc e7bb 7cbf f5a0 2b7f 3788 50bf
00000690: de79 5ec0 ad77 8dbf 4c13 25b3 4cc7 a33f
000006a0: 8563 6ed9 0629 6b3f 0468 3ef8 c8f9 833f
000006b0: c3f1 807c 1cc9 90bf 3cf2 b94c 1d37 a03f
000006c0: c0a0 657b 99cd 68bf 8391 c94b dd26 ac3f
000006d0: a1f1 95c7 0769 ae3f 2c4d 3da3 5a0b 75bf
000006e0: e001 d372 55d9 8cbf 1be6 3890 8da4 673f
000006f0: 8043 adb1 356b 803f 852d b68b a705 3cbf
00000700: 690a ee2f 5b3b 44bf 2158 f5c0 956b 9e3f
00000710: d287 4f97 96bd b23f 22c7 3b60 fbdf 993f
00000720: 8d54 0411 a59e 71bf 1a35 a995 1a86 85bf
00000730: 2673 55c2 60b3 70bf 2e9b b6ef 48b1 69bf
00000740: a2c7 4ace c4c2 70bf 09e0 e19f 95da 973f
00000750: afaa 510d 2d38 993f f09c 2fba 8f7f a93f
00000760: 17ab df5a ea00 af3f 9633 d8de 6183 7dbf
00000770: 7f5b 6ec2 94e6 96bf 5f45 9823 46ee 79bf
00000780: 8079 18d6 8a94 843f 5590 7a6b deb9 8fbf
00000790: 16d3 66a8 d7c2 73bf 661e 72a6 344b 9f3f
000007a0: ec39 c845 f700 aa3f 0424 b08c fabd a73f
000007b0: b31c 9976 ec34 b53f 3234 16f5 e4cd 6f3f
000007c0: 8363 a05f baf7 94bf c591 8d32 df28 8abf
000007d0: 475b 4fe6 4a66 62bf 7e23 7da1 f685 99bf
000007e0: e9a5 ea09 5c93 833f 2641 cbc4 2bba 843f
000007f0: e3ad a6f6 4e77 a93f 19c2 3e6d 243c 983f

b1 f8 [16]
0.07269505046404455 0.12558744086605286 0.08506644774332106 0.3435178265398365 0.10519428836448938 0.32784409624377236 0.21969982095764512 0.08875621714395063
0.4387594375014452 0.11968923093432132 0.13487974685217063 0.15751568319366155 0.24725264130507815 0.06155885899968833 0.18273430171964491 0.1983527296728378
00000000: e7fa 5290 249c b23f 8f6d a7cf 3f13 c03f
00000010: 8861 0b2b eac6 b53f e938 a531 32fc d53f
00000020: ae60 404c 03ee ba3f 796f e3cd 65fb d43f
00000030: 3a9e f9ac 1f1f cc3f 6e2f f339 bab8 b63f
00000040: f452 b876 a214 dc3f 6cda 8b14 f4a3 be3f
00000050: f4b8 cf52 bd43 c13f 7a41 f651 7929 c43f
00000060: 87a1 207c f9a5 cf3f a98f 5d8c a484 af3f
00000070: 8523 df6c d663 c73f 8832 824b 9f63 c93f

W2 f8 [3, 16]
-0.19687631782862494 -0.26051259425434975 -0.1875985034467265 -0.8230752594370003 -0.4032452070773698 -0.5617991200797889 -0.5118813932781945 -0.2622204576339633
-0.6821052578382625 -0.30736826860091615 -0.4179577801473474 -0.41143354301960205 -0.44934048121856257 -0.16331164067649953 -0.4996862183803587 -0.32851353127416044
0.3994712966222814 -0.23231504593428437 0.03538734744863226 1.168107244910458 0.5040611563314051 -0.5107069050957875 0.6906813866147523 0.3604538029810896
-0.784840954488075 0.3267721385934779 0.5470130078426602 0.49061626658836954 -0.31651686979105986 0.20334205765061883 0.6105001229771718 -0.24486719771671023
-0.162563165062733 0.45783024775788456 0.16020925388227023 -0.38572141978444796 -0.09048738879659565 1.0946005596996606 -0.1754038365307449 -0.11554299416568048
1.474039393240657 -0.015430348295564677 -0.12533093522022182 -0.0596137564145427 0.7755184564765096 -0.03867313950803335 -0.13402045325242445 0.5773176640384058
00000000: f525 3741 3e33 c9bf eb2f 2104 3dac d0bf
00000010: a186 8a4e 3a03 c8bf 5ab7 2ded a156 eabf
00000020: 95a0 2afc c4ce d9bf b441 f525 42fa e1bf
00000030: bef1 7116 5561 e0bf 5852 7850 38c8 d0bf
00000040: 1e0a db67 ced3 e5bf 6205 5ef5 ebab d3bf
00000050: 06dd 35fd d1bf dabf 4bc8 ef5a ed54 dabf
00000060: 7791 e693 fec1 dcbf 5d7e e155 65e7 c4bf
00000070: cf27 8de7 dbfa dfbf 6b6c 479e 5d06 d5bf
00000080: 0ebd ab0e f090 d93f d607 54da 7fbc cdbf
00000090: 51d7 f757 4a1e a23f fbc6 f138 91b0 f23f
000000a0: 1313 b4dc 4421 e03f 004a e701 b657 e0bf
000000b0: e0eb eed9 0f1a e63f 6572 e1d3 ac11 d73f
000000c0: 7ece 02c7 6a1d e9bf 9d30 20b0 d5e9 d43f
000000d0: 5577 656c 2181 e13f 947d f8c4 4166 df3f
000000e0: 14a2 18f9 cf41 d4bf 6760 c1cf 1c07 ca3f
000000f0: 8282 cc8d 3789 e33f 4e39 07ef ce57 cfbf
00000100: a645 bdaa dece c4bf 1b57 4f3d 174d dd3f
00000110: cb6f f8a0 bc81 c43f 2ad1 d5e4 a8af d8bf
00000120: d6f1 9477 2e2a b7bf 507e 61e0 7b83 f13f
00000130: 9109 bf06 a273 c6bf 6038 39c5 3994 bdbf
00000140: b7bf af54 aa95 f73f 06db 5c4a f299 8fbf
00000150: 5656 f915 d80a c0bf 4164 62bc b185 aebf
00000160: 2e5a 0015 0cd1 e83f 465f d73a f7cc a3bf
00000170: de6c db0b 9527 c1bf 9356 cee4 6279 e23f

b2 f8 [3]
1.5269226178143163 -1.2304712857174827 -0.2964513320968272
00000000: 2990 3069 466e f83f b62d ada8 02b0 f3bf
00000010: 5989 0d02 0ff9 d2bf
