10by10recording/src/tactile_gcn_02.pth (torch, 50927 bytes, 8 tensors)

layers.0.linear.weight f4 [64, 50]
0	0x3f868736	1.0510013
1	0x3f3da783	0.7408373
2	0x3f563d8c	0.83687663
3	0xbd9693c5	-0.073524036
4	0x3f82423e	1.0176466
5	0x3f875716	1.0573452
6	0x3f5e97f6	0.86950624
7	0x3f2e2bba	0.6803547
8	0x3f62d191	0.8860102
9	0x3fde8866	1.7385375
10	0x3eb49f23	0.35277662
11	0x3da9eb33	0.08296814
12	0xbf4aeadb	-0.7926461
13	0x3e12c995	0.1433471
14	0x40a5cffe	5.1816397
15	0xbf87767e	-1.0583036
16	0xbf8f2a09	-1.1184703
17	0xbf57ba69	-0.84268814
18	0xbfb86cec	-1.440824
19	0xc0a7b9fb	-5.2414527
20	0xbf0d62e3	-0.55229014
21	0xbf1dc1c1	-0.6162377
22	0xc0755e65	-3.8338864
23	0xc07e8946	-3.9771285
24	0xc09b302e	-4.8496313
25	0xbf9c7914	-1.222445
26	0xc08dea9c	-4.434889
27	0xc0707371	-3.757046
28	0x3f837dfb	1.0272821
29	0x3e41e1d0	0.18933797
30	0x3f7edbab	0.99553937
31	0x3f5ee305	0.87065154
32	0xc02eeeab	-2.7333171
33	0xc0101b14	-2.2516527
34	0xbf769540	-0.9632149
35	0x3d5a0666	0.05322876
36	0x3e2f0f0c	0.17095584
37	0x3da8108e	0.082062826
38	0x3e93837c	0.28811252
39	0xc0b5f4c1	-5.686127
40	0x3fc756ca	1.5573361
41	0x401b61c9	2.4278433
42	0x3f48193a	0.7816349
43	0x3edc62ee	0.43044227
44	0xbe92bf6d	-0.2866167
45	0xbfbc69d4	-1.4719796
46	0x3f03e045	0.51514083
47	0x3f58c434	0.8467438
48	0x4040bb07	3.0114152
49	0x4095851b	4.672498
50	0xbce009d1	-0.02734843
51	0xbd4a9177	-0.049455132
52	0xbe269d7c	-0.16271013
53	0xbd20caa9	-0.03925577
54	0xbbf1208a	-0.0073586153
55	0x3d8f7754	0.07005182
56	0xbddc5eee	-0.10760294
57	0xbd820ba0	-0.063498735
58	0x3d73f768	0.059562117
59	0xbe29dc69	-0.16587986
60	0xbe38f4c6	-0.18062124
61	0xbbdaffa2	-0.006683306
62	0xbdbb4b82	-0.09145261
63	0xbe437d4e	-0.19090769
64	0x3d9a4ebe	0.0753455
65	0xbc29ff4d	-0.01037581
66	0xbd8e84e0	-0.06958938
67	0xbda4202f	-0.08013951
68	0xbbfe109f	-0.007753446
69	0xbe24ed6c	-0.16106194
70	0xbe29d7a8	-0.16586173
71	0x3d8f03b5	0.06983129
72	0xbd9f9f8b	-0.07794102
73	0xbe40e769	-0.18838276
74	0xbe02caca	-0.1277267
75	0x3b15c238	0.002285136
76	0xbd530c4a	-0.05152539
77	0x3d9fcc44	0.078026325
78	0xbe0e52d9	-0.13898791
79	0x3d19521f	0.037431832
80	0xbdf9b820	-0.12193322
81	0xbd4ea5f8	-0.05045125
82	0xbdb6abcd	-0.08919487
83	0xbe1ffb3e	-0.15623185
84	0x3c682d81	0.014171005
85	0x3d06b49e	0.032887094
86	0xbcbf9984	-0.023388632
87	0xbdfa5b4d	-0.122244455
88	0x3cb58148	0.022156373
89	0xbb6483c5	-0.003486858
90	0xbe06665c	-0.13124985
91	0xbd9f1e8c	-0.07769498
92	0x3d0703d6	0.032962643
93	0x3ccb7468	0.02483578
94	0xbe3263b8	-0.17420852
95	0xbe347673	-0.1762331
96	0xbe2be388	-0.16786015
97	0xbe179cb2	-0.14805868
98	0xbbc20631	-0.005921148
99	0xbd93f946	-0.072252795
100	0xbd94d4ba	-0.07267137
101	0x3daa96d0	0.083295465
102	0xbda84efe	-0.082181916
103	0x3cd2a744	0.025714524
104	0xbd7935a3	-0.060842168
105	0x3cbc2ec9	0.022971528
106	0xbdd143d8	-0.10218018
107	0xbdd11061	-0.10208202
108	0xbd320a61	-0.04346693
109	0xbcd32314	-0.025773562
110	0xbde18d50	-0.11013281
111	0xbe543b82	-0.20725825
112	0xbdce1582	-0.10062696
113	0xbd90c460	-0.070687056
114	0xbd95d86d	-0.073166706
115	0xbd88ea16	-0.06685273
116	0xbc08a65f	-0.008340447
117	0xbde0957e	-0.10966013
118	0xbd825883	-0.063645385
119	0xbcb49b83	-0.02204681
120	0xbe5fe26c	-0.21863717
121	0x3c52261f	0.012826472
122	0xbe359b9d	-0.17735143
123	0x3d183fe6	0.037170313
124	0xbdc829b4	-0.09773579
125	0x3c55c3c5	0.013047163
126	0x3d4a2acd	0.049357224
127	0x3d6ee742	0.058326013
128	0xbdeefcfe	-0.11669348
129	0xbe569437	-0.20954977
130	0xbd2e8e08	-0.04261592
131	0xbcafab19	-0.02144389
132	0xbb4a4acc	-0.0030867336
133	0xbd98d2fa	-0.074621156
134	0xbc8d7177	-0.017266018
135	0xbe16682d	-0.14688177
136	0xbdf24977	-0.118304186
137	0xbc3fdcdc	-0.011710372
138	0xbdb3543a	-0.08756299
139	0xbe1aebee	-0.15129063
140	0xbdff660a	-0.12470634
141	0xbcb1240b	-0.021623632
142	0x3d815179	0.06314368
143	0xbd2bc882	-0.041939266
144	0xbe43445c	-0.19069046
145	0xbc804656	-0.015658539
146	0xbda02ee1	-0.078214414
147	0xbd3ac090	-0.0455938
148	0x3c360f49	0.011112043
149	0x3c70dc2c	0.014700931
150	0xbe4e785d	-0.20163102
151	0xbd521794	-0.051292017
152	0xbe3bfe44	-0.18358713
153	0xbda03e7b	-0.07824417
154	0xbd554a7b	-0.052072983
155	0xbdbc798f	-0.09202873
156	0xbda1bc26	-0.078972146
157	0xbcea1df1	-0.02857873
158	0xbe54dd2e	-0.20787498
159	0xbd43048a	-0.04761175
160	0xbe7e2a7b	-0.24820893
161	0xbddaebaa	-0.106894806
162	0xbe539bfb	-0.2066497
163	0x3d1ddb24	0.038539067
164	0xbe4933dd	-0.1964869
165	0xbe1ed277	-0.15509973
166	0xbe2fcd2b	-0.17168109
167	0xbe391429	-0.18074097
168	0xbe0ab01a	-0.1354374
169	0xbe64012f	-0.22266077
170	0x3b069fcd	0.0020542026
171	0xbe1ba9ec	-0.15201539
172	0xbe65a8e1	-0.22427703
173	0x3c2dcc3a	0.010607773
174	0x3d904ea7	0.07046252
175	0xbddb2d2c	-0.10701975
176	0xbdc26ea7	-0.094937615
177	0x3b905334	0.00440445
178	0xbe22e968	-0.1590935
179	0xbcc98ef5	-0.0246043
180	0xbe1b7faf	-0.15185426
181	0xbdd1d9f6	-0.10246651
182	0x3d188eb9	0.037245486
183	0xbd0f6b04	-0.035014167
184	0xbe00dca9	-0.12584175
185	0xbe31dc22	-0.1736913
186	0xbe4a919c	-0.19782108
187	0xbdfdc56d	-0.123911716
188	0xbdd1b746	-0.10240035
189	0xbe1a55f8	-0.15071857
190	0xbe46f88e	-0.19430754
191	0xbc6a0ffe	-0.014286039
192	0xbe6b7846	-0.229951
193	0xbe155ccf	-0.14586185
194	0xbe1631f4	-0.14667493
195	0xbe0582d5	-0.1303819
196	0xbe362c4c	-0.17790335
197	0xbde60d4b	-0.11233004
198	0xbc9a3f46	-0.018829
199	0xbe86475b	-0.26226315
200	0x3faba634	1.3410096
201	0x3f8b537e	1.0884855
202	0x3f84a79b	1.0363649
203	0xbe51c19f	-0.20484017
204	0x3ffbe17f	1.9678191
205	0x3f575a33	0.8412201
206	0x3f2da9b3	0.67837065
207	0x3efda741	0.49541667
208	0x3f35d1f1	0.7102347
209	0x3fdfbaaa	1.747884
210	0x3ef3515e	0.47523016
211	0xbe8b9ce2	-0.2726813
212	0xbf2cf20d	-0.6755684
213	0xbdc9dc84	-0.09856513
214	0x40600fe2	3.5009694
215	0xbeb3243e	-0.34988588
216	0xbeb2f436	-0.34951943
217	0x3deaf766	0.11472969
218	0xbf2e4ea4	-0.68088746
219	0xc0c54621	-6.1648107
220	0xbf36ba6b	-0.713782
221	0xbfd6fa3b	-1.6795114
222	0xc0a32376	-5.0980787
223	0xc085a052	-4.1758204
224	0x3e31236b	0.17298667
225	0xbe8b49c5	-0.2720472
226	0xbf71fc99	-0.9452606
227	0xc007b9b8	-2.1207104
228	0xbfa15306	-1.2603462
229	0xbfe6f349	-1.8042995
230	0xbf9f947c	-1.2467189
231	0xbf973e13	-1.1815819
232	0xc05b25f9	-3.4241927
233	0xbfd6a873	-1.6770157
234	0xbfd2f179	-1.6479942
235	0xbcb44c02	-0.0220089
236	0x3f01e1fb	0.50735444
237	0x3e0145bf	0.12624262
238	0x4013719c	2.3038092
239	0xc0772fd4	-3.8622942
240	0x4039a36a	2.900599
241	0x40710217	3.7657526
242	0x3f8512ad	1.0396324
243	0x3fe3c818	1.7795439
244	0xc02220b7	-2.5332468
245	0xc02a929c	-2.6651983
246	0xbf11037f	-0.5664596
247	0x3ec62afc	0.3870467
248	0x402b7d12	2.6795087
249	0x40b26769	5.5751233
250	0x40449d2b	3.0720928
251	0x3fead344	1.8345723
252	0x3ff15ab0	1.8855801
253	0xbfc7b802	-1.560303
254	0x40024ea4	2.0360498
255	0x3f251429	0.64483887

layers.0.linear.bias f4 [64]
0	0xbeff4b77	-0.49862263
1	0xbd948301	-0.072515495
2	0xbdd24260	-0.10266566
3	0xbbe55f15	-0.00699986
4	0xbed59954	-0.41718543
5	0xbf0063b4	-0.50152135
6	0xbf87f856	-1.0622661
7	0xbe59c554	-0.21266681
8	0xbf9a25aa	-1.2042744
9	0xbdf39ce5	-0.1189516
10	0xbfaa9ace	-1.3328493
11	0xbedd9be4	-0.43282998
12	0xbe93aff9	-0.28845194
13	0xbda00b73	-0.07814684
14	0xbe137c07	-0.14402781
15	0xbf25cb8f	-0.6476373
16	0xbe19ac51	-0.1500714
17	0xbf2a5af0	-0.6654501
18	0xbfa98a51	-1.3245336
19	0xbffb75f8	-1.9645376
20	0xbe0b52b6	-0.1360577
21	0xbd99a74b	-0.07502612
22	0xbf76b187	-0.96364635
23	0xbcf60a8d	-0.030034328
24	0xbfb165c6	-1.3859184
25	0xbf688d58	-0.90840673
26	0xbe414629	-0.1887442
27	0xbe207460	-0.15669394
28	0xbf5a62ec	-0.8530719
29	0xbe7d3345	-0.24726589
30	0xbe117152	-0.14203385
31	0xbd711ba1	-0.05886424
32	0xbde70b4e	-0.11281453
33	0xbfa0768a	-1.2536175
34	0xbe8d899f	-0.2764406
35	0xc0afcbb1	-5.4936147
36	0xbfb33f62	-1.4003718
37	0xbd032251	-0.03201515
38	0xbfacd56d	-1.3502632
39	0xbd8bfa24	-0.0683482
40	0xbdaba476	-0.08380978
41	0xbe30035f	-0.17188786
42	0xbd5c336b	-0.053759973
43	0xbd5d5aa2	-0.054041512
44	0xbd6ee7fa	-0.0583267
45	0xbe4b5b3c	-0.19859022
46	0xbf829a6f	-1.0203379
47	0xbf964056	-1.1738384
48	0xbe2e29ef	-0.17008184
49	0xbe97387a	-0.29535276
50	0xbe816cc1	-0.25278285
51	0xbf333f5f	-0.7001857
52	0xbee55d64	-0.44797814
53	0xbeb0fbfc	-0.3456725
54	0xbec65b09	-0.3874133
55	0xc013a841	-2.3071444
56	0xbe36c98f	-0.17850326
57	0x3f213920	0.6297779
58	0xbdbb1a30	-0.09135854
59	0xbe110ec5	-0.1416579
60	0xbba92de2	-0.0051629404
61	0xbd1cd193	-0.038285803
62	0xbd8cf37d	-0.06882379
63	0xbd916d4a	-0.07100923

layers.1.linear.weight f4 [64, 64]
0	0xbe2d5e8c	-0.16930598
1	0xbcf13fc0	-0.029449344
2	0xbdf27a42	-0.11839725
3	0xbdfdc8ce	-0.12391816
4	0xbe5125e7	-0.20424615
5	0xbe69b73d	-0.22823806
6	0xbe45283c	-0.1925363
7	0xbd677deb	-0.05651657
8	0xbe485aec	-0.19565934
9	0xbb25f0c0	-0.00253205
10	0xbd70b284	-0.058763996
11	0xbd2f31f2	-0.04277224
12	0xbe027762	-0.12740853
13	0xbdde1e40	-0.108456135
14	0xbdb6e3c4	-0.089301616
15	0xbe65d440	-0.22444248
16	0xbd411964	-0.047143355
17	0xbd1a50b4	-0.03767462
18	0xbe26a387	-0.16273318
19	0xbdd1f773	-0.10252275
20	0xbd240028	-0.04003921
21	0xbdd88b72	-0.10573472
22	0xbdcf3dab	-0.10119184
23	0xbdbec1c4	-0.093143016
24	0xbde44000	-0.111450195
25	0xbe677f88	-0.22607243
26	0xbddd7d4c	-0.10814914
27	0x3df51bea	0.11968215
28	0xbe315bf9	-0.17320241
29	0xbd8651fb	-0.06558605
30	0xbdc737fa	-0.097274736
31	0x3df9467a	0.121716455
32	0xbe10881d	-0.14114423
33	0xbbd3c59f	-0.0064627673
34	0x3b8f1ae0	0.0043672174
35	0xbd9b07ae	-0.07569824
36	0xbe66dd21	-0.22545291
37	0x3e07cacb	0.13260953
38	0xbe2c6c2a	-0.16838136
39	0xbcfdd0e8	-0.030983403
40	0xbd9d994c	-0.07695255
41	0xbcfd7b70	-0.030942649
42	0x3dbc8706	0.09205441
43	0xbdc1e150	-0.09466803
44	0x3dd151de	0.10220693
45	0x3db8cdba	0.09023614
46	0xbc94b3a0	-0.018152058
47	0xbde493dd	-0.11161015
48	0xbd607130	-0.054795444
49	0xbe13f50c	-0.14448947
50	0xbe399686	-0.18123826
51	0xbdaf3fd6	-0.085570976
52	0xbdad7761	-0.08470035
53	0xbdb46f55	-0.088102974
54	0xbe1c0dc0	-0.1523962
55	0x3d3594a7	0.04433122
56	0x3ae4d380	0.0017458051
57	0xbdd88a22	-0.10573222
58	0x3cb5e358	0.022203133
59	0x3d299a14	0.041406706
60	0xbe87d4c7	-0.26529524
61	0xbd8e2166	-0.06939964
62	0xbd9f7ff0	-0.07788074
63	0xbd37e538	-0.044896334
64	0xbf0ac526	-0.54207075
65	0x3d8c2014	0.06842056
66	0xbd30e4ac	-0.04318683
67	0xbd26c985	-0.040719528
68	0xbf05e653	-0.5230457
69	0xbeec20fa	-0.4611891
70	0x3e283fa4	0.16430527
71	0xbeaf7b6e	-0.34273857
72	0xbf19a5e4	-0.60018754
73	0x3dd4636a	0.10370524
74	0x3e136526	0.14394054
75	0x3d7befe2	0.061508067
76	0xbe30e4e5	-0.17274816
77	0xbe1819e2	-0.14853624
78	0xbddb97fa	-0.107223466
79	0xbf0e8fcd	-0.5568817
80	0xbd8744f7	-0.06604951
81	0xbef9a1d6	-0.48756284
82	0xbd7a04a6	-0.06103959
83	0xbe7997e3	-0.24374346
84	0xbd4f934c	-0.050677583
85	0xbe165686	-0.14681444
86	0xbe95eb5e	-0.29281133
87	0xbd957343	-0.07297375
88	0xbf1e3d1b	-0.6181199
89	0xbf3a3899	-0.7274261
90	0x3daae59e	0.08344577
91	0xbe4a09f2	-0.19730356
92	0xbf4b1f43	-0.79344577
93	0xbd04846d	-0.032352854
94	0xbe672db5	-0.2257603
95	0x3de90594	0.11378017
96	0xbee3c95e	-0.44489568
97	0xbf17cd03	-0.592972
98	0xbeacc4ae	-0.33743805
99	0xbecfa773	-0.4055744
100	0xbe87c475	-0.26517072
101	0xbdede047	-0.11615043
102	0xbecc79c7	-0.3993666
103	0x3cd16b46	0.025563847
104	0xbd71acbd	-0.059002627
105	0xbde186b6	-0.11012022
106	0xbd48fe57	-0.049070682
107	0xbe273a84	-0.16330916
108	0xbd3f628a	-0.046724834
109	0xbdf1e846	-0.11811881
110	0xbecb4d0f	-0.3970723
111	0xbf181a80	-0.59415436
112	0xbddf5c51	-0.1090628
113	0xbea667ce	-0.32501072
114	0x3d5d9a1a	0.05410204
115	0x3e87b4c7	0.2650511
116	0xbd72dfc8	-0.059295446
117	0xbf23a277	-0.63919777
118	0xbe946c4c	-0.28988874
119	0xbf1f3c0e	-0.6220101
120	0xbdbeaf40	-0.0931077
121	0xbeda21d9	-0.4260395
122	0xbbd43b7e	-0.0064768186
123	0xbdbfbb7c	-0.09361932
124	0x3dd6d470	0.10489738
125	0xbdf4595d	-0.11931107
126	0xbdfe110c	-0.12405595
127	0x3d858b24	0.065206796
128	0xbf047612	-0.5174266
129	0xbd305bc1	-0.043056253
130	0xbd112069	-0.0354313
131	0xbdd9177e	-0.10600184
132	0x3fc46784	1.534409
133	0x41016d2c	8.089153
134	0xbdc4cbfc	-0.096092194
135	0x3f068b6c	0.5255649
136	0xbe5aa671	-0.21352555
137	0x3cf53208	0.029931083
138	0xc0d27bb6	-6.5776014
139	0x3c1ea5cf	0.009683087
140	0x3d698ad3	0.05701716
141	0x3e29f949	0.16599001
142	0xbd21969f	-0.039450284
143	0xbdba011a	-0.09082241
144	0x3cd02ab3	0.025410986
145	0x3f38dbd0	0.7221041
146	0xbf3d9373	-0.74053115
147	0xbf97324c	-1.1812224
148	0x3d1a0f2a	0.037612118
149	0xbbe7762f	-0.007063649
150	0x3f645177	0.89186805
151	0xbe0691a3	-0.13141493
152	0xbf244181	-0.6416245
153	0x3e6b8c12	0.23002651
154	0xbc2190ee	-0.009861214
155	0x40829510	4.080696
156	0x3e86b14c	0.26307142
157	0xbff5c02c	-1.9199271
158	0x40c6482d	6.1963105
159	0x3df4e010	0.11956799
160	0x3f3367ac	0.70080066
161	0xc0022ff0	-2.0341759
162	0x407d4781	3.9574893
163	0x400b0834	2.1723757
164	0xbfc7e89f	-1.5617865
165	0x3fdc1d2e	1.7196405
166	0xbfce565c	-1.6120105
167	0x3cebfc07	0.0288067
168	0xbd297e4c	-0.04138021
169	0x3d55c974	0.052194074
170	0xbe25b3d3	-0.16181879
171	0x3d7d5265	0.061846156
172	0xbd05770f	-0.032584246
173	0x3dac479e	0.084120974
174	0x3ec9089f	0.3926439
175	0xbff81655	-1.9381815
176	0x3de1446d	0.10999379
177	0x40717a6a	3.7730966
178	0xc0443726	-3.065866
179	0x3e8e0585	0.27738586
180	0xbe0ac18a	-0.13550392
181	0x3fbdf4d1	1.4840337
182	0x3d978ebb	0.074002706
183	0x400b55b4	2.177106
184	0x3d5756d4	0.05257304
185	0x3ed6824a	0.41896278
186	0xbd241ec9	-0.04006842
187	0x3cb2164c	0.021739148
188	0xbf04438d	-0.51665574
189	0xbe18930f	-0.14899848
190	0x3cc96fbc	0.024589412
191	0xbcd26808	-0.025684372
192	0x4041b73f	3.0268095
193	0xbd266880	-0.040627003
194	0xbc8485b8	-0.016177043
195	0x3d296740	0.041358232
196	0x403b9afc	2.9313345
197	0x3f36fc96	0.71479166
198	0x3fb5c7e0	1.4201622
199	0xbf2fb5ad	-0.6863659
200	0xbe91a8f8	-0.28449225
201	0xbda2a024	-0.07940701
202	0x40175e03	2.365113
203	0xc0571bb8	-3.3610668
204	0x40900a76	4.501277
205	0xbdd3b966	-0.10338096
206	0x39d5f200	0.0004080683
207	0x4020b193	2.5108383
208	0xbdb993d4	-0.09061399
209	0xbf0d7113	-0.5525066
210	0x409699e8	4.7062874
211	0x40ae42be	5.4456472
212	0xbbd5f3a0	-0.0065292865
213	0xbda035ee	-0.07822786
214	0xc0244a95	-2.5670521
215	0xbd45e6b4	-0.04831572
216	0xbf3c80fb	-0.7363431
217	0xbe69a131	-0.22815396
218	0xbc180460	-0.009278387
219	0xbf4113ff	-0.75421137
220	0x3ede0133	0.4336029
221	0xc04d771c	-3.2103949
222	0x400daaa0	2.2135391
223	0xbcfa72d8	-0.03057234
224	0xbf7c17e8	-0.9847398
225	0xbf23691d	-0.63832265
226	0x40bcc198	5.898632
227	0xc0326bec	-2.787837
228	0x409cd282	4.9006968
229	0xc04f9404	-3.2434092
230	0x40ab41c7	5.3517795
231	0x3d032894	0.03202112
232	0xbdf928bc	-0.121659726
233	0xbdeb5672	-0.114910975
234	0xbcc92110	-0.024551898
235	0x3c126bb6	0.008936813
236	0xbc84a228	-0.016190603
237	0x3defc7fa	0.117080644
238	0x3faf7e0d	1.3710343
239	0x4006fb46	2.1090865
240	0x3d8b0ed6	0.06789939
241	0xc09b35e8	-4.8503304
242	0x40110f41	2.266556
243	0xbeed7281	-0.46376422
244	0xbea15a30	-0.3151412
245	0x405aa6ae	3.4164233
246	0x3fd677ea	1.6755345
247	0xc02bd960	-2.6851425
248	0xbdaccd2a	-0.084375694
249	0xc01bdf76	-2.435514
250	0x3d3425a8	0.043981224
251	0xbc2490c0	-0.010044277
252	0xbe920c71	-0.28525117
253	0x3cd0f288	0.025506273
254	0xbdc5d208	-0.09659201
255	0xbd815374	-0.063147455

layers.1.linear.bias f4 [64]
0	0xbe2ed872	-0.17074755
1	0xbf2a3dae	-0.66500366
2	0xc0db83ea	-6.859853
3	0xc00d4ea0	-2.207924
4	0x3c5e0e02	0.013553144
5	0xbea10e66	-0.31456298
6	0x3df6013c	0.12011954
7	0xc0d2e986	-6.5910063
8	0xbd42392a	-0.047417797
9	0xbf98de80	-1.1942902
10	0xbea2278b	-0.31670794
11	0xc084b382	-4.1469126
12	0xbd779f0a	-0.060454406
13	0xbcbdfd2a	-0.023192007
14	0x3e8fde10	0.28099108
15	0xbd65cdf8	-0.05610463
16	0x3e9d0210	0.30665636
17	0xbfc0c7f8	-1.5061026
18	0xbf216d05	-0.63056976
19	0xbfede53e	-1.8585584
20	0xbd9d543e	-0.076820835
21	0xbe3f4c68	-0.1868149
22	0xbd6c51c4	-0.057695165
23	0xbe428b15	-0.18998368
24	0xbf04cf27	-0.5187859
25	0xbef7fe97	-0.48436424
26	0xbe7e6cbe	-0.2484617
27	0xbd47d822	-0.048790105
28	0xbfb0da18	-1.3816557
29	0xbfd03500	-1.6266174
30	0x3bff4d5a	0.0077912034
31	0xbe8cbc15	-0.27487245
32	0xbe72f3c7	-0.23725806
33	0xbe6126be	-0.21987435
34	0xbec33270	-0.38124418
35	0xbfa297a9	-1.2702533
36	0xbfc2c43f	-1.521614
37	0xbe0a3746	-0.13497648
38	0xbf0ac2a3	-0.5420324
39	0xbe9a075a	-0.30083734
40	0xbe987404	-0.29776013
41	0xbee446a2	-0.4458514
42	0xbf112dfd	-0.567108
43	0x3e6f7ae5	0.23386724
44	0xbffa4695	-1.955279
45	0x3f3b4837	0.73157066
46	0xc0019ab2	-2.0250669
47	0xbe5c43a5	-0.2151018
48	0xbea7121a	-0.32630998
49	0xbdd2426c	-0.10266575
50	0xbe17113e	-0.14752671
51	0xbebe9480	-0.37222672
52	0xbe1819df	-0.14853619
53	0xbed6861b	-0.4189919
54	0xbee4fb2a	-0.44722873
55	0xbeda080f	-0.42584273
56	0xbe40828b	-0.18799798
57	0x3f991dae	1.1962183
58	0x3f0bdb2d	0.5463131
59	0xbfd2e5ac	-1.647634
60	0xbeea7cdb	-0.45798382
61	0x3fecf82c	1.8513236
62	0xbe015b01	-0.12632371
63	0x3fbbe06a	1.4677861

layers.2.linear.weight f4 [64, 64]
0	0x3e2f554f	0.17122386
1	0xbe60e557	-0.21962486
2	0xc0de0996	-6.93867
3	0x3f102d01	0.5631867
4	0x3ca6426d	0.020295346
5	0xbcb18508	-0.02166988
6	0xc15e50a3	-13.894687
7	0xc0c59313	-6.1742034
8	0x3c58e3e3	0.013237926
9	0x40a50b5b	5.157636
10	0xbe6918cf	-0.2276337
11	0xc05d1b92	-3.4548078
12	0x3d8054f9	0.06266207
13	0xbec97168	-0.39344335
14	0xc1166b19	-9.401147
15	0x3b58d531	0.0033086056
16	0xc110c6b8	-9.048515
17	0x3d848d83	0.06472304
18	0xbecfc1c9	-0.40577534
19	0x3f477838	0.77917814
20	0xbdaafacb	-0.08348616
21	0x3c4304ee	0.011903031
22	0x3a826a0d	0.0009949818
23	0xbe18beee	-0.14916584
24	0xbf9e0725	-1.234593
25	0x3c842728	0.016131952
26	0x3e1b2e71	0.15154435
27	0x3e83af97	0.25719902
28	0x3f0b58f4	0.54432607
29	0xbf8a0bf2	-1.0784895
30	0x3d969349	0.07352311
31	0xbe086256	-0.13318762
32	0xbd913f02	-0.07092096
33	0xbd5eb589	-0.054372344
34	0x3d204d7e	0.039136402
35	0x3f67c90a	0.90541136
36	0x3f74bc92	0.95600235
37	0xbd612e72	-0.054975934
38	0x3edb8bb6	0.42880028
39	0x3d5bb072	0.05363507
40	0xbddda7ac	-0.108229965
41	0x3fc4e10d	1.538118
42	0x4034c9e2	2.824822
43	0x3fe8ad3d	1.8177868
44	0x3f8c1743	1.0944599
45	0xbf065477	-0.52472633
46	0xc01ceae6	-2.451837
47	0xbdad033a	-0.08447881
48	0x3e94451c	0.28958976
49	0x3d1adcbb	0.03780816
50	0x3dc41bed	0.09575639
51	0xbe7101ab	-0.23535793
52	0x3d89ac70	0.06722343
53	0xbea569dd	-0.3230733
54	0x3f849e53	1.0360817
55	0xbeaee6ba	-0.34160405
56	0x3de688c8	0.11256558
57	0x3ec36066	0.38159484
58	0xc17008ae	-15.002119
59	0xbef39b1f	-0.47579286
60	0x3f025d53	0.5092365
61	0xbf272e77	-0.65305275
62	0x3d68de89	0.05685285
63	0x3f8076be	1.0036237
64	0xbd8b1f60	-0.06793094
65	0xbd8b4fb4	-0.068023115
66	0xbffa2a51	-1.9544164
67	0xbeea7164	-0.45789635
68	0x3d47fea0	0.048826814
69	0x3dac7157	0.08420055
70	0xbe2d8a21	-0.16947223
71	0xc03a25c8	-2.908556
72	0x3d11f1d9	0.035631035
73	0xbf8ffa11	-1.1248189
74	0x3d0c3ce2	0.03423775
75	0xbf97f2be	-1.1870954
76	0x3d65c3d3	0.056094956
77	0xbe03d5ae	-0.12874481
78	0x3f97693e	1.1828992
79	0x3d5dbf12	0.054137297
80	0xbd786644	-0.060644403
81	0x40ac4671	5.383599
82	0x3c72d387	0.01482094
83	0x3f3d967a	0.74057734
84	0x3c9f03c1	0.01941097
85	0xbd8273f6	-0.06369774
86	0xbc926b06	-0.017873298
87	0xbc86b809	-0.016445177
88	0x3ec473c4	0.38369572
89	0xbc845c32	-0.016157243
90	0x3d16cc9b	0.03681622
91	0xbd10d297	-0.035357084
92	0xbea4d655	-0.32194772
93	0xbfda9ced	-1.707914
94	0x3cbcd8bf	0.023052571
95	0x3da7f8ac	0.08201727
96	0xbbbae420	-0.005703464
97	0xbd85a88f	-0.065262906
98	0xbdfc3fa6	-0.123168275
99	0xbfcf695b	-1.6204027
100	0xbff8d9fd	-1.9441525
101	0x3c81b00a	0.015831012
102	0x3d2b076b	0.04175512
103	0xbd4f3397	-0.05058631
104	0xbd1432ba	-0.03618119
105	0xbf8f2493	-1.1183037
106	0xbf533426	-0.8250145
107	0x4084d641	4.151154
108	0xbe6df09e	-0.2323632
109	0xbe657cf6	-0.2241095
110	0xbf8149a4	-1.0100598
111	0xbe194867	-0.14969026
112	0x3d9db085	0.07699684
113	0x3e1deb22	0.15421727
114	0xbdde0d02	-0.10842325
115	0xbd642c1b	-0.055706125
116	0x3c5bac90	0.013407841
117	0xbe167fdf	-0.14697216
118	0x3d4669bd	0.048440684
119	0xbdd0a9e2	-0.101886526
120	0x3c8d80ac	0.01727327
121	0xbfb05ae3	-1.3777736
122	0x3f862a8e	1.0481737
123	0xbf618e51	-0.8810778
124	0x3d6d4130	0.057923496
125	0xc027b61d	-2.6204903
126	0xbd9a1798	-0.075240314
127	0xbf905684	-1.1276402
128	0xbb71be40	-0.003688708
129	0x3d03e0b7	0.032196727
130	0xbe7a0477	-0.24415766
131	0xbe500b92	-0.20316914
132	0xbdadf93b	-0.084948026
133	0x3d35e5e2	0.044408686
134	0xbe1e6ced	-0.1547124
135	0xbe9f4a5d	-0.31111422
136	0xbd8723fd	-0.06598661
137	0xbbf815e8	-0.007570971
138	0xbdc3889f	-0.09547543
139	0xbd85e674	-0.06538096
140	0xbd02acef	-0.031903204
141	0x3c6581f7	0.014008037
142	0xbde4d8af	-0.111741416
143	0xbdc54ac0	-0.09633398
144	0xbd58623b	-0.052828055
145	0xbdf5dbf9	-0.12004847
146	0x3d7a2913	0.061074328
147	0xbdf55b84	-0.11980346
148	0xbdc70f3a	-0.09719701
149	0x3c0e58c0	0.008688152
150	0x3a510e0f	0.0007974812
151	0xbdea543a	-0.11441846
152	0xbe1995ca	-0.14998546
153	0xbb8f703a	-0.004377392
154	0x3c69d7dd	0.014272657
155	0xbd0ad3da	-0.033893444
156	0xbdba3ad0	-0.09093249
157	0xbe85ad82	-0.26108938
158	0xbd8a7e8b	-0.067624174
159	0xbb7448c0	-0.0037274808
160	0xbca77a58	-0.02044408
161	0x3be9db2a	0.007136722
162	0xbdbdb74a	-0.09263475
163	0xbe4fd713	-0.20296888
164	0xbd81515a	-0.06314345
165	0xbde0261f	-0.10944771
166	0x3d60e8ee	0.05490964
167	0x3d17c57a	0.037053563
168	0xbdab1466	-0.083535
169	0xbe7c433e	-0.24635026
170	0xbc4ded21	-0.012568743
171	0xbd4e270a	-0.0503302
172	0x3d11e714	0.035620764
173	0x3a0f8623	0.0005475005
174	0xbdffbc51	-0.124870904
175	0xbc90cdd5	-0.017676273
176	0x3c850b3e	0.016240712
177	0xbe3846f7	-0.17995821
178	0xbce7e8f0	-0.028309315
179	0xbe0a4cf1	-0.13505913
180	0x3ccfc520	0.025362551
181	0xbd8a18cd	-0.067430116
182	0xbec4b806	-0.3842165
183	0x3d53c164	0.051698104
184	0xbda3f009	-0.080047674
185	0x3c929a86	0.017895948
186	0xbd8759a9	-0.06608898
187	0xbe505ebb	-0.20348637
188	0x3d6f1550	0.058369935
189	0xbe53ff60	-0.20702887
190	0xbdb15156	-0.08658092
191	0xbdcef3e5	-0.10105113
192	0x3da2d2f2	0.07950391
193	0xbd8686d6	-0.06568687
194	0xc00a45cb	-2.1605098
195	0xbea4f807	-0.3222048
196	0xbd31dbf0	-0.04342264
197	0x3ca240c8	0.01980628
198	0xbaee7ea8	-0.0018195705
199	0xbfbe23a0	-1.4854622
200	0x3c4d03f0	0.012513146
201	0xbe9b0c72	-0.30282933
202	0x3d58f0c0	0.052963972
203	0xbf8920cf	-1.0713137
204	0x3d0c46ac	0.034247085
205	0xbd9269a0	-0.071490526
206	0x3f332a96	0.69986856
207	0x3c609f40	0.013709843
208	0xbf5422a2	-0.82865345
209	0x3c3d660a	0.011559973
210	0xbce35f18	-0.027755305
211	0xbe1aa8fd	-0.15103526
212	0x3debd7f4	0.11515799
213	0xbd635704	-0.055502906
214	0xbcec2518	-0.028826281
215	0x3ddf23ee	0.10895525
216	0xbf4d0389	-0.8008352
217	0x3d3c4c18	0.045971006
218	0xbadeb380	-0.0016990751
219	0x3df550b0	0.119782805
220	0xbf16d16a	-0.5891329
221	0xbfdcd4b6	-1.7252414
222	0xbd8238ec	-0.06358513
223	0x3d27f614	0.041006163
224	0xbcbae358	-0.022813484
225	0xbc797310	-0.015225187
226	0x3d51cd98	0.05122146
227	0x3d02dbb6	0.031947814
228	0x3c53d200	0.012928486
229	0xbdaceeb4	-0.084439665
230	0xbac72a00	-0.0015195012
231	0x3c9716a8	0.01844342
232	0x3d716904	0.05893804
233	0xbeba04b6	-0.3633172
234	0xbe0d8102	-0.13818744
235	0xbe58062f	-0.21096109
236	0xbf3b5c1e	-0.73187435
237	0xbf7ab118	-0.97926474
238	0xbc2d70b8	-0.010585956
239	0x3d9606a0	0.07325482
240	0x3de28b8a	0.11061771
241	0x3cc33a48	0.023831502
242	0xbdb53e3e	-0.088497624
243	0xbd586a5c	-0.052835807
244	0x3d2e30d4	0.042527035
245	0x3d8c6628	0.06855422
246	0x3e584e99	0.21123733
247	0xbd8964b4	-0.06708661
248	0x3de8ebde	0.11373113
249	0xbf8bdea2	-1.0927317
250	0x3f6697a2	0.90075123
251	0x3dc85c70	0.09783256
252	0xbec5a818	-0.38604808
253	0xbf62147c	-0.88312507
254	0xbd938cba	-0.07204576
255	0xbf0c090a	-0.5470129

layers.2.linear.bias f4 [64]
0	0x3f2bc28a	0.6709372
1	0xbf8e0818	-1.109622
2	0xbce3369e	-0.027736004
3	0xbf8117eb	-1.0085424
4	0xbe96d1b2	-0.2945686
5	0xc02b2cd5	-2.6746113
6	0xc00421dd	-2.0645669
7	0xc03a17ff	-2.9077146
8	0xbe8e56bd	-0.2780055
9	0xbee5e130	-0.44898367
10	0x3fa2c1f6	1.2715442
11	0xbf7c5b33	-0.9857666
12	0xbeb0787f	-0.3446693
13	0x3fc71da6	1.5555923
14	0x3fbd0734	1.4767823
15	0xc03dd926	-2.9663787
16	0xbf12b4a9	-0.57306916
17	0xbf4d3989	-0.80165917
18	0xbfce84a0	-1.6134224
19	0xbeac19cb	-0.33613428
20	0xbf6a1304	-0.91435266
21	0x3f81e5a3	1.0148205
22	0xc0ad6dce	-5.419654
23	0xbe7634ed	-0.24043627
24	0xc0ffe55c	-7.996748
25	0xc0ab1311	-5.3460774
26	0xbdb60e39	-0.088894315
27	0xbfc24d21	-1.5179788
28	0xc0e0f09c	-7.0293713
29	0xc02d8e34	-2.7118044
30	0xbea45177	-0.32093403
31	0xbe92664e	-0.28593677
32	0xbf9835ef	-1.1891459
33	0xc01e1dc8	-2.4705677
34	0xbf583711	-0.84459025
35	0xbef925d8	-0.48661685
36	0xbe6e7382	-0.2328625
37	0xbec44769	-0.38335732
38	0xc055bb89	-3.3395712
39	0xbff4849a	-1.9102967
40	0xbfa7d3fa	-1.3111565
41	0xbe90721d	-0.28212062
42	0xc075d41d	-3.8410714
43	0xbf054c7d	-0.52069837
44	0xbff1a6e8	-1.8879061
45	0xc0951a8a	-4.6594896
46	0xbf1d28a0	-0.61390114
47	0xbefd1c4c	-0.4943565
48	0xc0f49dbb	-7.644254
49	0x3f926e77	1.1439961
50	0xbeb35c42	-0.35031325
51	0xbed5521b	-0.41664204
52	0xbf22386b	-0.63367337
53	0xbede77ab	-0.43450674
54	0xbec43b07	-0.38326284
55	0xbe26f154	-0.16302997
56	0xbe85f073	-0.2616001
57	0xbe8c04e1	-0.27347472
58	0xbef68fc3	-0.48156556
59	0xbf0d9877	-0.5531077
60	0xbf343241	-0.7038918
61	0xbf1349f8	-0.5753474
62	0xbe5d9405	-0.21638496
63	0xc04612f2	-3.0949063

classifier.weight f4 [3, 64]
0	0xbe96eb16	-0.2947623
1	0xbedd6e56	-0.43248242
2	0x3ac8661a	0.0015289218
3	0x3dda2b75	0.1065282
4	0xbf72d1a6	-0.9485115
5	0x3f43903e	0.7639197
6	0x40540778	3.3129559
7	0xbed6a76d	-0.4192461
8	0xbe0489b3	-0.12943153
9	0xbe993315	-0.29921785
10	0xbf95871a	-1.1681855
11	0x3e264f8d	0.16241284
12	0xbebd775e	-0.37005132
13	0xbf4b3c50	-0.79388905
14	0xbfa3665f	-1.2765616
15	0xbea87cd1	-0.32907727
16	0xbc63bd8d	-0.013900173
17	0xc0ce82b9	-6.4534574
18	0x3fdccd91	1.7250234
19	0x3fa15e68	1.2606936
20	0x3ef2283a	0.47296315
21	0xc0e2a786	-7.0829496
22	0x3ef760d3	0.4831606
23	0xc0032423	-2.0490806
24	0x3b337b64	0.002738678
25	0x3e95e823	0.2927867
26	0x3d2186df	0.039435264
27	0xbf4292bb	-0.7600514
28	0xbf1d761c	-0.61508346
29	0x3f905245	1.1275107
30	0x3d32c3ee	0.043643884
31	0xbd2f59b1	-0.042810146
32	0x3e3108bb	0.17288487
33	0x3f1714eb	0.59016293
34	0xbf8ea245	-1.1143271
35	0xbc48fa5a	-0.01226672
36	0x3e08385e	0.13302752
37	0xbe96d6d4	-0.29460776
38	0x3f29472a	0.6612421
39	0x3ec0367c	0.37541568
40	0x3fa17982	1.2615206
41	0xbb4a7b2a	-0.0030896165
42	0x3fe6ebda	1.8040726
43	0x4009206c	2.1426039
44	0xbea42b8d	-0.32064477
45	0xbee18552	-0.44047028
46	0xbecf5ad1	-0.40498975
47	0xbe71923b	-0.23590939
48	0xbf787b6e	-0.9706334
49	0x3f4c286e	0.7974919
50	0x3e90e32f	0.28298327
51	0xbe1211dc	-0.14264625
52	0x3ebc1da4	0.36741364
53	0x3de399f6	0.1111335
54	0x3d4e672c	0.05039136
55	0xbdcfc5fc	-0.101451844
56	0xbde72883	-0.11287024
57	0xbe51635f	-0.20448063
58	0xbf0130cf	-0.504651
59	0x3d570f17	0.052504625
60	0xbf270cb9	-0.6525379
61	0xbe7c34f7	-0.2462958
62	0xbe66dbd7	-0.225448
63	0x3ed3793d	0.41303435
64	0xc1370e5b	-11.441005
65	0xbe63d02a	-0.22247377
66	0xbd5261a3	-0.051362645
67	0xbe846ca0	-0.25864124
68	0x408ea63b	4.457792
69	0x3fcfc0be	1.6230695
70	0xc0853f05	-4.163943
71	0xbd333b06	-0.04375746
72	0xbd3d2aca	-0.046183385
73	0x3f2873fe	0.6580199
74	0x3fa88631	1.3165952
75	0xbf2b6382	-0.6694871
76	0xbf4571cc	-0.77126765
77	0xbfa72cfc	-1.3060603
78	0xbf2a403e	-0.66504276
79	0xbe1d8bf1	-0.15385415
80	0xbcde391f	-0.027126847
81	0xc067c372	-3.621304
82	0xc0996ab2	-4.7942743
83	0xbfca0932	-1.5784056
84	0xbfbe9baf	-1.4891261
85	0x3f0ea640	0.5572243
86	0xc05b4e56	-3.4266562
87	0x3fb1b34a	1.388284
88	0x402de9c5	2.7173932
89	0xc04a5bd2	-3.1618543
90	0xbce9fb1f	-0.028562127
91	0x3f4958a6	0.7865089
92	0x3f02309f	0.5085544
93	0xbf52df24	-0.82371736
94	0xbde31ac9	-0.11089093
95	0x3e4ce4ce	0.20009157
96	0xbed98b0c	-0.42488897
97	0xc0159cc2	-2.3376927
98	0x3fc8fba2	1.5701792
99	0xbea35d14	-0.3190695
100	0xbe35dc5f	-0.17759846
101	0x3e3b285d	0.18277116
102	0xbf7c2286	-0.9849018
103	0xbfc51520	-1.5397072
104	0x403e689b	2.9751346
105	0x3ccf4b38	0.025304422
106	0xbfdf477c	-1.744369
107	0xbfc321fd	-1.5244747
108	0xbf35538e	-0.7083062
109	0xc04bbc2a	-3.1833596
110	0xbcb23276	-0.021752577
111	0xbd091090	-0.03346306
112	0x40319418	2.774664
113	0xbf90523e	-1.1275098
114	0xbd66c65d	-0.056341518
115	0xbf4cf21a	-0.8005692
116	0xbeb277fe	-0.34857172
117	0x3dafbcb4	0.08580914
118	0x3ec699da	0.38789254
119	0x3e58cdb0	0.21172214
120	0x3cec6343	0.028855925
121	0x3e887188	0.26649117
122	0xc04fc9df	-3.2466962
123	0xbee50933	-0.4473358
124	0x3f8ed829	1.1159717
125	0xbe632fb3	-0.22186165
126	0xbf1ce9bf	-0.6129417
127	0xbfdc2748	-1.7199488
128	0x3f2aee4c	0.6676986
129	0x3fb51dce	1.4149721
130	0xbd7cad52	-0.06168873
131	0xbb535276	-0.0032245195
132	0xc035a1cc	-2.8380003
133	0xbfb650d3	-1.4243416
134	0xbff0c0ec	-1.8808875
135	0xbe3bddc3	-0.18346314
136	0x3e16d6e8	0.14730418
137	0x3e96a1f5	0.29420438
138	0x3f3680c6	0.7129024
139	0xbeaac981	-0.3335686
140	0x3f4158bd	0.7552603
141	0x3f0ae390	0.5425348
142	0x3f824d46	1.0179832
143	0xbeb91760	-0.36150646
144	0xbe1f2611	-0.15541865
145	0x407ec1b2	3.9805722
146	0xbfb0c1c5	-1.3809134
147	0xbf9856dd	-1.1901509
148	0x3f27ab60	0.6549587
149	0x3f52fc1a	0.82415926
150	0x3fc66627	1.5499924
151	0xc00ef53d	-2.2337182
152	0xbf89d132	-1.0766966
153	0x3fd391e7	1.6528901
154	0x3d1c4adf	0.03815734
155	0xbebe8a43	-0.3721486
156	0x3e5813ec	0.2110135
157	0x3efbdfd5	0.49194208
158	0x3c4168d2	0.011804776
159	0x3df8deed	0.12151895
160	0xbe64f5eb	-0.22359435
161	0x3f1f9cfe	0.62348926
162	0xbf5d90d1	-0.865491
163	0x3e5397ac	0.20663327
164	0xbe775b84	-0.24156004
165	0xbe8e5844	-0.27801716
166	0xbf2cedb7	-0.67550224
167	0xbe83928a	-0.25697738
168	0xc025f1a6	-2.592874
169	0x3da414fc	0.08011815
170	0xbf4cf41e	-0.80059993
171	0xbfee1ab9	-1.8601905
172	0x3f066545	0.52498275
173	0x400cf8e9	2.2026923
174	0x3ee04275	0.43800703
175	0xbd0f6ffa	-0.0350189
176	0xbe7e87ae	-0.24856445
177	0x3f0fdcb5	0.5619615
178	0xbe62f2bf	-0.22162913
179	0xbd858a73	-0.06520548
180	0xbd29842f	-0.041385826
181	0xbc8f6764	-0.017505355
182	0xbe159173	-0.14606266
183	0xbd933ef0	-0.07189739
184	0x3e1b9046	0.15191755
185	0xbe117924	-0.14206368
186	0x3f467434	0.7752106
187	0x3dfc77ae	0.123275146
188	0xbf0612e8	-0.523726
189	0x3e371a07	0.17881022
190	0x3d0cb5ac	0.034352943
191	0x3df81652	0.12113632

classifier.bias f4 [3]
0	0x404dd763	3.2162712
1	0xc05ec856	-3.4809775
2	0xbfded707	-1.7409371
