10by10recording/src/tactile_gcn_01.pth (torch, 50927 bytes, 8 tensors)

layers.0.linear.weight f4 [64, 50]
-0.5948207 -0.7037516 -0.43538067 -0.3959383 -1.3771319 -0.49366117 -0.4184642 -0.554374
-0.31550282 -1.1191913 -0.43333152 -0.35055503 -0.47357798 -0.31437042 -0.3869379 -0.22411843
-0.2656368 -0.23682927 -0.0109343575 -0.35403994 0.03620027 -0.19282554 -0.082833916 -0.00496226
-0.86152756 -0.025806887 0.024839377 0.22054465 0.11978963 -0.4022222 0.1340306 0.08986141
0.13280281 0.2700256 0.04838616 0.4426209 0.45169863 0.52138394 0.6295864 0.43617985
0.623111 0.6041518 0.6423764 0.7395112 0.56622195 0.81028706 0.9294132 0.79795325
1.1261327 0.831421 -0.121599115 -0.03567373 0.03306408 0.028215082 -0.09046139 -0.20548736
-0.11414044 0.038371526 0.039273832 -0.11220327 -0.04263842 -0.12628718 -0.08887898 0.014578361
-0.016328447 -0.13471282 0.06416024 -0.1768884 -0.010860156 0.07453946 0.03317188 -0.07213249
-0.11333823 0.09422647 0.034742948 0.0027478214 -0.10214938 -0.14667597 -0.08077046 -0.007340947
-0.016222315 0.101155125 -0.06615298 -0.10328292 0.041404206 0.025816701 0.0133876745 -0.095362775
-0.0041428 -0.04728022 -0.015740994 -0.102492034 -0.11028726 0.050459508 0.018964073 -0.041434802
0.058232244 -0.013896959 -0.16890165 0.072828025 0.007251963 -0.100728594 -0.035876315 -0.055314463
-0.13713683 0.07348349 -0.17556006 0.073297836 -0.14601807 0.053533513 0.0727172 -0.037041567
-0.05373833 -0.07250951 -0.111589365 0.058583483 -0.050123647 -0.057498217 0.09387825 -0.025015723
-0.11172941 -0.046156432 0.022922004 0.033843026 -0.021989748 -0.08103133 0.055358086 -0.011569058
0.11008737 -0.11026685 0.019755308 0.014137993 0.056467272 -0.13743658 0.01874166 0.08568075
0.058391206 -0.07077502 0.021501942 0.017700968 0.028470855 -0.054273646 -0.07508868 -0.10394708
0.09053833 0.044737734 0.02513473 0.09896519 -0.048488166 -0.11910444 0.21036576 0.38247487
-0.1253158 -0.0542682 0.68222 0.1877302 0.18593481 0.15085667 0.08780838 0.9236132
0.12697627 0.08712918 0.09176226 0.13920905 0.46780062 0.105951644 0.16427891 0.38506958
0.27001408 0.403567 -0.27919266 -0.10834498 -0.18685465 -0.26931897 0.41702542 -0.028672598
-0.016812153 -0.23224047 -0.15074663 0.47692883 0.16638803 0.1366873 -0.017119046 0.115531705
0.18348217 -0.08654671 0.1395816 0.2602601 -0.077267624 0.46579164 -0.046177458 -0.052749544
0.2441815 0.21320537 -0.018973233 0.15286148 0.07874601 0.31922102 0.053731885 0.34334925
0.25616452 0.29779175 -0.10163968 0.09668793 0.9213899 0.22468029 -0.0204769 0.17177173
0.2114413 0.8055349 0.109768674 0.13745217 0.026440714 0.15466735 0.4666988 0.1464256
0.15600437 0.50961167 0.2694758 0.48241627 -0.34482333 -0.1531297 -0.13737817 -0.2797594
0.5894273 -0.2134827 0.0041738315 -0.050821185 0.032931883 0.42297876 0.17680018 -0.07989543
0.22803923 0.15157509 0.2932254 0.066858225 0.018482083 0.25367242 0.16173948 0.39241424
0.086998746 0.07684272 0.2301745 0.009338791 0.16239567 0.14599794 0.33727998 0.31605953
0.2653621 0.36991796 0.112023145 -0.06266855 -0.18721093 0.055453137 -0.06691993 -0.13082923
00000000: 2b46 18bf 1129 34bf 37ea debe 6db8 cabe
00000010: dc45 b0bf 28c1 fcbe f140 d6be 74eb 0dbf
00000020: 9689 a1be a941 8fbf a1dd ddbe f37b b3be
00000030: d078 f2be 29f5 a0be b91c c6be 4d7f 65be
00000040: 8c01 88be 5f83 72be 0526 33bc b944 b5be
00000050: bc46 143d 0f74 45be d4a4 a9bd 749a a2bb
00000060: 128d 5cbf f768 d3bc f37b cb3c 75d6 613e
00000070: 4454 f53d 11f0 cdbe 513f 093e 4209 b83d
00000080: 76fd 073e cc40 8a3e 9130 463d 359f e23e
00000090: 0b45 e73e 6b79 053f 932c 213f f752 df3e
000000a0: 3484 1f3f b1a9 1a3f c872 243f 9b50 3d3f
000000b0: ecf3 103f f96e 4f3f 06ee 6d3f aa46 4c3f
000000c0: 1e25 903f 02d8 543f f508 f9bd 9e1e 12bd
000000d0: 336e 073d 5123 e73c d243 b9bd 476b 52be
000000e0: 77c2 e9bd 762b 1d3d 99dd 203d d4ca e5bd
000000f0: a0a5 2ebd 6d51 01be 2f06 b6bd 14da 6e3c
00000100: 3cc3 85bc 28f2 09be 7266 833d 3c22 35be
00000110: ccee 31bc 25a8 983d 3ddf 073d 33ba 93bd
00000120: e01d e8bd cff9 c03d 9f4e 0e3d cb14 343b
00000130: b233 d1bd 3a32 16be fc6a a5bd 548c f0bb
00000140: a9e4 84bc 6b2a cf3d 377b 87bd ff85 d3bd
00000150: 7597 293d 8c7d d33c fa57 5b3c 8f4d c3bd
00000160: 53c0 87bb e7a8 41bd 42f3 80bc 58e7 d1bd
00000170: 49de e1bd a1ae 4e3d 8b5a 9b3c 8ab7 29bd
00000180: ef84 6e3d 12b0 63bc 8ef4 2cbe dc26 953d
00000190: e0a1 ed3b cb4a cebd 0bf3 12bd 6b91 62bd
000001a0: 996d 0cbe 837e 963d 04c6 33be 2d1d 963d
000001b0: c385 15be f545 5b3d c1ec 943d e6b8 17bd
000001c0: b91c 5cbd de7f 94bd f788 e4bd 3cf5 6f3d
000001d0: 744e 4dbd 4083 6bbd 3d43 c03d c6ed ccbc
000001e0: 64d2 e4bd 870e 3dbd edc6 bb3c fc9e 0a3d
000001f0: d823 b4bc c1f3 a5bd 29bf 623d 258c 3dbc
00000200: 7d75 e13d 96d3 e1bd e2d5 a13c 0aa3 673c
00000210: 3a4a 673d 2dbc 0cbe 1c88 993c 6479 af3d
00000220: 9e2b 6f3d 7ef2 90bd d724 b03c 9f01 913c
00000230: b63b e93c 0b4e 5ebd 18c8 99bd 35e2 d4bd
00000240: 296c b93d ea3e 373d 59e7 cd3c 43ae ca3d
00000250: 879b 46bd 07ed f3bd 1f6a 573e bfd3 c33e
00000260: c952 00be 5548 5ebd f8a5 2e3f 583c 403e
00000270: b265 3e3e 2c7a 1a3e e1d4 b33d ea71 6c3f
00000280: 1106 023e c970 b23d daed bb3d d18c 0e3e
00000290: 9083 ef3e 2dfd d83d bb38 283e d727 c53e
000002a0: 493f 8a3e 55a0 ce3e 57f2 8ebe f9e3 ddbd
000002b0: d356 3fbe 2de4 89be 5b84 d53e cce2 eabc
000002c0: a4b9 89bc 72d0 6dbe 535d 1abe 0430 f43e
000002d0: a061 2a3e c1f7 0b3e 3e3d 8cbc e39b ec3d
000002e0: c0e2 3b3e 673f b1bd 7bee 0e3e d040 853e
000002f0: 7d3e 9ebd 3e7c ee3e 9324 3dbd e80f 58bd
00000300: b70a 7a3e 8252 5a3e c16d 9bbc b887 1c3e
00000310: 9745 a13d f070 a33e f715 5c3d 79cb af3e
00000320: ff27 833e 2978 983e 7728 d0bd 5204 c63d
00000330: 35e0 6b3f 9712 663e 2cbf a7bc eee4 2f3e
00000340: 1184 583e 8937 4e3f 66ce e03d 43c0 0c3e
00000350: 329a d83c 1e61 1e3e 25f3 ee3e 98f0 153e
00000360: 9cbf 1f3e e975 023f bbf8 893e 44ff f63e
00000370: af8c b0be 08ce 1cbe ddac 0cbe a03c 8fbe
00000380: b5e4 163f 359b 5abe a3c4 883b e029 50bd
00000390: 95e3 063d ac90 d83e 1b0b 353e 37a0 a3bd
000003a0: 1e83 693e 8036 1b3e a421 963e f7ec 883d
000003b0: bd67 973c 5ae1 813e 099f 253e 85ea c83e
000003c0: 662c b23d b75f 9d3d ddb2 6b3e ba01 193c
000003d0: 0d4b 263e 7c80 153e f6af ac3e 8ed2 a13e
000003e0: 8bdd 873e e365 bd3e 646c e53d 5e58 80bd
000003f0: 39b4 3fbe d422 633d 510d 89bd 19f8 05be

layers.0.linear.bias f4 [64]
-0.07308981 -0.065220624 -0.118088804 -0.08825476 -0.14863071 -0.18354529 -0.1466241 -0.07771268
-0.045460694 -1.0860339 -0.13397032 -0.053205974 -0.11329151 -0.093031235 -0.10801539 -0.022021497
-0.04116337 -0.025071468 -0.08414513 -0.028573604 -0.00910195 -0.2573811 -0.16560665 0.14211023
-0.08548802 -0.12450847 -0.081114314 -0.10536204 -0.07493356 -0.1773284 -0.012933233 -1.1942018
-0.17748432 -0.014826234 -0.02543109 -0.11316721 -0.051509697 -0.0146555025 -0.033932 -0.112464674
-0.061511848 -0.14273298 -0.079867125 -1.1501482 -0.06117112 -0.100587055 -0.17357504 -0.12817816
0.02332491 -0.047676794 -0.020498002 -0.11545396 -0.027361788 -0.056552015 -0.17679746 -0.08538869
-0.016276825 -0.11470461 -0.18980068 -0.13373202 0.14354005 -0.23639631 0.017968293 -0.042707723
00000000: 1cb0 95bd 6492 85bd 8bd8 f1bd e9be b4bd
00000010: a632 18be 4cf3 3bbe a124 16be d327 9fbd
00000020: fe34 3abd 2903 8bbf 842f 09be 82ee 59bd
00000030: 6105 e8bd 2987 bebd 2c37 ddbd 6d66 b4bc
00000040: ec9a 28bd ae62 cdbc 4854 acbd 3113 eabc
00000050: 5820 15bc 75c7 83be ca94 29be 5885 113e
00000060: 5814 afbd 4cfe febd 431f a6bd 0ec8 d7bd
00000070: c476 99bd 9395 35be e9e5 53bc 9bdb 98bf
00000080: 73be 35be bce9 72bc dc54 d0bc 36c4 e7bd
00000090: d5fb 52bd a21d 70bc 48fc 0abd e153 e6bd
000000a0: d9f3 7bbd 9828 12be 6091 a3bd 0e38 93bf
000000b0: 918e 7abd 9600 cebd a8bd 31be 2341 03be
000000c0: e213 bf3c be48 43bd 6deb a7bc 2073 ecbd
000000d0: d425 e0bc 16a3 67bd 650a 35be 44e0 aebd
000000e0: fa56 85bc 40ea eabd 1c5b 42be 0cf1 08be
000000f0: 2afc 123e e011 72be 3e32 933c 4bee 2ebd

layers.1.linear.weight f4 [64, 64]
0.06310244 0.01826799 -0.03137973 -0.3000845 -0.30491254 -0.21348964 0.011433691 0.05318147
0.36857283 0.07779509 0.12313689 -0.4142921 0.059534132 -0.2929324 -0.27983105 -0.30105227
-0.2917707 -0.3659257 -0.26206765 -0.4560648 -0.2832501 -0.36808103 0.058385313 0.0037845054
0.11994666 0.21398531 0.14618716 0.120612815 0.11899104 -0.42324936 -0.47562355 0.09731907
0.061658338 -0.24230357 -0.26877195 -0.103342354 -0.35069332 -0.42058095 -0.006878063 -0.44222438
-0.10783833 0.2846998 -0.3479996 -0.19443335 0.07338061 -0.124809265 0.26857916 -0.09357871
-0.43756962 -0.46129826 -0.25768837 -0.11432122 -0.39986297 -0.06261322 -0.33656514 -0.012080461
-0.24299982 0.016844735 -0.046958953 -0.018137574 -0.048898287 -0.43023735 0.16058312 0.069308065
0.023419801 0.032853797 -0.075378954 0.010881129 0.0081097 -0.14057235 -0.07316662 -0.059579328
-0.043977767 0.08427486 0.06764002 -0.15797912 0.013782144 -0.11342007 -0.019971497 -0.0824853
-0.1220292 -0.10042901 -0.18858232 -0.06708151 -0.0032408691 -0.16580357 -0.10943341 -0.119640626
-0.015237689 -0.02400792 0.044498548 -0.075054616 -0.10988793 -0.14091782 -0.07028382 -0.04034171
-0.03508964 -0.055937655 -0.044040084 -0.059482485 -0.17323808 -0.08093662 0.11132121 -0.020080281
-0.071985915 -0.016522046 -0.12394372 0.018438593 -0.123624116 -0.0066681355 -0.068601936 -0.035926685
0.04524654 -0.15428333 -0.1345611 -0.00090920925 -0.18201654 0.08313201 -0.10506621 -0.0717593
-0.094555266 0.087075636 -0.06615299 0.075415656 -0.0024356544 0.00940645 0.00040777182 0.038742136
-0.117061496 -0.06195493 0.116418585 -0.009616077 -0.011797875 0.07131939 -0.004301235 -0.045360804
0.11050862 0.09645586 0.09904854 -0.10675731 0.111360535 0.00676015 0.07223342 0.06819978
0.009060591 0.024952605 -0.01528357 -0.020836323 -0.06250626 0.067182854 -0.10751106 -0.120320916
-0.064992115 -0.0807946 0.013864905 0.048916087 -0.01250951 0.10910332 -0.07840966 0.07922122
-0.033615887 0.030594721 0.09611389 -0.0022586882 0.032593653 0.051249146 -0.10358901 -0.09326373
0.10730781 -0.08933395 -0.09770222 -0.043627694 0.10540949 -0.07222821 -0.013519809 -0.108129114
0.039533183 -0.002574131 0.11323711 -0.013678774 -0.09020892 0.11339496 0.04080026 0.07177615
-0.123489946 0.05277367 0.086542666 0.115807265 -0.08925603 -0.09102054 -0.108992204 0.09412992
0.5365991 0.03196589 -0.0558239 0.12200295 0.17375875 -0.124748975 0.16488253 -0.07033003
0.043519285 0.6268284 0.06893887 0.072226234 -0.0075092064 0.11841729 -0.07247736 0.08986426
0.0740486 0.21961366 0.03533403 0.076432995 0.030307626 -0.055876188 0.019157035 -0.2299307
-0.047623903 0.5653025 1.0561746 -0.025045065 0.98887557 -0.22437139 0.14606284 0.9378527
0.10211786 0.072844274 -0.064693734 -0.04126266 0.101530746 0.060851302 -0.13978896 0.2115352
0.06851855 0.12075602 -0.040197082 0.6842771 2.3634927 0.1692467 0.59281325 0.042942014
0.18861867 -0.09306913 0.06854446 -0.0020422256 0.09349545 0.0047988878 -0.014996724 0.046781033
0.008965308 0.046075568 0.00226726 0.08150847 0.5259777 -0.12173831 0.3352246 0.7447867
00000000: da3b 813d c0a6 953c 0888 00bd ada4 99be
00000010: 7f1d 9cbe 079d 5abe 6054 3b3c d0d4 593d
00000020: 94b5 bc3e 0853 9f3d 322f fc3d 181e d4be
00000030: 10da 733d 3cfb 95be 0446 8fbe 8623 9abe
00000040: f862 95be 9d5a bbbe bb2d 86be 5381 e9be
00000050: 2806 91be 1e75 bcbe 7025 6f3d 7705 783b
00000060: 98a6 f53d f71e 5b3e 16b2 153e da03 f73d
00000070: 93b1 f33d 24b4 d8be ee84 f3be 384f c73d
00000080: 748d 7c3d 6d1e 78be 7a9c 89be 28a5 d3bd
00000090: 138e b3be 6356 d7be 6061 e1bb 3c6b e2be
000000a0: 58da dcbd 2cc4 913e 012d b2be 8919 47be
000000b0: 9348 963d 009c ffbd 3583 893e 32a6 bfbd
000000c0: 2009 e0be 492f ecbe bbef 83be 3e21 eabd
000000d0: d7ba ccbe 5c3b 80bd 4452 acbe 20ed 45bc
000000e0: f2d4 78be f8fd 893c 0858 40bd 4095 94bc
000000f0: 9249 48bd 1248 dcbe e76f 243e 63f1 8d3d
00000100: e2da bf3c b491 063d 4860 9abd c346 323c
00000110: 8cde 043c 33f2 0fbe 62d8 95bd 7409 74bd
00000120: 0822 34bd 4c98 ac3d da86 8a3d 47c5 21be
00000130: 80ce 613c c848 e8bd 449b a3bc 0eee a8bd
00000140: 72ea f9bd baad cdbd b91b 41be 0862 89bd
00000150: c364 54bb 69c8 29be a01e e0bd 2506 f5bd
00000160: 80a7 79bc 42ac c4bc 1c44 363d 3cb6 99bd
00000170: ec0c e1bd c34c 10be f7f0 8fbd 593d 25bd
00000180: 28ba 0fbd e21e 65bd 6063 34bd e8a3 73bd
00000190: 5365 31be 19c2 a5bd 60fc e33d 677f a4bc
000001a0: 5a6d 93bd 3e59 87bc 34d6 fdbd 880c 973c
000001b0: a42e fdbd 6080 dabb 2c7f 8cbd dc27 13bd
000001c0: 7054 393d 73fc 1dbe 63ca 09be 0058 6eba
000001d0: 8b62 3abe 1e41 aa3d f42c d7bd 8af6 92bd
000001e0: 31a6 c1bd b654 b23d 387b 87bd 8673 9a3d
000001f0: 809f 1fbb 831d 1a3c 35ca d539 13b0 1e3d
00000200: f0bd efbd 74c4 7dbd de6c ee3d c08c 1dbc
00000210: e04b 41bc e60f 923d 60f1 8cbb 40cc 39bd
00000220: 5852 e23d a68a c53d f6d9 ca3d 94a3 dabd
00000230: fe10 e43d 4084 dd3b 1eef 933d 54ac 8b3d
00000240: e072 143c 6869 cc3c f067 7abc f0b0 aabc
00000250: 4803 80bd 2a97 893d c22e dcbd d06a f6bd
00000260: 961a 85bd a477 a5bd a029 633c 3c5c 483d
00000270: b0f4 4cbc 9071 df3d 3e95 a0bd bc3e a23d
00000280: d0b0 09bd c8a1 fa3c 5cd7 c43d 8006 14bb
00000290: ec80 053d a0ea 513d 7a26 d4bd 0e01 bfbd
000002a0: 32c4 db3d b8f4 b6bd 1a18 c8bd f4b2 32bd
000002b0: eee0 d73d 62ec 93bd 3082 5dbc cc72 ddbd
000002c0: 8ced 213d c0b2 28bb dce8 e73d f01c 60bc
000002d0: 74bf b8bd 9e3b e83d 2c1e 273d 60ff 923d
000002e0: 4ce8 fcbd 3429 583d 483d b13d 5c2c ed3d
000002f0: decb b6bd fa68 babd 4e37 dfbd 30c7 c03d
00000300: 8f5e 093f aaee 023d 9aa7 64bd afdc f93d
00000310: d0ed 313e 647c ffbd f7d6 283e 3109 90bd
00000320: 4741 323d d377 203f d32f 8d3d 59eb 933d
00000330: ca0f f6bb c484 f23d 036f 94bd c10a b83d
00000340: cba6 973d 67e2 603e 6aba 103d e788 9c3d
00000350: b347 f83c 6ede 64bd 37ef 9c3c f472 6bbe
00000360: 4811 43bd aab7 103f bb30 873f 4f2b cdbc
00000370: f326 7d3f 9dc1 65be 7f91 153e 1d17 703f
00000380: 2b23 d13d 612f 953d 267e 84bd 0903 29bd
00000390: 5aef cf3d 373f 793d d624 0fbe af9c 583e
000003a0: 7453 8c3d ef4e f73d b2a5 24bd c92c 2f3f
000003b0: 7743 1740 024f 2d3e 9cc2 173f f7e3 2f3d
000003c0: 4125 413e 079b bebd 0a61 8c3d dcd6 05bb
000003d0: 8b7a bf3d fd3f 9d3b d2b4 75bc 789d 3f3d
000003e0: 3ae3 123c bcb9 3c3d 5096 143b eaed a63d
000003f0: 79a6 063f ef51 f9bd 8fa2 ab3e 57aa 3e3f

layers.1.linear.bias f4 [64]
-0.48919436 -0.19318716 -0.060448736 -0.08689366 -0.3120629 -0.02217596 -0.052034438 -0.012591463
0.08482984 -0.14675125 -0.018757328 -0.08771522 0.008697451 0.04775165 -0.071905665 0.0068558916
-0.044351514 -0.11584748 0.44271526 0.0779566 -0.036109276 0.06429747 -0.017033285 -0.12241339
-0.031120967 -0.15671286 0.10095069 -0.13892862 -0.041575737 -0.11779391 -0.033458196 0.03251695
0.05687159 0.0030529918 -0.19342819 -0.13798824 0.66582173 -0.010083348 -0.11057918 -0.20676556
-0.107932486 0.059001394 -0.1405332 -0.30446625 -0.46896031 -0.10302591 -0.29132086 -0.1596663
-0.20197172 0.042291574 -0.023203686 -0.24999486 -0.09251981 0.12587859 -0.11989077 -0.010226253
0.33585933 0.006558346 0.059922166 -0.12601678 -0.094821945 -0.059575666 -0.1549371 -0.157964
00000000: af77 fabe dbd2 45be 1899 77bd 4ef5 b1bd
00000010: b5c6 9fbe 5caa b5bc 1022 55bd 6c4c 4ebc
00000020: 44bb ad3d f645 16be f8a8 99bc 0aa4 b3bd
00000030: c17f 0e3c 3c97 433d 4743 93bd 63a7 e03b
00000040: efa9 35bd 7241 edbd 93ab e23e b6a7 9f3d
00000050: 52e7 13bd 64ae 833d 6389 8bbc dfb3 fabd
00000060: 66f1 febc 5679 20be 3cbf ce3d 4e43 0ebe
00000070: 524b 2abd ef3d f1bd 760b 09bd 7e30 053d
00000080: 2ff2 683d b414 483b 0a12 46be ca4c 0dbe
00000090: 4b73 2a3f a034 25bc 5677 e2bd 5aba 53be
000000a0: b50b ddbd 72ab 713d efe7 0fbe 00e3 9bbe
000000b0: 911b f0be 40ff d2bd 0228 95be 907f 23be
000000c0: add1 4ebe ee39 2d3d a815 bebc a7fe 7fbe
000000d0: 077b bdbd 51e6 003e 4b89 f5bd 048c 27bc
000000e0: c1f5 ab3e 65e7 d63b f270 753d 8b0a 01be
000000f0: 0232 c2bd 9d05 74bd d5a7 1ebe 51c1 21be

layers.2.linear.weight f4 [64, 64]
0.02138391 -0.014042363 -0.071985945 -0.09601844 0.005173005 0.03411448 -0.07678403 -1.008705
-0.9465257 -0.009241007 0.0009227926 -0.015906602 0.013085738 -0.9227011 0.0738605 -0.016565248
-0.25468233 -0.12723318 0.53177917 -0.5164292 -1.0429057 -0.5449926 0.14392765 -0.4492997
0.07635653 -0.6355931 -0.7965457 0.06264241 -0.07474148 -0.0025673658 0.094449416 -0.9960236
-0.59451115 -0.41706374 0.045758322 -0.031683646 0.7724695 -0.008832976 0.001030162 0.2401417
-0.037052676 -0.8036778 -0.110235244 -0.39328873 0.16555272 0.09399526 0.08142774 0.09470715
-0.030058896 -1.1448936 0.008729205 -0.5342356 0.049447373 -0.57541895 0.08729312 -0.09387165
0.5123265 0.021597758 -0.9194243 0.049879447 0.0007790625 0.0748034 0.095586315 0.07706562
-0.014850587 -0.102882296 0.10686955 -0.13242455 0.004836321 -0.056937687 0.0057336544 -0.084548675
0.15380566 -0.060382023 -0.12116936 -0.17111923 0.03631166 0.07490486 -0.16381645 0.06604449
-0.23412803 -0.10095073 -0.0442608 -0.016733995 -0.06821218 -0.04136443 -0.18184814 0.026448688
-0.137244 -0.15831487 -0.029575026 0.039077297 -0.09786688 0.17280325 -0.15185802 -0.090362936
0.056276433 -0.077902064 0.03201832 0.016989097 -0.028237741 -0.07608228 0.049283296 -0.10938729
-0.14021169 -0.05848199 -0.224253 0.106531546 -0.011811804 -0.062771454 0.043746784 0.100582495
0.036943346 -0.16378179 0.03258737 -0.09527784 0.05804394 -0.068297125 -0.059922893 -0.15706179
-0.100705735 0.013441594 0.05212768 0.1105473 0.05381757 0.1044621 0.014930957 0.056011558
-0.28097418 -0.1203562 -0.07390535 0.11285073 -1.8480386 -0.11869445 -0.12816432 -0.23882602
-1.4602287 0.027575472 0.09794096 -0.08463098 -0.14260265 -0.6017987 -0.17583826 -0.010673105
-0.4918794 -0.06283285 0.45545632 -0.38083705 -0.42349166 -0.06913484 0.059745338 -0.46725628
0.02892536 -1.4960791 -0.99186146 0.06363203 -0.038301013 0.023433479 -0.099833064 -0.5708137
-0.24145292 -0.59773684 0.0021314025 -0.044603214 0.49275514 0.0107891355 0.043075092 -0.49696565
0.047323704 -0.7300738 0.2590372 -0.25812465 0.021518262 0.025667012 0.046012808 -0.09189834
-0.020523801 -0.4754328 -0.0006898201 -1.3019142 -0.14490454 -1.1633056 0.065545365 -0.057497814
0.5080485 -0.15056635 -0.502495 -0.080048345 -0.15011466 0.00953591 -0.014399096 -0.02025354
0.10645479 -0.103199676 -0.055144593 -0.08634343 0.14020185 -0.02569136 -0.008932641 -0.088885576
-0.15667224 0.03736517 -0.015008735 -0.08308061 0.018618414 -0.12211543 -0.0052178046 -0.02875222
-0.11618518 -0.26200855 -0.16072491 -0.2141093 -0.03552961 0.014950664 -0.115515985 -0.15212548
0.099585444 -0.084565096 0.0019833113 -0.06956628 -0.16034816 -0.047941014 -0.07782815 -0.15085763
0.022204535 -0.0921846 0.021273568 -0.06323691 -0.10595069 -0.13781019 0.021694481 0.05844146
0.015766453 -0.14998537 -0.17906927 -0.20738578 -0.101358436 0.05142328 -0.017056838 -0.067975
0.08070122 -0.06959411 -0.015972063 -0.2031084 -0.08788034 0.021647384 0.016565293 -0.1360465
-0.19783407 -0.09527794 -0.15605259 -0.1288305 -0.09028967 -0.055961754 -0.0488275 -0.07124537
00000000: 4f2d af3c f011 66bc 5e6d 93bd 51a5 c4bd
00000010: 5082 a93b a0bb 0b3d f240 9dbd 3f1d 81bf
00000020: 824f 72bf 9867 17bc 90e7 713a 904e 82bc
00000030: 9065 563c 2436 6cbf 2c44 973d d8b3 87bc
00000040: b965 82be 6a49 02be ae22 083f b434 04bf
00000050: ef7d 85bf a384 0bbf c561 133e 9c0a e6be
00000060: d060 9c3d 3bb6 22bf 6bea 4bbf aa4a 803d
00000070: 1012 99bd 4041 28bb b26e c13d 67fb 7ebf
00000080: e231 18bf 6189 d5be 146d 3b3d b6c6 01bd
00000090: 90c0 453f 30b8 10bc 8006 873a b5e7 753e
000000a0: 8cc4 17bd d4bd 4dbf 04c3 e1bd 245d c9be
000000b0: a786 293e 9680 c03d 96c3 a63d d2f5 c13d
000000c0: 133e f6bc e08b 92bf f004 0f3c aac3 08bf
000000d0: 5489 4a3d a84e 13bf bcc6 b23d c83f c0bd
000000e0: d427 033f c8ed b03c 645f 6bbf 644e 4c3d
000000f0: 003a 4c3a 8632 993d c2c2 c33d 94d4 9d3d
00000100: e04f 73bc f4b3 d2bd 6cde da3d 4d9a 07be
00000110: 007a 9e3b 7e37 69bd 61e1 bb3b db27 adbd
00000120: 3b7f 1d3e 2453 77bd a427 f8bd e139 2fbe
00000130: 89bb 143d b867 993d 80bf 27be 5542 873d
00000140: 42bf 6fbe 42bf cebd d04a 35bd bb15 89bc
00000150: d4b2 8bbd c06d 29bd 6636 3abe ebaa d83c
00000160: b189 0cbe 4b1d 22be 5347 f2bc 840f 203d
00000170: 6e6e c8bd 56f3 303e ab80 1bbe 3410 b9bd
00000180: 1e82 663d 1e8b 9fbd a425 033d b82c 8b3c
00000190: d652 e7bc 07d1 9bbd 48dd 493d 7206 e0bd
000001a0: a793 0fbe d08a 6fbd 94a2 65be 362d da3d
000001b0: 4c86 41bc 528e 80bd d42f 333d 32fe cd3d
000001c0: e851 173d 6ab6 27be 567a 053d 0721 c3bd
000001d0: 7cbf 6d3d 5ddf 8bbd b571 75bd ced4 20be
000001e0: cf3e cebd 223a 5c3c d683 553d 9f66 e23d
000001f0: d06f 5c3d 3af0 d53d f9a0 743c 606c 653d
00000200: d9db 8fbe 507d f6bd b05b 97bd 491e e73d
00000210: 878c ecbf 1316 f3bd 823d 03be cf8e 74be
00000220: c6e8 babf f5e5 e13c 4595 c83d 0253 adbd
00000230: 6e06 12be 7b0f 1abf f20e 34be 3fde 2ebc
00000240: 9ed7 fbbe 82ae 80bd 9231 e93e 13fd c2be
00000250: e6d3 d8be 9196 8dbd 87b7 743d 373c efbe
00000260: e0f4 ec3c 857f bfbf a2ea 7dbf 8251 823d
00000270: 86e1 1cbd 91f7 bf3c 4775 ccbd d920 12bf
00000280: 6f3f 77be 4805 19bf 00af 0b3b dcb1 36bd
00000290: 674a fc3e eac4 303c 826f 303d 4872 febe
000002a0: 80d6 413d 1ee6 3abf 86a0 843e ea28 84be
000002b0: 1147 b03c a043 d23c ed77 3c3d 3235 bcbd
000002c0: 8821 a8bc ee6b f3be 0bd5 34ba 20a5 a6bf
000002d0: db61 14be 33e7 94bf a63c 863d d482 6bbd
000002e0: 770f 023f 112e 1abe 83a3 00bf 63f0 a3bd
000002f0: a8b7 19be 813c 1c3c 30ea 6bbc c0ea a5bc
00000300: f804 da3d 5a5a d3bd 4cdf 61bd d3d4 b0bd
00000310: 1391 0f3e b076 d2bc 365a 12bc a409 b6bd
00000320: b06e 20be 380c 193d 32e7 75bc 2b26 aabd
00000330: a585 983c a817 fabd 1efa aabb c789 ebbc
00000340: 7ff2 edbd fc25 86be 1295 24be 783f 5bbe
00000350: 7f87 11bd a1f3 743c a593 ecbd c8c6 1bbe
00000360: 74f3 cb3d 7730 adbd 71fa 013b c478 8ebd
00000370: 4f32 24be cc5d 44bd 5d64 9fbd 6c7a 1abe
00000380: 49e6 b53c 48cb bcbd e845 ae3c 5a82 81bd
00000390: adfc d8bd 1d1e 0dbe a0b8 b13c 5060 6f3d
000003a0: a628 813c c495 19be ef5d 37be f05c 54be
000003b0: 0395 cfbd 38a1 523d c8ba 8bbc 7a36 8bbd
000003c0: ae46 a53d 5b87 8ebd d8d7 82bc a6fb 4fbe
000003d0: 9cfa b3bd db55 b13c f0b3 873c c64f 0bbe
000003e0: 0495 4abe 1521 c3bd 40cc 1fbe 25ec 03be
000003f0: cae9 b8bd 2738 65bd 58ff 47bd 18e9 91bd

layers.2.linear.bias f4 [64]
0.9315038 -0.060651492 0.8672825 -0.1876244 -0.075878076 -0.04580176 -0.0356543 -0.056433078
-0.048691433 -0.08500278 -0.043675367 -0.22075044 -0.055374056 -0.22171868 0.14848377 0.44741553
0.7646 -0.20453936 -0.16872574 -0.0045967256 -0.2019053 0.35947293 -0.041208982 -0.35564855
-0.1041604 0.68316746 0.09316813 -0.057871696 -0.40269458 0.14129612 -0.014025256 -0.27217707
-0.3214797 -0.08000422 -0.3028969 -0.3371901 -0.41441077 0.13673235 -0.17124106 -0.083575875
-0.14799249 -0.08762668 -0.19308664 -0.14403254 -0.085279055 -0.07794185 -0.29548815 -0.071373485
-0.02500132 -0.0797382 -0.28108504 -0.3721548 -0.17044427 -0.08908271 0.1889517 -0.08325558
0.036079377 -0.22333685 -0.004771682 -0.34780172 -0.292002 -0.6395563 -0.107725225 -0.1171653
00000000: 0877 6e3f b36d 78bd 3a06 5e3f 9c20 40be
00000010: f765 9bbd a09a 3bbd 3e0a 12bd 5f26 67bd
00000020: ab70 47bd f015 aebd f1e4 32bd 670c 62be
00000030: e8cf 62bd 390a 63be 210c 183e a613 e53e
00000040: d3bc 433f c472 51be 71c6 2cbe 21a0 96bb
00000050: 43c0 4ebe d60c b83e c0ca 28bd 9117 b6be
00000060: 0c52 d5bd 10e4 2e3f efce be3d df0a 6dbd
00000070: fc2d cebe eeaf 103e 30ca 65bc cb5a 8bbe
00000080: fd98 a4be 41d9 a3bd 4d15 9bbe 2ea4 acbe
00000090: a62d d4be 9103 0c3e d159 2fbe d429 abbd
000000a0: 588b 17be 9e75 b3bd 81b8 45be 447d 13be
000000b0: c9a6 aebd fa9f 9fbd 394a 97be 432c 92bd
000000c0: 91cf ccbc c84d a3bd 61ea 8fbe 138b bebe
000000d0: f188 2ebe ff70 b6bd 8e7c 413e e781 aabd
000000e0: f8c7 133d 6ab2 64be c55b 9cbb 1113 b2be
000000f0: 4981 95be f6b9 23bf 0b9f dcbd 5cf4 efbd

classifier.weight f4 [3, 64]
0.9189528 -0.058587633 0.82686615 0.15052207 -0.056907147 -0.5250381 -0.04624412 0.007171819
-0.032039184 0.016868675 -0.015634494 -0.41728792 -0.055585936 -0.27869356 -0.08518531 0.5197264
0.6556878 -0.14303786 -0.011686272 0.016554376 0.021099314 0.32988435 -0.45772982 -0.47065565
0.0076533556 0.6967309 -0.62632126 -0.032823227 -0.41987377 -0.4485365 0.0131523525 -0.36111104
-0.31198382 0.044881348 -0.14035311 -0.42618477 0.08399306 -0.3032969 -0.47284988 0.051691778
-0.39216125 -0.075511195 -0.43432567 -0.09491071 0.021037739 -0.055586018 -0.07464996 0.19184685
-0.051643893 0.07544235 -0.43383634 -0.15930383 -0.11757897 -0.018044654 -0.050398394 -0.2934661
0.0351592 -0.33068267 0.042274263 -0.29359582 -0.49663115 -0.29820955 -0.097022735 0.056479987
-0.9228041 0.06822903 -0.8017065 0.11936988 -0.013904984 0.23608403 0.11948257 0.010911787
-0.03351414 0.31370318 0.11681755 0.5466617 0.10633487 0.6585742 -0.76867664 -0.47113958
-0.87041223 -0.0024331522 -0.01418959 0.01989837 -0.19228727 -0.53817207 0.44913366 0.5958431
-0.11990559 -0.6273642 0.3339658 0.1028483 0.22038433 0.27688807 0.14583655 0.5671069
0.6458324 0.17266998 0.17156914 0.549571 0.11558409 -0.19679171 0.45483303 -0.017137107
0.42551684 -0.04930246 0.42326686 0.013236484 0.07001218 0.02703274 0.056223888 0.048191056
-0.024906596 0.011186282 0.6152095 -0.19127281 -0.01919643 0.05022459 -0.82695264 0.40407574
-0.5288827 0.58930665 0.07450415 0.5509083 0.5243531 0.71725804 -0.11998697 -0.091424756
0.13427886 0.0031905437 -0.08720297 -0.1437248 0.0053787846 0.106289364 -0.0009649308 -0.017896146
0.104460105 -0.058270816 -0.034973986 -0.18367371 -0.018820902 -0.23783727 0.6455871 0.227645
0.06902117 0.050471097 0.03245971 -0.0020581759 0.05384013 0.24249126 -0.08678321 -0.34353828
-0.09990054 0.015415142 0.19551219 0.06853203 -0.22867984 0.12845498 0.07664065 -0.29952446
-0.4801896 0.07358057 0.24895331 -0.1453503 -0.075296104 0.30500856 -0.04326441 -0.108327255
-0.030929517 -0.044544015 -0.22986408 0.035414245 0.020426404 -0.14062373 0.13547218 -0.24463749
-0.01346884 0.18847138 -0.16091709 0.14079414 -0.031158535 -0.17948432 0.5984258 -0.18203108
0.39263144 -0.23351261 0.04217879 -0.31259406 -0.28423005 -0.58475876 0.057994377 -0.019331178
00000000: 7e40 6b3f 96f9 6fbd 80ad 533f 7522 1a3e
00000010: 7817 69bd e668 06bf 796a 3dbd 9401 eb3b
00000020: 853b 03bd 2d30 8a3c e913 80bc c3a6 d5be
00000030: 14ae 63bd ecb0 8ebe a375 aebd ca0c 053f
00000040: 28db 273f 8478 12be c777 3fbc 0b9d 873c
00000050: 78d8 ac3c 9ae6 a83e 905b eabe c7f9 f0be
00000060: 00c9 fa3b f55c 323f 9756 20bf a671 06bd
00000070: b2f9 d6be 93a6 e5be f77c 573c 8ce3 b8be
00000080: 58bc 9fbe 81d5 373d bab8 0fbe e434 dabe
00000090: 8e04 ac3d bb49 9bbe 6119 f2be c2ba 533d
000000a0: 5cc9 c8be 9da5 9abd ef5f debe 8c60 c2bd
000000b0: 5657 ac3c 2aae 63bd 14e2 98bd 8073 443e
000000c0: 8c88 53bd 8581 9a3d cc1f debe 8b20 23be
000000d0: 3ecd f0bd 62d2 93bc 8c6e 4ebd 3041 96be
000000e0: 1803 103d 3d4f a9be c727 2d3d 3152 96be
000000f0: 7046 febe ecae 98be dbb3 c6bd 8f57 673d
00000100: e43c 6cbf a9bb 8b3d a33c 4dbf 3278 f43d
00000110: bbd1 63bc 03c0 713e 47b3 f43d 5ac7 323c
00000120: 1f46 09bd b49d a03e 0a3e ef3d 05f2 0b3f
00000130: 19c6 d93d 5298 283f fec7 44bf 3539 f1be
00000140: 56d3 5ebf 8575 1fbb 747b 68bc e801 a33c
00000150: f4e6 44be a5c5 09bf d9f4 e53e 2c89 183f
00000160: 1091 f5bd f19a 20bf 91fd aa3e 21a2 d23d
00000170: 6eac 613e 46c4 8d3e 2d56 153e eb2d 113f
00000180: 4655 253f 66d0 303e d2af 2f3e afb0 0c3f
00000190: 5ab7 ec3d c483 49be e0df e83e 1e63 8cbc
000001a0: 58dd d93e 60f1 49bd 6fb6 d83e d6dd 583c
000001b0: 8c62 8f3d c473 dd3c 054b 663d fc63 453d
000001c0: eb08 ccbc ab46 373c 5f7e 1d3f 05dd 43be
000001d0: d541 9dbc 4db8 4d3d 2bb3 53bf 04e3 ce3e
000001e0: db64 07bf cddc 163f a295 983d 5408 0d3f
000001f0: 013c 063f 399e 373f bbbb f5bd e73c bbbd
00000200: 6680 093e 7118 513b 7997 b2bd 982c 13be
00000210: 8440 b03b 3dae d93d 69f3 7cba f09a 92bc
00000220: 2eef d53d 61ad 6ebd e240 0fbd f614 3cbe
00000230: 4b2e 9abc 9d8b 73be 3245 253f c51b 693e
00000240: f95a 8d3d c8ba 4e3d 79f4 043d 76e2 06bb
00000250: 7887 5c3d a14f 783e 65bb b1bd 40e4 afbe
00000260: a898 ccbd cb8f 7c3c 5934 483e 855a 8c3d
00000270: 0c2b 6abe b489 033e c6f5 9c3d 455b 99be
00000280: 69db f5be 69b1 963d 9eed 7e3e b6d6 14be
00000290: d834 9abd 152a 9c3e 0636 31bd aeda ddbd
000002a0: e65f fdbc c973 36bd 7d61 6bbe 870e 113d
000002b0: 4655 a73c abff 0fbe 38b9 0a3e 4082 7abe
000002c0: 69ac 5cbc a4fe 403e 73c7 24be 572c 103e
000002d0: 2f40 ffbc bdca 37be 6f32 193f 5b66 3abe
000002e0: fd06 c93e ee1d 6fbe abc3 2c3d 540c a0be
000002f0: 9a86 91be c0b2 15bf 838b 6d3d 6b5c 9ebc

classifier.bias f4 [3]
0.4723985 -0.39052084 0.114757955
00000000: 37de f13e 59f2 c7be 3806 eb3d
