10by10recording/src/tactile_mlp_model_trial_random_test(2).npz (npz, 16380 bytes, 6 tensors)

mean f8 [100]
0.0 0.0 0.0 0.0 0.0 0.0 0.0 0.0
0.0 0.0 0.0 0.04452941176470588 0.0011568627450980393 0.016431372549019607 0.0 0.021784313725490195
0.0196078431372549 0.025627450980392156 0.04288235294117647 0.024254901960784312 0.0 0.006627450980392157 0.004607843137254902 0.0022745098039215687
0.000803921568627451 0.02331372549019608 0.006294117647058823 0.006313725490196078 0.0025098039215686275 0.00596078431372549 0.0 0.005470588235294118
0.007 0.006745098039215686 0.004627450980392157 0.008333333333333333 0.007705882352941176 0.0051764705882352945 0.0022745098039215687 0.0010784313725490195
0.0 0.024176470588235296 0.0055490196078431375 0.027941176470588237 0.030705882352941177 0.013470588235294118 0.025529411764705884 0.02372549019607843
0.004294117647058823 0.0028823529411764704 0.0 0.04003921568627451 0.0024901960784313726 0.02319607843137255 0.030666666666666665 0.03068627450980392
0.02284313725490196 0.021745098039215687 0.020745098039215686 0.00025490196078431374 0.0 0.0007450980392156863 0.0041764705882352945 0.04323529411764706
0.024980392156862746 0.02643137254901961 0.00296078431372549 0.000588235294117647 0.02015686274509804 0.0 0.0 0.005274509803921568
0.004686274509803922 0.003392156862745098 0.0014705882352941176 0.003254901960784314 0.0026274509803921567 0.00203921568627451 0.0006666666666666666 0.0008431372549019607
0.0 0.026333333333333334 0.003392156862745098 0.021666666666666667 0.019627450980392157 0.003372549019607843 0.02092156862745098 0.02211764705882353
0.003 0.03988235294117647 0.0 0.041686274509803924 0.0196078431372549 0.021019607843137254 0.020058823529411764 0.023372549019607843
0.02003921568627451 0.02088235294117647 0.0041960784313725494 0.5017450980392156
00000000: 0000 0000 0000 0000 0000 0000 0000 0000
00000010: 0000 0000 0000 0000 0000 0000 0000 0000
00000020: 0000 0000 0000 0000 0000 0000 0000 0000
00000030: 0000 0000 0000 0000 0000 0000 0000 0000
00000040: 0000 0000 0000 0000 0000 0000 0000 0000
00000050: 0000 0000 0000 0000 99a3 7a1e 8fcc a63f
00000060: 5b79 fee9 3bf4 523f a0dd e7be 62d3 903f
00000070: 0000 0000 0000 0000 e82f 118c a04e 963f
00000080: 1414 1414 1414 943f 71cd 5c1f 153e 9a3f
00000090: 8e6f eafe acf4 a53f 09cc c1ea 46d6 983f
000000a0: 0000 0000 0000 0000 594e 77d3 6225 7b3f
000000b0: e012 4679 acdf 723f 6fdf 1c27 fea1 623f
000000c0: 8b4d 436c c857 4a3f 46fe 1ca2 8ddf 973f
000000d0: 2e80 3857 dcc7 793f a9e6 f0c7 6bdc 793f
000000e0: f67a 66b8 708f 643f 04b2 f9da 556a 783f
000000f0: 0000 0000 0000 0000 02b0 f7d8 5368 763f
00000100: 79e9 2631 08ac 7c3f 3ab5 c977 bfa0 7b3f
00000110: 5b79 fee9 3bf4 723f 1111 1111 1111 813f
00000120: c352 150b 3490 7f3f ceae 293e ec33 753f
00000130: 6fdf 1c27 fea1 623f ab11 78de 44ab 513f
00000140: 0000 0000 0000 0000 8f65 097a b7c1 983f
00000150: ee49 d99b 91ba 763f 9d9c 9c9c 9c9c 9c3f
00000160: 0bb9 00e2 5c71 9f3f fd81 6dbf 7796 8b3f
00000170: 584d 76d2 6124 9a3f 4b18 e5b1 7e4b 983f
00000180: 30ab bf6d b596 713f 36b1 c573 bb9c 673f
00000190: 0000 0000 0000 0000 1a2e dc23 0580 a43f
000001a0: 00ae f5d6 5166 643f 8e64 0879 b6c0 973f
000001b0: cd85 a429 1567 9f3f 6c9f d205 396c 9f3f
000001c0: 6497 cafd 3064 973f abfc b4d3 5844 963f
000001d0: 0be2 85f6 333e 953f e843 d395 8bb4 303f
000001e0: 0000 0000 0000 0000 04b2 f9da 556a 483f
000001f0: 4f44 6dc9 581b 713f 2356 89bc ef22 a63f
00000200: fb7f 6bbd 7594 993f dee7 be62 d310 9b3f
00000210: 0ee5 88f9 3641 683f 4613 e0ac 7946 433f
00000220: 71e1 1e29 00a4 943f 0000 0000 0000 0000
00000230: 0000 0000 0000 0000 34af c371 b99a 753f
00000240: ccac 273c ea31 733f 3082 3a59 dec9 6b3f
00000250: 1818 1818 1818 583f 77e7 242f 06aa 6a3f
00000260: b948 0b01 2a86 653f e843 d395 8bb4 603f
00000270: a5e2 ecc3 67d8 453f 3ab5 c977 bfa0 4b3f
00000280: 0000 0000 0000 0000 c467 d815 20f7 9a3f
00000290: 3082 3a59 dec9 6b3f 3096 fc62 c92f 963f
000002a0: b32d 42f0 3719 943f 3ab5 c977 bfa0 6b3f
000002b0: a0c8 24b4 766c 953f 73e3 202b 02a6 963f
000002c0: fa7e 6abc 7493 683f 9fc7 23b3 756b a43f
000002d0: 0000 0000 0000 0000 2562 6c43 e757 a53f
000002e0: 1414 1414 1414 943f b948 0b01 2a86 953f
000002f0: 5761 38dc 4c8a 943f 224b a736 f9ee 973f
00000300: b847 0a00 2985 943f 6295 c8fb 2e62 953f
00000310: caaa 253a e82f 713f 4137 60bc 4b0e e03f

std f8 [100]
1e-08 1e-08 1e-08 1e-08 1e-08 1e-08 1e-08 1e-08
1e-08 1e-08 1e-08 0.20626814436065502 0.033993015364143814 0.12712743640823773 1e-08 0.14597862967070968
0.13864839846797214 0.15802116281394582 0.20259185768238228 0.15383954227839935 1e-08 0.0811389517844071 0.06772453228608508 0.04763756250927683
0.0283421214022809 0.15089797451232784 0.07908541782030212 0.07920772654725343 0.050035045783379035 0.07697567735072774 1e-08 0.07376084581178896
0.08337266738836856 0.0818511046271274 0.06786780558682216 0.09090594428861085 0.08744428785796711 0.07176124424583043 0.04763756250928934 0.032821776532649435
1e-08 0.15359678359290738 0.07428478629523538 0.16480433982176096 0.17251966436393365 0.11527850534015531 0.15772654834923386 0.15219262253753546
0.06538868027774235 0.053610130151866164 1e-08 0.1960512198750496 0.04983970303599449 0.15052582299167433 0.1724129509941484 0.17246631704728332
0.14940325071211 0.14585009999137263 0.14252979266510363 0.015963624433290892 1e-08 0.02728632283496825 0.06449053396794352 0.20338635039724418
0.1560652917398743 0.16041433322028606 0.05433248711979468 0.024246438053560592 0.1405367085146319 1e-08 1e-08 0.07243404447448896
0.0682957883543249 0.05814336847337705 0.038320051825861755 0.056958833495666356 0.05119129325933132 0.04511161921158734 0.025811290910143357 0.029024592244558823
1e-08 0.16012461425839636 0.05814336847338041 0.14559266854505565 0.13871631815596583 0.057975650856448 0.14312183430939035 0.1470661745226199
0.05469004565551953 0.19568279121739238 1e-08 0.199871291146991 0.13864839846796523 0.14344959671694787 0.14020153327292947 0.15108367216093743
0.1401343937926502 0.1429905001621262 0.06464110650345517 0.4999969646232365
00000000: 3a8c 30e2 8e79 453e 3a8c 30e2 8e79 453e
00000010: 3a8c 30e2 8e79 453e 3a8c 30e2 8e79 453e
00000020: 3a8c 30e2 8e79 453e 3a8c 30e2 8e79 453e
00000030: 3a8c 30e2 8e79 453e 3a8c 30e2 8e79 453e
00000040: 3a8c 30e2 8e79 453e 3a8c 30e2 8e79 453e
00000050: 3a8c 30e2 8e79 453e cd28 1e9b fe66 ca3f
00000060: b416 9052 8867 a13f 0f1b e63a b645 c03f
00000070: 3a8c 30e2 8e79 453e 3ee0 2c80 6daf c23f
00000080: 1b07 8810 3bbf c13f 174f 2e97 093a c43f
00000090: 8b42 97ad 87ee c93f 386b 759d 03b1 c33f
000000a0: 3a8c 30e2 8e79 453e 0783 58b8 85c5 b43f
000000b0: de3d 4e1b 6556 b13f 3bb6 135a f363 a83f
000000c0: 6896 1692 b705 9d3f 5213 c8f4 9f50 c33f
000000d0: 0af2 2023 f13e b43f 2b68 1c23 f546 b43f
000000e0: 7142 968a 319e a93f 100f cf90 adb4 b33f
000000f0: 3a8c 30e2 8e79 453e 96a7 7ca4 fde1 b23f
00000100: 4f36 d03f e957 b53f 27d6 83a9 31f4 b43f
00000110: 195a 72d5 c85f b13f ee48 bba9 9c45 b73f
00000120: 316d 92b4 bf62 b63f d1f6 27e5 f15e b23f
00000130: 46bd 135a f363 a83f b6d3 9b11 04ce a03f
00000140: 3a8c 30e2 8e79 453e a3b2 2635 0fa9 c33f
00000150: 7077 bae7 5304 b33f 9afc e200 4f18 c53f
00000160: 3514 2ed6 1f15 c63f 7323 5e62 e482 bd3f
00000170: 617a 6f2f 6230 c43f 3adf 3e40 0c7b c33f
00000180: 0f4e 5203 50bd b03f 881f 7977 c972 ab3f
00000190: 3a8c 30e2 8e79 453e a424 dad4 3418 c93f
000001a0: 1ff5 29ed 9684 a93f eef2 791f 6e44 c33f
000001b0: b39e f6a8 a011 c63f 5898 b053 6013 c63f
000001c0: bbbf dc4d a51f c33f 3b67 ca50 37ab c23f
000001d0: 56e4 198f 6a3e c23f da68 77b3 c458 903f
000001e0: 3a8c 30e2 8e79 453e 8430 d120 f2f0 9b3f
000001f0: ac3c 4b9e 7382 b03f d058 b45d 9008 ca3f
00000200: 6d1f 088e f2f9 c33f b7d1 7ef5 7488 c43f
00000210: 7368 94be 77d1 ab3f 5329 f0e9 0ed4 983f
00000220: 229a 7a5b 1bfd c13f 3a8c 30e2 8e79 453e
00000230: 3a8c 30e2 8e79 453e 678b 229c 098b b23f
00000240: 7eb5 6f31 d57b b13f ca15 25b4 f7c4 ad3f
00000250: 2307 bf92 af9e a33f a415 2a4e b529 ad3f
00000260: 4a0d c7c4 be35 aa3f 0ee3 5dc2 de18 a73f
00000270: 4672 4e69 466e 9a3f ed65 e169 9fb8 9d3f
00000280: 3a8c 30e2 8e79 453e 7220 c39e f67e c43f
00000290: af17 25b4 f7c4 ad3f e61c f8d2 c7a2 c23f
000002a0: 3761 f3d0 74c1 c13f a617 c908 fcae ad3f
000002b0: 02e7 d9f6 d051 c23f db13 f67c 10d3 c23f
000002c0: 25b0 036b 5500 ac3f d797 553a 220c c93f
000002d0: 3a8c 30e2 8e79 453e 055c 71e9 6195 c93f
000002e0: 2206 8810 3bbf c13f f307 436f 8e5c c23f
000002f0: 0bce 20b4 1ff2 c13f 2006 72b3 b556 c33f
00000300: 0e2e 317f ecef c13f c3e1 ea40 834d c23f
00000310: 14db 68ce 518c b03f 0cfd c944 f3ff df3f

W1 f8 [16, 100]
0.009089993916557057 0.01602358959516733 0.0046218676646540965 -0.00902761630227772 -0.00474007264979028 0.004487933386710239 0.00913409137440534 0.015954237194192686
0.022365745811351957 -0.011959197768477594 0.0116246088946985 -0.28852358114283083 0.045440766605111114 -0.4587701367780627 0.0023281464889315278 -0.3162462114137523
-0.3601048204091131 0.234561879662124 -0.2536952399614417 0.28029381933758885 0.016558078919928457 0.8416919416377701 0.546208366306649 0.2980515141089237
0.17845430239426088 0.12127233341767965 0.6841721150672928 0.6661560081597967 0.26084005984363656 0.6693309016385385 0.0023380648032197975 0.6436901779523921
0.6897979745819934 0.6708444749648413 0.4633214387277653 0.8405286171050039 0.7470162857615975 0.651061060945637 0.304362572998695 0.11361956798918574
0.0038186039120561054 0.2769700681554475 0.517856140818422 0.37718741067425166 0.24854564456124587 1.1296783210647088 0.03698215330220861 0.09431251165688964
0.306020950842934 0.23751042405378778 0.012814898172031597 -0.28201163278319735 0.35205868476399477 0.062225262412476445 0.3385277540233032 0.3860756398009711
-0.12175709017598266 0.01769562115947159 -0.10293837803627603 0.005895418556759269 -0.003785179601569863 0.04953685219924112 0.5094638292118264 -0.4481912481772864
-0.05524326148711866 0.05968447456869168 0.32280295302216827 0.0890627559006021 -0.10381908198474217 0.0015927275643750924 0.004921104136741143 0.49092869737599276
0.3612066903280624 0.3573283817354529 0.1383815029123679 0.3959968071338751 0.23150908111821838 0.19533771104023295 0.07991271049129701 0.013468135221051577
0.00290755765131915 0.5119370404602741 0.20016130770531132 -0.10768524684677692 -0.2180265638548723 0.42459495722722357 -0.019056516312468946 -0.1125502624263836
0.23017743013871605 -1.1897304995695812 -0.009920731993118864 -0.31894875930969646 -0.11678488747763668 -0.1781366755741803 -0.1582487882167299 0.176767517993436
-0.2646501720349672 -0.2136465547963218 0.2775164653917718 0.38177142139636017 0.005463106671385439 0.006732602964410717 -0.0060867449726086514 -0.0029928511265716333
0.0032496338497512525 0.006327047502031405 -0.008167154668705883 0.0025981401868301855 -0.018048352375266943 0.023191386826952032 -0.005704628394726987 0.32937403561099005
0.043033343224281574 0.08178507915635994 -0.0022810589036483457 0.23249872228085777 0.03390438730158224 0.33704705987489025 0.25357618344255084 0.4480212901213874
0.015126525753014626 0.4361281760544246 0.24909346168208385 0.15735365849852537 0.08382429924857533 0.34103878208801436 0.4442239068358114 0.4474505005415821
0.17761537397589194 0.5053635837411828 -0.0011844683777698418 0.33880424141463 0.346174572842941 0.34633554938530153 0.25612551990090265 0.5360744799421697
0.4860654487388195 0.42628235841391016 0.192818021294646 0.08280695083106074 -0.0024781887608436755 0.2775779005509239 0.31563967775022794 0.37510436919926554
0.4454419540459401 0.7638792473102273 0.31903003705990873 0.217037616441162 0.19755465805147146 0.14476192714818467 -0.010995192504351605 0.19429402092476028
0.2596340322849577 0.20225572051427504 0.542653632758481 0.5590069423848881 0.19195409675849948 0.1463822589050345 0.05329201393075793 0.012497231516484493
-0.009987014870807257 0.03190984593383563 0.3874900549172817 0.24396131518531572 0.2821028113690957 0.36555652599849753 0.15988752525982686 0.03842440855597097
0.032160853077955555 -0.0014108278277287774 -0.0058199114486730446 0.35636132541321885 0.2268659926104299 0.2753145271659452 0.11206033990726477 0.28474083493332514
0.09653992964582186 0.10570313118429032 0.045534362485944405 0.039693553082557224 0.01825067522431408 0.4165317678277062 0.12137128892059576 0.17367872225169542
0.023169906884620884 0.3026763490043685 0.16569275890693969 0.15348484102261944 0.10916170104661362 0.03500598798291775 0.001511090346031585 0.22699976663038066
0.012091891921152448 0.13288009747688892 0.04520555667929267 0.30752902277835625 -0.0023703104807556693 0.09529806228135415 0.16261373449687705 0.033750313861677
0.009521243745440994 0.002430319445101509 0.0019870568065055542 0.018679402082581127 0.0024005266181226534 0.01703726689686195 0.011122642064296575 0.0030216179267881023
0.012899369500171207 -0.0173191579564621 -0.016929606477110323 0.14371173499376771 0.0056874882845782794 0.2807060894175485 0.006910043914491599 0.22319079029911168
0.1455588598274305 0.08240118783148086 0.22643659170433442 0.019404556725677553 0.001485681513485021 -0.31708013508739086 -0.15049993072090534 -0.09932057748754372
-0.09116916506482488 -0.030250411040216377 -0.17738093217416565 -0.13102432013067605 -0.06079860478552531 -0.13141690906553635 0.017540128651119452 -0.15443609406934833
-0.1709994549465267 -0.1708800467476801 -0.12026482921139266 -0.1622099885956272 -0.1038668146215689 -0.1637273374049364 -0.06075374390808418 -0.00703461467253058
5.432511918055578e-05 0.026081844665854222 -0.061761740096428125 0.001256592022513166 0.15653214529585827 -0.06079618379940813 0.07510771428235603 0.04714223715995249
-0.018637583628397885 -0.0008958200748544637 -0.007005235854232183 0.22653699984109915 -0.01274725510028373 0.019767044866853857 0.10036969792365219 0.1049937824683776
00000000: 3857 bd54 c69d 823f 5663 1ae5 7c68 903f
00000010: ef43 7527 61ee 723f e1a2 3b26 127d 82bf
00000020: 9628 2f90 536a 73bf d7f3 f571 f061 723f
00000030: fa9d dafd e4b4 823f ac3e edbb 4e56 903f
00000040: fada 3dcb 0be7 963f e182 6a5a 107e 88bf
00000050: f68d 4098 a4ce 873f 5887 489c 2b77 d2bf
00000060: 03c0 f21c 0344 a73f 6bf7 756b 7d5c ddbf
00000070: eadf f720 7a12 633f c861 e0bf 603d d4bf
00000080: 8580 b216 f50b d7bf 06c0 04a9 1f06 ce3f
00000090: c641 b2f5 8a3c d0bf 29db d47c 55f0 d13f
000000a0: 4460 c8dd 99f4 903f c582 54f0 23ef ea3f
000000b0: 30d6 c2f7 897a e13f 44c0 67a8 4613 d33f
000000c0: 7992 4e30 97d7 c63f 4a44 f021 b40b bf3f
000000d0: d092 61eb bce4 e53f 4b91 a267 2651 e53f
000000e0: 6ef7 a081 9ab1 d03f c0ab 97a3 286b e53f
000000f0: 8149 b4fb 4627 633f 73fb e124 1c99 e43f
00000100: 89a7 b533 d312 e63f 1fa4 15d5 8e77 e53f
00000110: 58c5 b7f6 0ea7 dd3f dc2d 3a45 9ce5 ea3f
00000120: 4d9d 9db2 8ee7 e73f 05bd 8e01 7ed5 e43f
00000130: c1f8 4928 ad7a d33f dafe b208 2c16 bd3f
00000140: caa6 655d 3148 6f3f d9b4 2caa e0b9 d13f
00000150: f121 9b0a 4792 e03f e8c3 53aa d623 d83f
00000160: d515 7afb 57d0 cf3f de91 3f93 2913 f23f
00000170: 28f2 ef25 53ef a23f 7c82 2b61 dd24 b83f
00000180: eab7 f0e5 d895 d33f f992 e2d7 bd66 ce3f
00000190: 2d50 6784 b23e 8a3f 234e f984 7a0c d2bf
000001a0: 6762 5526 2188 d63f 88dc 1756 fddb af3f
000001b0: fd60 1450 70aa d53f 7d8e ae99 76b5 d83f
000001c0: f6a9 5c00 792b bfbf 6e3b a608 cd1e 923f
000001d0: 8049 2b67 2b5a babf 2736 5c5e cb25 783f
000001e0: e0b0 24d3 1802 6fbf 35f9 48f0 e45c a93f
000001f0: 0fb6 9e16 874d e03f 6297 5158 2aaf dcbf
00000200: cfb6 d242 d848 acbf 76f4 b3a4 f68e ae3f
00000210: 7313 92b7 cda8 d43f d17c e217 d1cc b63f
00000220: fd40 d329 e393 babf 8939 3a33 6218 5a3f
00000230: d17e 3dd5 2628 743f 1075 f932 606b df3f
00000240: 208c 83aa 021e d73f c020 5fdc 77de d63f
00000250: 2aa2 b02e 7cb6 c13f 6877 fdfd 0258 d93f
00000260: f29b 10ee 16a2 cd3f 36f1 4b7c d300 c93f
00000270: 3947 18ce 2875 b43f ab0b 8082 2e95 8b3f
00000280: 51be c120 97d1 673f ba69 ccc9 c961 e03f
00000290: 7a6b 42bf e29e c93f c7f5 77a5 4291 bbbf
000002a0: 443d b560 4be8 cbbf af98 d553 902c db3f
000002b0: bbd9 5929 8d83 93bf 8b0c 4710 18d0 bcbf
000002c0: e08e 5c3b 7476 cd3f 1048 2bd9 2209 f3bf
000002d0: 56de b31b 5251 84bf 5c6f 950e a869 d4bf
000002e0: 5e2c 6248 9de5 bdbf 0b96 e7bd 2ecd c6bf
000002f0: cbe0 020d 7f41 c4bf 6f71 636a 51a0 c63f
00000300: 6057 7146 07f0 d0bf 496b e032 c558 cbbf
00000310: 2363 bd6b d4c2 d13f a177 5c66 f16e d83f
00000320: bc80 cf87 7b60 763f 9a19 c958 a593 7b3f
00000330: 900b 8b29 6aee 78bf c1c6 bbb6 7684 68bf
00000340: 951c 7ae3 f99e 6a3f 1098 9fe1 63ea 793f
00000350: 83b2 a0f1 f0b9 80bf 7861 40e4 b148 653f
00000360: e737 cb6c 447b 92bf 8df0 e19f 7bbf 973f
00000370: 9c4b 4286 bc5d 77bf 8d72 c6d5 7614 d53f
00000380: a558 9263 7708 a63f 92ff 46f0 ddef b43f
00000390: af81 862c baaf 62bf dc6e 47a4 84c2 cd3f
000003a0: d86b 4d75 ea5b a13f f409 d8d4 2d92 d53f
000003b0: 4289 bb99 973a d03f e5ea 3e7d 61ac dc3f
000003c0: 7157 4aeb a7fa 8e3f 0325 4127 86e9 db3f
000003d0: 9e36 c967 4be2 cf3f 791c 9428 2a24 c43f
000003e0: cdfb e15f 8275 b53f 9515 ef53 94d3 d53f
000003f0: a983 fd1b 2a6e dc3f 4cea 996c 07a3 dc3f
00000400: 5223 3fbf 19bc c63f 633f 1840 f02b e03f
00000410: 95d1 853c 0568 53bf 9dcd 27fc f7ae d53f
00000420: 074d 4465 b927 d63f 0055 8394 5c2a d63f
00000430: cf4d e94a 5c64 d03f 684c f2aa 8527 e13f
00000440: 721f 8341 b21b df3f b8f7 0fcd 3548 db3f
00000450: a11c c5cb 42ae c83f 426d b319 d632 b53f
00000460: a8e2 cb75 234d 64bf 0659 3d19 d6c3 d13f
00000470: 1876 50c3 7033 d43f 250b 93c1 b501 d83f
00000480: 8631 39f8 1e82 dc3f f54b 29e4 b271 e83f
00000490: 624b e7f5 fc6a d43f 2fec 4e7c e3c7 cb3f
000004a0: c573 c095 7849 c93f 7b58 670f 8f87 c23f
000004b0: 615c c1c1 a584 86bf 4e10 d760 a0de c83f
000004c0: 8beb 650f d89d d03f 42d4 84f4 83e3 c93f
000004d0: ca1a b826 6b5d e13f 2df6 f886 62e3 e13f
000004e0: d39a f4ab f391 c83f e719 5b63 a7bc c23f
000004f0: 16f0 f041 1749 ab3f 3111 3b05 2698 893f
00000500: 95cb 0972 1274 84bf 0396 69c1 7c56 a03f
00000510: 2c47 5916 a3cc d83f e0e3 1ad7 1f3a cf3f
00000520: b327 3cf3 f80d d23f da2f 0033 4765 d73f
00000530: 18c1 03c6 3177 c43f 5269 3b34 5dac a33f
00000540: bdd0 5c28 6377 a03f fe2c 58d8 701d 57bf
00000550: 3515 6795 9ed6 77bf 1260 8dbb 9fce d63f
00000560: 4e0e 6be1 f109 cd3f eca6 92d2 c09e d13f
00000570: 8c91 1487 fcaf bc3f 9cf5 779f 3139 d23f
00000580: 1442 9640 d7b6 b83f 8975 8543 5c0f bb3f
00000590: 8a53 71ab 4750 a73f f707 b4a0 b652 a43f
000005a0: 3596 df14 4eb0 923f fe29 24dc 74a8 da3f
000005b0: fe5a 9654 3012 bf3f 3b82 0ab8 1a3b c63f
000005c0: ed82 4821 dab9 973f c1c5 0f9f 0c5f d33f
000005d0: 983b 589a 6b35 c53f 46dc 4f2a 64a5 c33f
000005e0: 298f f86f 05f2 bb3f 8e02 1a0b 4eec a13f
000005f0: 003c 85e7 f8c1 583f 5f45 f00e 540e cd3f
00000600: 3df1 c842 a2c3 883f 81ec 790c 3702 c13f
00000610: 4af0 11c7 2e25 a73f 28d9 d935 8eae d33f
00000620: 3af7 e0bf e66a 63bf cede de2c 7465 b83f
00000630: a2b2 c5df 86d0 c43f ba01 889c b847 a13f
00000640: dd03 08b4 df7f 833f da2c 23d1 bfe8 633f
00000650: d8bc f9ff 2847 603f 02ce 3674 b120 933f
00000660: 472c 2dea 44aa 633f cb7d 8aa0 3772 913f
00000670: bb46 4abf 77c7 863f d165 a6c5 cac0 683f
00000680: b256 2311 fc6a 8a3f 5ead 1104 1dbc 91bf
00000690: cc04 9da8 fe55 91bf 5ec1 ec68 2565 c23f
000006a0: cdbc db82 c34b 773f f287 75ac 16f7 d13f
000006b0: 21d2 06ca b44d 7c3f af31 8d0c 8491 cc3f
000006c0: d209 4d37 aca1 c23f 7744 e386 3e18 b53f
000006d0: ed70 fecd dffb cc3f c5e2 1ec2 c9de 933f
000006e0: 80e9 cf60 6657 583f c057 9a7a 0a4b d4bf
000006f0: 168f 3fec 9443 c3bf 46fb 20c8 126d b9bf
00000700: 8967 5bc6 dc56 b7bf b4e2 6eb8 f6f9 9ebf
00000710: dd9e 4f1b 6bb4 c6bf ca8f f8a8 67c5 c0bf
00000720: 3b7c 64a6 fe20 afbf 1ff8 49ef 44d2 c0bf
00000730: 085f b21b 0af6 913f 40c7 acda 8fc4 c3bf
00000740: 3d88 5065 4fe3 c5bf 88fd 28ba 65df c5bf
00000750: c56b 5204 adc9 bebf f926 0d02 4cc3 c4bf
00000760: 2178 f0fb 0397 babf 18c4 ce73 04f5 c4bf
00000770: 4fba 635e 1d1b afbf beef 55ff 53d0 7cbf
00000780: 5334 c1e1 647b 0c3f 0fd1 6ff7 32b5 9a3f
00000790: 6467 b71b 3c9f afbf 21ec 0769 8796 543f
000007a0: 5dc2 68ce 3e09 c43f 54b6 476a ad20 afbf
000007b0: c520 8558 423a b33f b37b b9fd 0623 a83f
000007c0: cb48 a410 bb15 93bf 954c 59f6 ae5a 4dbf
000007d0: 7faa 50ae 85b1 7cbf a263 d316 2aff cc3f
000007e0: 3be9 279e 3b1b 8abf ba80 f7ec cf3d 943f
000007f0: 946b 171a d4b1 b93f 442a fc5d dfe0 ba3f

b1 f8 [16]
0.33165007534184343 -5.1811576323184186e-05 0.47474333455269085 0.0006557228412108923 0.07461029899720112 0.2143518764402608 0.1016818120431019 0.003569802519993927
0.007113798600818505 1.1525751978300451 0.032861491157354386 0.7502203377354554 0.16617608093060862 0.02794841707725425 0.2866295770931456 0.0067515896383331915
00000000: 2cc9 d33c c139 d53f 0049 f734 082a 0bbf
00000010: 7575 f9dd 3162 de3f 943d 4114 9a7c 453f
00000020: 4444 231a a919 b33f e9d5 92dd e16f cb3f
00000030: 68b9 52b9 d107 ba3f d11d 7322 6b3e 6d3f
00000040: fa1a 74c5 5b23 7d3f bbc5 cdb0 f270 f23f
00000050: 8223 a3ab 38d3 a03f 79c5 eb14 ce01 e83f
00000060: 93b9 7c00 4245 c53f 5d7f 4985 829e 9c3f
00000070: 969b eb94 2358 d23f dd1b 150b 8ea7 7b3f

W2 f8 [3, 16]
-0.813374125061026 -1.8492826462248901 0.2027396476616639 -2.213506677048321 -0.07126111938489127 -2.0915565862960603 -0.550222105728827 -0.42144595860034023
-0.8579639460602799 2.361205949146578 -0.19370869022031628 0.4193910457548069 -0.10373813101998848 -1.892514709170845 0.07905040992830357 -1.2307454981485235
-2.062361008179019 0.2708199638338074 0.8561815711907051 0.2056005132325304 0.31755277137765675 2.6918284271605155 1.1950321721480581 0.0515528528257928
0.10400158273251775 -2.4371142112094284 0.431368222893442 1.1900962224793283 0.6520056337811126 -1.9610740649594098 0.5715254781879899 1.0364931095420933
2.860158124201578 1.5629933620051828 -1.04989262433031 1.9952687772811948 -0.2646732272765407 -0.5960354808415249 -0.6429548357334962 0.3735777789682018
0.7256070499575857 0.09154761538822259 -0.2525175440257718 -1.5863512948159164 -0.5333514142096063 3.8613168059822893 -0.6653429921757663 0.1856281650850421
00000000: 5097 512c 2907 eabf 348a 6966 a996 fdbf
00000010: ba9a 276e 5ff3 c93f 8e33 1bfd 42b5 01c0
00000020: 8c05 3c31 2b3e b2bf f6ff fe04 82bb 00c0
00000030: b687 b463 6b9b e1bf b711 4e78 f8f8 dabf
00000040: 7a3b 2fce 7074 ebbf 3ca4 d5f1 bfe3 0240
00000050: 9a3f b944 72cb c8bf fc22 708a 4dd7 da3f
00000060: 3d3a 1408 958e babf 5867 f180 bd47 febf
00000070: 0fa1 60cd a53c b43f 46f4 0331 22b1 f3bf
00000080: 5365 d520 b77f 00c0 6949 f141 1d55 d13f
00000090: 9376 f6e4 d665 eb3f b5f0 2f1c 1e51 ca3f
000000a0: 8d8e f4db c852 d43f bfc7 a857 dd88 0540
000000b0: 35b3 100e da1e f33f cff7 cdb1 2265 aa3f
000000c0: cc82 9104 d99f ba3f 3517 4ebc 357f 03c0
000000d0: 2a1a 7776 899b db3f 0a45 2a56 a20a f33f
000000e0: 66b9 3ceb 3add e43f 168d e032 8f60 ffbf
000000f0: e0bd b4cc ef49 e23f c233 80cc 7995 f03f
00000100: 06ad 2695 9ae1 0640 6cd6 da53 0502 f93f
00000110: f8f6 5c35 5ccc f0bf 3671 12f4 9eec ff3f
00000120: 9de3 d1f9 67f0 d0bf 1c0a 2f00 b912 e3bf
00000130: 30f9 0805 1693 e4bf 4d91 cbc5 b2e8 d73f
00000140: 6813 aa46 2c38 e73f 0c84 1e1e aa6f b73f
00000150: 8b71 5058 3f29 d0bf d139 33e5 b161 f9bf
00000160: 8cc7 29fc 3611 e1bf 4c83 c910 fae3 0e40
00000170: 0091 0063 7d4a e5bf 04dd 20e9 a9c2 c73f

b2 f8 [3]
0.8550209482963609 -0.058409037910257894 -0.7966119103861006
00000000: 267d 4ae4 545c eb3f 5413 3b17 cae7 adbf
00000010: dbcb d642 d87d e9bf
